…
I0306 16:51:16.606956 20805 net.cpp:322] The NetState phase (0) differed from the phase (1) specified by a rule in layer accuracy
I0306 16:51:16.607162 20805 net.cpp:49] Initializing net from parameters: 
name: "FlickrStyleCaffeNet"
state {
  phase: TRAIN
}
layer {
  name: "data"
  type: "Data"
  top: "data"
  top: "label"
  include {
    phase: TRAIN
  }
  transform_param {
    mirror: true
    crop_size: 227
    mean_file: "/work/01932/dineshj/CS381V/caffe_install_scripts/caffe/data/ilsvrc12/imagenet_mean.binaryproto"
  }
  data_param {
    source: "/work/04018/wxie/maverick/visual_recognition/data/train-lmdb"
    batch_size: 128
    backend: LMDB
  }
}
layer {
  name: "conv1"
  type: "Convolution"
  bottom: "data"
  top: "conv1"
  param {
    lr_mult: 1
    decay_mult: 1
  }
  param {
    lr_mult: 2
    decay_mult: 0
  }
  convolution_param {
    num_output: 96
    kernel_size: 11
    stride: 4
    weight_filler {
      type: "gaussian"
      std: 0.01
    }
    bias_filler {
      type: "constant"
      value: 0
    }
  }
}
layer {
  name: "relu1"
  type: "ReLU"
  bottom: "conv1"
  top: "conv1"
}
layer {
  name: "pool1"
  type: "Pooling"
  bottom: "conv1"
  top: "pool1"
  pooling_param {
    pool: MAX
    kernel_size: 3
    stride: 2
  }
}
layer {
  name: "norm1"
  type: "LRN"
  bottom: "pool1"
  top: "norm1"
  lrn_param {
    local_size: 5
    alpha: 0.0001
    beta: 0.75
  }
}
layer {
  name: "conv2"
  type: "Convolution"
  bottom: "norm1"
  top: "conv2"
  param {
    lr_mult: 1
    decay_mult: 1
  }
  param {
    lr_mult: 2
    decay_mult: 0
  }
  convolution_param {
    num_output: 256
    pad: 2
    kernel_size: 5
    group: 2
    weight_filler {
      type: "gaussian"
      std: 0.01
    }
    bias_filler {
      type: "constant"
      value: 0.1
    }
  }
}
layer {
  name: "relu2"
  type: "ReLU"
  bottom: "conv2"
  top: "conv2"
}
layer {
  name: "pool2"
  type: "Pooling"
  bottom: "conv2"
  top: "pool2"
  pooling_param {
    pool: MAX
    kernel_size: 3
    stride: 2
  }
}
layer {
  name: "norm2"
  type: "LRN"
  bottom: "pool2"
  top: "norm2"
  lrn_param {
    local_size: 5
    alpha: 0.0001
    beta: 0.75
  }
}
layer {
  name: "conv3"
  type: "Convolution"
  bottom: "norm2"
  top: "conv3"
  param {
    lr_mult: 1
    decay_mult: 1
  }
  param {
    lr_mult: 2
    decay_mult: 0
  }
  convolution_param {
    num_output: 384
    pad: 1
    kernel_size: 3
    weight_filler {
      type: "gaussian"
      std: 0.01
    }
    bias_filler {
      type: "constant"
      value: 0
    }
  }
}
layer {
  name: "relu3"
  type: "ReLU"
  bottom: "conv3"
  top: "conv3"
}
layer {
  name: "conv4"
  type: "Convolution"
  bottom: "conv3"
  top: "conv4"
  param {
    lr_mult: 1
    decay_mult: 1
  }
  param {
    lr_mult: 2
    decay_mult: 0
  }
  convolution_param {
    num_output: 384
    pad: 1
    kernel_size: 3
    group: 2
    weight_filler {
      type: "gaussian"
      std: 0.01
    }
    bias_filler {
      type: "constant"
      value: 0.1
    }
  }
}
layer {
  name: "relu4"
  type: "ReLU"
  bottom: "conv4"
  top: "conv4"
}
layer {
  name: "conv5"
  type: "Convolution"
  bottom: "conv4"
  top: "conv5"
  param {
    lr_mult: 1
    decay_mult: 1
  }
  param {
    lr_mult: 2
    decay_mult: 0
  }
  convolution_param {
    num_output: 256
    pad: 1
    kernel_size: 3
    group: 2
    weight_filler {
      type: "gaussian"
      std: 0.01
    }
    bias_filler {
      type: "constant"
      value: 0.1
    }
  }
}
layer {
  name: "relu5"
  type: "ReLU"
  bottom: "conv5"
  top: "conv5"
}
layer {
  name: "pool5"
  type: "Pooling"
  bottom: "conv5"
  top: "pool5"
  pooling_param {
    pool: MAX
    kernel_size: 3
    stride: 2
  }
}
layer {
  name: "fc6"
  type: "InnerProduct"
  bottom: "pool5"
  top: "fc6"
  param {
    lr_mult: 1
    decay_mult: 1
  }
  param {
    lr_mult: 2
    decay_mult: 0
  }
  inner_product_param {
    num_output: 4096
    weight_filler {
      type: "gaussian"
      std: 0.005
    }
    bias_filler {
      type: "constant"
      value: 0.1
    }
  }
}
layer {
  name: "relu6"
  type: "ReLU"
  bottom: "fc6"
  top: "fc6"
}
layer {
  name: "drop6"
  type: "Dropout"
  bottom: "fc6"
  top: "fc6"
  dropout_param {
    dropout_ratio: 0.5
  }
}
layer {
  name: "fc7"
  type: "InnerProduct"
  bottom: "fc6"
  top: "fc7"
  param {
    lr_mult: 1
    decay_mult: 1
  }
  param {
    lr_mult: 2
    decay_mult: 0
  }
  inner_product_param {
    num_output: 4096
    weight_filler {
      type: "gaussian"
      std: 0.005
    }
    bias_filler {
      type: "constant"
      value: 0.1
    }
  }
}
layer {
  name: "relu7"
  type: "ReLU"
  bottom: "fc7"
  top: "fc7"
}
layer {
  name: "drop7"
  type: "Dropout"
  bottom: "fc7"
  top: "fc7"
  dropout_param {
    dropout_ratio: 0.5
  }
}
layer {
  name: "fc8_subset"
  type: "InnerProduct"
  bottom: "fc7"
  top: "fc8_subset"
  param {
    lr_mult: 10
    decay_mult: 1
  }
  param {
    lr_mult: 20
    decay_mult: 0
  }
  inner_product_param {
    num_output: 25
    weight_filler {
      type: "gaussian"
      std: 0.01
    }
    bias_filler {
      type: "constant"
      value: 0
    }
  }
}
layer {
  name: "loss"
  type: "SoftmaxWithLoss"
  bottom: "fc8_subset"
  bottom: "label"
  top: "loss"
}
I0306 16:51:16.607439 20805 layer_factory.hpp:77] Creating layer data
I0306 16:51:16.608271 20805 net.cpp:106] Creating Layer data
I0306 16:51:16.608331 20805 net.cpp:411] data -> data
I0306 16:51:16.608445 20805 net.cpp:411] data -> label
I0306 16:51:16.608536 20805 data_transformer.cpp:25] Loading mean file from: /work/01932/dineshj/CS381V/caffe_install_scripts/caffe/data/ilsvrc12/imagenet_mean.binaryproto
I0306 16:51:16.625815 20807 db_lmdb.cpp:38] Opened lmdb /work/04018/wxie/maverick/visual_recognition/data/train-lmdb
I0306 16:51:16.668476 20805 data_layer.cpp:41] output data size: 128,3,227,227
I0306 16:51:16.822657 20805 net.cpp:150] Setting up data
I0306 16:51:16.822756 20805 net.cpp:157] Top shape: 128 3 227 227 (19787136)
I0306 16:51:16.822790 20805 net.cpp:157] Top shape: 128 (128)
I0306 16:51:16.822819 20805 net.cpp:165] Memory required for data: 79149056
I0306 16:51:16.822860 20805 layer_factory.hpp:77] Creating layer conv1
I0306 16:51:16.822932 20805 net.cpp:106] Creating Layer conv1
I0306 16:51:16.822973 20805 net.cpp:454] conv1 <- data
I0306 16:51:16.823014 20805 net.cpp:411] conv1 -> conv1
I0306 16:51:16.833088 20805 net.cpp:150] Setting up conv1
I0306 16:51:16.833132 20805 net.cpp:157] Top shape: 128 96 55 55 (37171200)
I0306 16:51:16.833158 20805 net.cpp:165] Memory required for data: 227833856
I0306 16:51:16.833211 20805 layer_factory.hpp:77] Creating layer relu1
I0306 16:51:16.833250 20805 net.cpp:106] Creating Layer relu1
I0306 16:51:16.833281 20805 net.cpp:454] relu1 <- conv1
I0306 16:51:16.833312 20805 net.cpp:397] relu1 -> conv1 (in-place)
I0306 16:51:16.833346 20805 net.cpp:150] Setting up relu1
I0306 16:51:16.833377 20805 net.cpp:157] Top shape: 128 96 55 55 (37171200)
I0306 16:51:16.833405 20805 net.cpp:165] Memory required for data: 376518656
I0306 16:51:16.833432 20805 layer_factory.hpp:77] Creating layer pool1
I0306 16:51:16.833462 20805 net.cpp:106] Creating Layer pool1
I0306 16:51:16.833499 20805 net.cpp:454] pool1 <- conv1
I0306 16:51:16.833530 20805 net.cpp:411] pool1 -> pool1
I0306 16:51:16.833688 20805 net.cpp:150] Setting up pool1
I0306 16:51:16.833726 20805 net.cpp:157] Top shape: 128 96 27 27 (8957952)
I0306 16:51:16.833808 20805 net.cpp:165] Memory required for data: 412350464
I0306 16:51:16.833838 20805 layer_factory.hpp:77] Creating layer norm1
I0306 16:51:16.833871 20805 net.cpp:106] Creating Layer norm1
I0306 16:51:16.833899 20805 net.cpp:454] norm1 <- pool1
I0306 16:51:16.833933 20805 net.cpp:411] norm1 -> norm1
I0306 16:51:16.834043 20805 net.cpp:150] Setting up norm1
I0306 16:51:16.834074 20805 net.cpp:157] Top shape: 128 96 27 27 (8957952)
I0306 16:51:16.834097 20805 net.cpp:165] Memory required for data: 448182272
I0306 16:51:16.834121 20805 layer_factory.hpp:77] Creating layer conv2
I0306 16:51:16.834159 20805 net.cpp:106] Creating Layer conv2
I0306 16:51:16.834188 20805 net.cpp:454] conv2 <- norm1
I0306 16:51:16.834218 20805 net.cpp:411] conv2 -> conv2
I0306 16:51:16.846850 20805 net.cpp:150] Setting up conv2
I0306 16:51:16.846926 20805 net.cpp:157] Top shape: 128 256 27 27 (23887872)
I0306 16:51:16.846956 20805 net.cpp:165] Memory required for data: 543733760
I0306 16:51:16.846992 20805 layer_factory.hpp:77] Creating layer relu2
I0306 16:51:16.847025 20805 net.cpp:106] Creating Layer relu2
I0306 16:51:16.847054 20805 net.cpp:454] relu2 <- conv2
I0306 16:51:16.847087 20805 net.cpp:397] relu2 -> conv2 (in-place)
I0306 16:51:16.847122 20805 net.cpp:150] Setting up relu2
I0306 16:51:16.847154 20805 net.cpp:157] Top shape: 128 256 27 27 (23887872)
I0306 16:51:16.847180 20805 net.cpp:165] Memory required for data: 639285248
I0306 16:51:16.847208 20805 layer_factory.hpp:77] Creating layer pool2
I0306 16:51:16.847237 20805 net.cpp:106] Creating Layer pool2
I0306 16:51:16.847264 20805 net.cpp:454] pool2 <- conv2
I0306 16:51:16.847296 20805 net.cpp:411] pool2 -> pool2
I0306 16:51:16.847358 20805 net.cpp:150] Setting up pool2
I0306 16:51:16.847394 20805 net.cpp:157] Top shape: 128 256 13 13 (5537792)
I0306 16:51:16.847422 20805 net.cpp:165] Memory required for data: 661436416
I0306 16:51:16.847448 20805 layer_factory.hpp:77] Creating layer norm2
I0306 16:51:16.847486 20805 net.cpp:106] Creating Layer norm2
I0306 16:51:16.847518 20805 net.cpp:454] norm2 <- pool2
I0306 16:51:16.847551 20805 net.cpp:411] norm2 -> norm2
I0306 16:51:16.847612 20805 net.cpp:150] Setting up norm2
I0306 16:51:16.847645 20805 net.cpp:157] Top shape: 128 256 13 13 (5537792)
I0306 16:51:16.847666 20805 net.cpp:165] Memory required for data: 683587584
I0306 16:51:16.847689 20805 layer_factory.hpp:77] Creating layer conv3
I0306 16:51:16.847725 20805 net.cpp:106] Creating Layer conv3
I0306 16:51:16.847755 20805 net.cpp:454] conv3 <- norm2
I0306 16:51:16.847786 20805 net.cpp:411] conv3 -> conv3
I0306 16:51:16.882561 20805 net.cpp:150] Setting up conv3
I0306 16:51:16.882668 20805 net.cpp:157] Top shape: 128 384 13 13 (8306688)
I0306 16:51:16.882696 20805 net.cpp:165] Memory required for data: 716814336
I0306 16:51:16.882735 20805 layer_factory.hpp:77] Creating layer relu3
I0306 16:51:16.882766 20805 net.cpp:106] Creating Layer relu3
I0306 16:51:16.882791 20805 net.cpp:454] relu3 <- conv3
I0306 16:51:16.882822 20805 net.cpp:397] relu3 -> conv3 (in-place)
I0306 16:51:16.882858 20805 net.cpp:150] Setting up relu3
I0306 16:51:16.882889 20805 net.cpp:157] Top shape: 128 384 13 13 (8306688)
I0306 16:51:16.882916 20805 net.cpp:165] Memory required for data: 750041088
I0306 16:51:16.882943 20805 layer_factory.hpp:77] Creating layer conv4
I0306 16:51:16.883003 20805 net.cpp:106] Creating Layer conv4
I0306 16:51:16.883035 20805 net.cpp:454] conv4 <- conv3
I0306 16:51:16.883070 20805 net.cpp:411] conv4 -> conv4
I0306 16:51:16.915607 20805 net.cpp:150] Setting up conv4
I0306 16:51:16.915701 20805 net.cpp:157] Top shape: 128 384 13 13 (8306688)
I0306 16:51:16.915732 20805 net.cpp:165] Memory required for data: 783267840
I0306 16:51:16.915767 20805 layer_factory.hpp:77] Creating layer relu4
I0306 16:51:16.915802 20805 net.cpp:106] Creating Layer relu4
I0306 16:51:16.915829 20805 net.cpp:454] relu4 <- conv4
I0306 16:51:16.915861 20805 net.cpp:397] relu4 -> conv4 (in-place)
I0306 16:51:16.915896 20805 net.cpp:150] Setting up relu4
I0306 16:51:16.915954 20805 net.cpp:157] Top shape: 128 384 13 13 (8306688)
I0306 16:51:16.916014 20805 net.cpp:165] Memory required for data: 816494592
I0306 16:51:16.916043 20805 layer_factory.hpp:77] Creating layer conv5
I0306 16:51:16.916082 20805 net.cpp:106] Creating Layer conv5
I0306 16:51:16.916112 20805 net.cpp:454] conv5 <- conv4
I0306 16:51:16.916146 20805 net.cpp:411] conv5 -> conv5
I0306 16:51:16.933851 20805 net.cpp:150] Setting up conv5
I0306 16:51:16.933935 20805 net.cpp:157] Top shape: 128 256 13 13 (5537792)
I0306 16:51:16.933964 20805 net.cpp:165] Memory required for data: 838645760
I0306 16:51:16.934002 20805 layer_factory.hpp:77] Creating layer relu5
I0306 16:51:16.934038 20805 net.cpp:106] Creating Layer relu5
I0306 16:51:16.934068 20805 net.cpp:454] relu5 <- conv5
I0306 16:51:16.934097 20805 net.cpp:397] relu5 -> conv5 (in-place)
I0306 16:51:16.934126 20805 net.cpp:150] Setting up relu5
I0306 16:51:16.934152 20805 net.cpp:157] Top shape: 128 256 13 13 (5537792)
I0306 16:51:16.934177 20805 net.cpp:165] Memory required for data: 860796928
I0306 16:51:16.934203 20805 layer_factory.hpp:77] Creating layer pool5
I0306 16:51:16.934236 20805 net.cpp:106] Creating Layer pool5
I0306 16:51:16.934264 20805 net.cpp:454] pool5 <- conv5
I0306 16:51:16.934293 20805 net.cpp:411] pool5 -> pool5
I0306 16:51:16.934363 20805 net.cpp:150] Setting up pool5
I0306 16:51:16.934399 20805 net.cpp:157] Top shape: 128 256 6 6 (1179648)
I0306 16:51:16.934425 20805 net.cpp:165] Memory required for data: 865515520
I0306 16:51:16.934453 20805 layer_factory.hpp:77] Creating layer fc6
I0306 16:51:16.934528 20805 net.cpp:106] Creating Layer fc6
I0306 16:51:16.934559 20805 net.cpp:454] fc6 <- pool5
I0306 16:51:16.934592 20805 net.cpp:411] fc6 -> fc6
I0306 16:51:16.988543 20808 blocking_queue.cpp:50] Waiting for data
I0306 16:51:18.363459 20805 net.cpp:150] Setting up fc6
I0306 16:51:18.363592 20805 net.cpp:157] Top shape: 128 4096 (524288)
I0306 16:51:18.363618 20805 net.cpp:165] Memory required for data: 867612672
I0306 16:51:18.363648 20805 layer_factory.hpp:77] Creating layer relu6
I0306 16:51:18.363677 20805 net.cpp:106] Creating Layer relu6
I0306 16:51:18.363701 20805 net.cpp:454] relu6 <- fc6
I0306 16:51:18.363728 20805 net.cpp:397] relu6 -> fc6 (in-place)
I0306 16:51:18.363759 20805 net.cpp:150] Setting up relu6
I0306 16:51:18.363785 20805 net.cpp:157] Top shape: 128 4096 (524288)
I0306 16:51:18.363806 20805 net.cpp:165] Memory required for data: 869709824
I0306 16:51:18.363828 20805 layer_factory.hpp:77] Creating layer drop6
I0306 16:51:18.363857 20805 net.cpp:106] Creating Layer drop6
I0306 16:51:18.363881 20805 net.cpp:454] drop6 <- fc6
I0306 16:51:18.363905 20805 net.cpp:397] drop6 -> fc6 (in-place)
I0306 16:51:18.363986 20805 net.cpp:150] Setting up drop6
I0306 16:51:18.364019 20805 net.cpp:157] Top shape: 128 4096 (524288)
I0306 16:51:18.364042 20805 net.cpp:165] Memory required for data: 871806976
I0306 16:51:18.364064 20805 layer_factory.hpp:77] Creating layer fc7
I0306 16:51:18.364091 20805 net.cpp:106] Creating Layer fc7
I0306 16:51:18.364115 20805 net.cpp:454] fc7 <- fc6
I0306 16:51:18.364142 20805 net.cpp:411] fc7 -> fc7
I0306 16:51:18.978433 20805 net.cpp:150] Setting up fc7
I0306 16:51:18.978576 20805 net.cpp:157] Top shape: 128 4096 (524288)
I0306 16:51:18.978600 20805 net.cpp:165] Memory required for data: 873904128
I0306 16:51:18.978631 20805 layer_factory.hpp:77] Creating layer relu7
I0306 16:51:18.978667 20805 net.cpp:106] Creating Layer relu7
I0306 16:51:18.978693 20805 net.cpp:454] relu7 <- fc7
I0306 16:51:18.978719 20805 net.cpp:397] relu7 -> fc7 (in-place)
I0306 16:51:18.978751 20805 net.cpp:150] Setting up relu7
I0306 16:51:18.978776 20805 net.cpp:157] Top shape: 128 4096 (524288)
I0306 16:51:18.978798 20805 net.cpp:165] Memory required for data: 876001280
I0306 16:51:18.978821 20805 layer_factory.hpp:77] Creating layer drop7
I0306 16:51:18.978845 20805 net.cpp:106] Creating Layer drop7
I0306 16:51:18.978868 20805 net.cpp:454] drop7 <- fc7
I0306 16:51:18.978893 20805 net.cpp:397] drop7 -> fc7 (in-place)
I0306 16:51:18.978967 20805 net.cpp:150] Setting up drop7
I0306 16:51:18.979030 20805 net.cpp:157] Top shape: 128 4096 (524288)
I0306 16:51:18.979053 20805 net.cpp:165] Memory required for data: 878098432
I0306 16:51:18.979074 20805 layer_factory.hpp:77] Creating layer fc8_subset
I0306 16:51:18.979104 20805 net.cpp:106] Creating Layer fc8_subset
I0306 16:51:18.979128 20805 net.cpp:454] fc8_subset <- fc7
I0306 16:51:18.979156 20805 net.cpp:411] fc8_subset -> fc8_subset
I0306 16:51:18.983418 20805 net.cpp:150] Setting up fc8_subset
I0306 16:51:18.983455 20805 net.cpp:157] Top shape: 128 25 (3200)
I0306 16:51:18.983482 20805 net.cpp:165] Memory required for data: 878111232
I0306 16:51:18.983508 20805 layer_factory.hpp:77] Creating layer loss
I0306 16:51:18.983536 20805 net.cpp:106] Creating Layer loss
I0306 16:51:18.983558 20805 net.cpp:454] loss <- fc8_subset
I0306 16:51:18.983582 20805 net.cpp:454] loss <- label
I0306 16:51:18.983611 20805 net.cpp:411] loss -> loss
I0306 16:51:18.983675 20805 layer_factory.hpp:77] Creating layer loss
…
I0306 16:51:18.986460 20805 net.cpp:322] The NetState phase (1) differed from the phase (0) specified by a rule in layer data
I0306 16:51:18.986687 20805 net.cpp:49] Initializing net from parameters: 
name: "FlickrStyleCaffeNet"
state {
  phase: TEST
}
layer {
  name: "data"
  type: "Data"
  top: "data"
  top: "label"
  include {
    phase: TEST
  }
  transform_param {
    mirror: false
    crop_size: 227
    mean_file: "/work/01932/dineshj/CS381V/caffe_install_scripts/caffe/data/ilsvrc12/imagenet_mean.binaryproto"
  }
  data_param {
    source: "/work/04018/wxie/maverick/visual_recognition/data/test-lmdb"
    batch_size: 20
    backend: LMDB
  }
}
layer {
  name: "conv1"
  type: "Convolution"
  bottom: "data"
  top: "conv1"
  param {
    lr_mult: 1
    decay_mult: 1
  }
  param {
    lr_mult: 2
    decay_mult: 0
  }
  convolution_param {
    num_output: 96
    kernel_size: 11
    stride: 4
    weight_filler {
      type: "gaussian"
      std: 0.01
    }
    bias_filler {
      type: "constant"
      value: 0
    }
  }
}
layer {
  name: "relu1"
  type: "ReLU"
  bottom: "conv1"
  top: "conv1"
}
layer {
  name: "pool1"
  type: "Pooling"
  bottom: "conv1"
  top: "pool1"
  pooling_param {
    pool: MAX
    kernel_size: 3
    stride: 2
  }
}
layer {
  name: "norm1"
  type: "LRN"
  bottom: "pool1"
  top: "norm1"
  lrn_param {
    local_size: 5
    alpha: 0.0001
    beta: 0.75
  }
}
layer {
  name: "conv2"
  type: "Convolution"
  bottom: "norm1"
  top: "conv2"
  param {
    lr_mult: 1
    decay_mult: 1
  }
  param {
    lr_mult: 2
    decay_mult: 0
  }
  convolution_param {
    num_output: 256
    pad: 2
    kernel_size: 5
    group: 2
    weight_filler {
      type: "gaussian"
      std: 0.01
    }
    bias_filler {
      type: "constant"
      value: 0.1
    }
  }
}
layer {
  name: "relu2"
  type: "ReLU"
  bottom: "conv2"
  top: "conv2"
}
layer {
  name: "pool2"
  type: "Pooling"
  bottom: "conv2"
  top: "pool2"
  pooling_param {
    pool: MAX
    kernel_size: 3
    stride: 2
  }
}
layer {
  name: "norm2"
  type: "LRN"
  bottom: "pool2"
  top: "norm2"
  lrn_param {
    local_size: 5
    alpha: 0.0001
    beta: 0.75
  }
}
layer {
  name: "conv3"
  type: "Convolution"
  bottom: "norm2"
  top: "conv3"
  param {
    lr_mult: 1
    decay_mult: 1
  }
  param {
    lr_mult: 2
    decay_mult: 0
  }
  convolution_param {
    num_output: 384
    pad: 1
    kernel_size: 3
    weight_filler {
      type: "gaussian"
      std: 0.01
    }
    bias_filler {
      type: "constant"
      value: 0
    }
  }
}
layer {
  name: "relu3"
  type: "ReLU"
  bottom: "conv3"
  top: "conv3"
}
layer {
  name: "conv4"
  type: "Convolution"
  bottom: "conv3"
  top: "conv4"
  param {
    lr_mult: 1
    decay_mult: 1
  }
  param {
    lr_mult: 2
    decay_mult: 0
  }
  convolution_param {
    num_output: 384
    pad: 1
    kernel_size: 3
    group: 2
    weight_filler {
      type: "gaussian"
      std: 0.01
    }
    bias_filler {
      type: "constant"
      value: 0.1
    }
  }
}
layer {
  name: "relu4"
  type: "ReLU"
  bottom: "conv4"
  top: "conv4"
}
layer {
  name: "conv5"
  type: "Convolution"
  bottom: "conv4"
  top: "conv5"
  param {
    lr_mult: 1
    decay_mult: 1
  }
  param {
    lr_mult: 2
    decay_mult: 0
  }
  convolution_param {
    num_output: 256
    pad: 1
    kernel_size: 3
    group: 2
    weight_filler {
      type: "gaussian"
      std: 0.01
    }
    bias_filler {
      type: "constant"
      value: 0.1
    }
  }
}
layer {
  name: "relu5"
  type: "ReLU"
  bottom: "conv5"
  top: "conv5"
}
layer {
  name: "pool5"
  type: "Pooling"
  bottom: "conv5"
  top: "pool5"
  pooling_param {
    pool: MAX
    kernel_size: 3
    stride: 2
  }
}
layer {
  name: "fc6"
  type: "InnerProduct"
  bottom: "pool5"
  top: "fc6"
  param {
    lr_mult: 1
    decay_mult: 1
  }
  param {
    lr_mult: 2
    decay_mult: 0
  }
  inner_product_param {
    num_output: 4096
    weight_filler {
      type: "gaussian"
      std: 0.005
    }
    bias_filler {
      type: "constant"
      value: 0.1
    }
  }
}
layer {
  name: "relu6"
  type: "ReLU"
  bottom: "fc6"
  top: "fc6"
}
layer {
  name: "drop6"
  type: "Dropout"
  bottom: "fc6"
  top: "fc6"
  dropout_param {
    dropout_ratio: 0.5
  }
}
layer {
  name: "fc7"
  type: "InnerProduct"
  bottom: "fc6"
  top: "fc7"
  param {
    lr_mult: 1
    decay_mult: 1
  }
  param {
    lr_mult: 2
    decay_mult: 0
  }
  inner_product_param {
    num_output: 4096
    weight_filler {
      type: "gaussian"
      std: 0.005
    }
    bias_filler {
      type: "constant"
      value: 0.1
    }
  }
}
layer {
  name: "relu7"
  type: "ReLU"
  bottom: "fc7"
  top: "fc7"
}
layer {
  name: "drop7"
  type: "Dropout"
  bottom: "fc7"
  top: "fc7"
  dropout_param {
    dropout_ratio: 0.5
  }
}
layer {
  name: "fc8_subset"
  type: "InnerProduct"
  bottom: "fc7"
  top: "fc8_subset"
  param {
    lr_mult: 10
    decay_mult: 1
  }
  param {
    lr_mult: 20
    decay_mult: 0
  }
  inner_product_param {
    num_output: 25
    weight_filler {
      type: "gaussian"
      std: 0.01
    }
    bias_filler {
      type: "constant"
      value: 0
    }
  }
}
layer {
  name: "loss"
  type: "SoftmaxWithLoss"
  bottom: "fc8_subset"
  bottom: "label"
  top: "loss"
}
layer {
  name: "accuracy"
  type: "Accuracy"
  bottom: "fc8_subset"
  bottom: "label"
  top: "accuracy"
  include {
    phase: TEST
  }
}
I0306 16:51:18.986856 20805 layer_factory.hpp:77] Creating layer data
I0306 16:51:18.987004 20805 net.cpp:106] Creating Layer data
I0306 16:51:18.987056 20805 net.cpp:411] data -> data
I0306 16:51:18.987092 20805 net.cpp:411] data -> label
I0306 16:51:18.987123 20805 data_transformer.cpp:25] Loading mean file from: /work/01932/dineshj/CS381V/caffe_install_scripts/caffe/data/ilsvrc12/imagenet_mean.binaryproto
I0306 16:51:19.001765 20809 db_lmdb.cpp:38] Opened lmdb /work/04018/wxie/maverick/visual_recognition/data/test-lmdb
I0306 16:51:19.003677 20805 data_layer.cpp:41] output data size: 20,3,227,227
I0306 16:51:19.027210 20805 net.cpp:150] Setting up data
I0306 16:51:19.027298 20805 net.cpp:157] Top shape: 20 3 227 227 (3091740)
I0306 16:51:19.027338 20805 net.cpp:157] Top shape: 20 (20)
I0306 16:51:19.027369 20805 net.cpp:165] Memory required for data: 12367040
I0306 16:51:19.027398 20805 layer_factory.hpp:77] Creating layer label_data_1_split
I0306 16:51:19.027431 20805 net.cpp:106] Creating Layer label_data_1_split
I0306 16:51:19.027464 20805 net.cpp:454] label_data_1_split <- label
I0306 16:51:19.027497 20805 net.cpp:411] label_data_1_split -> label_data_1_split_0
I0306 16:51:19.027532 20805 net.cpp:411] label_data_1_split -> label_data_1_split_1
I0306 16:51:19.027616 20805 net.cpp:150] Setting up label_data_1_split
I0306 16:51:19.027673 20805 net.cpp:157] Top shape: 20 (20)
I0306 16:51:19.027703 20805 net.cpp:157] Top shape: 20 (20)
I0306 16:51:19.027729 20805 net.cpp:165] Memory required for data: 12367200
I0306 16:51:19.027755 20805 layer_factory.hpp:77] Creating layer conv1
I0306 16:51:19.027788 20805 net.cpp:106] Creating Layer conv1
I0306 16:51:19.027817 20805 net.cpp:454] conv1 <- data
I0306 16:51:19.027848 20805 net.cpp:411] conv1 -> conv1
I0306 16:51:19.029424 20805 net.cpp:150] Setting up conv1
I0306 16:51:19.029474 20805 net.cpp:157] Top shape: 20 96 55 55 (5808000)
I0306 16:51:19.029502 20805 net.cpp:165] Memory required for data: 35599200
I0306 16:51:19.029536 20805 layer_factory.hpp:77] Creating layer relu1
I0306 16:51:19.029567 20805 net.cpp:106] Creating Layer relu1
I0306 16:51:19.029594 20805 net.cpp:454] relu1 <- conv1
I0306 16:51:19.029623 20805 net.cpp:397] relu1 -> conv1 (in-place)
I0306 16:51:19.029656 20805 net.cpp:150] Setting up relu1
I0306 16:51:19.029686 20805 net.cpp:157] Top shape: 20 96 55 55 (5808000)
I0306 16:51:19.029713 20805 net.cpp:165] Memory required for data: 58831200
I0306 16:51:19.029739 20805 layer_factory.hpp:77] Creating layer pool1
I0306 16:51:19.029770 20805 net.cpp:106] Creating Layer pool1
I0306 16:51:19.029798 20805 net.cpp:454] pool1 <- conv1
I0306 16:51:19.029829 20805 net.cpp:411] pool1 -> pool1
I0306 16:51:19.029883 20805 net.cpp:150] Setting up pool1
I0306 16:51:19.029917 20805 net.cpp:157] Top shape: 20 96 27 27 (1399680)
I0306 16:51:19.029942 20805 net.cpp:165] Memory required for data: 64429920
I0306 16:51:19.029970 20805 layer_factory.hpp:77] Creating layer norm1
I0306 16:51:19.030002 20805 net.cpp:106] Creating Layer norm1
I0306 16:51:19.030030 20805 net.cpp:454] norm1 <- pool1
I0306 16:51:19.030058 20805 net.cpp:411] norm1 -> norm1
I0306 16:51:19.030112 20805 net.cpp:150] Setting up norm1
I0306 16:51:19.030148 20805 net.cpp:157] Top shape: 20 96 27 27 (1399680)
I0306 16:51:19.030175 20805 net.cpp:165] Memory required for data: 70028640
I0306 16:51:19.030202 20805 layer_factory.hpp:77] Creating layer conv2
I0306 16:51:19.030235 20805 net.cpp:106] Creating Layer conv2
I0306 16:51:19.030282 20805 net.cpp:454] conv2 <- norm1
I0306 16:51:19.030339 20805 net.cpp:411] conv2 -> conv2
I0306 16:51:19.043094 20805 net.cpp:150] Setting up conv2
I0306 16:51:19.043149 20805 net.cpp:157] Top shape: 20 256 27 27 (3732480)
I0306 16:51:19.043175 20805 net.cpp:165] Memory required for data: 84958560
I0306 16:51:19.043205 20805 layer_factory.hpp:77] Creating layer relu2
I0306 16:51:19.043246 20805 net.cpp:106] Creating Layer relu2
I0306 16:51:19.043269 20805 net.cpp:454] relu2 <- conv2
I0306 16:51:19.043304 20805 net.cpp:397] relu2 -> conv2 (in-place)
I0306 16:51:19.043347 20805 net.cpp:150] Setting up relu2
I0306 16:51:19.043375 20805 net.cpp:157] Top shape: 20 256 27 27 (3732480)
I0306 16:51:19.043411 20805 net.cpp:165] Memory required for data: 99888480
I0306 16:51:19.043436 20805 layer_factory.hpp:77] Creating layer pool2
I0306 16:51:19.043490 20805 net.cpp:106] Creating Layer pool2
I0306 16:51:19.043519 20805 net.cpp:454] pool2 <- conv2
I0306 16:51:19.043563 20805 net.cpp:411] pool2 -> pool2
I0306 16:51:19.043638 20805 net.cpp:150] Setting up pool2
I0306 16:51:19.043678 20805 net.cpp:157] Top shape: 20 256 13 13 (865280)
I0306 16:51:19.043704 20805 net.cpp:165] Memory required for data: 103349600
I0306 16:51:19.043740 20805 layer_factory.hpp:77] Creating layer norm2
I0306 16:51:19.043784 20805 net.cpp:106] Creating Layer norm2
I0306 16:51:19.043826 20805 net.cpp:454] norm2 <- pool2
I0306 16:51:19.043861 20805 net.cpp:411] norm2 -> norm2
I0306 16:51:19.043936 20805 net.cpp:150] Setting up norm2
I0306 16:51:19.043984 20805 net.cpp:157] Top shape: 20 256 13 13 (865280)
I0306 16:51:19.044011 20805 net.cpp:165] Memory required for data: 106810720
I0306 16:51:19.044039 20805 layer_factory.hpp:77] Creating layer conv3
I0306 16:51:19.044075 20805 net.cpp:106] Creating Layer conv3
I0306 16:51:19.044106 20805 net.cpp:454] conv3 <- norm2
I0306 16:51:19.044149 20805 net.cpp:411] conv3 -> conv3
I0306 16:51:19.079232 20805 net.cpp:150] Setting up conv3
I0306 16:51:19.079329 20805 net.cpp:157] Top shape: 20 384 13 13 (1297920)
I0306 16:51:19.079370 20805 net.cpp:165] Memory required for data: 112002400
I0306 16:51:19.079406 20805 layer_factory.hpp:77] Creating layer relu3
I0306 16:51:19.079434 20805 net.cpp:106] Creating Layer relu3
I0306 16:51:19.079458 20805 net.cpp:454] relu3 <- conv3
I0306 16:51:19.079493 20805 net.cpp:397] relu3 -> conv3 (in-place)
I0306 16:51:19.079527 20805 net.cpp:150] Setting up relu3
I0306 16:51:19.079558 20805 net.cpp:157] Top shape: 20 384 13 13 (1297920)
I0306 16:51:19.079586 20805 net.cpp:165] Memory required for data: 117194080
I0306 16:51:19.079612 20805 layer_factory.hpp:77] Creating layer conv4
I0306 16:51:19.079650 20805 net.cpp:106] Creating Layer conv4
I0306 16:51:19.079680 20805 net.cpp:454] conv4 <- conv3
I0306 16:51:19.079715 20805 net.cpp:411] conv4 -> conv4
I0306 16:51:19.106204 20805 net.cpp:150] Setting up conv4
I0306 16:51:19.106256 20805 net.cpp:157] Top shape: 20 384 13 13 (1297920)
I0306 16:51:19.106284 20805 net.cpp:165] Memory required for data: 122385760
I0306 16:51:19.106312 20805 layer_factory.hpp:77] Creating layer relu4
I0306 16:51:19.106340 20805 net.cpp:106] Creating Layer relu4
I0306 16:51:19.106369 20805 net.cpp:454] relu4 <- conv4
I0306 16:51:19.106400 20805 net.cpp:397] relu4 -> conv4 (in-place)
I0306 16:51:19.106433 20805 net.cpp:150] Setting up relu4
I0306 16:51:19.106467 20805 net.cpp:157] Top shape: 20 384 13 13 (1297920)
I0306 16:51:19.106494 20805 net.cpp:165] Memory required for data: 127577440
I0306 16:51:19.106520 20805 layer_factory.hpp:77] Creating layer conv5
I0306 16:51:19.106552 20805 net.cpp:106] Creating Layer conv5
I0306 16:51:19.106581 20805 net.cpp:454] conv5 <- conv4
I0306 16:51:19.106612 20805 net.cpp:411] conv5 -> conv5
I0306 16:51:19.124555 20805 net.cpp:150] Setting up conv5
I0306 16:51:19.124624 20805 net.cpp:157] Top shape: 20 256 13 13 (865280)
I0306 16:51:19.124663 20805 net.cpp:165] Memory required for data: 131038560
I0306 16:51:19.124703 20805 layer_factory.hpp:77] Creating layer relu5
I0306 16:51:19.124738 20805 net.cpp:106] Creating Layer relu5
I0306 16:51:19.124793 20805 net.cpp:454] relu5 <- conv5
I0306 16:51:19.124871 20805 net.cpp:397] relu5 -> conv5 (in-place)
I0306 16:51:19.124917 20805 net.cpp:150] Setting up relu5
I0306 16:51:19.124959 20805 net.cpp:157] Top shape: 20 256 13 13 (865280)
I0306 16:51:19.124984 20805 net.cpp:165] Memory required for data: 134499680
I0306 16:51:19.125010 20805 layer_factory.hpp:77] Creating layer pool5
I0306 16:51:19.125052 20805 net.cpp:106] Creating Layer pool5
I0306 16:51:19.125082 20805 net.cpp:454] pool5 <- conv5
I0306 16:51:19.125113 20805 net.cpp:411] pool5 -> pool5
I0306 16:51:19.125175 20805 net.cpp:150] Setting up pool5
I0306 16:51:19.125211 20805 net.cpp:157] Top shape: 20 256 6 6 (184320)
I0306 16:51:19.125236 20805 net.cpp:165] Memory required for data: 135236960
I0306 16:51:19.125263 20805 layer_factory.hpp:77] Creating layer fc6
I0306 16:51:19.125294 20805 net.cpp:106] Creating Layer fc6
I0306 16:51:19.125322 20805 net.cpp:454] fc6 <- pool5
I0306 16:51:19.125354 20805 net.cpp:411] fc6 -> fc6
I0306 16:51:20.506132 20805 net.cpp:150] Setting up fc6
I0306 16:51:20.506271 20805 net.cpp:157] Top shape: 20 4096 (81920)
I0306 16:51:20.506296 20805 net.cpp:165] Memory required for data: 135564640
I0306 16:51:20.506327 20805 layer_factory.hpp:77] Creating layer relu6
I0306 16:51:20.506357 20805 net.cpp:106] Creating Layer relu6
I0306 16:51:20.506381 20805 net.cpp:454] relu6 <- fc6
I0306 16:51:20.506408 20805 net.cpp:397] relu6 -> fc6 (in-place)
I0306 16:51:20.506440 20805 net.cpp:150] Setting up relu6
I0306 16:51:20.506469 20805 net.cpp:157] Top shape: 20 4096 (81920)
I0306 16:51:20.506492 20805 net.cpp:165] Memory required for data: 135892320
I0306 16:51:20.506515 20805 layer_factory.hpp:77] Creating layer drop6
I0306 16:51:20.506541 20805 net.cpp:106] Creating Layer drop6
I0306 16:51:20.506563 20805 net.cpp:454] drop6 <- fc6
I0306 16:51:20.506589 20805 net.cpp:397] drop6 -> fc6 (in-place)
I0306 16:51:20.506639 20805 net.cpp:150] Setting up drop6
I0306 16:51:20.506669 20805 net.cpp:157] Top shape: 20 4096 (81920)
I0306 16:51:20.506690 20805 net.cpp:165] Memory required for data: 136220000
I0306 16:51:20.506711 20805 layer_factory.hpp:77] Creating layer fc7
I0306 16:51:20.506739 20805 net.cpp:106] Creating Layer fc7
I0306 16:51:20.506762 20805 net.cpp:454] fc7 <- fc6
I0306 16:51:20.506789 20805 net.cpp:411] fc7 -> fc7
I0306 16:51:21.120198 20805 net.cpp:150] Setting up fc7
I0306 16:51:21.120335 20805 net.cpp:157] Top shape: 20 4096 (81920)
I0306 16:51:21.120360 20805 net.cpp:165] Memory required for data: 136547680
I0306 16:51:21.120389 20805 layer_factory.hpp:77] Creating layer relu7
I0306 16:51:21.120419 20805 net.cpp:106] Creating Layer relu7
I0306 16:51:21.120442 20805 net.cpp:454] relu7 <- fc7
I0306 16:51:21.120473 20805 net.cpp:397] relu7 -> fc7 (in-place)
I0306 16:51:21.120507 20805 net.cpp:150] Setting up relu7
I0306 16:51:21.120532 20805 net.cpp:157] Top shape: 20 4096 (81920)
I0306 16:51:21.120553 20805 net.cpp:165] Memory required for data: 136875360
I0306 16:51:21.120573 20805 layer_factory.hpp:77] Creating layer drop7
I0306 16:51:21.120602 20805 net.cpp:106] Creating Layer drop7
I0306 16:51:21.120626 20805 net.cpp:454] drop7 <- fc7
I0306 16:51:21.120651 20805 net.cpp:397] drop7 -> fc7 (in-place)
I0306 16:51:21.120697 20805 net.cpp:150] Setting up drop7
I0306 16:51:21.120729 20805 net.cpp:157] Top shape: 20 4096 (81920)
I0306 16:51:21.120753 20805 net.cpp:165] Memory required for data: 137203040
I0306 16:51:21.120774 20805 layer_factory.hpp:77] Creating layer fc8_subset
I0306 16:51:21.120801 20805 net.cpp:106] Creating Layer fc8_subset
I0306 16:51:21.120825 20805 net.cpp:454] fc8_subset <- fc7
I0306 16:51:21.120851 20805 net.cpp:411] fc8_subset -> fc8_subset
I0306 16:51:21.124569 20805 net.cpp:150] Setting up fc8_subset
I0306 16:51:21.124603 20805 net.cpp:157] Top shape: 20 25 (500)
I0306 16:51:21.124625 20805 net.cpp:165] Memory required for data: 137205040
I0306 16:51:21.124650 20805 layer_factory.hpp:77] Creating layer fc8_subset_fc8_subset_0_split
I0306 16:51:21.124676 20805 net.cpp:106] Creating Layer fc8_subset_fc8_subset_0_split
I0306 16:51:21.124783 20805 net.cpp:454] fc8_subset_fc8_subset_0_split <- fc8_subset
I0306 16:51:21.124811 20805 net.cpp:411] fc8_subset_fc8_subset_0_split -> fc8_subset_fc8_subset_0_split_0
I0306 16:51:21.124842 20805 net.cpp:411] fc8_subset_fc8_subset_0_split -> fc8_subset_fc8_subset_0_split_1
I0306 16:51:21.124900 20805 net.cpp:150] Setting up fc8_subset_fc8_subset_0_split
I0306 16:51:21.124932 20805 net.cpp:157] Top shape: 20 25 (500)
I0306 16:51:21.124955 20805 net.cpp:157] Top shape: 20 25 (500)
I0306 16:51:21.124977 20805 net.cpp:165] Memory required for data: 137209040
I0306 16:51:21.125000 20805 layer_factory.hpp:77] Creating layer loss
I0306 16:51:21.125027 20805 net.cpp:106] Creating Layer loss
I0306 16:51:21.125062 20805 net.cpp:454] loss <- fc8_subset_fc8_subset_0_split_0
I0306 16:51:21.125087 20805 net.cpp:454] loss <- label_data_1_split_0
I0306 16:51:21.125110 20805 net.cpp:411] loss -> loss
…
