…
I0306 05:43:20.101071 12851 net.cpp:322] The NetState phase (0) differed from the phase (1) specified by a rule in layer accuracy
I0306 05:43:20.101284 12851 net.cpp:49] Initializing net from parameters: 
name: "FlickrStyleCaffeNet"
state {
  phase: TRAIN
}
layer {
  name: "data"
  type: "Data"
  top: "data"
  top: "label"
  include {
    phase: TRAIN
  }
  transform_param {
    mirror: true
    crop_size: 227
    mean_file: "/work/01932/dineshj/CS381V/caffe_install_scripts/caffe/data/ilsvrc12/imagenet_mean.binaryproto"
  }
  data_param {
    source: "/work/04018/wxie/maverick/visual_recognition/data/train-lmdb"
    batch_size: 128
    backend: LMDB
  }
}
layer {
  name: "conv1"
  type: "Convolution"
  bottom: "data"
  top: "conv1"
  param {
    lr_mult: 1
    decay_mult: 1
  }
  param {
    lr_mult: 2
    decay_mult: 0
  }
  convolution_param {
    num_output: 96
    kernel_size: 11
    stride: 4
    weight_filler {
      type: "gaussian"
      std: 0.01
    }
    bias_filler {
      type: "constant"
      value: 0
    }
  }
}
layer {
  name: "relu1"
  type: "ReLU"
  bottom: "conv1"
  top: "conv1"
}
layer {
  name: "pool1"
  type: "Pooling"
  bottom: "conv1"
  top: "pool1"
  pooling_param {
    pool: MAX
    kernel_size: 3
    stride: 2
  }
}
layer {
  name: "norm1"
  type: "LRN"
  bottom: "pool1"
  top: "norm1"
  lrn_param {
    local_size: 5
    alpha: 0.0001
    beta: 0.75
  }
}
layer {
  name: "conv2"
  type: "Convolution"
  bottom: "norm1"
  top: "conv2"
  param {
    lr_mult: 1
    decay_mult: 1
  }
  param {
    lr_mult: 2
    decay_mult: 0
  }
  convolution_param {
    num_output: 256
    pad: 2
    kernel_size: 5
    group: 2
    weight_filler {
      type: "gaussian"
      std: 0.01
    }
    bias_filler {
      type: "constant"
      value: 0.1
    }
  }
}
layer {
  name: "relu2"
  type: "ReLU"
  bottom: "conv2"
  top: "conv2"
}
layer {
  name: "pool2"
  type: "Pooling"
  bottom: "conv2"
  top: "pool2"
  pooling_param {
    pool: MAX
    kernel_size: 3
    stride: 2
  }
}
layer {
  name: "norm2"
  type: "LRN"
  bottom: "pool2"
  top: "norm2"
  lrn_param {
    local_size: 5
    alpha: 0.0001
    beta: 0.75
  }
}
layer {
  name: "conv3"
  type: "Convolution"
  bottom: "norm2"
  top: "conv3"
  param {
    lr_mult: 1
    decay_mult: 1
  }
  param {
    lr_mult: 2
    decay_mult: 0
  }
  convolution_param {
    num_output: 384
    pad: 1
    kernel_size: 3
    weight_filler {
      type: "gaussian"
      std: 0.01
    }
    bias_filler {
      type: "constant"
      value: 0
    }
  }
}
layer {
  name: "relu3"
  type: "ReLU"
  bottom: "conv3"
  top: "conv3"
}
layer {
  name: "conv4"
  type: "Convolution"
  bottom: "conv3"
  top: "conv4"
  param {
    lr_mult: 1
    decay_mult: 1
  }
  param {
    lr_mult: 2
    decay_mult: 0
  }
  convolution_param {
    num_output: 384
    pad: 1
    kernel_size: 3
    group: 2
    weight_filler {
      type: "gaussian"
      std: 0.01
    }
    bias_filler {
      type: "constant"
      value: 0.1
    }
  }
}
layer {
  name: "relu4"
  type: "ReLU"
  bottom: "conv4"
  top: "conv4"
}
layer {
  name: "conv5"
  type: "Convolution"
  bottom: "conv4"
  top: "conv5"
  param {
    lr_mult: 1
    decay_mult: 1
  }
  param {
    lr_mult: 2
    decay_mult: 0
  }
  convolution_param {
    num_output: 256
    pad: 1
    kernel_size: 3
    group: 2
    weight_filler {
      type: "gaussian"
      std: 0.01
    }
    bias_filler {
      type: "constant"
      value: 0.1
    }
  }
}
layer {
  name: "relu5"
  type: "ReLU"
  bottom: "conv5"
  top: "conv5"
}
layer {
  name: "pool5"
  type: "Pooling"
  bottom: "conv5"
  top: "pool5"
  pooling_param {
    pool: MAX
    kernel_size: 3
    stride: 2
  }
}
layer {
  name: "fc6"
  type: "InnerProduct"
  bottom: "pool5"
  top: "fc6"
  param {
    lr_mult: 1
    decay_mult: 1
  }
  param {
    lr_mult: 2
    decay_mult: 0
  }
  inner_product_param {
    num_output: 4096
    weight_filler {
      type: "gaussian"
      std: 0.005
    }
    bias_filler {
      type: "constant"
      value: 0.1
    }
  }
}
layer {
  name: "relu6"
  type: "ReLU"
  bottom: "fc6"
  top: "fc6"
}
layer {
  name: "drop6"
  type: "Dropout"
  bottom: "fc6"
  top: "fc6"
  dropout_param {
    dropout_ratio: 0.5
  }
}
layer {
  name: "fc7"
  type: "InnerProduct"
  bottom: "fc6"
  top: "fc7"
  param {
    lr_mult: 1
    decay_mult: 1
  }
  param {
    lr_mult: 2
    decay_mult: 0
  }
  inner_product_param {
    num_output: 4096
    weight_filler {
      type: "gaussian"
      std: 0.005
    }
    bias_filler {
      type: "constant"
      value: 0.1
    }
  }
}
layer {
  name: "relu7"
  type: "ReLU"
  bottom: "fc7"
  top: "fc7"
}
layer {
  name: "drop7"
  type: "Dropout"
  bottom: "fc7"
  top: "fc7"
  dropout_param {
    dropout_ratio: 0.5
  }
}
layer {
  name: "fc8_subset"
  type: "InnerProduct"
  bottom: "fc7"
  top: "fc8_subset"
  param {
    lr_mult: 10
    decay_mult: 1
  }
  param {
    lr_mult: 20
    decay_mult: 0
  }
  inner_product_param {
    num_output: 25
    weight_filler {
      type: "gaussian"
      std: 0.01
    }
    bias_filler {
      type: "constant"
      value: 0
    }
  }
}
layer {
  name: "loss"
  type: "SoftmaxWithLoss"
  bottom: "fc8_subset"
  bottom: "label"
  top: "loss"
}
I0306 05:43:20.101618 12851 layer_factory.hpp:77] Creating layer data
I0306 05:43:20.102476 12851 net.cpp:106] Creating Layer data
I0306 05:43:20.102553 12851 net.cpp:411] data -> data
I0306 05:43:20.102660 12851 net.cpp:411] data -> label
I0306 05:43:20.102743 12851 data_transformer.cpp:25] Loading mean file from: /work/01932/dineshj/CS381V/caffe_install_scripts/caffe/data/ilsvrc12/imagenet_mean.binaryproto
I0306 05:43:20.175113 12854 db_lmdb.cpp:38] Opened lmdb /work/04018/wxie/maverick/visual_recognition/data/train-lmdb
I0306 05:43:20.180706 12851 data_layer.cpp:41] output data size: 128,3,227,227
I0306 05:43:20.335839 12851 net.cpp:150] Setting up data
I0306 05:43:20.335952 12851 net.cpp:157] Top shape: 128 3 227 227 (19787136)
I0306 05:43:20.335985 12851 net.cpp:157] Top shape: 128 (128)
I0306 05:43:20.336014 12851 net.cpp:165] Memory required for data: 79149056
I0306 05:43:20.336058 12851 layer_factory.hpp:77] Creating layer conv1
I0306 05:43:20.336139 12851 net.cpp:106] Creating Layer conv1
I0306 05:43:20.336170 12851 net.cpp:454] conv1 <- data
I0306 05:43:20.336213 12851 net.cpp:411] conv1 -> conv1
I0306 05:43:20.346438 12851 net.cpp:150] Setting up conv1
I0306 05:43:20.346482 12851 net.cpp:157] Top shape: 128 96 55 55 (37171200)
I0306 05:43:20.346529 12851 net.cpp:165] Memory required for data: 227833856
I0306 05:43:20.346608 12851 layer_factory.hpp:77] Creating layer relu1
I0306 05:43:20.346652 12851 net.cpp:106] Creating Layer relu1
I0306 05:43:20.346683 12851 net.cpp:454] relu1 <- conv1
I0306 05:43:20.346714 12851 net.cpp:397] relu1 -> conv1 (in-place)
I0306 05:43:20.346752 12851 net.cpp:150] Setting up relu1
I0306 05:43:20.346799 12851 net.cpp:157] Top shape: 128 96 55 55 (37171200)
I0306 05:43:20.346827 12851 net.cpp:165] Memory required for data: 376518656
I0306 05:43:20.346866 12851 layer_factory.hpp:77] Creating layer pool1
I0306 05:43:20.346899 12851 net.cpp:106] Creating Layer pool1
I0306 05:43:20.346925 12851 net.cpp:454] pool1 <- conv1
I0306 05:43:20.346969 12851 net.cpp:411] pool1 -> pool1
I0306 05:43:20.347127 12851 net.cpp:150] Setting up pool1
I0306 05:43:20.347160 12851 net.cpp:157] Top shape: 128 96 27 27 (8957952)
I0306 05:43:20.347240 12851 net.cpp:165] Memory required for data: 412350464
I0306 05:43:20.347270 12851 layer_factory.hpp:77] Creating layer norm1
I0306 05:43:20.347307 12851 net.cpp:106] Creating Layer norm1
I0306 05:43:20.347337 12851 net.cpp:454] norm1 <- pool1
I0306 05:43:20.347368 12851 net.cpp:411] norm1 -> norm1
I0306 05:43:20.347476 12851 net.cpp:150] Setting up norm1
I0306 05:43:20.347514 12851 net.cpp:157] Top shape: 128 96 27 27 (8957952)
I0306 05:43:20.347544 12851 net.cpp:165] Memory required for data: 448182272
I0306 05:43:20.347571 12851 layer_factory.hpp:77] Creating layer conv2
I0306 05:43:20.347606 12851 net.cpp:106] Creating Layer conv2
I0306 05:43:20.347635 12851 net.cpp:454] conv2 <- norm1
I0306 05:43:20.347666 12851 net.cpp:411] conv2 -> conv2
I0306 05:43:20.360429 12851 net.cpp:150] Setting up conv2
I0306 05:43:20.360517 12851 net.cpp:157] Top shape: 128 256 27 27 (23887872)
I0306 05:43:20.360549 12851 net.cpp:165] Memory required for data: 543733760
I0306 05:43:20.360586 12851 layer_factory.hpp:77] Creating layer relu2
I0306 05:43:20.360620 12851 net.cpp:106] Creating Layer relu2
I0306 05:43:20.360649 12851 net.cpp:454] relu2 <- conv2
I0306 05:43:20.360680 12851 net.cpp:397] relu2 -> conv2 (in-place)
I0306 05:43:20.360714 12851 net.cpp:150] Setting up relu2
I0306 05:43:20.360744 12851 net.cpp:157] Top shape: 128 256 27 27 (23887872)
I0306 05:43:20.360770 12851 net.cpp:165] Memory required for data: 639285248
I0306 05:43:20.360796 12851 layer_factory.hpp:77] Creating layer pool2
I0306 05:43:20.360828 12851 net.cpp:106] Creating Layer pool2
I0306 05:43:20.360857 12851 net.cpp:454] pool2 <- conv2
I0306 05:43:20.360888 12851 net.cpp:411] pool2 -> pool2
I0306 05:43:20.360949 12851 net.cpp:150] Setting up pool2
I0306 05:43:20.360985 12851 net.cpp:157] Top shape: 128 256 13 13 (5537792)
I0306 05:43:20.361011 12851 net.cpp:165] Memory required for data: 661436416
I0306 05:43:20.361038 12851 layer_factory.hpp:77] Creating layer norm2
I0306 05:43:20.361073 12851 net.cpp:106] Creating Layer norm2
I0306 05:43:20.361100 12851 net.cpp:454] norm2 <- pool2
I0306 05:43:20.361132 12851 net.cpp:411] norm2 -> norm2
I0306 05:43:20.361186 12851 net.cpp:150] Setting up norm2
I0306 05:43:20.361219 12851 net.cpp:157] Top shape: 128 256 13 13 (5537792)
I0306 05:43:20.361246 12851 net.cpp:165] Memory required for data: 683587584
I0306 05:43:20.361274 12851 layer_factory.hpp:77] Creating layer conv3
I0306 05:43:20.361307 12851 net.cpp:106] Creating Layer conv3
I0306 05:43:20.361336 12851 net.cpp:454] conv3 <- norm2
I0306 05:43:20.361368 12851 net.cpp:411] conv3 -> conv3
I0306 05:43:20.396649 12851 net.cpp:150] Setting up conv3
I0306 05:43:20.396765 12851 net.cpp:157] Top shape: 128 384 13 13 (8306688)
I0306 05:43:20.396790 12851 net.cpp:165] Memory required for data: 716814336
I0306 05:43:20.396841 12851 layer_factory.hpp:77] Creating layer relu3
I0306 05:43:20.396875 12851 net.cpp:106] Creating Layer relu3
I0306 05:43:20.396903 12851 net.cpp:454] relu3 <- conv3
I0306 05:43:20.396953 12851 net.cpp:397] relu3 -> conv3 (in-place)
I0306 05:43:20.396996 12851 net.cpp:150] Setting up relu3
I0306 05:43:20.397022 12851 net.cpp:157] Top shape: 128 384 13 13 (8306688)
I0306 05:43:20.397045 12851 net.cpp:165] Memory required for data: 750041088
I0306 05:43:20.397068 12851 layer_factory.hpp:77] Creating layer conv4
I0306 05:43:20.397116 12851 net.cpp:106] Creating Layer conv4
I0306 05:43:20.397143 12851 net.cpp:454] conv4 <- conv3
I0306 05:43:20.397176 12851 net.cpp:411] conv4 -> conv4
I0306 05:43:20.430176 12851 net.cpp:150] Setting up conv4
I0306 05:43:20.430286 12851 net.cpp:157] Top shape: 128 384 13 13 (8306688)
I0306 05:43:20.430310 12851 net.cpp:165] Memory required for data: 783267840
I0306 05:43:20.430340 12851 layer_factory.hpp:77] Creating layer relu4
I0306 05:43:20.430382 12851 net.cpp:106] Creating Layer relu4
I0306 05:43:20.430405 12851 net.cpp:454] relu4 <- conv4
I0306 05:43:20.430433 12851 net.cpp:397] relu4 -> conv4 (in-place)
I0306 05:43:20.430464 12851 net.cpp:150] Setting up relu4
I0306 05:43:20.430531 12851 net.cpp:157] Top shape: 128 384 13 13 (8306688)
I0306 05:43:20.430593 12851 net.cpp:165] Memory required for data: 816494592
I0306 05:43:20.430616 12851 layer_factory.hpp:77] Creating layer conv5
I0306 05:43:20.430652 12851 net.cpp:106] Creating Layer conv5
I0306 05:43:20.430677 12851 net.cpp:454] conv5 <- conv4
I0306 05:43:20.430703 12851 net.cpp:411] conv5 -> conv5
I0306 05:43:20.448652 12851 net.cpp:150] Setting up conv5
I0306 05:43:20.448747 12851 net.cpp:157] Top shape: 128 256 13 13 (5537792)
I0306 05:43:20.448776 12851 net.cpp:165] Memory required for data: 838645760
I0306 05:43:20.448814 12851 layer_factory.hpp:77] Creating layer relu5
I0306 05:43:20.448851 12851 net.cpp:106] Creating Layer relu5
I0306 05:43:20.448879 12851 net.cpp:454] relu5 <- conv5
I0306 05:43:20.448909 12851 net.cpp:397] relu5 -> conv5 (in-place)
I0306 05:43:20.448943 12851 net.cpp:150] Setting up relu5
I0306 05:43:20.448976 12851 net.cpp:157] Top shape: 128 256 13 13 (5537792)
I0306 05:43:20.449002 12851 net.cpp:165] Memory required for data: 860796928
I0306 05:43:20.449026 12851 layer_factory.hpp:77] Creating layer pool5
I0306 05:43:20.449059 12851 net.cpp:106] Creating Layer pool5
I0306 05:43:20.449089 12851 net.cpp:454] pool5 <- conv5
I0306 05:43:20.449117 12851 net.cpp:411] pool5 -> pool5
I0306 05:43:20.449185 12851 net.cpp:150] Setting up pool5
I0306 05:43:20.449229 12851 net.cpp:157] Top shape: 128 256 6 6 (1179648)
I0306 05:43:20.449254 12851 net.cpp:165] Memory required for data: 865515520
I0306 05:43:20.449275 12851 layer_factory.hpp:77] Creating layer fc6
I0306 05:43:20.449347 12851 net.cpp:106] Creating Layer fc6
I0306 05:43:20.449379 12851 net.cpp:454] fc6 <- pool5
I0306 05:43:20.449409 12851 net.cpp:411] fc6 -> fc6
I0306 05:43:20.503340 12855 blocking_queue.cpp:50] Waiting for data
I0306 05:43:21.873997 12851 net.cpp:150] Setting up fc6
I0306 05:43:21.874152 12851 net.cpp:157] Top shape: 128 4096 (524288)
I0306 05:43:21.874177 12851 net.cpp:165] Memory required for data: 867612672
I0306 05:43:21.874208 12851 layer_factory.hpp:77] Creating layer relu6
I0306 05:43:21.874243 12851 net.cpp:106] Creating Layer relu6
I0306 05:43:21.874266 12851 net.cpp:454] relu6 <- fc6
I0306 05:43:21.874297 12851 net.cpp:397] relu6 -> fc6 (in-place)
I0306 05:43:21.874336 12851 net.cpp:150] Setting up relu6
I0306 05:43:21.874359 12851 net.cpp:157] Top shape: 128 4096 (524288)
I0306 05:43:21.874380 12851 net.cpp:165] Memory required for data: 869709824
I0306 05:43:21.874400 12851 layer_factory.hpp:77] Creating layer drop6
I0306 05:43:21.874428 12851 net.cpp:106] Creating Layer drop6
I0306 05:43:21.874449 12851 net.cpp:454] drop6 <- fc6
I0306 05:43:21.874472 12851 net.cpp:397] drop6 -> fc6 (in-place)
I0306 05:43:21.874567 12851 net.cpp:150] Setting up drop6
I0306 05:43:21.874598 12851 net.cpp:157] Top shape: 128 4096 (524288)
I0306 05:43:21.874619 12851 net.cpp:165] Memory required for data: 871806976
I0306 05:43:21.874639 12851 layer_factory.hpp:77] Creating layer fc7
I0306 05:43:21.874671 12851 net.cpp:106] Creating Layer fc7
I0306 05:43:21.874694 12851 net.cpp:454] fc7 <- fc6
I0306 05:43:21.874721 12851 net.cpp:411] fc7 -> fc7
I0306 05:43:22.488199 12851 net.cpp:150] Setting up fc7
I0306 05:43:22.488349 12851 net.cpp:157] Top shape: 128 4096 (524288)
I0306 05:43:22.488373 12851 net.cpp:165] Memory required for data: 873904128
I0306 05:43:22.488406 12851 layer_factory.hpp:77] Creating layer relu7
I0306 05:43:22.488441 12851 net.cpp:106] Creating Layer relu7
I0306 05:43:22.488466 12851 net.cpp:454] relu7 <- fc7
I0306 05:43:22.488494 12851 net.cpp:397] relu7 -> fc7 (in-place)
I0306 05:43:22.488536 12851 net.cpp:150] Setting up relu7
I0306 05:43:22.488561 12851 net.cpp:157] Top shape: 128 4096 (524288)
I0306 05:43:22.488582 12851 net.cpp:165] Memory required for data: 876001280
I0306 05:43:22.488603 12851 layer_factory.hpp:77] Creating layer drop7
I0306 05:43:22.488632 12851 net.cpp:106] Creating Layer drop7
I0306 05:43:22.488656 12851 net.cpp:454] drop7 <- fc7
I0306 05:43:22.488678 12851 net.cpp:397] drop7 -> fc7 (in-place)
I0306 05:43:22.488755 12851 net.cpp:150] Setting up drop7
I0306 05:43:22.488824 12851 net.cpp:157] Top shape: 128 4096 (524288)
I0306 05:43:22.488847 12851 net.cpp:165] Memory required for data: 878098432
I0306 05:43:22.488867 12851 layer_factory.hpp:77] Creating layer fc8_subset
I0306 05:43:22.488896 12851 net.cpp:106] Creating Layer fc8_subset
I0306 05:43:22.488919 12851 net.cpp:454] fc8_subset <- fc7
I0306 05:43:22.488945 12851 net.cpp:411] fc8_subset -> fc8_subset
I0306 05:43:22.493198 12851 net.cpp:150] Setting up fc8_subset
I0306 05:43:22.493237 12851 net.cpp:157] Top shape: 128 25 (3200)
I0306 05:43:22.493259 12851 net.cpp:165] Memory required for data: 878111232
I0306 05:43:22.493284 12851 layer_factory.hpp:77] Creating layer loss
I0306 05:43:22.493310 12851 net.cpp:106] Creating Layer loss
I0306 05:43:22.493333 12851 net.cpp:454] loss <- fc8_subset
I0306 05:43:22.493355 12851 net.cpp:454] loss <- label
I0306 05:43:22.493387 12851 net.cpp:411] loss -> loss
I0306 05:43:22.493458 12851 layer_factory.hpp:77] Creating layer loss
…
I0306 05:43:22.496347 12851 net.cpp:322] The NetState phase (1) differed from the phase (0) specified by a rule in layer data
I0306 05:43:22.496587 12851 net.cpp:49] Initializing net from parameters: 
name: "FlickrStyleCaffeNet"
state {
  phase: TEST
}
layer {
  name: "data"
  type: "Data"
  top: "data"
  top: "label"
  include {
    phase: TEST
  }
  transform_param {
    mirror: false
    crop_size: 227
    mean_file: "/work/01932/dineshj/CS381V/caffe_install_scripts/caffe/data/ilsvrc12/imagenet_mean.binaryproto"
  }
  data_param {
    source: "/work/04018/wxie/maverick/visual_recognition/data/test-lmdb"
    batch_size: 20
    backend: LMDB
  }
}
layer {
  name: "conv1"
  type: "Convolution"
  bottom: "data"
  top: "conv1"
  param {
    lr_mult: 1
    decay_mult: 1
  }
  param {
    lr_mult: 2
    decay_mult: 0
  }
  convolution_param {
    num_output: 96
    kernel_size: 11
    stride: 4
    weight_filler {
      type: "gaussian"
      std: 0.01
    }
    bias_filler {
      type: "constant"
      value: 0
    }
  }
}
layer {
  name: "relu1"
  type: "ReLU"
  bottom: "conv1"
  top: "conv1"
}
layer {
  name: "pool1"
  type: "Pooling"
  bottom: "conv1"
  top: "pool1"
  pooling_param {
    pool: MAX
    kernel_size: 3
    stride: 2
  }
}
layer {
  name: "norm1"
  type: "LRN"
  bottom: "pool1"
  top: "norm1"
  lrn_param {
    local_size: 5
    alpha: 0.0001
    beta: 0.75
  }
}
layer {
  name: "conv2"
  type: "Convolution"
  bottom: "norm1"
  top: "conv2"
  param {
    lr_mult: 1
    decay_mult: 1
  }
  param {
    lr_mult: 2
    decay_mult: 0
  }
  convolution_param {
    num_output: 256
    pad: 2
    kernel_size: 5
    group: 2
    weight_filler {
      type: "gaussian"
      std: 0.01
    }
    bias_filler {
      type: "constant"
      value: 0.1
    }
  }
}
layer {
  name: "relu2"
  type: "ReLU"
  bottom: "conv2"
  top: "conv2"
}
layer {
  name: "pool2"
  type: "Pooling"
  bottom: "conv2"
  top: "pool2"
  pooling_param {
    pool: MAX
    kernel_size: 3
    stride: 2
  }
}
layer {
  name: "norm2"
  type: "LRN"
  bottom: "pool2"
  top: "norm2"
  lrn_param {
    local_size: 5
    alpha: 0.0001
    beta: 0.75
  }
}
layer {
  name: "conv3"
  type: "Convolution"
  bottom: "norm2"
  top: "conv3"
  param {
    lr_mult: 1
    decay_mult: 1
  }
  param {
    lr_mult: 2
    decay_mult: 0
  }
  convolution_param {
    num_output: 384
    pad: 1
    kernel_size: 3
    weight_filler {
      type: "gaussian"
      std: 0.01
    }
    bias_filler {
      type: "constant"
      value: 0
    }
  }
}
layer {
  name: "relu3"
  type: "ReLU"
  bottom: "conv3"
  top: "conv3"
}
layer {
  name: "conv4"
  type: "Convolution"
  bottom: "conv3"
  top: "conv4"
  param {
    lr_mult: 1
    decay_mult: 1
  }
  param {
    lr_mult: 2
    decay_mult: 0
  }
  convolution_param {
    num_output: 384
    pad: 1
    kernel_size: 3
    group: 2
    weight_filler {
      type: "gaussian"
      std: 0.01
    }
    bias_filler {
      type: "constant"
      value: 0.1
    }
  }
}
layer {
  name: "relu4"
  type: "ReLU"
  bottom: "conv4"
  top: "conv4"
}
layer {
  name: "conv5"
  type: "Convolution"
  bottom: "conv4"
  top: "conv5"
  param {
    lr_mult: 1
    decay_mult: 1
  }
  param {
    lr_mult: 2
    decay_mult: 0
  }
  convolution_param {
    num_output: 256
    pad: 1
    kernel_size: 3
    group: 2
    weight_filler {
      type: "gaussian"
      std: 0.01
    }
    bias_filler {
      type: "constant"
      value: 0.1
    }
  }
}
layer {
  name: "relu5"
  type: "ReLU"
  bottom: "conv5"
  top: "conv5"
}
layer {
  name: "pool5"
  type: "Pooling"
  bottom: "conv5"
  top: "pool5"
  pooling_param {
    pool: MAX
    kernel_size: 3
    stride: 2
  }
}
layer {
  name: "fc6"
  type: "InnerProduct"
  bottom: "pool5"
  top: "fc6"
  param {
    lr_mult: 1
    decay_mult: 1
  }
  param {
    lr_mult: 2
    decay_mult: 0
  }
  inner_product_param {
    num_output: 4096
    weight_filler {
      type: "gaussian"
      std: 0.005
    }
    bias_filler {
      type: "constant"
      value: 0.1
    }
  }
}
layer {
  name: "relu6"
  type: "ReLU"
  bottom: "fc6"
  top: "fc6"
}
layer {
  name: "drop6"
  type: "Dropout"
  bottom: "fc6"
  top: "fc6"
  dropout_param {
    dropout_ratio: 0.5
  }
}
layer {
  name: "fc7"
  type: "InnerProduct"
  bottom: "fc6"
  top: "fc7"
  param {
    lr_mult: 1
    decay_mult: 1
  }
  param {
    lr_mult: 2
    decay_mult: 0
  }
  inner_product_param {
    num_output: 4096
    weight_filler {
      type: "gaussian"
      std: 0.005
    }
    bias_filler {
      type: "constant"
      value: 0.1
    }
  }
}
layer {
  name: "relu7"
  type: "ReLU"
  bottom: "fc7"
  top: "fc7"
}
layer {
  name: "drop7"
  type: "Dropout"
  bottom: "fc7"
  top: "fc7"
  dropout_param {
    dropout_ratio: 0.5
  }
}
layer {
  name: "fc8_subset"
  type: "InnerProduct"
  bottom: "fc7"
  top: "fc8_subset"
  param {
    lr_mult: 10
    decay_mult: 1
  }
  param {
    lr_mult: 20
    decay_mult: 0
  }
  inner_product_param {
    num_output: 25
    weight_filler {
      type: "gaussian"
      std: 0.01
    }
    bias_filler {
      type: "constant"
      value: 0
    }
  }
}
layer {
  name: "loss"
  type: "SoftmaxWithLoss"
  bottom: "fc8_subset"
  bottom: "label"
  top: "loss"
}
layer {
  name: "accuracy"
  type: "Accuracy"
  bottom: "fc8_subset"
  bottom: "label"
  top: "accuracy"
  include {
    phase: TEST
  }
}
I0306 05:43:22.496772 12851 layer_factory.hpp:77] Creating layer data
I0306 05:43:22.496940 12851 net.cpp:106] Creating Layer data
I0306 05:43:22.496975 12851 net.cpp:411] data -> data
I0306 05:43:22.497007 12851 net.cpp:411] data -> label
I0306 05:43:22.497038 12851 data_transformer.cpp:25] Loading mean file from: /work/01932/dineshj/CS381V/caffe_install_scripts/caffe/data/ilsvrc12/imagenet_mean.binaryproto
I0306 05:43:22.512755 12856 db_lmdb.cpp:38] Opened lmdb /work/04018/wxie/maverick/visual_recognition/data/test-lmdb
I0306 05:43:22.514905 12851 data_layer.cpp:41] output data size: 20,3,227,227
I0306 05:43:22.538735 12851 net.cpp:150] Setting up data
I0306 05:43:22.538818 12851 net.cpp:157] Top shape: 20 3 227 227 (3091740)
I0306 05:43:22.538861 12851 net.cpp:157] Top shape: 20 (20)
I0306 05:43:22.538892 12851 net.cpp:165] Memory required for data: 12367040
I0306 05:43:22.538919 12851 layer_factory.hpp:77] Creating layer label_data_1_split
I0306 05:43:22.538954 12851 net.cpp:106] Creating Layer label_data_1_split
I0306 05:43:22.538981 12851 net.cpp:454] label_data_1_split <- label
I0306 05:43:22.539012 12851 net.cpp:411] label_data_1_split -> label_data_1_split_0
I0306 05:43:22.539049 12851 net.cpp:411] label_data_1_split -> label_data_1_split_1
I0306 05:43:22.539146 12851 net.cpp:150] Setting up label_data_1_split
I0306 05:43:22.539182 12851 net.cpp:157] Top shape: 20 (20)
I0306 05:43:22.539211 12851 net.cpp:157] Top shape: 20 (20)
I0306 05:43:22.539237 12851 net.cpp:165] Memory required for data: 12367200
I0306 05:43:22.539263 12851 layer_factory.hpp:77] Creating layer conv1
I0306 05:43:22.539299 12851 net.cpp:106] Creating Layer conv1
I0306 05:43:22.539330 12851 net.cpp:454] conv1 <- data
I0306 05:43:22.539360 12851 net.cpp:411] conv1 -> conv1
I0306 05:43:22.540980 12851 net.cpp:150] Setting up conv1
I0306 05:43:22.541025 12851 net.cpp:157] Top shape: 20 96 55 55 (5808000)
I0306 05:43:22.541054 12851 net.cpp:165] Memory required for data: 35599200
I0306 05:43:22.541087 12851 layer_factory.hpp:77] Creating layer relu1
I0306 05:43:22.541121 12851 net.cpp:106] Creating Layer relu1
I0306 05:43:22.541147 12851 net.cpp:454] relu1 <- conv1
I0306 05:43:22.541177 12851 net.cpp:397] relu1 -> conv1 (in-place)
I0306 05:43:22.541210 12851 net.cpp:150] Setting up relu1
I0306 05:43:22.541240 12851 net.cpp:157] Top shape: 20 96 55 55 (5808000)
I0306 05:43:22.541267 12851 net.cpp:165] Memory required for data: 58831200
I0306 05:43:22.541293 12851 layer_factory.hpp:77] Creating layer pool1
I0306 05:43:22.541323 12851 net.cpp:106] Creating Layer pool1
I0306 05:43:22.541350 12851 net.cpp:454] pool1 <- conv1
I0306 05:43:22.541380 12851 net.cpp:411] pool1 -> pool1
I0306 05:43:22.541440 12851 net.cpp:150] Setting up pool1
I0306 05:43:22.541476 12851 net.cpp:157] Top shape: 20 96 27 27 (1399680)
I0306 05:43:22.541503 12851 net.cpp:165] Memory required for data: 64429920
I0306 05:43:22.541535 12851 layer_factory.hpp:77] Creating layer norm1
I0306 05:43:22.541566 12851 net.cpp:106] Creating Layer norm1
I0306 05:43:22.541594 12851 net.cpp:454] norm1 <- pool1
I0306 05:43:22.541623 12851 net.cpp:411] norm1 -> norm1
I0306 05:43:22.541678 12851 net.cpp:150] Setting up norm1
I0306 05:43:22.541712 12851 net.cpp:157] Top shape: 20 96 27 27 (1399680)
I0306 05:43:22.541733 12851 net.cpp:165] Memory required for data: 70028640
I0306 05:43:22.541755 12851 layer_factory.hpp:77] Creating layer conv2
I0306 05:43:22.541784 12851 net.cpp:106] Creating Layer conv2
I0306 05:43:22.541829 12851 net.cpp:454] conv2 <- norm1
I0306 05:43:22.541887 12851 net.cpp:411] conv2 -> conv2
I0306 05:43:22.554306 12851 net.cpp:150] Setting up conv2
I0306 05:43:22.554352 12851 net.cpp:157] Top shape: 20 256 27 27 (3732480)
I0306 05:43:22.554378 12851 net.cpp:165] Memory required for data: 84958560
I0306 05:43:22.554419 12851 layer_factory.hpp:77] Creating layer relu2
I0306 05:43:22.554447 12851 net.cpp:106] Creating Layer relu2
I0306 05:43:22.554484 12851 net.cpp:454] relu2 <- conv2
I0306 05:43:22.554528 12851 net.cpp:397] relu2 -> conv2 (in-place)
I0306 05:43:22.554561 12851 net.cpp:150] Setting up relu2
I0306 05:43:22.554596 12851 net.cpp:157] Top shape: 20 256 27 27 (3732480)
I0306 05:43:22.554620 12851 net.cpp:165] Memory required for data: 99888480
I0306 05:43:22.554644 12851 layer_factory.hpp:77] Creating layer pool2
I0306 05:43:22.554673 12851 net.cpp:106] Creating Layer pool2
I0306 05:43:22.554699 12851 net.cpp:454] pool2 <- conv2
I0306 05:43:22.554729 12851 net.cpp:411] pool2 -> pool2
I0306 05:43:22.554805 12851 net.cpp:150] Setting up pool2
I0306 05:43:22.554852 12851 net.cpp:157] Top shape: 20 256 13 13 (865280)
I0306 05:43:22.554874 12851 net.cpp:165] Memory required for data: 103349600
I0306 05:43:22.554908 12851 layer_factory.hpp:77] Creating layer norm2
I0306 05:43:22.554934 12851 net.cpp:106] Creating Layer norm2
I0306 05:43:22.554957 12851 net.cpp:454] norm2 <- pool2
I0306 05:43:22.554983 12851 net.cpp:411] norm2 -> norm2
I0306 05:43:22.555048 12851 net.cpp:150] Setting up norm2
I0306 05:43:22.555094 12851 net.cpp:157] Top shape: 20 256 13 13 (865280)
I0306 05:43:22.555117 12851 net.cpp:165] Memory required for data: 106810720
I0306 05:43:22.555152 12851 layer_factory.hpp:77] Creating layer conv3
I0306 05:43:22.555183 12851 net.cpp:106] Creating Layer conv3
I0306 05:43:22.555210 12851 net.cpp:454] conv3 <- norm2
I0306 05:43:22.555238 12851 net.cpp:411] conv3 -> conv3
I0306 05:43:22.590783 12851 net.cpp:150] Setting up conv3
I0306 05:43:22.590889 12851 net.cpp:157] Top shape: 20 384 13 13 (1297920)
I0306 05:43:22.590920 12851 net.cpp:165] Memory required for data: 112002400
I0306 05:43:22.590972 12851 layer_factory.hpp:77] Creating layer relu3
I0306 05:43:22.591020 12851 net.cpp:106] Creating Layer relu3
I0306 05:43:22.591050 12851 net.cpp:454] relu3 <- conv3
I0306 05:43:22.591084 12851 net.cpp:397] relu3 -> conv3 (in-place)
I0306 05:43:22.591128 12851 net.cpp:150] Setting up relu3
I0306 05:43:22.591161 12851 net.cpp:157] Top shape: 20 384 13 13 (1297920)
I0306 05:43:22.591187 12851 net.cpp:165] Memory required for data: 117194080
I0306 05:43:22.591212 12851 layer_factory.hpp:77] Creating layer conv4
I0306 05:43:22.591249 12851 net.cpp:106] Creating Layer conv4
I0306 05:43:22.591279 12851 net.cpp:454] conv4 <- conv3
I0306 05:43:22.591308 12851 net.cpp:411] conv4 -> conv4
I0306 05:43:22.617944 12851 net.cpp:150] Setting up conv4
I0306 05:43:22.617993 12851 net.cpp:157] Top shape: 20 384 13 13 (1297920)
I0306 05:43:22.618021 12851 net.cpp:165] Memory required for data: 122385760
I0306 05:43:22.618049 12851 layer_factory.hpp:77] Creating layer relu4
I0306 05:43:22.618078 12851 net.cpp:106] Creating Layer relu4
I0306 05:43:22.618104 12851 net.cpp:454] relu4 <- conv4
I0306 05:43:22.618134 12851 net.cpp:397] relu4 -> conv4 (in-place)
I0306 05:43:22.618166 12851 net.cpp:150] Setting up relu4
I0306 05:43:22.618193 12851 net.cpp:157] Top shape: 20 384 13 13 (1297920)
I0306 05:43:22.618214 12851 net.cpp:165] Memory required for data: 127577440
I0306 05:43:22.618248 12851 layer_factory.hpp:77] Creating layer conv5
I0306 05:43:22.618284 12851 net.cpp:106] Creating Layer conv5
I0306 05:43:22.618310 12851 net.cpp:454] conv5 <- conv4
I0306 05:43:22.618337 12851 net.cpp:411] conv5 -> conv5
I0306 05:43:22.636479 12851 net.cpp:150] Setting up conv5
I0306 05:43:22.636533 12851 net.cpp:157] Top shape: 20 256 13 13 (865280)
I0306 05:43:22.636564 12851 net.cpp:165] Memory required for data: 131038560
I0306 05:43:22.636612 12851 layer_factory.hpp:77] Creating layer relu5
I0306 05:43:22.636657 12851 net.cpp:106] Creating Layer relu5
I0306 05:43:22.636716 12851 net.cpp:454] relu5 <- conv5
I0306 05:43:22.636780 12851 net.cpp:397] relu5 -> conv5 (in-place)
I0306 05:43:22.636813 12851 net.cpp:150] Setting up relu5
I0306 05:43:22.636843 12851 net.cpp:157] Top shape: 20 256 13 13 (865280)
I0306 05:43:22.636869 12851 net.cpp:165] Memory required for data: 134499680
I0306 05:43:22.636894 12851 layer_factory.hpp:77] Creating layer pool5
I0306 05:43:22.636930 12851 net.cpp:106] Creating Layer pool5
I0306 05:43:22.636960 12851 net.cpp:454] pool5 <- conv5
I0306 05:43:22.636991 12851 net.cpp:411] pool5 -> pool5
I0306 05:43:22.637053 12851 net.cpp:150] Setting up pool5
I0306 05:43:22.637089 12851 net.cpp:157] Top shape: 20 256 6 6 (184320)
I0306 05:43:22.637116 12851 net.cpp:165] Memory required for data: 135236960
I0306 05:43:22.637143 12851 layer_factory.hpp:77] Creating layer fc6
I0306 05:43:22.637177 12851 net.cpp:106] Creating Layer fc6
I0306 05:43:22.637207 12851 net.cpp:454] fc6 <- pool5
I0306 05:43:22.637236 12851 net.cpp:411] fc6 -> fc6
I0306 05:43:24.016698 12851 net.cpp:150] Setting up fc6
I0306 05:43:24.016851 12851 net.cpp:157] Top shape: 20 4096 (81920)
I0306 05:43:24.016875 12851 net.cpp:165] Memory required for data: 135564640
I0306 05:43:24.016908 12851 layer_factory.hpp:77] Creating layer relu6
I0306 05:43:24.016945 12851 net.cpp:106] Creating Layer relu6
I0306 05:43:24.016970 12851 net.cpp:454] relu6 <- fc6
I0306 05:43:24.016999 12851 net.cpp:397] relu6 -> fc6 (in-place)
I0306 05:43:24.017036 12851 net.cpp:150] Setting up relu6
I0306 05:43:24.017060 12851 net.cpp:157] Top shape: 20 4096 (81920)
I0306 05:43:24.017081 12851 net.cpp:165] Memory required for data: 135892320
I0306 05:43:24.017102 12851 layer_factory.hpp:77] Creating layer drop6
I0306 05:43:24.017132 12851 net.cpp:106] Creating Layer drop6
I0306 05:43:24.017154 12851 net.cpp:454] drop6 <- fc6
I0306 05:43:24.017177 12851 net.cpp:397] drop6 -> fc6 (in-place)
I0306 05:43:24.017226 12851 net.cpp:150] Setting up drop6
I0306 05:43:24.017256 12851 net.cpp:157] Top shape: 20 4096 (81920)
I0306 05:43:24.017277 12851 net.cpp:165] Memory required for data: 136220000
I0306 05:43:24.017298 12851 layer_factory.hpp:77] Creating layer fc7
I0306 05:43:24.017329 12851 net.cpp:106] Creating Layer fc7
I0306 05:43:24.017352 12851 net.cpp:454] fc7 <- fc6
I0306 05:43:24.017377 12851 net.cpp:411] fc7 -> fc7
I0306 05:43:24.630249 12851 net.cpp:150] Setting up fc7
I0306 05:43:24.630396 12851 net.cpp:157] Top shape: 20 4096 (81920)
I0306 05:43:24.630420 12851 net.cpp:165] Memory required for data: 136547680
I0306 05:43:24.630452 12851 layer_factory.hpp:77] Creating layer relu7
I0306 05:43:24.630487 12851 net.cpp:106] Creating Layer relu7
I0306 05:43:24.630516 12851 net.cpp:454] relu7 <- fc7
I0306 05:43:24.630547 12851 net.cpp:397] relu7 -> fc7 (in-place)
I0306 05:43:24.630584 12851 net.cpp:150] Setting up relu7
I0306 05:43:24.630609 12851 net.cpp:157] Top shape: 20 4096 (81920)
I0306 05:43:24.630628 12851 net.cpp:165] Memory required for data: 136875360
I0306 05:43:24.630648 12851 layer_factory.hpp:77] Creating layer drop7
I0306 05:43:24.630677 12851 net.cpp:106] Creating Layer drop7
I0306 05:43:24.630700 12851 net.cpp:454] drop7 <- fc7
I0306 05:43:24.630723 12851 net.cpp:397] drop7 -> fc7 (in-place)
I0306 05:43:24.630775 12851 net.cpp:150] Setting up drop7
I0306 05:43:24.630805 12851 net.cpp:157] Top shape: 20 4096 (81920)
I0306 05:43:24.630825 12851 net.cpp:165] Memory required for data: 137203040
I0306 05:43:24.630846 12851 layer_factory.hpp:77] Creating layer fc8_subset
I0306 05:43:24.630875 12851 net.cpp:106] Creating Layer fc8_subset
I0306 05:43:24.630897 12851 net.cpp:454] fc8_subset <- fc7
I0306 05:43:24.630923 12851 net.cpp:411] fc8_subset -> fc8_subset
I0306 05:43:24.634665 12851 net.cpp:150] Setting up fc8_subset
I0306 05:43:24.634698 12851 net.cpp:157] Top shape: 20 25 (500)
I0306 05:43:24.634721 12851 net.cpp:165] Memory required for data: 137205040
I0306 05:43:24.634744 12851 layer_factory.hpp:77] Creating layer fc8_subset_fc8_subset_0_split
I0306 05:43:24.634770 12851 net.cpp:106] Creating Layer fc8_subset_fc8_subset_0_split
I0306 05:43:24.634855 12851 net.cpp:454] fc8_subset_fc8_subset_0_split <- fc8_subset
I0306 05:43:24.634884 12851 net.cpp:411] fc8_subset_fc8_subset_0_split -> fc8_subset_fc8_subset_0_split_0
I0306 05:43:24.634912 12851 net.cpp:411] fc8_subset_fc8_subset_0_split -> fc8_subset_fc8_subset_0_split_1
I0306 05:43:24.634965 12851 net.cpp:150] Setting up fc8_subset_fc8_subset_0_split
I0306 05:43:24.634997 12851 net.cpp:157] Top shape: 20 25 (500)
I0306 05:43:24.635020 12851 net.cpp:157] Top shape: 20 25 (500)
I0306 05:43:24.635041 12851 net.cpp:165] Memory required for data: 137209040
I0306 05:43:24.635061 12851 layer_factory.hpp:77] Creating layer loss
I0306 05:43:24.635084 12851 net.cpp:106] Creating Layer loss
I0306 05:43:24.635107 12851 net.cpp:454] loss <- fc8_subset_fc8_subset_0_split_0
I0306 05:43:24.635128 12851 net.cpp:454] loss <- label_data_1_split_0
I0306 05:43:24.635152 12851 net.cpp:411] loss -> loss
…
