…
I0309 12:31:38.352432 55597 net.cpp:322] The NetState phase (0) differed from the phase (1) specified by a rule in layer accuracy
I0309 12:31:38.352638 55597 net.cpp:49] Initializing net from parameters: 
name: "FlickrStyleCaffeNet"
state {
  phase: TRAIN
}
layer {
  name: "data"
  type: "Data"
  top: "data"
  top: "label"
  include {
    phase: TRAIN
  }
  transform_param {
    mirror: true
    crop_size: 227
    mean_file: "/work/01932/dineshj/CS381V/caffe_install_scripts/caffe/data/ilsvrc12/imagenet_mean.binaryproto"
  }
  data_param {
    source: "/work/04018/wxie/maverick/visual_recognition/data/train-lmdb"
    batch_size: 128
    backend: LMDB
  }
}
layer {
  name: "conv1"
  type: "Convolution"
  bottom: "data"
  top: "conv1"
  param {
    lr_mult: 1
    decay_mult: 1
  }
  param {
    lr_mult: 2
    decay_mult: 0
  }
  convolution_param {
    num_output: 96
    kernel_size: 11
    stride: 4
    weight_filler {
      type: "gaussian"
      std: 0.01
    }
    bias_filler {
      type: "constant"
      value: 0
    }
  }
}
layer {
  name: "relu1"
  type: "ReLU"
  bottom: "conv1"
  top: "conv1"
}
layer {
  name: "pool1"
  type: "Pooling"
  bottom: "conv1"
  top: "pool1"
  pooling_param {
    pool: MAX
    kernel_size: 3
    stride: 2
  }
}
layer {
  name: "norm1"
  type: "LRN"
  bottom: "pool1"
  top: "norm1"
  lrn_param {
    local_size: 5
    alpha: 0.0001
    beta: 0.75
  }
}
layer {
  name: "conv2"
  type: "Convolution"
  bottom: "norm1"
  top: "conv2"
  param {
    lr_mult: 1
    decay_mult: 1
  }
  param {
    lr_mult: 2
    decay_mult: 0
  }
  convolution_param {
    num_output: 256
    pad: 2
    kernel_size: 5
    group: 2
    weight_filler {
      type: "gaussian"
      std: 0.01
    }
    bias_filler {
      type: "constant"
      value: 0.1
    }
  }
}
layer {
  name: "relu2"
  type: "ReLU"
  bottom: "conv2"
  top: "conv2"
}
layer {
  name: "pool2"
  type: "Pooling"
  bottom: "conv2"
  top: "pool2"
  pooling_param {
    pool: MAX
    kernel_size: 3
    stride: 2
  }
}
layer {
  name: "norm2"
  type: "LRN"
  bottom: "pool2"
  top: "norm2"
  lrn_param {
    local_size: 5
    alpha: 0.0001
    beta: 0.75
  }
}
layer {
  name: "conv3"
  type: "Convolution"
  bottom: "norm2"
  top: "conv3"
  param {
    lr_mult: 1
    decay_mult: 1
  }
  param {
    lr_mult: 2
    decay_mult: 0
  }
  convolution_param {
    num_output: 384
    pad: 1
    kernel_size: 3
    weight_filler {
      type: "gaussian"
      std: 0.01
    }
    bias_filler {
      type: "constant"
      value: 0
    }
  }
}
layer {
  name: "relu3"
  type: "ReLU"
  bottom: "conv3"
  top: "conv3"
}
layer {
  name: "conv4"
  type: "Convolution"
  bottom: "conv3"
  top: "conv4"
  param {
    lr_mult: 1
    decay_mult: 1
  }
  param {
    lr_mult: 2
    decay_mult: 0
  }
  convolution_param {
    num_output: 384
    pad: 1
    kernel_size: 3
    group: 2
    weight_filler {
      type: "gaussian"
      std: 0.01
    }
    bias_filler {
      type: "constant"
      value: 0.1
    }
  }
}
layer {
  name: "relu4"
  type: "ReLU"
  bottom: "conv4"
  top: "conv4"
}
layer {
  name: "conv5"
  type: "Convolution"
  bottom: "conv4"
  top: "conv5"
  param {
    lr_mult: 1
    decay_mult: 1
  }
  param {
    lr_mult: 2
    decay_mult: 0
  }
  convolution_param {
    num_output: 256
    pad: 1
    kernel_size: 3
    group: 2
    weight_filler {
      type: "gaussian"
      std: 0.01
    }
    bias_filler {
      type: "constant"
      value: 0.1
    }
  }
}
layer {
  name: "relu5"
  type: "ReLU"
  bottom: "conv5"
  top: "conv5"
}
layer {
  name: "pool5"
  type: "Pooling"
  bottom: "conv5"
  top: "pool5"
  pooling_param {
    pool: MAX
    kernel_size: 3
    stride: 2
  }
}
layer {
  name: "fc6"
  type: "InnerProduct"
  bottom: "pool5"
  top: "fc6"
  param {
    lr_mult: 1
    decay_mult: 1
  }
  param {
    lr_mult: 2
    decay_mult: 0
  }
  inner_product_param {
    num_output: 4096
    weight_filler {
      type: "gaussian"
      std: 0.005
    }
    bias_filler {
      type: "constant"
      value: 0.1
    }
  }
}
layer {
  name: "relu6"
  type: "ReLU"
  bottom: "fc6"
  top: "fc6"
}
layer {
  name: "drop6"
  type: "Dropout"
  bottom: "fc6"
  top: "fc6"
  dropout_param {
    dropout_ratio: 0.5
  }
}
layer {
  name: "fc7"
  type: "InnerProduct"
  bottom: "fc6"
  top: "fc7"
  param {
    lr_mult: 1
    decay_mult: 1
  }
  param {
    lr_mult: 2
    decay_mult: 0
  }
  inner_product_param {
    num_output: 4096
    weight_filler {
      type: "gaussian"
      std: 0.005
    }
    bias_filler {
      type: "constant"
      value: 0.1
    }
  }
}
layer {
  name: "relu7"
  type: "ReLU"
  bottom: "fc7"
  top: "fc7"
}
layer {
  name: "drop7"
  type: "Dropout"
  bottom: "fc7"
  top: "fc7"
  dropout_param {
    dropout_ratio: 0.5
  }
}
layer {
  name: "fc8_subset"
  type: "InnerProduct"
  bottom: "fc7"
  top: "fc8_subset"
  param {
    lr_mult: 10
    decay_mult: 1
  }
  param {
    lr_mult: 20
    decay_mult: 0
  }
  inner_product_param {
    num_output: 25
    weight_filler {
      type: "gaussian"
      std: 0.01
    }
    bias_filler {
      type: "constant"
      value: 0
    }
  }
}
layer {
  name: "loss"
  type: "SoftmaxWithLoss"
  bottom: "fc8_subset"
  bottom: "label"
  top: "loss"
}
I0309 12:31:38.352936 55597 layer_factory.hpp:77] Creating layer data
I0309 12:31:38.353714 55597 net.cpp:106] Creating Layer data
I0309 12:31:38.353778 55597 net.cpp:411] data -> data
I0309 12:31:38.353890 55597 net.cpp:411] data -> label
I0309 12:31:38.353972 55597 data_transformer.cpp:25] Loading mean file from: /work/01932/dineshj/CS381V/caffe_install_scripts/caffe/data/ilsvrc12/imagenet_mean.binaryproto
I0309 12:31:38.369343 55599 db_lmdb.cpp:38] Opened lmdb /work/04018/wxie/maverick/visual_recognition/data/train-lmdb
I0309 12:31:38.486054 55597 data_layer.cpp:41] output data size: 128,3,227,227
I0309 12:31:38.638173 55597 net.cpp:150] Setting up data
I0309 12:31:38.638303 55597 net.cpp:157] Top shape: 128 3 227 227 (19787136)
I0309 12:31:38.638331 55597 net.cpp:157] Top shape: 128 (128)
I0309 12:31:38.638353 55597 net.cpp:165] Memory required for data: 79149056
I0309 12:31:38.638394 55597 layer_factory.hpp:77] Creating layer conv1
I0309 12:31:38.638478 55597 net.cpp:106] Creating Layer conv1
I0309 12:31:38.638507 55597 net.cpp:454] conv1 <- data
I0309 12:31:38.638561 55597 net.cpp:411] conv1 -> conv1
I0309 12:31:38.648403 55597 net.cpp:150] Setting up conv1
I0309 12:31:38.648447 55597 net.cpp:157] Top shape: 128 96 55 55 (37171200)
I0309 12:31:38.648475 55597 net.cpp:165] Memory required for data: 227833856
I0309 12:31:38.648538 55597 layer_factory.hpp:77] Creating layer relu1
I0309 12:31:38.648578 55597 net.cpp:106] Creating Layer relu1
I0309 12:31:38.648608 55597 net.cpp:454] relu1 <- conv1
I0309 12:31:38.648638 55597 net.cpp:397] relu1 -> conv1 (in-place)
I0309 12:31:38.648672 55597 net.cpp:150] Setting up relu1
I0309 12:31:38.648700 55597 net.cpp:157] Top shape: 128 96 55 55 (37171200)
I0309 12:31:38.648722 55597 net.cpp:165] Memory required for data: 376518656
I0309 12:31:38.648743 55597 layer_factory.hpp:77] Creating layer pool1
I0309 12:31:38.648775 55597 net.cpp:106] Creating Layer pool1
I0309 12:31:38.648803 55597 net.cpp:454] pool1 <- conv1
I0309 12:31:38.648833 55597 net.cpp:411] pool1 -> pool1
I0309 12:31:38.648995 55597 net.cpp:150] Setting up pool1
I0309 12:31:38.649031 55597 net.cpp:157] Top shape: 128 96 27 27 (8957952)
I0309 12:31:38.649116 55597 net.cpp:165] Memory required for data: 412350464
I0309 12:31:38.649145 55597 layer_factory.hpp:77] Creating layer norm1
I0309 12:31:38.649178 55597 net.cpp:106] Creating Layer norm1
I0309 12:31:38.649206 55597 net.cpp:454] norm1 <- pool1
I0309 12:31:38.649238 55597 net.cpp:411] norm1 -> norm1
I0309 12:31:38.649350 55597 net.cpp:150] Setting up norm1
I0309 12:31:38.649390 55597 net.cpp:157] Top shape: 128 96 27 27 (8957952)
I0309 12:31:38.649418 55597 net.cpp:165] Memory required for data: 448182272
I0309 12:31:38.649448 55597 layer_factory.hpp:77] Creating layer conv2
I0309 12:31:38.649482 55597 net.cpp:106] Creating Layer conv2
I0309 12:31:38.649512 55597 net.cpp:454] conv2 <- norm1
I0309 12:31:38.649541 55597 net.cpp:411] conv2 -> conv2
I0309 12:31:38.662063 55597 net.cpp:150] Setting up conv2
I0309 12:31:38.662102 55597 net.cpp:157] Top shape: 128 256 27 27 (23887872)
I0309 12:31:38.662127 55597 net.cpp:165] Memory required for data: 543733760
I0309 12:31:38.662153 55597 layer_factory.hpp:77] Creating layer relu2
I0309 12:31:38.662194 55597 net.cpp:106] Creating Layer relu2
I0309 12:31:38.662217 55597 net.cpp:454] relu2 <- conv2
I0309 12:31:38.662253 55597 net.cpp:397] relu2 -> conv2 (in-place)
I0309 12:31:38.662286 55597 net.cpp:150] Setting up relu2
I0309 12:31:38.662325 55597 net.cpp:157] Top shape: 128 256 27 27 (23887872)
I0309 12:31:38.662348 55597 net.cpp:165] Memory required for data: 639285248
I0309 12:31:38.662371 55597 layer_factory.hpp:77] Creating layer pool2
I0309 12:31:38.662400 55597 net.cpp:106] Creating Layer pool2
I0309 12:31:38.662425 55597 net.cpp:454] pool2 <- conv2
I0309 12:31:38.662451 55597 net.cpp:411] pool2 -> pool2
I0309 12:31:38.662509 55597 net.cpp:150] Setting up pool2
I0309 12:31:38.662555 55597 net.cpp:157] Top shape: 128 256 13 13 (5537792)
I0309 12:31:38.662580 55597 net.cpp:165] Memory required for data: 661436416
I0309 12:31:38.662603 55597 layer_factory.hpp:77] Creating layer norm2
I0309 12:31:38.662631 55597 net.cpp:106] Creating Layer norm2
I0309 12:31:38.662657 55597 net.cpp:454] norm2 <- pool2
I0309 12:31:38.662684 55597 net.cpp:411] norm2 -> norm2
I0309 12:31:38.662741 55597 net.cpp:150] Setting up norm2
I0309 12:31:38.662787 55597 net.cpp:157] Top shape: 128 256 13 13 (5537792)
I0309 12:31:38.662823 55597 net.cpp:165] Memory required for data: 683587584
I0309 12:31:38.662845 55597 layer_factory.hpp:77] Creating layer conv3
I0309 12:31:38.662889 55597 net.cpp:106] Creating Layer conv3
I0309 12:31:38.662914 55597 net.cpp:454] conv3 <- norm2
I0309 12:31:38.662946 55597 net.cpp:411] conv3 -> conv3
I0309 12:31:38.696972 55597 net.cpp:150] Setting up conv3
I0309 12:31:38.697031 55597 net.cpp:157] Top shape: 128 384 13 13 (8306688)
I0309 12:31:38.697054 55597 net.cpp:165] Memory required for data: 716814336
I0309 12:31:38.697095 55597 layer_factory.hpp:77] Creating layer relu3
I0309 12:31:38.697123 55597 net.cpp:106] Creating Layer relu3
I0309 12:31:38.697160 55597 net.cpp:454] relu3 <- conv3
I0309 12:31:38.697188 55597 net.cpp:397] relu3 -> conv3 (in-place)
I0309 12:31:38.697217 55597 net.cpp:150] Setting up relu3
I0309 12:31:38.697245 55597 net.cpp:157] Top shape: 128 384 13 13 (8306688)
I0309 12:31:38.697268 55597 net.cpp:165] Memory required for data: 750041088
I0309 12:31:38.697299 55597 layer_factory.hpp:77] Creating layer conv4
I0309 12:31:38.697330 55597 net.cpp:106] Creating Layer conv4
I0309 12:31:38.697370 55597 net.cpp:454] conv4 <- conv3
I0309 12:31:38.697398 55597 net.cpp:411] conv4 -> conv4
I0309 12:31:38.730607 55597 net.cpp:150] Setting up conv4
I0309 12:31:38.730654 55597 net.cpp:157] Top shape: 128 384 13 13 (8306688)
I0309 12:31:38.730680 55597 net.cpp:165] Memory required for data: 783267840
I0309 12:31:38.730711 55597 layer_factory.hpp:77] Creating layer relu4
I0309 12:31:38.730742 55597 net.cpp:106] Creating Layer relu4
I0309 12:31:38.730768 55597 net.cpp:454] relu4 <- conv4
I0309 12:31:38.730801 55597 net.cpp:397] relu4 -> conv4 (in-place)
I0309 12:31:38.730835 55597 net.cpp:150] Setting up relu4
I0309 12:31:38.730877 55597 net.cpp:157] Top shape: 128 384 13 13 (8306688)
I0309 12:31:38.730916 55597 net.cpp:165] Memory required for data: 816494592
I0309 12:31:38.730938 55597 layer_factory.hpp:77] Creating layer conv5
I0309 12:31:38.730970 55597 net.cpp:106] Creating Layer conv5
I0309 12:31:38.730998 55597 net.cpp:454] conv5 <- conv4
I0309 12:31:38.731030 55597 net.cpp:411] conv5 -> conv5
I0309 12:31:38.748620 55597 net.cpp:150] Setting up conv5
I0309 12:31:38.748667 55597 net.cpp:157] Top shape: 128 256 13 13 (5537792)
I0309 12:31:38.748689 55597 net.cpp:165] Memory required for data: 838645760
I0309 12:31:38.748731 55597 layer_factory.hpp:77] Creating layer relu5
I0309 12:31:38.748760 55597 net.cpp:106] Creating Layer relu5
I0309 12:31:38.748783 55597 net.cpp:454] relu5 <- conv5
I0309 12:31:38.748808 55597 net.cpp:397] relu5 -> conv5 (in-place)
I0309 12:31:38.748836 55597 net.cpp:150] Setting up relu5
I0309 12:31:38.748860 55597 net.cpp:157] Top shape: 128 256 13 13 (5537792)
I0309 12:31:38.748881 55597 net.cpp:165] Memory required for data: 860796928
I0309 12:31:38.748903 55597 layer_factory.hpp:77] Creating layer pool5
I0309 12:31:38.748930 55597 net.cpp:106] Creating Layer pool5
I0309 12:31:38.748955 55597 net.cpp:454] pool5 <- conv5
I0309 12:31:38.748980 55597 net.cpp:411] pool5 -> pool5
I0309 12:31:38.749053 55597 net.cpp:150] Setting up pool5
I0309 12:31:38.749083 55597 net.cpp:157] Top shape: 128 256 6 6 (1179648)
I0309 12:31:38.749104 55597 net.cpp:165] Memory required for data: 865515520
I0309 12:31:38.749125 55597 layer_factory.hpp:77] Creating layer fc6
I0309 12:31:38.749173 55597 net.cpp:106] Creating Layer fc6
I0309 12:31:38.749199 55597 net.cpp:454] fc6 <- pool5
I0309 12:31:38.749227 55597 net.cpp:411] fc6 -> fc6
I0309 12:31:38.895184 55600 blocking_queue.cpp:50] Waiting for data
I0309 12:31:40.163590 55597 net.cpp:150] Setting up fc6
I0309 12:31:40.163719 55597 net.cpp:157] Top shape: 128 4096 (524288)
I0309 12:31:40.163743 55597 net.cpp:165] Memory required for data: 867612672
I0309 12:31:40.163776 55597 layer_factory.hpp:77] Creating layer relu6
I0309 12:31:40.163811 55597 net.cpp:106] Creating Layer relu6
I0309 12:31:40.163836 55597 net.cpp:454] relu6 <- fc6
I0309 12:31:40.163866 55597 net.cpp:397] relu6 -> fc6 (in-place)
I0309 12:31:40.163904 55597 net.cpp:150] Setting up relu6
I0309 12:31:40.163929 55597 net.cpp:157] Top shape: 128 4096 (524288)
I0309 12:31:40.163950 55597 net.cpp:165] Memory required for data: 869709824
I0309 12:31:40.163971 55597 layer_factory.hpp:77] Creating layer drop6
I0309 12:31:40.163997 55597 net.cpp:106] Creating Layer drop6
I0309 12:31:40.164019 55597 net.cpp:454] drop6 <- fc6
I0309 12:31:40.164044 55597 net.cpp:397] drop6 -> fc6 (in-place)
I0309 12:31:40.164135 55597 net.cpp:150] Setting up drop6
I0309 12:31:40.164165 55597 net.cpp:157] Top shape: 128 4096 (524288)
I0309 12:31:40.164187 55597 net.cpp:165] Memory required for data: 871806976
I0309 12:31:40.164208 55597 layer_factory.hpp:77] Creating layer fc7
I0309 12:31:40.164237 55597 net.cpp:106] Creating Layer fc7
I0309 12:31:40.164258 55597 net.cpp:454] fc7 <- fc6
I0309 12:31:40.164289 55597 net.cpp:411] fc7 -> fc7
I0309 12:31:40.776743 55597 net.cpp:150] Setting up fc7
I0309 12:31:40.776876 55597 net.cpp:157] Top shape: 128 4096 (524288)
I0309 12:31:40.776901 55597 net.cpp:165] Memory required for data: 873904128
I0309 12:31:40.776932 55597 layer_factory.hpp:77] Creating layer relu7
I0309 12:31:40.776968 55597 net.cpp:106] Creating Layer relu7
I0309 12:31:40.776991 55597 net.cpp:454] relu7 <- fc7
I0309 12:31:40.777021 55597 net.cpp:397] relu7 -> fc7 (in-place)
I0309 12:31:40.777057 55597 net.cpp:150] Setting up relu7
I0309 12:31:40.777082 55597 net.cpp:157] Top shape: 128 4096 (524288)
I0309 12:31:40.777103 55597 net.cpp:165] Memory required for data: 876001280
I0309 12:31:40.777124 55597 layer_factory.hpp:77] Creating layer drop7
I0309 12:31:40.777151 55597 net.cpp:106] Creating Layer drop7
I0309 12:31:40.777173 55597 net.cpp:454] drop7 <- fc7
I0309 12:31:40.777196 55597 net.cpp:397] drop7 -> fc7 (in-place)
I0309 12:31:40.777267 55597 net.cpp:150] Setting up drop7
I0309 12:31:40.777338 55597 net.cpp:157] Top shape: 128 4096 (524288)
I0309 12:31:40.777359 55597 net.cpp:165] Memory required for data: 878098432
I0309 12:31:40.777381 55597 layer_factory.hpp:77] Creating layer fc8_subset
I0309 12:31:40.777413 55597 net.cpp:106] Creating Layer fc8_subset
I0309 12:31:40.777436 55597 net.cpp:454] fc8_subset <- fc7
I0309 12:31:40.777462 55597 net.cpp:411] fc8_subset -> fc8_subset
I0309 12:31:40.781739 55597 net.cpp:150] Setting up fc8_subset
I0309 12:31:40.781777 55597 net.cpp:157] Top shape: 128 25 (3200)
I0309 12:31:40.781800 55597 net.cpp:165] Memory required for data: 878111232
I0309 12:31:40.781824 55597 layer_factory.hpp:77] Creating layer loss
I0309 12:31:40.781853 55597 net.cpp:106] Creating Layer loss
I0309 12:31:40.781877 55597 net.cpp:454] loss <- fc8_subset
I0309 12:31:40.781899 55597 net.cpp:454] loss <- label
I0309 12:31:40.781927 55597 net.cpp:411] loss -> loss
I0309 12:31:40.781997 55597 layer_factory.hpp:77] Creating layer loss
…
I0309 12:31:40.784381 55597 net.cpp:322] The NetState phase (1) differed from the phase (0) specified by a rule in layer data
I0309 12:31:40.784611 55597 net.cpp:49] Initializing net from parameters: 
name: "FlickrStyleCaffeNet"
state {
  phase: TEST
}
layer {
  name: "data"
  type: "Data"
  top: "data"
  top: "label"
  include {
    phase: TEST
  }
  transform_param {
    mirror: false
    crop_size: 227
    mean_file: "/work/01932/dineshj/CS381V/caffe_install_scripts/caffe/data/ilsvrc12/imagenet_mean.binaryproto"
  }
  data_param {
    source: "/work/04018/wxie/maverick/visual_recognition/data/test-lmdb"
    batch_size: 20
    backend: LMDB
  }
}
layer {
  name: "conv1"
  type: "Convolution"
  bottom: "data"
  top: "conv1"
  param {
    lr_mult: 1
    decay_mult: 1
  }
  param {
    lr_mult: 2
    decay_mult: 0
  }
  convolution_param {
    num_output: 96
    kernel_size: 11
    stride: 4
    weight_filler {
      type: "gaussian"
      std: 0.01
    }
    bias_filler {
      type: "constant"
      value: 0
    }
  }
}
layer {
  name: "relu1"
  type: "ReLU"
  bottom: "conv1"
  top: "conv1"
}
layer {
  name: "pool1"
  type: "Pooling"
  bottom: "conv1"
  top: "pool1"
  pooling_param {
    pool: MAX
    kernel_size: 3
    stride: 2
  }
}
layer {
  name: "norm1"
  type: "LRN"
  bottom: "pool1"
  top: "norm1"
  lrn_param {
    local_size: 5
    alpha: 0.0001
    beta: 0.75
  }
}
layer {
  name: "conv2"
  type: "Convolution"
  bottom: "norm1"
  top: "conv2"
  param {
    lr_mult: 1
    decay_mult: 1
  }
  param {
    lr_mult: 2
    decay_mult: 0
  }
  convolution_param {
    num_output: 256
    pad: 2
    kernel_size: 5
    group: 2
    weight_filler {
      type: "gaussian"
      std: 0.01
    }
    bias_filler {
      type: "constant"
      value: 0.1
    }
  }
}
layer {
  name: "relu2"
  type: "ReLU"
  bottom: "conv2"
  top: "conv2"
}
layer {
  name: "pool2"
  type: "Pooling"
  bottom: "conv2"
  top: "pool2"
  pooling_param {
    pool: MAX
    kernel_size: 3
    stride: 2
  }
}
layer {
  name: "norm2"
  type: "LRN"
  bottom: "pool2"
  top: "norm2"
  lrn_param {
    local_size: 5
    alpha: 0.0001
    beta: 0.75
  }
}
layer {
  name: "conv3"
  type: "Convolution"
  bottom: "norm2"
  top: "conv3"
  param {
    lr_mult: 1
    decay_mult: 1
  }
  param {
    lr_mult: 2
    decay_mult: 0
  }
  convolution_param {
    num_output: 384
    pad: 1
    kernel_size: 3
    weight_filler {
      type: "gaussian"
      std: 0.01
    }
    bias_filler {
      type: "constant"
      value: 0
    }
  }
}
layer {
  name: "relu3"
  type: "ReLU"
  bottom: "conv3"
  top: "conv3"
}
layer {
  name: "conv4"
  type: "Convolution"
  bottom: "conv3"
  top: "conv4"
  param {
    lr_mult: 1
    decay_mult: 1
  }
  param {
    lr_mult: 2
    decay_mult: 0
  }
  convolution_param {
    num_output: 384
    pad: 1
    kernel_size: 3
    group: 2
    weight_filler {
      type: "gaussian"
      std: 0.01
    }
    bias_filler {
      type: "constant"
      value: 0.1
    }
  }
}
layer {
  name: "relu4"
  type: "ReLU"
  bottom: "conv4"
  top: "conv4"
}
layer {
  name: "conv5"
  type: "Convolution"
  bottom: "conv4"
  top: "conv5"
  param {
    lr_mult: 1
    decay_mult: 1
  }
  param {
    lr_mult: 2
    decay_mult: 0
  }
  convolution_param {
    num_output: 256
    pad: 1
    kernel_size: 3
    group: 2
    weight_filler {
      type: "gaussian"
      std: 0.01
    }
    bias_filler {
      type: "constant"
      value: 0.1
    }
  }
}
layer {
  name: "relu5"
  type: "ReLU"
  bottom: "conv5"
  top: "conv5"
}
layer {
  name: "pool5"
  type: "Pooling"
  bottom: "conv5"
  top: "pool5"
  pooling_param {
    pool: MAX
    kernel_size: 3
    stride: 2
  }
}
layer {
  name: "fc6"
  type: "InnerProduct"
  bottom: "pool5"
  top: "fc6"
  param {
    lr_mult: 1
    decay_mult: 1
  }
  param {
    lr_mult: 2
    decay_mult: 0
  }
  inner_product_param {
    num_output: 4096
    weight_filler {
      type: "gaussian"
      std: 0.005
    }
    bias_filler {
      type: "constant"
      value: 0.1
    }
  }
}
layer {
  name: "relu6"
  type: "ReLU"
  bottom: "fc6"
  top: "fc6"
}
layer {
  name: "drop6"
  type: "Dropout"
  bottom: "fc6"
  top: "fc6"
  dropout_param {
    dropout_ratio: 0.5
  }
}
layer {
  name: "fc7"
  type: "InnerProduct"
  bottom: "fc6"
  top: "fc7"
  param {
    lr_mult: 1
    decay_mult: 1
  }
  param {
    lr_mult: 2
    decay_mult: 0
  }
  inner_product_param {
    num_output: 4096
    weight_filler {
      type: "gaussian"
      std: 0.005
    }
    bias_filler {
      type: "constant"
      value: 0.1
    }
  }
}
layer {
  name: "relu7"
  type: "ReLU"
  bottom: "fc7"
  top: "fc7"
}
layer {
  name: "drop7"
  type: "Dropout"
  bottom: "fc7"
  top: "fc7"
  dropout_param {
    dropout_ratio: 0.5
  }
}
layer {
  name: "fc8_subset"
  type: "InnerProduct"
  bottom: "fc7"
  top: "fc8_subset"
  param {
    lr_mult: 10
    decay_mult: 1
  }
  param {
    lr_mult: 20
    decay_mult: 0
  }
  inner_product_param {
    num_output: 25
    weight_filler {
      type: "gaussian"
      std: 0.01
    }
    bias_filler {
      type: "constant"
      value: 0
    }
  }
}
layer {
  name: "loss"
  type: "SoftmaxWithLoss"
  bottom: "fc8_subset"
  bottom: "label"
  top: "loss"
}
layer {
  name: "accuracy"
  type: "Accuracy"
  bottom: "fc8_subset"
  bottom: "label"
  top: "accuracy"
  include {
    phase: TEST
  }
}
I0309 12:31:40.784791 55597 layer_factory.hpp:77] Creating layer data
I0309 12:31:40.784955 55597 net.cpp:106] Creating Layer data
I0309 12:31:40.784991 55597 net.cpp:411] data -> data
I0309 12:31:40.785032 55597 net.cpp:411] data -> label
I0309 12:31:40.785064 55597 data_transformer.cpp:25] Loading mean file from: /work/01932/dineshj/CS381V/caffe_install_scripts/caffe/data/ilsvrc12/imagenet_mean.binaryproto
I0309 12:31:40.802580 55601 db_lmdb.cpp:38] Opened lmdb /work/04018/wxie/maverick/visual_recognition/data/test-lmdb
I0309 12:31:40.804255 55597 data_layer.cpp:41] output data size: 20,3,227,227
I0309 12:31:40.827661 55597 net.cpp:150] Setting up data
I0309 12:31:40.827749 55597 net.cpp:157] Top shape: 20 3 227 227 (3091740)
I0309 12:31:40.827790 55597 net.cpp:157] Top shape: 20 (20)
I0309 12:31:40.827836 55597 net.cpp:165] Memory required for data: 12367040
I0309 12:31:40.827865 55597 layer_factory.hpp:77] Creating layer label_data_1_split
I0309 12:31:40.827894 55597 net.cpp:106] Creating Layer label_data_1_split
I0309 12:31:40.827919 55597 net.cpp:454] label_data_1_split <- label
I0309 12:31:40.827946 55597 net.cpp:411] label_data_1_split -> label_data_1_split_0
I0309 12:31:40.827982 55597 net.cpp:411] label_data_1_split -> label_data_1_split_1
I0309 12:31:40.828074 55597 net.cpp:150] Setting up label_data_1_split
I0309 12:31:40.828110 55597 net.cpp:157] Top shape: 20 (20)
I0309 12:31:40.828138 55597 net.cpp:157] Top shape: 20 (20)
I0309 12:31:40.828164 55597 net.cpp:165] Memory required for data: 12367200
I0309 12:31:40.828191 55597 layer_factory.hpp:77] Creating layer conv1
I0309 12:31:40.828227 55597 net.cpp:106] Creating Layer conv1
I0309 12:31:40.828255 55597 net.cpp:454] conv1 <- data
I0309 12:31:40.828289 55597 net.cpp:411] conv1 -> conv1
I0309 12:31:40.829864 55597 net.cpp:150] Setting up conv1
I0309 12:31:40.829910 55597 net.cpp:157] Top shape: 20 96 55 55 (5808000)
I0309 12:31:40.829939 55597 net.cpp:165] Memory required for data: 35599200
I0309 12:31:40.829974 55597 layer_factory.hpp:77] Creating layer relu1
I0309 12:31:40.830005 55597 net.cpp:106] Creating Layer relu1
I0309 12:31:40.830032 55597 net.cpp:454] relu1 <- conv1
I0309 12:31:40.830062 55597 net.cpp:397] relu1 -> conv1 (in-place)
I0309 12:31:40.830091 55597 net.cpp:150] Setting up relu1
I0309 12:31:40.830117 55597 net.cpp:157] Top shape: 20 96 55 55 (5808000)
I0309 12:31:40.830138 55597 net.cpp:165] Memory required for data: 58831200
I0309 12:31:40.830163 55597 layer_factory.hpp:77] Creating layer pool1
I0309 12:31:40.830193 55597 net.cpp:106] Creating Layer pool1
I0309 12:31:40.830221 55597 net.cpp:454] pool1 <- conv1
I0309 12:31:40.830252 55597 net.cpp:411] pool1 -> pool1
I0309 12:31:40.830317 55597 net.cpp:150] Setting up pool1
I0309 12:31:40.830354 55597 net.cpp:157] Top shape: 20 96 27 27 (1399680)
I0309 12:31:40.830384 55597 net.cpp:165] Memory required for data: 64429920
I0309 12:31:40.830409 55597 layer_factory.hpp:77] Creating layer norm1
I0309 12:31:40.830438 55597 net.cpp:106] Creating Layer norm1
I0309 12:31:40.830466 55597 net.cpp:454] norm1 <- pool1
I0309 12:31:40.830495 55597 net.cpp:411] norm1 -> norm1
I0309 12:31:40.830554 55597 net.cpp:150] Setting up norm1
I0309 12:31:40.830587 55597 net.cpp:157] Top shape: 20 96 27 27 (1399680)
I0309 12:31:40.830613 55597 net.cpp:165] Memory required for data: 70028640
I0309 12:31:40.830639 55597 layer_factory.hpp:77] Creating layer conv2
I0309 12:31:40.830672 55597 net.cpp:106] Creating Layer conv2
I0309 12:31:40.830720 55597 net.cpp:454] conv2 <- norm1
I0309 12:31:40.830778 55597 net.cpp:411] conv2 -> conv2
I0309 12:31:40.843400 55597 net.cpp:150] Setting up conv2
I0309 12:31:40.843462 55597 net.cpp:157] Top shape: 20 256 27 27 (3732480)
I0309 12:31:40.843488 55597 net.cpp:165] Memory required for data: 84958560
I0309 12:31:40.843524 55597 layer_factory.hpp:77] Creating layer relu2
I0309 12:31:40.843554 55597 net.cpp:106] Creating Layer relu2
I0309 12:31:40.843580 55597 net.cpp:454] relu2 <- conv2
I0309 12:31:40.843618 55597 net.cpp:397] relu2 -> conv2 (in-place)
I0309 12:31:40.843647 55597 net.cpp:150] Setting up relu2
I0309 12:31:40.843674 55597 net.cpp:157] Top shape: 20 256 27 27 (3732480)
I0309 12:31:40.843696 55597 net.cpp:165] Memory required for data: 99888480
I0309 12:31:40.843719 55597 layer_factory.hpp:77] Creating layer pool2
I0309 12:31:40.843746 55597 net.cpp:106] Creating Layer pool2
I0309 12:31:40.843780 55597 net.cpp:454] pool2 <- conv2
I0309 12:31:40.843806 55597 net.cpp:411] pool2 -> pool2
I0309 12:31:40.843873 55597 net.cpp:150] Setting up pool2
I0309 12:31:40.843904 55597 net.cpp:157] Top shape: 20 256 13 13 (865280)
I0309 12:31:40.843926 55597 net.cpp:165] Memory required for data: 103349600
I0309 12:31:40.843947 55597 layer_factory.hpp:77] Creating layer norm2
I0309 12:31:40.843974 55597 net.cpp:106] Creating Layer norm2
I0309 12:31:40.843998 55597 net.cpp:454] norm2 <- pool2
I0309 12:31:40.844023 55597 net.cpp:411] norm2 -> norm2
I0309 12:31:40.844079 55597 net.cpp:150] Setting up norm2
I0309 12:31:40.844108 55597 net.cpp:157] Top shape: 20 256 13 13 (865280)
I0309 12:31:40.844130 55597 net.cpp:165] Memory required for data: 106810720
I0309 12:31:40.844151 55597 layer_factory.hpp:77] Creating layer conv3
I0309 12:31:40.844180 55597 net.cpp:106] Creating Layer conv3
I0309 12:31:40.844204 55597 net.cpp:454] conv3 <- norm2
I0309 12:31:40.844233 55597 net.cpp:411] conv3 -> conv3
I0309 12:31:40.879578 55597 net.cpp:150] Setting up conv3
I0309 12:31:40.879678 55597 net.cpp:157] Top shape: 20 384 13 13 (1297920)
I0309 12:31:40.879706 55597 net.cpp:165] Memory required for data: 112002400
I0309 12:31:40.879745 55597 layer_factory.hpp:77] Creating layer relu3
I0309 12:31:40.879783 55597 net.cpp:106] Creating Layer relu3
I0309 12:31:40.879814 55597 net.cpp:454] relu3 <- conv3
I0309 12:31:40.879847 55597 net.cpp:397] relu3 -> conv3 (in-place)
I0309 12:31:40.879880 55597 net.cpp:150] Setting up relu3
I0309 12:31:40.879917 55597 net.cpp:157] Top shape: 20 384 13 13 (1297920)
I0309 12:31:40.879940 55597 net.cpp:165] Memory required for data: 117194080
I0309 12:31:40.879963 55597 layer_factory.hpp:77] Creating layer conv4
I0309 12:31:40.880005 55597 net.cpp:106] Creating Layer conv4
I0309 12:31:40.880043 55597 net.cpp:454] conv4 <- conv3
I0309 12:31:40.880070 55597 net.cpp:411] conv4 -> conv4
I0309 12:31:40.906409 55597 net.cpp:150] Setting up conv4
I0309 12:31:40.906457 55597 net.cpp:157] Top shape: 20 384 13 13 (1297920)
I0309 12:31:40.906486 55597 net.cpp:165] Memory required for data: 122385760
I0309 12:31:40.906515 55597 layer_factory.hpp:77] Creating layer relu4
I0309 12:31:40.906546 55597 net.cpp:106] Creating Layer relu4
I0309 12:31:40.906574 55597 net.cpp:454] relu4 <- conv4
I0309 12:31:40.906616 55597 net.cpp:397] relu4 -> conv4 (in-place)
I0309 12:31:40.906648 55597 net.cpp:150] Setting up relu4
I0309 12:31:40.906677 55597 net.cpp:157] Top shape: 20 384 13 13 (1297920)
I0309 12:31:40.906702 55597 net.cpp:165] Memory required for data: 127577440
I0309 12:31:40.906728 55597 layer_factory.hpp:77] Creating layer conv5
I0309 12:31:40.906761 55597 net.cpp:106] Creating Layer conv5
I0309 12:31:40.906790 55597 net.cpp:454] conv5 <- conv4
I0309 12:31:40.906823 55597 net.cpp:411] conv5 -> conv5
I0309 12:31:40.924190 55597 net.cpp:150] Setting up conv5
I0309 12:31:40.924233 55597 net.cpp:157] Top shape: 20 256 13 13 (865280)
I0309 12:31:40.924259 55597 net.cpp:165] Memory required for data: 131038560
I0309 12:31:40.924298 55597 layer_factory.hpp:77] Creating layer relu5
I0309 12:31:40.924326 55597 net.cpp:106] Creating Layer relu5
I0309 12:31:40.924407 55597 net.cpp:454] relu5 <- conv5
I0309 12:31:40.924438 55597 net.cpp:397] relu5 -> conv5 (in-place)
I0309 12:31:40.924470 55597 net.cpp:150] Setting up relu5
I0309 12:31:40.924500 55597 net.cpp:157] Top shape: 20 256 13 13 (865280)
I0309 12:31:40.924525 55597 net.cpp:165] Memory required for data: 134499680
I0309 12:31:40.924551 55597 layer_factory.hpp:77] Creating layer pool5
I0309 12:31:40.924582 55597 net.cpp:106] Creating Layer pool5
I0309 12:31:40.924609 55597 net.cpp:454] pool5 <- conv5
I0309 12:31:40.924641 55597 net.cpp:411] pool5 -> pool5
I0309 12:31:40.924705 55597 net.cpp:150] Setting up pool5
I0309 12:31:40.924741 55597 net.cpp:157] Top shape: 20 256 6 6 (184320)
I0309 12:31:40.924767 55597 net.cpp:165] Memory required for data: 135236960
I0309 12:31:40.924793 55597 layer_factory.hpp:77] Creating layer fc6
I0309 12:31:40.924828 55597 net.cpp:106] Creating Layer fc6
I0309 12:31:40.924854 55597 net.cpp:454] fc6 <- pool5
I0309 12:31:40.924885 55597 net.cpp:411] fc6 -> fc6
I0309 12:31:42.304183 55597 net.cpp:150] Setting up fc6
I0309 12:31:42.304322 55597 net.cpp:157] Top shape: 20 4096 (81920)
I0309 12:31:42.304347 55597 net.cpp:165] Memory required for data: 135564640
I0309 12:31:42.304380 55597 layer_factory.hpp:77] Creating layer relu6
I0309 12:31:42.304414 55597 net.cpp:106] Creating Layer relu6
I0309 12:31:42.304437 55597 net.cpp:454] relu6 <- fc6
I0309 12:31:42.304467 55597 net.cpp:397] relu6 -> fc6 (in-place)
I0309 12:31:42.304507 55597 net.cpp:150] Setting up relu6
I0309 12:31:42.304530 55597 net.cpp:157] Top shape: 20 4096 (81920)
I0309 12:31:42.304550 55597 net.cpp:165] Memory required for data: 135892320
I0309 12:31:42.304571 55597 layer_factory.hpp:77] Creating layer drop6
I0309 12:31:42.304599 55597 net.cpp:106] Creating Layer drop6
I0309 12:31:42.304620 55597 net.cpp:454] drop6 <- fc6
I0309 12:31:42.304642 55597 net.cpp:397] drop6 -> fc6 (in-place)
I0309 12:31:42.304695 55597 net.cpp:150] Setting up drop6
I0309 12:31:42.304724 55597 net.cpp:157] Top shape: 20 4096 (81920)
I0309 12:31:42.304745 55597 net.cpp:165] Memory required for data: 136220000
I0309 12:31:42.304766 55597 layer_factory.hpp:77] Creating layer fc7
I0309 12:31:42.304797 55597 net.cpp:106] Creating Layer fc7
I0309 12:31:42.304821 55597 net.cpp:454] fc7 <- fc6
I0309 12:31:42.304844 55597 net.cpp:411] fc7 -> fc7
I0309 12:31:42.917593 55597 net.cpp:150] Setting up fc7
I0309 12:31:42.917722 55597 net.cpp:157] Top shape: 20 4096 (81920)
I0309 12:31:42.917747 55597 net.cpp:165] Memory required for data: 136547680
I0309 12:31:42.917778 55597 layer_factory.hpp:77] Creating layer relu7
I0309 12:31:42.917815 55597 net.cpp:106] Creating Layer relu7
I0309 12:31:42.917840 55597 net.cpp:454] relu7 <- fc7
I0309 12:31:42.917870 55597 net.cpp:397] relu7 -> fc7 (in-place)
I0309 12:31:42.917906 55597 net.cpp:150] Setting up relu7
I0309 12:31:42.917930 55597 net.cpp:157] Top shape: 20 4096 (81920)
I0309 12:31:42.917951 55597 net.cpp:165] Memory required for data: 136875360
I0309 12:31:42.917973 55597 layer_factory.hpp:77] Creating layer drop7
I0309 12:31:42.917999 55597 net.cpp:106] Creating Layer drop7
I0309 12:31:42.918021 55597 net.cpp:454] drop7 <- fc7
I0309 12:31:42.918047 55597 net.cpp:397] drop7 -> fc7 (in-place)
I0309 12:31:42.918097 55597 net.cpp:150] Setting up drop7
I0309 12:31:42.918128 55597 net.cpp:157] Top shape: 20 4096 (81920)
I0309 12:31:42.918148 55597 net.cpp:165] Memory required for data: 137203040
I0309 12:31:42.918169 55597 layer_factory.hpp:77] Creating layer fc8_subset
I0309 12:31:42.918200 55597 net.cpp:106] Creating Layer fc8_subset
I0309 12:31:42.918223 55597 net.cpp:454] fc8_subset <- fc7
I0309 12:31:42.918248 55597 net.cpp:411] fc8_subset -> fc8_subset
I0309 12:31:42.921931 55597 net.cpp:150] Setting up fc8_subset
I0309 12:31:42.921965 55597 net.cpp:157] Top shape: 20 25 (500)
I0309 12:31:42.921988 55597 net.cpp:165] Memory required for data: 137205040
I0309 12:31:42.922011 55597 layer_factory.hpp:77] Creating layer fc8_subset_fc8_subset_0_split
I0309 12:31:42.922070 55597 net.cpp:106] Creating Layer fc8_subset_fc8_subset_0_split
I0309 12:31:42.922149 55597 net.cpp:454] fc8_subset_fc8_subset_0_split <- fc8_subset
I0309 12:31:42.922175 55597 net.cpp:411] fc8_subset_fc8_subset_0_split -> fc8_subset_fc8_subset_0_split_0
I0309 12:31:42.922204 55597 net.cpp:411] fc8_subset_fc8_subset_0_split -> fc8_subset_fc8_subset_0_split_1
I0309 12:31:42.922261 55597 net.cpp:150] Setting up fc8_subset_fc8_subset_0_split
I0309 12:31:42.922297 55597 net.cpp:157] Top shape: 20 25 (500)
I0309 12:31:42.922322 55597 net.cpp:157] Top shape: 20 25 (500)
I0309 12:31:42.922343 55597 net.cpp:165] Memory required for data: 137209040
I0309 12:31:42.922363 55597 layer_factory.hpp:77] Creating layer loss
I0309 12:31:42.922389 55597 net.cpp:106] Creating Layer loss
I0309 12:31:42.922410 55597 net.cpp:454] loss <- fc8_subset_fc8_subset_0_split_0
I0309 12:31:42.922433 55597 net.cpp:454] loss <- label_data_1_split_0
I0309 12:31:42.922461 55597 net.cpp:411] loss -> loss
…
