…
I0309 02:04:46.925685 46337 net.cpp:322] The NetState phase (0) differed from the phase (1) specified by a rule in layer accuracy
I0309 02:04:46.925890 46337 net.cpp:49] Initializing net from parameters: 
name: "FlickrStyleCaffeNet"
state {
  phase: TRAIN
}
layer {
  name: "data"
  type: "Data"
  top: "data"
  top: "label"
  include {
    phase: TRAIN
  }
  transform_param {
    mirror: true
    crop_size: 227
    mean_file: "/work/01932/dineshj/CS381V/caffe_install_scripts/caffe/data/ilsvrc12/imagenet_mean.binaryproto"
  }
  data_param {
    source: "/work/04018/wxie/maverick/visual_recognition/data/train-lmdb"
    batch_size: 128
    backend: LMDB
  }
}
layer {
  name: "conv1"
  type: "Convolution"
  bottom: "data"
  top: "conv1"
  param {
    lr_mult: 0
    decay_mult: 0
  }
  param {
    lr_mult: 0
    decay_mult: 0
  }
  convolution_param {
    num_output: 96
    kernel_size: 11
    stride: 4
    weight_filler {
      type: "gaussian"
      std: 0.01
    }
    bias_filler {
      type: "constant"
      value: 0
    }
  }
}
layer {
  name: "relu1"
  type: "ReLU"
  bottom: "conv1"
  top: "conv1"
}
layer {
  name: "pool1"
  type: "Pooling"
  bottom: "conv1"
  top: "pool1"
  pooling_param {
    pool: MAX
    kernel_size: 3
    stride: 2
  }
}
layer {
  name: "norm1"
  type: "LRN"
  bottom: "pool1"
  top: "norm1"
  lrn_param {
    local_size: 5
    alpha: 0.0001
    beta: 0.75
  }
}
layer {
  name: "conv2"
  type: "Convolution"
  bottom: "norm1"
  top: "conv2"
  param {
    lr_mult: 0
    decay_mult: 0
  }
  param {
    lr_mult: 0
    decay_mult: 0
  }
  convolution_param {
    num_output: 256
    pad: 2
    kernel_size: 5
    group: 2
    weight_filler {
      type: "gaussian"
      std: 0.01
    }
    bias_filler {
      type: "constant"
      value: 0.1
    }
  }
}
layer {
  name: "relu2"
  type: "ReLU"
  bottom: "conv2"
  top: "conv2"
}
layer {
  name: "pool2"
  type: "Pooling"
  bottom: "conv2"
  top: "pool2"
  pooling_param {
    pool: MAX
    kernel_size: 3
    stride: 2
  }
}
layer {
  name: "norm2"
  type: "LRN"
  bottom: "pool2"
  top: "norm2"
  lrn_param {
    local_size: 5
    alpha: 0.0001
    beta: 0.75
  }
}
layer {
  name: "conv3"
  type: "Convolution"
  bottom: "norm2"
  top: "conv3"
  param {
    lr_mult: 0
    decay_mult: 0
  }
  param {
    lr_mult: 0
    decay_mult: 0
  }
  convolution_param {
    num_output: 384
    pad: 1
    kernel_size: 3
    weight_filler {
      type: "gaussian"
      std: 0.01
    }
    bias_filler {
      type: "constant"
      value: 0
    }
  }
}
layer {
  name: "relu3"
  type: "ReLU"
  bottom: "conv3"
  top: "conv3"
}
layer {
  name: "conv4"
  type: "Convolution"
  bottom: "conv3"
  top: "conv4"
  param {
    lr_mult: 0
    decay_mult: 0
  }
  param {
    lr_mult: 0
    decay_mult: 0
  }
  convolution_param {
    num_output: 384
    pad: 1
    kernel_size: 3
    group: 2
    weight_filler {
      type: "gaussian"
      std: 0.01
    }
    bias_filler {
      type: "constant"
      value: 0.1
    }
  }
}
layer {
  name: "relu4"
  type: "ReLU"
  bottom: "conv4"
  top: "conv4"
}
layer {
  name: "conv5"
  type: "Convolution"
  bottom: "conv4"
  top: "conv5"
  param {
    lr_mult: 0
    decay_mult: 0
  }
  param {
    lr_mult: 0
    decay_mult: 0
  }
  convolution_param {
    num_output: 256
    pad: 1
    kernel_size: 3
    group: 2
    weight_filler {
      type: "gaussian"
      std: 0.01
    }
    bias_filler {
      type: "constant"
      value: 0.1
    }
  }
}
layer {
  name: "relu5"
  type: "ReLU"
  bottom: "conv5"
  top: "conv5"
}
layer {
  name: "pool5"
  type: "Pooling"
  bottom: "conv5"
  top: "pool5"
  pooling_param {
    pool: MAX
    kernel_size: 3
    stride: 2
  }
}
layer {
  name: "fc6"
  type: "InnerProduct"
  bottom: "pool5"
  top: "fc6"
  param {
    lr_mult: 0
    decay_mult: 0
  }
  param {
    lr_mult: 0
    decay_mult: 0
  }
  inner_product_param {
    num_output: 4096
    weight_filler {
      type: "gaussian"
      std: 0.005
    }
    bias_filler {
      type: "constant"
      value: 0.1
    }
  }
}
layer {
  name: "relu6"
  type: "ReLU"
  bottom: "fc6"
  top: "fc6"
}
layer {
  name: "drop6"
  type: "Dropout"
  bottom: "fc6"
  top: "fc6"
  dropout_param {
    dropout_ratio: 0.5
  }
}
layer {
  name: "fc7"
  type: "InnerProduct"
  bottom: "fc6"
  top: "fc7"
  param {
    lr_mult: 0
    decay_mult: 0
  }
  param {
    lr_mult: 0
    decay_mult: 0
  }
  inner_product_param {
    num_output: 4096
    weight_filler {
      type: "gaussian"
      std: 0.005
    }
    bias_filler {
      type: "constant"
      value: 0.1
    }
  }
}
layer {
  name: "relu7"
  type: "ReLU"
  bottom: "fc7"
  top: "fc7"
}
layer {
  name: "drop7"
  type: "Dropout"
  bottom: "fc7"
  top: "fc7"
  dropout_param {
    dropout_ratio: 0.5
  }
}
layer {
  name: "fc8_subset"
  type: "InnerProduct"
  bottom: "fc7"
  top: "fc8_subset"
  param {
    lr_mult: 10
    decay_mult: 1
  }
  param {
    lr_mult: 20
    decay_mult: 0
  }
  inner_product_param {
    num_output: 25
    weight_filler {
      type: "gaussian"
      std: 0.01
    }
    bias_filler {
      type: "constant"
      value: 0
    }
  }
}
layer {
  name: "loss"
  type: "SoftmaxWithLoss"
  bottom: "fc8_subset"
  bottom: "label"
  top: "loss"
}
I0309 02:04:46.926184 46337 layer_factory.hpp:77] Creating layer data
I0309 02:04:46.926966 46337 net.cpp:106] Creating Layer data
I0309 02:04:46.927026 46337 net.cpp:411] data -> data
I0309 02:04:46.927139 46337 net.cpp:411] data -> label
I0309 02:04:46.927219 46337 data_transformer.cpp:25] Loading mean file from: /work/01932/dineshj/CS381V/caffe_install_scripts/caffe/data/ilsvrc12/imagenet_mean.binaryproto
I0309 02:04:46.998972 46339 db_lmdb.cpp:38] Opened lmdb /work/04018/wxie/maverick/visual_recognition/data/train-lmdb
I0309 02:04:47.004329 46337 data_layer.cpp:41] output data size: 128,3,227,227
I0309 02:04:47.156641 46337 net.cpp:150] Setting up data
I0309 02:04:47.156744 46337 net.cpp:157] Top shape: 128 3 227 227 (19787136)
I0309 02:04:47.156782 46337 net.cpp:157] Top shape: 128 (128)
I0309 02:04:47.156810 46337 net.cpp:165] Memory required for data: 79149056
I0309 02:04:47.156852 46337 layer_factory.hpp:77] Creating layer conv1
I0309 02:04:47.156934 46337 net.cpp:106] Creating Layer conv1
I0309 02:04:47.156970 46337 net.cpp:454] conv1 <- data
I0309 02:04:47.157013 46337 net.cpp:411] conv1 -> conv1
I0309 02:04:47.166892 46337 net.cpp:150] Setting up conv1
I0309 02:04:47.166934 46337 net.cpp:157] Top shape: 128 96 55 55 (37171200)
I0309 02:04:47.166960 46337 net.cpp:165] Memory required for data: 227833856
I0309 02:04:47.167013 46337 layer_factory.hpp:77] Creating layer relu1
I0309 02:04:47.167045 46337 net.cpp:106] Creating Layer relu1
I0309 02:04:47.167070 46337 net.cpp:454] relu1 <- conv1
I0309 02:04:47.167094 46337 net.cpp:397] relu1 -> conv1 (in-place)
I0309 02:04:47.167147 46337 net.cpp:150] Setting up relu1
I0309 02:04:47.167186 46337 net.cpp:157] Top shape: 128 96 55 55 (37171200)
I0309 02:04:47.167209 46337 net.cpp:165] Memory required for data: 376518656
I0309 02:04:47.167232 46337 layer_factory.hpp:77] Creating layer pool1
I0309 02:04:47.167266 46337 net.cpp:106] Creating Layer pool1
I0309 02:04:47.167294 46337 net.cpp:454] pool1 <- conv1
I0309 02:04:47.167320 46337 net.cpp:411] pool1 -> pool1
I0309 02:04:47.167493 46337 net.cpp:150] Setting up pool1
I0309 02:04:47.167531 46337 net.cpp:157] Top shape: 128 96 27 27 (8957952)
I0309 02:04:47.167613 46337 net.cpp:165] Memory required for data: 412350464
I0309 02:04:47.167644 46337 layer_factory.hpp:77] Creating layer norm1
I0309 02:04:47.167690 46337 net.cpp:106] Creating Layer norm1
I0309 02:04:47.167718 46337 net.cpp:454] norm1 <- pool1
I0309 02:04:47.167747 46337 net.cpp:411] norm1 -> norm1
I0309 02:04:47.167852 46337 net.cpp:150] Setting up norm1
I0309 02:04:47.167888 46337 net.cpp:157] Top shape: 128 96 27 27 (8957952)
I0309 02:04:47.167913 46337 net.cpp:165] Memory required for data: 448182272
I0309 02:04:47.167940 46337 layer_factory.hpp:77] Creating layer conv2
I0309 02:04:47.167973 46337 net.cpp:106] Creating Layer conv2
I0309 02:04:47.168004 46337 net.cpp:454] conv2 <- norm1
I0309 02:04:47.168036 46337 net.cpp:411] conv2 -> conv2
I0309 02:04:47.180667 46337 net.cpp:150] Setting up conv2
I0309 02:04:47.180743 46337 net.cpp:157] Top shape: 128 256 27 27 (23887872)
I0309 02:04:47.180773 46337 net.cpp:165] Memory required for data: 543733760
I0309 02:04:47.180806 46337 layer_factory.hpp:77] Creating layer relu2
I0309 02:04:47.180840 46337 net.cpp:106] Creating Layer relu2
I0309 02:04:47.180866 46337 net.cpp:454] relu2 <- conv2
I0309 02:04:47.180893 46337 net.cpp:397] relu2 -> conv2 (in-place)
I0309 02:04:47.180922 46337 net.cpp:150] Setting up relu2
I0309 02:04:47.180948 46337 net.cpp:157] Top shape: 128 256 27 27 (23887872)
I0309 02:04:47.180971 46337 net.cpp:165] Memory required for data: 639285248
I0309 02:04:47.180996 46337 layer_factory.hpp:77] Creating layer pool2
I0309 02:04:47.181030 46337 net.cpp:106] Creating Layer pool2
I0309 02:04:47.181056 46337 net.cpp:454] pool2 <- conv2
I0309 02:04:47.181085 46337 net.cpp:411] pool2 -> pool2
I0309 02:04:47.181149 46337 net.cpp:150] Setting up pool2
I0309 02:04:47.181185 46337 net.cpp:157] Top shape: 128 256 13 13 (5537792)
I0309 02:04:47.181212 46337 net.cpp:165] Memory required for data: 661436416
I0309 02:04:47.181239 46337 layer_factory.hpp:77] Creating layer norm2
I0309 02:04:47.181289 46337 net.cpp:106] Creating Layer norm2
I0309 02:04:47.181319 46337 net.cpp:454] norm2 <- pool2
I0309 02:04:47.181349 46337 net.cpp:411] norm2 -> norm2
I0309 02:04:47.181408 46337 net.cpp:150] Setting up norm2
I0309 02:04:47.181444 46337 net.cpp:157] Top shape: 128 256 13 13 (5537792)
I0309 02:04:47.181470 46337 net.cpp:165] Memory required for data: 683587584
I0309 02:04:47.181496 46337 layer_factory.hpp:77] Creating layer conv3
I0309 02:04:47.181534 46337 net.cpp:106] Creating Layer conv3
I0309 02:04:47.181574 46337 net.cpp:454] conv3 <- norm2
I0309 02:04:47.181602 46337 net.cpp:411] conv3 -> conv3
I0309 02:04:47.216465 46337 net.cpp:150] Setting up conv3
I0309 02:04:47.216598 46337 net.cpp:157] Top shape: 128 384 13 13 (8306688)
I0309 02:04:47.216625 46337 net.cpp:165] Memory required for data: 716814336
I0309 02:04:47.216665 46337 layer_factory.hpp:77] Creating layer relu3
I0309 02:04:47.216698 46337 net.cpp:106] Creating Layer relu3
I0309 02:04:47.216722 46337 net.cpp:454] relu3 <- conv3
I0309 02:04:47.216753 46337 net.cpp:397] relu3 -> conv3 (in-place)
I0309 02:04:47.216794 46337 net.cpp:150] Setting up relu3
I0309 02:04:47.216823 46337 net.cpp:157] Top shape: 128 384 13 13 (8306688)
I0309 02:04:47.216850 46337 net.cpp:165] Memory required for data: 750041088
I0309 02:04:47.216873 46337 layer_factory.hpp:77] Creating layer conv4
I0309 02:04:47.216913 46337 net.cpp:106] Creating Layer conv4
I0309 02:04:47.216943 46337 net.cpp:454] conv4 <- conv3
I0309 02:04:47.216972 46337 net.cpp:411] conv4 -> conv4
I0309 02:04:47.250054 46337 net.cpp:150] Setting up conv4
I0309 02:04:47.250183 46337 net.cpp:157] Top shape: 128 384 13 13 (8306688)
I0309 02:04:47.250210 46337 net.cpp:165] Memory required for data: 783267840
I0309 02:04:47.250241 46337 layer_factory.hpp:77] Creating layer relu4
I0309 02:04:47.250277 46337 net.cpp:106] Creating Layer relu4
I0309 02:04:47.250303 46337 net.cpp:454] relu4 <- conv4
I0309 02:04:47.250346 46337 net.cpp:397] relu4 -> conv4 (in-place)
I0309 02:04:47.250381 46337 net.cpp:150] Setting up relu4
I0309 02:04:47.250448 46337 net.cpp:157] Top shape: 128 384 13 13 (8306688)
I0309 02:04:47.250512 46337 net.cpp:165] Memory required for data: 816494592
I0309 02:04:47.250538 46337 layer_factory.hpp:77] Creating layer conv5
I0309 02:04:47.250577 46337 net.cpp:106] Creating Layer conv5
I0309 02:04:47.250608 46337 net.cpp:454] conv5 <- conv4
I0309 02:04:47.250648 46337 net.cpp:411] conv5 -> conv5
I0309 02:04:47.267372 46340 blocking_queue.cpp:50] Waiting for data
I0309 02:04:47.268267 46337 net.cpp:150] Setting up conv5
I0309 02:04:47.268321 46337 net.cpp:157] Top shape: 128 256 13 13 (5537792)
I0309 02:04:47.268345 46337 net.cpp:165] Memory required for data: 838645760
I0309 02:04:47.268380 46337 layer_factory.hpp:77] Creating layer relu5
I0309 02:04:47.268410 46337 net.cpp:106] Creating Layer relu5
I0309 02:04:47.268438 46337 net.cpp:454] relu5 <- conv5
I0309 02:04:47.268471 46337 net.cpp:397] relu5 -> conv5 (in-place)
I0309 02:04:47.268504 46337 net.cpp:150] Setting up relu5
I0309 02:04:47.268533 46337 net.cpp:157] Top shape: 128 256 13 13 (5537792)
I0309 02:04:47.268558 46337 net.cpp:165] Memory required for data: 860796928
I0309 02:04:47.268584 46337 layer_factory.hpp:77] Creating layer pool5
I0309 02:04:47.268616 46337 net.cpp:106] Creating Layer pool5
I0309 02:04:47.268643 46337 net.cpp:454] pool5 <- conv5
I0309 02:04:47.268674 46337 net.cpp:411] pool5 -> pool5
I0309 02:04:47.268741 46337 net.cpp:150] Setting up pool5
I0309 02:04:47.268775 46337 net.cpp:157] Top shape: 128 256 6 6 (1179648)
I0309 02:04:47.268802 46337 net.cpp:165] Memory required for data: 865515520
I0309 02:04:47.268828 46337 layer_factory.hpp:77] Creating layer fc6
I0309 02:04:47.268898 46337 net.cpp:106] Creating Layer fc6
I0309 02:04:47.268929 46337 net.cpp:454] fc6 <- pool5
I0309 02:04:47.268959 46337 net.cpp:411] fc6 -> fc6
I0309 02:04:48.686164 46337 net.cpp:150] Setting up fc6
I0309 02:04:48.686303 46337 net.cpp:157] Top shape: 128 4096 (524288)
I0309 02:04:48.686327 46337 net.cpp:165] Memory required for data: 867612672
I0309 02:04:48.686359 46337 layer_factory.hpp:77] Creating layer relu6
I0309 02:04:48.686393 46337 net.cpp:106] Creating Layer relu6
I0309 02:04:48.686421 46337 net.cpp:454] relu6 <- fc6
I0309 02:04:48.686450 46337 net.cpp:397] relu6 -> fc6 (in-place)
I0309 02:04:48.686486 46337 net.cpp:150] Setting up relu6
I0309 02:04:48.686509 46337 net.cpp:157] Top shape: 128 4096 (524288)
I0309 02:04:48.686529 46337 net.cpp:165] Memory required for data: 869709824
I0309 02:04:48.686550 46337 layer_factory.hpp:77] Creating layer drop6
I0309 02:04:48.686576 46337 net.cpp:106] Creating Layer drop6
I0309 02:04:48.686597 46337 net.cpp:454] drop6 <- fc6
I0309 02:04:48.686620 46337 net.cpp:397] drop6 -> fc6 (in-place)
I0309 02:04:48.686710 46337 net.cpp:150] Setting up drop6
I0309 02:04:48.686739 46337 net.cpp:157] Top shape: 128 4096 (524288)
I0309 02:04:48.686760 46337 net.cpp:165] Memory required for data: 871806976
I0309 02:04:48.686781 46337 layer_factory.hpp:77] Creating layer fc7
I0309 02:04:48.686810 46337 net.cpp:106] Creating Layer fc7
I0309 02:04:48.686836 46337 net.cpp:454] fc7 <- fc6
I0309 02:04:48.686859 46337 net.cpp:411] fc7 -> fc7
I0309 02:04:49.299232 46337 net.cpp:150] Setting up fc7
I0309 02:04:49.299363 46337 net.cpp:157] Top shape: 128 4096 (524288)
I0309 02:04:49.299387 46337 net.cpp:165] Memory required for data: 873904128
I0309 02:04:49.299418 46337 layer_factory.hpp:77] Creating layer relu7
I0309 02:04:49.299453 46337 net.cpp:106] Creating Layer relu7
I0309 02:04:49.299475 46337 net.cpp:454] relu7 <- fc7
I0309 02:04:49.299506 46337 net.cpp:397] relu7 -> fc7 (in-place)
I0309 02:04:49.299543 46337 net.cpp:150] Setting up relu7
I0309 02:04:49.299567 46337 net.cpp:157] Top shape: 128 4096 (524288)
I0309 02:04:49.299587 46337 net.cpp:165] Memory required for data: 876001280
I0309 02:04:49.299608 46337 layer_factory.hpp:77] Creating layer drop7
I0309 02:04:49.299634 46337 net.cpp:106] Creating Layer drop7
I0309 02:04:49.299656 46337 net.cpp:454] drop7 <- fc7
I0309 02:04:49.299679 46337 net.cpp:397] drop7 -> fc7 (in-place)
I0309 02:04:49.299810 46337 net.cpp:150] Setting up drop7
I0309 02:04:49.299872 46337 net.cpp:157] Top shape: 128 4096 (524288)
I0309 02:04:49.299895 46337 net.cpp:165] Memory required for data: 878098432
I0309 02:04:49.299916 46337 layer_factory.hpp:77] Creating layer fc8_subset
I0309 02:04:49.299943 46337 net.cpp:106] Creating Layer fc8_subset
I0309 02:04:49.299965 46337 net.cpp:454] fc8_subset <- fc7
I0309 02:04:49.300009 46337 net.cpp:411] fc8_subset -> fc8_subset
I0309 02:04:49.304316 46337 net.cpp:150] Setting up fc8_subset
I0309 02:04:49.304352 46337 net.cpp:157] Top shape: 128 25 (3200)
I0309 02:04:49.304374 46337 net.cpp:165] Memory required for data: 878111232
I0309 02:04:49.304399 46337 layer_factory.hpp:77] Creating layer loss
I0309 02:04:49.304427 46337 net.cpp:106] Creating Layer loss
I0309 02:04:49.304450 46337 net.cpp:454] loss <- fc8_subset
I0309 02:04:49.304472 46337 net.cpp:454] loss <- label
I0309 02:04:49.304500 46337 net.cpp:411] loss -> loss
I0309 02:04:49.304569 46337 layer_factory.hpp:77] Creating layer loss
…
I0309 02:04:49.307528 46337 net.cpp:322] The NetState phase (1) differed from the phase (0) specified by a rule in layer data
I0309 02:04:49.307766 46337 net.cpp:49] Initializing net from parameters: 
name: "FlickrStyleCaffeNet"
state {
  phase: TEST
}
layer {
  name: "data"
  type: "Data"
  top: "data"
  top: "label"
  include {
    phase: TEST
  }
  transform_param {
    mirror: false
    crop_size: 227
    mean_file: "/work/01932/dineshj/CS381V/caffe_install_scripts/caffe/data/ilsvrc12/imagenet_mean.binaryproto"
  }
  data_param {
    source: "/work/04018/wxie/maverick/visual_recognition/data/test-lmdb"
    batch_size: 20
    backend: LMDB
  }
}
layer {
  name: "conv1"
  type: "Convolution"
  bottom: "data"
  top: "conv1"
  param {
    lr_mult: 0
    decay_mult: 0
  }
  param {
    lr_mult: 0
    decay_mult: 0
  }
  convolution_param {
    num_output: 96
    kernel_size: 11
    stride: 4
    weight_filler {
      type: "gaussian"
      std: 0.01
    }
    bias_filler {
      type: "constant"
      value: 0
    }
  }
}
layer {
  name: "relu1"
  type: "ReLU"
  bottom: "conv1"
  top: "conv1"
}
layer {
  name: "pool1"
  type: "Pooling"
  bottom: "conv1"
  top: "pool1"
  pooling_param {
    pool: MAX
    kernel_size: 3
    stride: 2
  }
}
layer {
  name: "norm1"
  type: "LRN"
  bottom: "pool1"
  top: "norm1"
  lrn_param {
    local_size: 5
    alpha: 0.0001
    beta: 0.75
  }
}
layer {
  name: "conv2"
  type: "Convolution"
  bottom: "norm1"
  top: "conv2"
  param {
    lr_mult: 0
    decay_mult: 0
  }
  param {
    lr_mult: 0
    decay_mult: 0
  }
  convolution_param {
    num_output: 256
    pad: 2
    kernel_size: 5
    group: 2
    weight_filler {
      type: "gaussian"
      std: 0.01
    }
    bias_filler {
      type: "constant"
      value: 0.1
    }
  }
}
layer {
  name: "relu2"
  type: "ReLU"
  bottom: "conv2"
  top: "conv2"
}
layer {
  name: "pool2"
  type: "Pooling"
  bottom: "conv2"
  top: "pool2"
  pooling_param {
    pool: MAX
    kernel_size: 3
    stride: 2
  }
}
layer {
  name: "norm2"
  type: "LRN"
  bottom: "pool2"
  top: "norm2"
  lrn_param {
    local_size: 5
    alpha: 0.0001
    beta: 0.75
  }
}
layer {
  name: "conv3"
  type: "Convolution"
  bottom: "norm2"
  top: "conv3"
  param {
    lr_mult: 0
    decay_mult: 0
  }
  param {
    lr_mult: 0
    decay_mult: 0
  }
  convolution_param {
    num_output: 384
    pad: 1
    kernel_size: 3
    weight_filler {
      type: "gaussian"
      std: 0.01
    }
    bias_filler {
      type: "constant"
      value: 0
    }
  }
}
layer {
  name: "relu3"
  type: "ReLU"
  bottom: "conv3"
  top: "conv3"
}
layer {
  name: "conv4"
  type: "Convolution"
  bottom: "conv3"
  top: "conv4"
  param {
    lr_mult: 0
    decay_mult: 0
  }
  param {
    lr_mult: 0
    decay_mult: 0
  }
  convolution_param {
    num_output: 384
    pad: 1
    kernel_size: 3
    group: 2
    weight_filler {
      type: "gaussian"
      std: 0.01
    }
    bias_filler {
      type: "constant"
      value: 0.1
    }
  }
}
layer {
  name: "relu4"
  type: "ReLU"
  bottom: "conv4"
  top: "conv4"
}
layer {
  name: "conv5"
  type: "Convolution"
  bottom: "conv4"
  top: "conv5"
  param {
    lr_mult: 0
    decay_mult: 0
  }
  param {
    lr_mult: 0
    decay_mult: 0
  }
  convolution_param {
    num_output: 256
    pad: 1
    kernel_size: 3
    group: 2
    weight_filler {
      type: "gaussian"
      std: 0.01
    }
    bias_filler {
      type: "constant"
      value: 0.1
    }
  }
}
layer {
  name: "relu5"
  type: "ReLU"
  bottom: "conv5"
  top: "conv5"
}
layer {
  name: "pool5"
  type: "Pooling"
  bottom: "conv5"
  top: "pool5"
  pooling_param {
    pool: MAX
    kernel_size: 3
    stride: 2
  }
}
layer {
  name: "fc6"
  type: "InnerProduct"
  bottom: "pool5"
  top: "fc6"
  param {
    lr_mult: 0
    decay_mult: 0
  }
  param {
    lr_mult: 0
    decay_mult: 0
  }
  inner_product_param {
    num_output: 4096
    weight_filler {
      type: "gaussian"
      std: 0.005
    }
    bias_filler {
      type: "constant"
      value: 0.1
    }
  }
}
layer {
  name: "relu6"
  type: "ReLU"
  bottom: "fc6"
  top: "fc6"
}
layer {
  name: "drop6"
  type: "Dropout"
  bottom: "fc6"
  top: "fc6"
  dropout_param {
    dropout_ratio: 0.5
  }
}
layer {
  name: "fc7"
  type: "InnerProduct"
  bottom: "fc6"
  top: "fc7"
  param {
    lr_mult: 0
    decay_mult: 0
  }
  param {
    lr_mult: 0
    decay_mult: 0
  }
  inner_product_param {
    num_output: 4096
    weight_filler {
      type: "gaussian"
      std: 0.005
    }
    bias_filler {
      type: "constant"
      value: 0.1
    }
  }
}
layer {
  name: "relu7"
  type: "ReLU"
  bottom: "fc7"
  top: "fc7"
}
layer {
  name: "drop7"
  type: "Dropout"
  bottom: "fc7"
  top: "fc7"
  dropout_param {
    dropout_ratio: 0.5
  }
}
layer {
  name: "fc8_subset"
  type: "InnerProduct"
  bottom: "fc7"
  top: "fc8_subset"
  param {
    lr_mult: 10
    decay_mult: 1
  }
  param {
    lr_mult: 20
    decay_mult: 0
  }
  inner_product_param {
    num_output: 25
    weight_filler {
      type: "gaussian"
      std: 0.01
    }
    bias_filler {
      type: "constant"
      value: 0
    }
  }
}
layer {
  name: "loss"
  type: "SoftmaxWithLoss"
  bottom: "fc8_subset"
  bottom: "label"
  top: "loss"
}
layer {
  name: "accuracy"
  type: "Accuracy"
  bottom: "fc8_subset"
  bottom: "label"
  top: "accuracy"
  include {
    phase: TEST
  }
}
I0309 02:04:49.307943 46337 layer_factory.hpp:77] Creating layer data
I0309 02:04:49.308082 46337 net.cpp:106] Creating Layer data
I0309 02:04:49.308115 46337 net.cpp:411] data -> data
I0309 02:04:49.308169 46337 net.cpp:411] data -> label
I0309 02:04:49.308224 46337 data_transformer.cpp:25] Loading mean file from: /work/01932/dineshj/CS381V/caffe_install_scripts/caffe/data/ilsvrc12/imagenet_mean.binaryproto
I0309 02:04:49.380411 46341 db_lmdb.cpp:38] Opened lmdb /work/04018/wxie/maverick/visual_recognition/data/test-lmdb
I0309 02:04:49.382222 46337 data_layer.cpp:41] output data size: 20,3,227,227
I0309 02:04:49.404850 46337 net.cpp:150] Setting up data
I0309 02:04:49.404935 46337 net.cpp:157] Top shape: 20 3 227 227 (3091740)
I0309 02:04:49.404963 46337 net.cpp:157] Top shape: 20 (20)
I0309 02:04:49.404985 46337 net.cpp:165] Memory required for data: 12367040
I0309 02:04:49.405014 46337 layer_factory.hpp:77] Creating layer label_data_1_split
I0309 02:04:49.405050 46337 net.cpp:106] Creating Layer label_data_1_split
I0309 02:04:49.405081 46337 net.cpp:454] label_data_1_split <- label
I0309 02:04:49.405113 46337 net.cpp:411] label_data_1_split -> label_data_1_split_0
I0309 02:04:49.405149 46337 net.cpp:411] label_data_1_split -> label_data_1_split_1
I0309 02:04:49.405248 46337 net.cpp:150] Setting up label_data_1_split
I0309 02:04:49.405306 46337 net.cpp:157] Top shape: 20 (20)
I0309 02:04:49.405340 46337 net.cpp:157] Top shape: 20 (20)
I0309 02:04:49.405370 46337 net.cpp:165] Memory required for data: 12367200
I0309 02:04:49.405401 46337 layer_factory.hpp:77] Creating layer conv1
I0309 02:04:49.405441 46337 net.cpp:106] Creating Layer conv1
I0309 02:04:49.405475 46337 net.cpp:454] conv1 <- data
I0309 02:04:49.405509 46337 net.cpp:411] conv1 -> conv1
I0309 02:04:49.407023 46337 net.cpp:150] Setting up conv1
I0309 02:04:49.407068 46337 net.cpp:157] Top shape: 20 96 55 55 (5808000)
I0309 02:04:49.407094 46337 net.cpp:165] Memory required for data: 35599200
I0309 02:04:49.407129 46337 layer_factory.hpp:77] Creating layer relu1
I0309 02:04:49.407161 46337 net.cpp:106] Creating Layer relu1
I0309 02:04:49.407186 46337 net.cpp:454] relu1 <- conv1
I0309 02:04:49.407222 46337 net.cpp:397] relu1 -> conv1 (in-place)
I0309 02:04:49.407249 46337 net.cpp:150] Setting up relu1
I0309 02:04:49.407295 46337 net.cpp:157] Top shape: 20 96 55 55 (5808000)
I0309 02:04:49.407323 46337 net.cpp:165] Memory required for data: 58831200
I0309 02:04:49.407351 46337 layer_factory.hpp:77] Creating layer pool1
I0309 02:04:49.407384 46337 net.cpp:106] Creating Layer pool1
I0309 02:04:49.407413 46337 net.cpp:454] pool1 <- conv1
I0309 02:04:49.407445 46337 net.cpp:411] pool1 -> pool1
I0309 02:04:49.407510 46337 net.cpp:150] Setting up pool1
I0309 02:04:49.407547 46337 net.cpp:157] Top shape: 20 96 27 27 (1399680)
I0309 02:04:49.407587 46337 net.cpp:165] Memory required for data: 64429920
I0309 02:04:49.407613 46337 layer_factory.hpp:77] Creating layer norm1
I0309 02:04:49.407644 46337 net.cpp:106] Creating Layer norm1
I0309 02:04:49.407671 46337 net.cpp:454] norm1 <- pool1
I0309 02:04:49.407701 46337 net.cpp:411] norm1 -> norm1
I0309 02:04:49.407769 46337 net.cpp:150] Setting up norm1
I0309 02:04:49.407804 46337 net.cpp:157] Top shape: 20 96 27 27 (1399680)
I0309 02:04:49.407827 46337 net.cpp:165] Memory required for data: 70028640
I0309 02:04:49.407893 46337 layer_factory.hpp:77] Creating layer conv2
I0309 02:04:49.407927 46337 net.cpp:106] Creating Layer conv2
I0309 02:04:49.407953 46337 net.cpp:454] conv2 <- norm1
I0309 02:04:49.407981 46337 net.cpp:411] conv2 -> conv2
I0309 02:04:49.420397 46337 net.cpp:150] Setting up conv2
I0309 02:04:49.420449 46337 net.cpp:157] Top shape: 20 256 27 27 (3732480)
I0309 02:04:49.420475 46337 net.cpp:165] Memory required for data: 84958560
I0309 02:04:49.420516 46337 layer_factory.hpp:77] Creating layer relu2
I0309 02:04:49.420544 46337 net.cpp:106] Creating Layer relu2
I0309 02:04:49.420569 46337 net.cpp:454] relu2 <- conv2
I0309 02:04:49.420598 46337 net.cpp:397] relu2 -> conv2 (in-place)
I0309 02:04:49.420629 46337 net.cpp:150] Setting up relu2
I0309 02:04:49.420655 46337 net.cpp:157] Top shape: 20 256 27 27 (3732480)
I0309 02:04:49.420677 46337 net.cpp:165] Memory required for data: 99888480
I0309 02:04:49.420701 46337 layer_factory.hpp:77] Creating layer pool2
I0309 02:04:49.420730 46337 net.cpp:106] Creating Layer pool2
I0309 02:04:49.420768 46337 net.cpp:454] pool2 <- conv2
I0309 02:04:49.420794 46337 net.cpp:411] pool2 -> pool2
I0309 02:04:49.420877 46337 net.cpp:150] Setting up pool2
I0309 02:04:49.420924 46337 net.cpp:157] Top shape: 20 256 13 13 (865280)
I0309 02:04:49.420953 46337 net.cpp:165] Memory required for data: 103349600
I0309 02:04:49.420979 46337 layer_factory.hpp:77] Creating layer norm2
I0309 02:04:49.421010 46337 net.cpp:106] Creating Layer norm2
I0309 02:04:49.421052 46337 net.cpp:454] norm2 <- pool2
I0309 02:04:49.421089 46337 net.cpp:411] norm2 -> norm2
I0309 02:04:49.421159 46337 net.cpp:150] Setting up norm2
I0309 02:04:49.421193 46337 net.cpp:157] Top shape: 20 256 13 13 (865280)
I0309 02:04:49.421228 46337 net.cpp:165] Memory required for data: 106810720
I0309 02:04:49.421257 46337 layer_factory.hpp:77] Creating layer conv3
I0309 02:04:49.421310 46337 net.cpp:106] Creating Layer conv3
I0309 02:04:49.421341 46337 net.cpp:454] conv3 <- norm2
I0309 02:04:49.421375 46337 net.cpp:411] conv3 -> conv3
I0309 02:04:49.457041 46337 net.cpp:150] Setting up conv3
I0309 02:04:49.457129 46337 net.cpp:157] Top shape: 20 384 13 13 (1297920)
I0309 02:04:49.457159 46337 net.cpp:165] Memory required for data: 112002400
I0309 02:04:49.457197 46337 layer_factory.hpp:77] Creating layer relu3
I0309 02:04:49.457237 46337 net.cpp:106] Creating Layer relu3
I0309 02:04:49.457270 46337 net.cpp:454] relu3 <- conv3
I0309 02:04:49.457315 46337 net.cpp:397] relu3 -> conv3 (in-place)
I0309 02:04:49.457353 46337 net.cpp:150] Setting up relu3
I0309 02:04:49.457382 46337 net.cpp:157] Top shape: 20 384 13 13 (1297920)
I0309 02:04:49.457408 46337 net.cpp:165] Memory required for data: 117194080
I0309 02:04:49.457435 46337 layer_factory.hpp:77] Creating layer conv4
I0309 02:04:49.457473 46337 net.cpp:106] Creating Layer conv4
I0309 02:04:49.457502 46337 net.cpp:454] conv4 <- conv3
I0309 02:04:49.457533 46337 net.cpp:411] conv4 -> conv4
I0309 02:04:49.484052 46337 net.cpp:150] Setting up conv4
I0309 02:04:49.484099 46337 net.cpp:157] Top shape: 20 384 13 13 (1297920)
I0309 02:04:49.484128 46337 net.cpp:165] Memory required for data: 122385760
I0309 02:04:49.484159 46337 layer_factory.hpp:77] Creating layer relu4
I0309 02:04:49.484191 46337 net.cpp:106] Creating Layer relu4
I0309 02:04:49.484220 46337 net.cpp:454] relu4 <- conv4
I0309 02:04:49.484248 46337 net.cpp:397] relu4 -> conv4 (in-place)
I0309 02:04:49.484282 46337 net.cpp:150] Setting up relu4
I0309 02:04:49.484309 46337 net.cpp:157] Top shape: 20 384 13 13 (1297920)
I0309 02:04:49.484333 46337 net.cpp:165] Memory required for data: 127577440
I0309 02:04:49.484357 46337 layer_factory.hpp:77] Creating layer conv5
I0309 02:04:49.484390 46337 net.cpp:106] Creating Layer conv5
I0309 02:04:49.484416 46337 net.cpp:454] conv5 <- conv4
I0309 02:04:49.484443 46337 net.cpp:411] conv5 -> conv5
I0309 02:04:49.501904 46337 net.cpp:150] Setting up conv5
I0309 02:04:49.501955 46337 net.cpp:157] Top shape: 20 256 13 13 (865280)
I0309 02:04:49.501999 46337 net.cpp:165] Memory required for data: 131038560
I0309 02:04:49.502063 46337 layer_factory.hpp:77] Creating layer relu5
I0309 02:04:49.502090 46337 net.cpp:106] Creating Layer relu5
I0309 02:04:49.502113 46337 net.cpp:454] relu5 <- conv5
I0309 02:04:49.502152 46337 net.cpp:397] relu5 -> conv5 (in-place)
I0309 02:04:49.502182 46337 net.cpp:150] Setting up relu5
I0309 02:04:49.502205 46337 net.cpp:157] Top shape: 20 256 13 13 (865280)
I0309 02:04:49.502238 46337 net.cpp:165] Memory required for data: 134499680
I0309 02:04:49.502262 46337 layer_factory.hpp:77] Creating layer pool5
I0309 02:04:49.502292 46337 net.cpp:106] Creating Layer pool5
I0309 02:04:49.502315 46337 net.cpp:454] pool5 <- conv5
I0309 02:04:49.502342 46337 net.cpp:411] pool5 -> pool5
I0309 02:04:49.502408 46337 net.cpp:150] Setting up pool5
I0309 02:04:49.502447 46337 net.cpp:157] Top shape: 20 256 6 6 (184320)
I0309 02:04:49.502475 46337 net.cpp:165] Memory required for data: 135236960
I0309 02:04:49.502501 46337 layer_factory.hpp:77] Creating layer fc6
I0309 02:04:49.502544 46337 net.cpp:106] Creating Layer fc6
I0309 02:04:49.502571 46337 net.cpp:454] fc6 <- pool5
I0309 02:04:49.502612 46337 net.cpp:411] fc6 -> fc6
I0309 02:04:50.879762 46337 net.cpp:150] Setting up fc6
I0309 02:04:50.879897 46337 net.cpp:157] Top shape: 20 4096 (81920)
I0309 02:04:50.879921 46337 net.cpp:165] Memory required for data: 135564640
I0309 02:04:50.879953 46337 layer_factory.hpp:77] Creating layer relu6
I0309 02:04:50.879987 46337 net.cpp:106] Creating Layer relu6
I0309 02:04:50.880010 46337 net.cpp:454] relu6 <- fc6
I0309 02:04:50.880041 46337 net.cpp:397] relu6 -> fc6 (in-place)
I0309 02:04:50.880079 46337 net.cpp:150] Setting up relu6
I0309 02:04:50.880102 46337 net.cpp:157] Top shape: 20 4096 (81920)
I0309 02:04:50.880123 46337 net.cpp:165] Memory required for data: 135892320
I0309 02:04:50.880143 46337 layer_factory.hpp:77] Creating layer drop6
I0309 02:04:50.880170 46337 net.cpp:106] Creating Layer drop6
I0309 02:04:50.880192 46337 net.cpp:454] drop6 <- fc6
I0309 02:04:50.880214 46337 net.cpp:397] drop6 -> fc6 (in-place)
I0309 02:04:50.880269 46337 net.cpp:150] Setting up drop6
I0309 02:04:50.880298 46337 net.cpp:157] Top shape: 20 4096 (81920)
I0309 02:04:50.880319 46337 net.cpp:165] Memory required for data: 136220000
I0309 02:04:50.880339 46337 layer_factory.hpp:77] Creating layer fc7
I0309 02:04:50.880369 46337 net.cpp:106] Creating Layer fc7
I0309 02:04:50.880391 46337 net.cpp:454] fc7 <- fc6
I0309 02:04:50.880415 46337 net.cpp:411] fc7 -> fc7
I0309 02:04:51.493583 46337 net.cpp:150] Setting up fc7
I0309 02:04:51.493712 46337 net.cpp:157] Top shape: 20 4096 (81920)
I0309 02:04:51.493736 46337 net.cpp:165] Memory required for data: 136547680
I0309 02:04:51.493767 46337 layer_factory.hpp:77] Creating layer relu7
I0309 02:04:51.493801 46337 net.cpp:106] Creating Layer relu7
I0309 02:04:51.493824 46337 net.cpp:454] relu7 <- fc7
I0309 02:04:51.493855 46337 net.cpp:397] relu7 -> fc7 (in-place)
I0309 02:04:51.493893 46337 net.cpp:150] Setting up relu7
I0309 02:04:51.493917 46337 net.cpp:157] Top shape: 20 4096 (81920)
I0309 02:04:51.493937 46337 net.cpp:165] Memory required for data: 136875360
I0309 02:04:51.493957 46337 layer_factory.hpp:77] Creating layer drop7
I0309 02:04:51.493984 46337 net.cpp:106] Creating Layer drop7
I0309 02:04:51.494005 46337 net.cpp:454] drop7 <- fc7
I0309 02:04:51.494031 46337 net.cpp:397] drop7 -> fc7 (in-place)
I0309 02:04:51.494081 46337 net.cpp:150] Setting up drop7
I0309 02:04:51.494108 46337 net.cpp:157] Top shape: 20 4096 (81920)
I0309 02:04:51.494129 46337 net.cpp:165] Memory required for data: 137203040
I0309 02:04:51.494149 46337 layer_factory.hpp:77] Creating layer fc8_subset
I0309 02:04:51.494180 46337 net.cpp:106] Creating Layer fc8_subset
I0309 02:04:51.494204 46337 net.cpp:454] fc8_subset <- fc7
I0309 02:04:51.494227 46337 net.cpp:411] fc8_subset -> fc8_subset
I0309 02:04:51.497920 46337 net.cpp:150] Setting up fc8_subset
I0309 02:04:51.497954 46337 net.cpp:157] Top shape: 20 25 (500)
I0309 02:04:51.498000 46337 net.cpp:165] Memory required for data: 137205040
I0309 02:04:51.498062 46337 layer_factory.hpp:77] Creating layer fc8_subset_fc8_subset_0_split
I0309 02:04:51.498092 46337 net.cpp:106] Creating Layer fc8_subset_fc8_subset_0_split
I0309 02:04:51.498116 46337 net.cpp:454] fc8_subset_fc8_subset_0_split <- fc8_subset
I0309 02:04:51.498139 46337 net.cpp:411] fc8_subset_fc8_subset_0_split -> fc8_subset_fc8_subset_0_split_0
I0309 02:04:51.498164 46337 net.cpp:411] fc8_subset_fc8_subset_0_split -> fc8_subset_fc8_subset_0_split_1
I0309 02:04:51.498220 46337 net.cpp:150] Setting up fc8_subset_fc8_subset_0_split
I0309 02:04:51.498250 46337 net.cpp:157] Top shape: 20 25 (500)
I0309 02:04:51.498277 46337 net.cpp:157] Top shape: 20 25 (500)
I0309 02:04:51.498297 46337 net.cpp:165] Memory required for data: 137209040
I0309 02:04:51.498318 46337 layer_factory.hpp:77] Creating layer loss
I0309 02:04:51.498342 46337 net.cpp:106] Creating Layer loss
I0309 02:04:51.498363 46337 net.cpp:454] loss <- fc8_subset_fc8_subset_0_split_0
I0309 02:04:51.498385 46337 net.cpp:454] loss <- label_data_1_split_0
I0309 02:04:51.498411 46337 net.cpp:411] loss -> loss
…
