…
I0306 18:21:20.116700 45245 net.cpp:322] The NetState phase (0) differed from the phase (1) specified by a rule in layer accuracy
I0306 18:21:20.116909 45245 net.cpp:49] Initializing net from parameters: 
name: "FlickrStyleCaffeNet"
state {
  phase: TRAIN
}
layer {
  name: "data"
  type: "Data"
  top: "data"
  top: "label"
  include {
    phase: TRAIN
  }
  transform_param {
    mirror: true
    crop_size: 227
    mean_file: "/work/01932/dineshj/CS381V/caffe_install_scripts/caffe/data/ilsvrc12/imagenet_mean.binaryproto"
  }
  data_param {
    source: "/work/04018/wxie/maverick/visual_recognition/data/train-lmdb"
    batch_size: 128
    backend: LMDB
  }
}
layer {
  name: "conv1"
  type: "Convolution"
  bottom: "data"
  top: "conv1"
  param {
    lr_mult: 1
    decay_mult: 1
  }
  param {
    lr_mult: 2
    decay_mult: 0
  }
  convolution_param {
    num_output: 96
    kernel_size: 11
    stride: 4
    weight_filler {
      type: "gaussian"
      std: 0.01
    }
    bias_filler {
      type: "constant"
      value: 0
    }
  }
}
layer {
  name: "relu1"
  type: "ReLU"
  bottom: "conv1"
  top: "conv1"
}
layer {
  name: "pool1"
  type: "Pooling"
  bottom: "conv1"
  top: "pool1"
  pooling_param {
    pool: MAX
    kernel_size: 3
    stride: 2
  }
}
layer {
  name: "norm1"
  type: "LRN"
  bottom: "pool1"
  top: "norm1"
  lrn_param {
    local_size: 5
    alpha: 0.0001
    beta: 0.75
  }
}
layer {
  name: "conv2"
  type: "Convolution"
  bottom: "norm1"
  top: "conv2"
  param {
    lr_mult: 1
    decay_mult: 1
  }
  param {
    lr_mult: 2
    decay_mult: 0
  }
  convolution_param {
    num_output: 256
    pad: 2
    kernel_size: 5
    group: 2
    weight_filler {
      type: "gaussian"
      std: 0.01
    }
    bias_filler {
      type: "constant"
      value: 0.1
    }
  }
}
layer {
  name: "relu2"
  type: "ReLU"
  bottom: "conv2"
  top: "conv2"
}
layer {
  name: "pool2"
  type: "Pooling"
  bottom: "conv2"
  top: "pool2"
  pooling_param {
    pool: MAX
    kernel_size: 3
    stride: 2
  }
}
layer {
  name: "norm2"
  type: "LRN"
  bottom: "pool2"
  top: "norm2"
  lrn_param {
    local_size: 5
    alpha: 0.0001
    beta: 0.75
  }
}
layer {
  name: "conv3"
  type: "Convolution"
  bottom: "norm2"
  top: "conv3"
  param {
    lr_mult: 1
    decay_mult: 1
  }
  param {
    lr_mult: 2
    decay_mult: 0
  }
  convolution_param {
    num_output: 384
    pad: 1
    kernel_size: 3
    weight_filler {
      type: "gaussian"
      std: 0.01
    }
    bias_filler {
      type: "constant"
      value: 0
    }
  }
}
layer {
  name: "relu3"
  type: "ReLU"
  bottom: "conv3"
  top: "conv3"
}
layer {
  name: "conv4"
  type: "Convolution"
  bottom: "conv3"
  top: "conv4"
  param {
    lr_mult: 1
    decay_mult: 1
  }
  param {
    lr_mult: 2
    decay_mult: 0
  }
  convolution_param {
    num_output: 384
    pad: 1
    kernel_size: 3
    group: 2
    weight_filler {
      type: "gaussian"
      std: 0.01
    }
    bias_filler {
      type: "constant"
      value: 0.1
    }
  }
}
layer {
  name: "relu4"
  type: "ReLU"
  bottom: "conv4"
  top: "conv4"
}
layer {
  name: "conv5"
  type: "Convolution"
  bottom: "conv4"
  top: "conv5"
  param {
    lr_mult: 1
    decay_mult: 1
  }
  param {
    lr_mult: 2
    decay_mult: 0
  }
  convolution_param {
    num_output: 256
    pad: 1
    kernel_size: 3
    group: 2
    weight_filler {
      type: "gaussian"
      std: 0.01
    }
    bias_filler {
      type: "constant"
      value: 0.1
    }
  }
}
layer {
  name: "relu5"
  type: "ReLU"
  bottom: "conv5"
  top: "conv5"
}
layer {
  name: "pool5"
  type: "Pooling"
  bottom: "conv5"
  top: "pool5"
  pooling_param {
    pool: MAX
    kernel_size: 3
    stride: 2
  }
}
layer {
  name: "fc6"
  type: "InnerProduct"
  bottom: "pool5"
  top: "fc6"
  param {
    lr_mult: 1
    decay_mult: 1
  }
  param {
    lr_mult: 2
    decay_mult: 0
  }
  inner_product_param {
    num_output: 4096
    weight_filler {
      type: "gaussian"
      std: 0.005
    }
    bias_filler {
      type: "constant"
      value: 0.1
    }
  }
}
layer {
  name: "relu6"
  type: "ReLU"
  bottom: "fc6"
  top: "fc6"
}
layer {
  name: "drop6"
  type: "Dropout"
  bottom: "fc6"
  top: "fc6"
  dropout_param {
    dropout_ratio: 0.5
  }
}
layer {
  name: "fc7"
  type: "InnerProduct"
  bottom: "fc6"
  top: "fc7"
  param {
    lr_mult: 1
    decay_mult: 1
  }
  param {
    lr_mult: 2
    decay_mult: 0
  }
  inner_product_param {
    num_output: 4096
    weight_filler {
      type: "gaussian"
      std: 0.005
    }
    bias_filler {
      type: "constant"
      value: 0.1
    }
  }
}
layer {
  name: "relu7"
  type: "ReLU"
  bottom: "fc7"
  top: "fc7"
}
layer {
  name: "drop7"
  type: "Dropout"
  bottom: "fc7"
  top: "fc7"
  dropout_param {
    dropout_ratio: 0.5
  }
}
layer {
  name: "fc8_subset"
  type: "InnerProduct"
  bottom: "fc7"
  top: "fc8_subset"
  param {
    lr_mult: 10
    decay_mult: 1
  }
  param {
    lr_mult: 20
    decay_mult: 0
  }
  inner_product_param {
    num_output: 25
    weight_filler {
      type: "gaussian"
      std: 0.01
    }
    bias_filler {
      type: "constant"
      value: 0
    }
  }
}
layer {
  name: "loss"
  type: "SoftmaxWithLoss"
  bottom: "fc8_subset"
  bottom: "label"
  top: "loss"
}
I0306 18:21:20.117203 45245 layer_factory.hpp:77] Creating layer data
I0306 18:21:20.118005 45245 net.cpp:106] Creating Layer data
I0306 18:21:20.118059 45245 net.cpp:411] data -> data
I0306 18:21:20.118180 45245 net.cpp:411] data -> label
I0306 18:21:20.118263 45245 data_transformer.cpp:25] Loading mean file from: /work/01932/dineshj/CS381V/caffe_install_scripts/caffe/data/ilsvrc12/imagenet_mean.binaryproto
I0306 18:21:20.136097 45248 db_lmdb.cpp:38] Opened lmdb /work/04018/wxie/maverick/visual_recognition/data/train-lmdb
I0306 18:21:20.179118 45245 data_layer.cpp:41] output data size: 128,3,227,227
I0306 18:21:20.331740 45245 net.cpp:150] Setting up data
I0306 18:21:20.331840 45245 net.cpp:157] Top shape: 128 3 227 227 (19787136)
I0306 18:21:20.331877 45245 net.cpp:157] Top shape: 128 (128)
I0306 18:21:20.331908 45245 net.cpp:165] Memory required for data: 79149056
I0306 18:21:20.331957 45245 layer_factory.hpp:77] Creating layer conv1
I0306 18:21:20.332049 45245 net.cpp:106] Creating Layer conv1
I0306 18:21:20.332080 45245 net.cpp:454] conv1 <- data
I0306 18:21:20.332120 45245 net.cpp:411] conv1 -> conv1
I0306 18:21:20.341953 45245 net.cpp:150] Setting up conv1
I0306 18:21:20.342005 45245 net.cpp:157] Top shape: 128 96 55 55 (37171200)
I0306 18:21:20.342042 45245 net.cpp:165] Memory required for data: 227833856
I0306 18:21:20.342102 45245 layer_factory.hpp:77] Creating layer relu1
I0306 18:21:20.342136 45245 net.cpp:106] Creating Layer relu1
I0306 18:21:20.342185 45245 net.cpp:454] relu1 <- conv1
I0306 18:21:20.342222 45245 net.cpp:397] relu1 -> conv1 (in-place)
I0306 18:21:20.342262 45245 net.cpp:150] Setting up relu1
I0306 18:21:20.342288 45245 net.cpp:157] Top shape: 128 96 55 55 (37171200)
I0306 18:21:20.342317 45245 net.cpp:165] Memory required for data: 376518656
I0306 18:21:20.342342 45245 layer_factory.hpp:77] Creating layer pool1
I0306 18:21:20.342389 45245 net.cpp:106] Creating Layer pool1
I0306 18:21:20.342420 45245 net.cpp:454] pool1 <- conv1
I0306 18:21:20.342452 45245 net.cpp:411] pool1 -> pool1
I0306 18:21:20.342643 45245 net.cpp:150] Setting up pool1
I0306 18:21:20.342680 45245 net.cpp:157] Top shape: 128 96 27 27 (8957952)
I0306 18:21:20.342759 45245 net.cpp:165] Memory required for data: 412350464
I0306 18:21:20.342788 45245 layer_factory.hpp:77] Creating layer norm1
I0306 18:21:20.342821 45245 net.cpp:106] Creating Layer norm1
I0306 18:21:20.342849 45245 net.cpp:454] norm1 <- pool1
I0306 18:21:20.342881 45245 net.cpp:411] norm1 -> norm1
I0306 18:21:20.342974 45245 net.cpp:150] Setting up norm1
I0306 18:21:20.343011 45245 net.cpp:157] Top shape: 128 96 27 27 (8957952)
I0306 18:21:20.343039 45245 net.cpp:165] Memory required for data: 448182272
I0306 18:21:20.343065 45245 layer_factory.hpp:77] Creating layer conv2
I0306 18:21:20.343101 45245 net.cpp:106] Creating Layer conv2
I0306 18:21:20.343132 45245 net.cpp:454] conv2 <- norm1
I0306 18:21:20.343168 45245 net.cpp:411] conv2 -> conv2
I0306 18:21:20.355847 45245 net.cpp:150] Setting up conv2
I0306 18:21:20.355924 45245 net.cpp:157] Top shape: 128 256 27 27 (23887872)
I0306 18:21:20.355952 45245 net.cpp:165] Memory required for data: 543733760
I0306 18:21:20.355983 45245 layer_factory.hpp:77] Creating layer relu2
I0306 18:21:20.356012 45245 net.cpp:106] Creating Layer relu2
I0306 18:21:20.356040 45245 net.cpp:454] relu2 <- conv2
I0306 18:21:20.356076 45245 net.cpp:397] relu2 -> conv2 (in-place)
I0306 18:21:20.356111 45245 net.cpp:150] Setting up relu2
I0306 18:21:20.356145 45245 net.cpp:157] Top shape: 128 256 27 27 (23887872)
I0306 18:21:20.356175 45245 net.cpp:165] Memory required for data: 639285248
I0306 18:21:20.356202 45245 layer_factory.hpp:77] Creating layer pool2
I0306 18:21:20.356235 45245 net.cpp:106] Creating Layer pool2
I0306 18:21:20.356262 45245 net.cpp:454] pool2 <- conv2
I0306 18:21:20.356294 45245 net.cpp:411] pool2 -> pool2
I0306 18:21:20.356360 45245 net.cpp:150] Setting up pool2
I0306 18:21:20.356398 45245 net.cpp:157] Top shape: 128 256 13 13 (5537792)
I0306 18:21:20.356428 45245 net.cpp:165] Memory required for data: 661436416
I0306 18:21:20.356456 45245 layer_factory.hpp:77] Creating layer norm2
I0306 18:21:20.356489 45245 net.cpp:106] Creating Layer norm2
I0306 18:21:20.356518 45245 net.cpp:454] norm2 <- pool2
I0306 18:21:20.356549 45245 net.cpp:411] norm2 -> norm2
I0306 18:21:20.356609 45245 net.cpp:150] Setting up norm2
I0306 18:21:20.356645 45245 net.cpp:157] Top shape: 128 256 13 13 (5537792)
I0306 18:21:20.356673 45245 net.cpp:165] Memory required for data: 683587584
I0306 18:21:20.356701 45245 layer_factory.hpp:77] Creating layer conv3
I0306 18:21:20.356739 45245 net.cpp:106] Creating Layer conv3
I0306 18:21:20.356771 45245 net.cpp:454] conv3 <- norm2
I0306 18:21:20.356798 45245 net.cpp:411] conv3 -> conv3
I0306 18:21:20.391999 45245 net.cpp:150] Setting up conv3
I0306 18:21:20.392127 45245 net.cpp:157] Top shape: 128 384 13 13 (8306688)
I0306 18:21:20.392159 45245 net.cpp:165] Memory required for data: 716814336
I0306 18:21:20.392199 45245 layer_factory.hpp:77] Creating layer relu3
I0306 18:21:20.392237 45245 net.cpp:106] Creating Layer relu3
I0306 18:21:20.392266 45245 net.cpp:454] relu3 <- conv3
I0306 18:21:20.392297 45245 net.cpp:397] relu3 -> conv3 (in-place)
I0306 18:21:20.392334 45245 net.cpp:150] Setting up relu3
I0306 18:21:20.392360 45245 net.cpp:157] Top shape: 128 384 13 13 (8306688)
I0306 18:21:20.392395 45245 net.cpp:165] Memory required for data: 750041088
I0306 18:21:20.392417 45245 layer_factory.hpp:77] Creating layer conv4
I0306 18:21:20.392480 45245 net.cpp:106] Creating Layer conv4
I0306 18:21:20.392508 45245 net.cpp:454] conv4 <- conv3
I0306 18:21:20.392539 45245 net.cpp:411] conv4 -> conv4
I0306 18:21:20.425775 45245 net.cpp:150] Setting up conv4
I0306 18:21:20.425897 45245 net.cpp:157] Top shape: 128 384 13 13 (8306688)
I0306 18:21:20.425925 45245 net.cpp:165] Memory required for data: 783267840
I0306 18:21:20.425974 45245 layer_factory.hpp:77] Creating layer relu4
I0306 18:21:20.426005 45245 net.cpp:106] Creating Layer relu4
I0306 18:21:20.426038 45245 net.cpp:454] relu4 <- conv4
I0306 18:21:20.426065 45245 net.cpp:397] relu4 -> conv4 (in-place)
I0306 18:21:20.426115 45245 net.cpp:150] Setting up relu4
I0306 18:21:20.426179 45245 net.cpp:157] Top shape: 128 384 13 13 (8306688)
I0306 18:21:20.426245 45245 net.cpp:165] Memory required for data: 816494592
I0306 18:21:20.426270 45245 layer_factory.hpp:77] Creating layer conv5
I0306 18:21:20.426302 45245 net.cpp:106] Creating Layer conv5
I0306 18:21:20.426327 45245 net.cpp:454] conv5 <- conv4
I0306 18:21:20.426357 45245 net.cpp:411] conv5 -> conv5
I0306 18:21:20.444125 45245 net.cpp:150] Setting up conv5
I0306 18:21:20.444231 45245 net.cpp:157] Top shape: 128 256 13 13 (5537792)
I0306 18:21:20.444263 45245 net.cpp:165] Memory required for data: 838645760
I0306 18:21:20.444306 45245 layer_factory.hpp:77] Creating layer relu5
I0306 18:21:20.444360 45245 net.cpp:106] Creating Layer relu5
I0306 18:21:20.444404 45245 net.cpp:454] relu5 <- conv5
I0306 18:21:20.444435 45245 net.cpp:397] relu5 -> conv5 (in-place)
I0306 18:21:20.444483 45245 net.cpp:150] Setting up relu5
I0306 18:21:20.444512 45245 net.cpp:157] Top shape: 128 256 13 13 (5537792)
I0306 18:21:20.444538 45245 net.cpp:165] Memory required for data: 860796928
I0306 18:21:20.444566 45245 layer_factory.hpp:77] Creating layer pool5
I0306 18:21:20.444597 45245 net.cpp:106] Creating Layer pool5
I0306 18:21:20.444624 45245 net.cpp:454] pool5 <- conv5
I0306 18:21:20.444656 45245 net.cpp:411] pool5 -> pool5
I0306 18:21:20.444726 45245 net.cpp:150] Setting up pool5
I0306 18:21:20.444761 45245 net.cpp:157] Top shape: 128 256 6 6 (1179648)
I0306 18:21:20.444783 45245 net.cpp:165] Memory required for data: 865515520
I0306 18:21:20.444807 45245 layer_factory.hpp:77] Creating layer fc6
I0306 18:21:20.444878 45245 net.cpp:106] Creating Layer fc6
I0306 18:21:20.444911 45245 net.cpp:454] fc6 <- pool5
I0306 18:21:20.444943 45245 net.cpp:411] fc6 -> fc6
I0306 18:21:20.507078 45249 blocking_queue.cpp:50] Waiting for data
I0306 18:21:21.876767 45245 net.cpp:150] Setting up fc6
I0306 18:21:21.876900 45245 net.cpp:157] Top shape: 128 4096 (524288)
I0306 18:21:21.876925 45245 net.cpp:165] Memory required for data: 867612672
I0306 18:21:21.876957 45245 layer_factory.hpp:77] Creating layer relu6
I0306 18:21:21.876993 45245 net.cpp:106] Creating Layer relu6
I0306 18:21:21.877017 45245 net.cpp:454] relu6 <- fc6
I0306 18:21:21.877046 45245 net.cpp:397] relu6 -> fc6 (in-place)
I0306 18:21:21.877084 45245 net.cpp:150] Setting up relu6
I0306 18:21:21.877107 45245 net.cpp:157] Top shape: 128 4096 (524288)
I0306 18:21:21.877128 45245 net.cpp:165] Memory required for data: 869709824
I0306 18:21:21.877154 45245 layer_factory.hpp:77] Creating layer drop6
I0306 18:21:21.877187 45245 net.cpp:106] Creating Layer drop6
I0306 18:21:21.877209 45245 net.cpp:454] drop6 <- fc6
I0306 18:21:21.877233 45245 net.cpp:397] drop6 -> fc6 (in-place)
I0306 18:21:21.877321 45245 net.cpp:150] Setting up drop6
I0306 18:21:21.877352 45245 net.cpp:157] Top shape: 128 4096 (524288)
I0306 18:21:21.877375 45245 net.cpp:165] Memory required for data: 871806976
I0306 18:21:21.877398 45245 layer_factory.hpp:77] Creating layer fc7
I0306 18:21:21.877427 45245 net.cpp:106] Creating Layer fc7
I0306 18:21:21.877449 45245 net.cpp:454] fc7 <- fc6
I0306 18:21:21.877476 45245 net.cpp:411] fc7 -> fc7
I0306 18:21:22.489684 45245 net.cpp:150] Setting up fc7
I0306 18:21:22.489814 45245 net.cpp:157] Top shape: 128 4096 (524288)
I0306 18:21:22.489838 45245 net.cpp:165] Memory required for data: 873904128
I0306 18:21:22.489871 45245 layer_factory.hpp:77] Creating layer relu7
I0306 18:21:22.489908 45245 net.cpp:106] Creating Layer relu7
I0306 18:21:22.489933 45245 net.cpp:454] relu7 <- fc7
I0306 18:21:22.489964 45245 net.cpp:397] relu7 -> fc7 (in-place)
I0306 18:21:22.490000 45245 net.cpp:150] Setting up relu7
I0306 18:21:22.490025 45245 net.cpp:157] Top shape: 128 4096 (524288)
I0306 18:21:22.490046 45245 net.cpp:165] Memory required for data: 876001280
I0306 18:21:22.490067 45245 layer_factory.hpp:77] Creating layer drop7
I0306 18:21:22.490094 45245 net.cpp:106] Creating Layer drop7
I0306 18:21:22.490116 45245 net.cpp:454] drop7 <- fc7
I0306 18:21:22.490139 45245 net.cpp:397] drop7 -> fc7 (in-place)
I0306 18:21:22.490211 45245 net.cpp:150] Setting up drop7
I0306 18:21:22.490272 45245 net.cpp:157] Top shape: 128 4096 (524288)
I0306 18:21:22.490295 45245 net.cpp:165] Memory required for data: 878098432
I0306 18:21:22.490316 45245 layer_factory.hpp:77] Creating layer fc8_subset
I0306 18:21:22.490350 45245 net.cpp:106] Creating Layer fc8_subset
I0306 18:21:22.490373 45245 net.cpp:454] fc8_subset <- fc7
I0306 18:21:22.490401 45245 net.cpp:411] fc8_subset -> fc8_subset
I0306 18:21:22.494631 45245 net.cpp:150] Setting up fc8_subset
I0306 18:21:22.494667 45245 net.cpp:157] Top shape: 128 25 (3200)
I0306 18:21:22.494689 45245 net.cpp:165] Memory required for data: 878111232
I0306 18:21:22.494714 45245 layer_factory.hpp:77] Creating layer loss
I0306 18:21:22.494742 45245 net.cpp:106] Creating Layer loss
I0306 18:21:22.494765 45245 net.cpp:454] loss <- fc8_subset
I0306 18:21:22.494788 45245 net.cpp:454] loss <- label
I0306 18:21:22.494819 45245 net.cpp:411] loss -> loss
I0306 18:21:22.494889 45245 layer_factory.hpp:77] Creating layer loss
…
I0306 18:21:22.497787 45245 net.cpp:322] The NetState phase (1) differed from the phase (0) specified by a rule in layer data
I0306 18:21:22.498015 45245 net.cpp:49] Initializing net from parameters: 
name: "FlickrStyleCaffeNet"
state {
  phase: TEST
}
layer {
  name: "data"
  type: "Data"
  top: "data"
  top: "label"
  include {
    phase: TEST
  }
  transform_param {
    mirror: false
    crop_size: 227
    mean_file: "/work/01932/dineshj/CS381V/caffe_install_scripts/caffe/data/ilsvrc12/imagenet_mean.binaryproto"
  }
  data_param {
    source: "/work/04018/wxie/maverick/visual_recognition/data/test-lmdb"
    batch_size: 20
    backend: LMDB
  }
}
layer {
  name: "conv1"
  type: "Convolution"
  bottom: "data"
  top: "conv1"
  param {
    lr_mult: 1
    decay_mult: 1
  }
  param {
    lr_mult: 2
    decay_mult: 0
  }
  convolution_param {
    num_output: 96
    kernel_size: 11
    stride: 4
    weight_filler {
      type: "gaussian"
      std: 0.01
    }
    bias_filler {
      type: "constant"
      value: 0
    }
  }
}
layer {
  name: "relu1"
  type: "ReLU"
  bottom: "conv1"
  top: "conv1"
}
layer {
  name: "pool1"
  type: "Pooling"
  bottom: "conv1"
  top: "pool1"
  pooling_param {
    pool: MAX
    kernel_size: 3
    stride: 2
  }
}
layer {
  name: "norm1"
  type: "LRN"
  bottom: "pool1"
  top: "norm1"
  lrn_param {
    local_size: 5
    alpha: 0.0001
    beta: 0.75
  }
}
layer {
  name: "conv2"
  type: "Convolution"
  bottom: "norm1"
  top: "conv2"
  param {
    lr_mult: 1
    decay_mult: 1
  }
  param {
    lr_mult: 2
    decay_mult: 0
  }
  convolution_param {
    num_output: 256
    pad: 2
    kernel_size: 5
    group: 2
    weight_filler {
      type: "gaussian"
      std: 0.01
    }
    bias_filler {
      type: "constant"
      value: 0.1
    }
  }
}
layer {
  name: "relu2"
  type: "ReLU"
  bottom: "conv2"
  top: "conv2"
}
layer {
  name: "pool2"
  type: "Pooling"
  bottom: "conv2"
  top: "pool2"
  pooling_param {
    pool: MAX
    kernel_size: 3
    stride: 2
  }
}
layer {
  name: "norm2"
  type: "LRN"
  bottom: "pool2"
  top: "norm2"
  lrn_param {
    local_size: 5
    alpha: 0.0001
    beta: 0.75
  }
}
layer {
  name: "conv3"
  type: "Convolution"
  bottom: "norm2"
  top: "conv3"
  param {
    lr_mult: 1
    decay_mult: 1
  }
  param {
    lr_mult: 2
    decay_mult: 0
  }
  convolution_param {
    num_output: 384
    pad: 1
    kernel_size: 3
    weight_filler {
      type: "gaussian"
      std: 0.01
    }
    bias_filler {
      type: "constant"
      value: 0
    }
  }
}
layer {
  name: "relu3"
  type: "ReLU"
  bottom: "conv3"
  top: "conv3"
}
layer {
  name: "conv4"
  type: "Convolution"
  bottom: "conv3"
  top: "conv4"
  param {
    lr_mult: 1
    decay_mult: 1
  }
  param {
    lr_mult: 2
    decay_mult: 0
  }
  convolution_param {
    num_output: 384
    pad: 1
    kernel_size: 3
    group: 2
    weight_filler {
      type: "gaussian"
      std: 0.01
    }
    bias_filler {
      type: "constant"
      value: 0.1
    }
  }
}
layer {
  name: "relu4"
  type: "ReLU"
  bottom: "conv4"
  top: "conv4"
}
layer {
  name: "conv5"
  type: "Convolution"
  bottom: "conv4"
  top: "conv5"
  param {
    lr_mult: 1
    decay_mult: 1
  }
  param {
    lr_mult: 2
    decay_mult: 0
  }
  convolution_param {
    num_output: 256
    pad: 1
    kernel_size: 3
    group: 2
    weight_filler {
      type: "gaussian"
      std: 0.01
    }
    bias_filler {
      type: "constant"
      value: 0.1
    }
  }
}
layer {
  name: "relu5"
  type: "ReLU"
  bottom: "conv5"
  top: "conv5"
}
layer {
  name: "pool5"
  type: "Pooling"
  bottom: "conv5"
  top: "pool5"
  pooling_param {
    pool: MAX
    kernel_size: 3
    stride: 2
  }
}
layer {
  name: "fc6"
  type: "InnerProduct"
  bottom: "pool5"
  top: "fc6"
  param {
    lr_mult: 1
    decay_mult: 1
  }
  param {
    lr_mult: 2
    decay_mult: 0
  }
  inner_product_param {
    num_output: 4096
    weight_filler {
      type: "gaussian"
      std: 0.005
    }
    bias_filler {
      type: "constant"
      value: 0.1
    }
  }
}
layer {
  name: "relu6"
  type: "ReLU"
  bottom: "fc6"
  top: "fc6"
}
layer {
  name: "drop6"
  type: "Dropout"
  bottom: "fc6"
  top: "fc6"
  dropout_param {
    dropout_ratio: 0.5
  }
}
layer {
  name: "fc7"
  type: "InnerProduct"
  bottom: "fc6"
  top: "fc7"
  param {
    lr_mult: 1
    decay_mult: 1
  }
  param {
    lr_mult: 2
    decay_mult: 0
  }
  inner_product_param {
    num_output: 4096
    weight_filler {
      type: "gaussian"
      std: 0.005
    }
    bias_filler {
      type: "constant"
      value: 0.1
    }
  }
}
layer {
  name: "relu7"
  type: "ReLU"
  bottom: "fc7"
  top: "fc7"
}
layer {
  name: "drop7"
  type: "Dropout"
  bottom: "fc7"
  top: "fc7"
  dropout_param {
    dropout_ratio: 0.5
  }
}
layer {
  name: "fc8_subset"
  type: "InnerProduct"
  bottom: "fc7"
  top: "fc8_subset"
  param {
    lr_mult: 10
    decay_mult: 1
  }
  param {
    lr_mult: 20
    decay_mult: 0
  }
  inner_product_param {
    num_output: 25
    weight_filler {
      type: "gaussian"
      std: 0.01
    }
    bias_filler {
      type: "constant"
      value: 0
    }
  }
}
layer {
  name: "loss"
  type: "SoftmaxWithLoss"
  bottom: "fc8_subset"
  bottom: "label"
  top: "loss"
}
layer {
  name: "accuracy"
  type: "Accuracy"
  bottom: "fc8_subset"
  bottom: "label"
  top: "accuracy"
  include {
    phase: TEST
  }
}
I0306 18:21:22.498214 45245 layer_factory.hpp:77] Creating layer data
I0306 18:21:22.498360 45245 net.cpp:106] Creating Layer data
I0306 18:21:22.498396 45245 net.cpp:411] data -> data
I0306 18:21:22.498455 45245 net.cpp:411] data -> label
I0306 18:21:22.498487 45245 data_transformer.cpp:25] Loading mean file from: /work/01932/dineshj/CS381V/caffe_install_scripts/caffe/data/ilsvrc12/imagenet_mean.binaryproto
I0306 18:21:22.514614 45250 db_lmdb.cpp:38] Opened lmdb /work/04018/wxie/maverick/visual_recognition/data/test-lmdb
I0306 18:21:22.516350 45245 data_layer.cpp:41] output data size: 20,3,227,227
I0306 18:21:22.539645 45245 net.cpp:150] Setting up data
I0306 18:21:22.539736 45245 net.cpp:157] Top shape: 20 3 227 227 (3091740)
I0306 18:21:22.539774 45245 net.cpp:157] Top shape: 20 (20)
I0306 18:21:22.539804 45245 net.cpp:165] Memory required for data: 12367040
I0306 18:21:22.539829 45245 layer_factory.hpp:77] Creating layer label_data_1_split
I0306 18:21:22.539860 45245 net.cpp:106] Creating Layer label_data_1_split
I0306 18:21:22.539883 45245 net.cpp:454] label_data_1_split <- label
I0306 18:21:22.539911 45245 net.cpp:411] label_data_1_split -> label_data_1_split_0
I0306 18:21:22.539947 45245 net.cpp:411] label_data_1_split -> label_data_1_split_1
I0306 18:21:22.540042 45245 net.cpp:150] Setting up label_data_1_split
I0306 18:21:22.540078 45245 net.cpp:157] Top shape: 20 (20)
I0306 18:21:22.540120 45245 net.cpp:157] Top shape: 20 (20)
I0306 18:21:22.540153 45245 net.cpp:165] Memory required for data: 12367200
I0306 18:21:22.540179 45245 layer_factory.hpp:77] Creating layer conv1
I0306 18:21:22.540215 45245 net.cpp:106] Creating Layer conv1
I0306 18:21:22.540243 45245 net.cpp:454] conv1 <- data
I0306 18:21:22.540274 45245 net.cpp:411] conv1 -> conv1
I0306 18:21:22.541872 45245 net.cpp:150] Setting up conv1
I0306 18:21:22.541915 45245 net.cpp:157] Top shape: 20 96 55 55 (5808000)
I0306 18:21:22.541944 45245 net.cpp:165] Memory required for data: 35599200
I0306 18:21:22.541978 45245 layer_factory.hpp:77] Creating layer relu1
I0306 18:21:22.542011 45245 net.cpp:106] Creating Layer relu1
I0306 18:21:22.542038 45245 net.cpp:454] relu1 <- conv1
I0306 18:21:22.542068 45245 net.cpp:397] relu1 -> conv1 (in-place)
I0306 18:21:22.542094 45245 net.cpp:150] Setting up relu1
I0306 18:21:22.542119 45245 net.cpp:157] Top shape: 20 96 55 55 (5808000)
I0306 18:21:22.542145 45245 net.cpp:165] Memory required for data: 58831200
I0306 18:21:22.542173 45245 layer_factory.hpp:77] Creating layer pool1
I0306 18:21:22.542204 45245 net.cpp:106] Creating Layer pool1
I0306 18:21:22.542232 45245 net.cpp:454] pool1 <- conv1
I0306 18:21:22.542263 45245 net.cpp:411] pool1 -> pool1
I0306 18:21:22.542323 45245 net.cpp:150] Setting up pool1
I0306 18:21:22.542358 45245 net.cpp:157] Top shape: 20 96 27 27 (1399680)
I0306 18:21:22.542387 45245 net.cpp:165] Memory required for data: 64429920
I0306 18:21:22.542412 45245 layer_factory.hpp:77] Creating layer norm1
I0306 18:21:22.542441 45245 net.cpp:106] Creating Layer norm1
I0306 18:21:22.542469 45245 net.cpp:454] norm1 <- pool1
I0306 18:21:22.542497 45245 net.cpp:411] norm1 -> norm1
I0306 18:21:22.542554 45245 net.cpp:150] Setting up norm1
I0306 18:21:22.542589 45245 net.cpp:157] Top shape: 20 96 27 27 (1399680)
I0306 18:21:22.542616 45245 net.cpp:165] Memory required for data: 70028640
I0306 18:21:22.542641 45245 layer_factory.hpp:77] Creating layer conv2
I0306 18:21:22.542671 45245 net.cpp:106] Creating Layer conv2
I0306 18:21:22.542716 45245 net.cpp:454] conv2 <- norm1
I0306 18:21:22.542770 45245 net.cpp:411] conv2 -> conv2
I0306 18:21:22.555485 45245 net.cpp:150] Setting up conv2
I0306 18:21:22.555541 45245 net.cpp:157] Top shape: 20 256 27 27 (3732480)
I0306 18:21:22.555567 45245 net.cpp:165] Memory required for data: 84958560
I0306 18:21:22.555596 45245 layer_factory.hpp:77] Creating layer relu2
I0306 18:21:22.555624 45245 net.cpp:106] Creating Layer relu2
I0306 18:21:22.555647 45245 net.cpp:454] relu2 <- conv2
I0306 18:21:22.555675 45245 net.cpp:397] relu2 -> conv2 (in-place)
I0306 18:21:22.555704 45245 net.cpp:150] Setting up relu2
I0306 18:21:22.555730 45245 net.cpp:157] Top shape: 20 256 27 27 (3732480)
I0306 18:21:22.555753 45245 net.cpp:165] Memory required for data: 99888480
I0306 18:21:22.555780 45245 layer_factory.hpp:77] Creating layer pool2
I0306 18:21:22.555812 45245 net.cpp:106] Creating Layer pool2
I0306 18:21:22.555841 45245 net.cpp:454] pool2 <- conv2
I0306 18:21:22.555874 45245 net.cpp:411] pool2 -> pool2
I0306 18:21:22.555940 45245 net.cpp:150] Setting up pool2
I0306 18:21:22.555979 45245 net.cpp:157] Top shape: 20 256 13 13 (865280)
I0306 18:21:22.556025 45245 net.cpp:165] Memory required for data: 103349600
I0306 18:21:22.556052 45245 layer_factory.hpp:77] Creating layer norm2
I0306 18:21:22.556105 45245 net.cpp:106] Creating Layer norm2
I0306 18:21:22.556151 45245 net.cpp:454] norm2 <- pool2
I0306 18:21:22.556185 45245 net.cpp:411] norm2 -> norm2
I0306 18:21:22.556246 45245 net.cpp:150] Setting up norm2
I0306 18:21:22.556282 45245 net.cpp:157] Top shape: 20 256 13 13 (865280)
I0306 18:21:22.556326 45245 net.cpp:165] Memory required for data: 106810720
I0306 18:21:22.556356 45245 layer_factory.hpp:77] Creating layer conv3
I0306 18:21:22.556397 45245 net.cpp:106] Creating Layer conv3
I0306 18:21:22.556429 45245 net.cpp:454] conv3 <- norm2
I0306 18:21:22.556463 45245 net.cpp:411] conv3 -> conv3
I0306 18:21:22.591452 45245 net.cpp:150] Setting up conv3
I0306 18:21:22.591547 45245 net.cpp:157] Top shape: 20 384 13 13 (1297920)
I0306 18:21:22.591579 45245 net.cpp:165] Memory required for data: 112002400
I0306 18:21:22.591624 45245 layer_factory.hpp:77] Creating layer relu3
I0306 18:21:22.591663 45245 net.cpp:106] Creating Layer relu3
I0306 18:21:22.591693 45245 net.cpp:454] relu3 <- conv3
I0306 18:21:22.591725 45245 net.cpp:397] relu3 -> conv3 (in-place)
I0306 18:21:22.591761 45245 net.cpp:150] Setting up relu3
I0306 18:21:22.591792 45245 net.cpp:157] Top shape: 20 384 13 13 (1297920)
I0306 18:21:22.591819 45245 net.cpp:165] Memory required for data: 117194080
I0306 18:21:22.591845 45245 layer_factory.hpp:77] Creating layer conv4
I0306 18:21:22.591886 45245 net.cpp:106] Creating Layer conv4
I0306 18:21:22.591917 45245 net.cpp:454] conv4 <- conv3
I0306 18:21:22.591948 45245 net.cpp:411] conv4 -> conv4
I0306 18:21:22.617876 45245 net.cpp:150] Setting up conv4
I0306 18:21:22.617931 45245 net.cpp:157] Top shape: 20 384 13 13 (1297920)
I0306 18:21:22.617954 45245 net.cpp:165] Memory required for data: 122385760
I0306 18:21:22.617980 45245 layer_factory.hpp:77] Creating layer relu4
I0306 18:21:22.618006 45245 net.cpp:106] Creating Layer relu4
I0306 18:21:22.618029 45245 net.cpp:454] relu4 <- conv4
I0306 18:21:22.618055 45245 net.cpp:397] relu4 -> conv4 (in-place)
I0306 18:21:22.618096 45245 net.cpp:150] Setting up relu4
I0306 18:21:22.618134 45245 net.cpp:157] Top shape: 20 384 13 13 (1297920)
I0306 18:21:22.618161 45245 net.cpp:165] Memory required for data: 127577440
I0306 18:21:22.618196 45245 layer_factory.hpp:77] Creating layer conv5
I0306 18:21:22.618227 45245 net.cpp:106] Creating Layer conv5
I0306 18:21:22.618252 45245 net.cpp:454] conv5 <- conv4
I0306 18:21:22.618280 45245 net.cpp:411] conv5 -> conv5
I0306 18:21:22.635311 45245 net.cpp:150] Setting up conv5
I0306 18:21:22.635354 45245 net.cpp:157] Top shape: 20 256 13 13 (865280)
I0306 18:21:22.635383 45245 net.cpp:165] Memory required for data: 131038560
I0306 18:21:22.635418 45245 layer_factory.hpp:77] Creating layer relu5
I0306 18:21:22.635450 45245 net.cpp:106] Creating Layer relu5
I0306 18:21:22.635500 45245 net.cpp:454] relu5 <- conv5
I0306 18:21:22.635567 45245 net.cpp:397] relu5 -> conv5 (in-place)
I0306 18:21:22.635602 45245 net.cpp:150] Setting up relu5
I0306 18:21:22.635632 45245 net.cpp:157] Top shape: 20 256 13 13 (865280)
I0306 18:21:22.635659 45245 net.cpp:165] Memory required for data: 134499680
I0306 18:21:22.635684 45245 layer_factory.hpp:77] Creating layer pool5
I0306 18:21:22.635717 45245 net.cpp:106] Creating Layer pool5
I0306 18:21:22.635745 45245 net.cpp:454] pool5 <- conv5
I0306 18:21:22.635773 45245 net.cpp:411] pool5 -> pool5
I0306 18:21:22.635838 45245 net.cpp:150] Setting up pool5
I0306 18:21:22.635872 45245 net.cpp:157] Top shape: 20 256 6 6 (184320)
I0306 18:21:22.635900 45245 net.cpp:165] Memory required for data: 135236960
I0306 18:21:22.635924 45245 layer_factory.hpp:77] Creating layer fc6
I0306 18:21:22.635959 45245 net.cpp:106] Creating Layer fc6
I0306 18:21:22.635983 45245 net.cpp:454] fc6 <- pool5
I0306 18:21:22.636010 45245 net.cpp:411] fc6 -> fc6
I0306 18:21:24.013392 45245 net.cpp:150] Setting up fc6
I0306 18:21:24.013535 45245 net.cpp:157] Top shape: 20 4096 (81920)
I0306 18:21:24.013561 45245 net.cpp:165] Memory required for data: 135564640
I0306 18:21:24.013592 45245 layer_factory.hpp:77] Creating layer relu6
I0306 18:21:24.013628 45245 net.cpp:106] Creating Layer relu6
I0306 18:21:24.013653 45245 net.cpp:454] relu6 <- fc6
I0306 18:21:24.013680 45245 net.cpp:397] relu6 -> fc6 (in-place)
I0306 18:21:24.013717 45245 net.cpp:150] Setting up relu6
I0306 18:21:24.013742 45245 net.cpp:157] Top shape: 20 4096 (81920)
I0306 18:21:24.013762 45245 net.cpp:165] Memory required for data: 135892320
I0306 18:21:24.013784 45245 layer_factory.hpp:77] Creating layer drop6
I0306 18:21:24.013811 45245 net.cpp:106] Creating Layer drop6
I0306 18:21:24.013833 45245 net.cpp:454] drop6 <- fc6
I0306 18:21:24.013859 45245 net.cpp:397] drop6 -> fc6 (in-place)
I0306 18:21:24.013911 45245 net.cpp:150] Setting up drop6
I0306 18:21:24.013939 45245 net.cpp:157] Top shape: 20 4096 (81920)
I0306 18:21:24.013962 45245 net.cpp:165] Memory required for data: 136220000
I0306 18:21:24.013983 45245 layer_factory.hpp:77] Creating layer fc7
I0306 18:21:24.014013 45245 net.cpp:106] Creating Layer fc7
I0306 18:21:24.014034 45245 net.cpp:454] fc7 <- fc6
I0306 18:21:24.014061 45245 net.cpp:411] fc7 -> fc7
I0306 18:21:24.626672 45245 net.cpp:150] Setting up fc7
I0306 18:21:24.626797 45245 net.cpp:157] Top shape: 20 4096 (81920)
I0306 18:21:24.626821 45245 net.cpp:165] Memory required for data: 136547680
I0306 18:21:24.626854 45245 layer_factory.hpp:77] Creating layer relu7
I0306 18:21:24.626890 45245 net.cpp:106] Creating Layer relu7
I0306 18:21:24.626915 45245 net.cpp:454] relu7 <- fc7
I0306 18:21:24.626943 45245 net.cpp:397] relu7 -> fc7 (in-place)
I0306 18:21:24.626984 45245 net.cpp:150] Setting up relu7
I0306 18:21:24.627009 45245 net.cpp:157] Top shape: 20 4096 (81920)
I0306 18:21:24.627032 45245 net.cpp:165] Memory required for data: 136875360
I0306 18:21:24.627053 45245 layer_factory.hpp:77] Creating layer drop7
I0306 18:21:24.627081 45245 net.cpp:106] Creating Layer drop7
I0306 18:21:24.627104 45245 net.cpp:454] drop7 <- fc7
I0306 18:21:24.627127 45245 net.cpp:397] drop7 -> fc7 (in-place)
I0306 18:21:24.627185 45245 net.cpp:150] Setting up drop7
I0306 18:21:24.627215 45245 net.cpp:157] Top shape: 20 4096 (81920)
I0306 18:21:24.627238 45245 net.cpp:165] Memory required for data: 137203040
I0306 18:21:24.627259 45245 layer_factory.hpp:77] Creating layer fc8_subset
I0306 18:21:24.627288 45245 net.cpp:106] Creating Layer fc8_subset
I0306 18:21:24.627315 45245 net.cpp:454] fc8_subset <- fc7
I0306 18:21:24.627339 45245 net.cpp:411] fc8_subset -> fc8_subset
I0306 18:21:24.631023 45245 net.cpp:150] Setting up fc8_subset
I0306 18:21:24.631057 45245 net.cpp:157] Top shape: 20 25 (500)
I0306 18:21:24.631080 45245 net.cpp:165] Memory required for data: 137205040
I0306 18:21:24.631105 45245 layer_factory.hpp:77] Creating layer fc8_subset_fc8_subset_0_split
I0306 18:21:24.631132 45245 net.cpp:106] Creating Layer fc8_subset_fc8_subset_0_split
I0306 18:21:24.631218 45245 net.cpp:454] fc8_subset_fc8_subset_0_split <- fc8_subset
I0306 18:21:24.631245 45245 net.cpp:411] fc8_subset_fc8_subset_0_split -> fc8_subset_fc8_subset_0_split_0
I0306 18:21:24.631275 45245 net.cpp:411] fc8_subset_fc8_subset_0_split -> fc8_subset_fc8_subset_0_split_1
I0306 18:21:24.631332 45245 net.cpp:150] Setting up fc8_subset_fc8_subset_0_split
I0306 18:21:24.631362 45245 net.cpp:157] Top shape: 20 25 (500)
I0306 18:21:24.631386 45245 net.cpp:157] Top shape: 20 25 (500)
I0306 18:21:24.631408 45245 net.cpp:165] Memory required for data: 137209040
I0306 18:21:24.631429 45245 layer_factory.hpp:77] Creating layer loss
I0306 18:21:24.631455 45245 net.cpp:106] Creating Layer loss
I0306 18:21:24.631479 45245 net.cpp:454] loss <- fc8_subset_fc8_subset_0_split_0
I0306 18:21:24.631502 45245 net.cpp:454] loss <- label_data_1_split_0
I0306 18:21:24.631526 45245 net.cpp:411] loss -> loss
…
