…
I0308 23:54:48.037170 54992 net.cpp:322] The NetState phase (0) differed from the phase (1) specified by a rule in layer accuracy
I0308 23:54:48.037382 54992 net.cpp:49] Initializing net from parameters: 
name: "FlickrStyleCaffeNet"
state {
  phase: TRAIN
}
layer {
  name: "data"
  type: "Data"
  top: "data"
  top: "label"
  include {
    phase: TRAIN
  }
  transform_param {
    mirror: true
    crop_size: 227
    mean_file: "/work/01932/dineshj/CS381V/caffe_install_scripts/caffe/data/ilsvrc12/imagenet_mean.binaryproto"
  }
  data_param {
    source: "/work/04018/wxie/maverick/visual_recognition/data/train-lmdb"
    batch_size: 128
    backend: LMDB
  }
}
layer {
  name: "conv1"
  type: "Convolution"
  bottom: "data"
  top: "conv1"
  param {
    lr_mult: 1
    decay_mult: 1
  }
  param {
    lr_mult: 2
    decay_mult: 0
  }
  convolution_param {
    num_output: 96
    kernel_size: 11
    stride: 4
    weight_filler {
      type: "gaussian"
      std: 0.01
    }
    bias_filler {
      type: "constant"
      value: 0
    }
  }
}
layer {
  name: "relu1"
  type: "ReLU"
  bottom: "conv1"
  top: "conv1"
}
layer {
  name: "pool1"
  type: "Pooling"
  bottom: "conv1"
  top: "pool1"
  pooling_param {
    pool: MAX
    kernel_size: 3
    stride: 2
  }
}
layer {
  name: "norm1"
  type: "LRN"
  bottom: "pool1"
  top: "norm1"
  lrn_param {
    local_size: 5
    alpha: 0.0001
    beta: 0.75
  }
}
layer {
  name: "conv2"
  type: "Convolution"
  bottom: "norm1"
  top: "conv2"
  param {
    lr_mult: 1
    decay_mult: 1
  }
  param {
    lr_mult: 2
    decay_mult: 0
  }
  convolution_param {
    num_output: 256
    pad: 2
    kernel_size: 5
    group: 2
    weight_filler {
      type: "gaussian"
      std: 0.01
    }
    bias_filler {
      type: "constant"
      value: 0.1
    }
  }
}
layer {
  name: "relu2"
  type: "ReLU"
  bottom: "conv2"
  top: "conv2"
}
layer {
  name: "pool2"
  type: "Pooling"
  bottom: "conv2"
  top: "pool2"
  pooling_param {
    pool: MAX
    kernel_size: 3
    stride: 2
  }
}
layer {
  name: "norm2"
  type: "LRN"
  bottom: "pool2"
  top: "norm2"
  lrn_param {
    local_size: 5
    alpha: 0.0001
    beta: 0.75
  }
}
layer {
  name: "conv3"
  type: "Convolution"
  bottom: "norm2"
  top: "conv3"
  param {
    lr_mult: 1
    decay_mult: 1
  }
  param {
    lr_mult: 2
    decay_mult: 0
  }
  convolution_param {
    num_output: 384
    pad: 1
    kernel_size: 3
    weight_filler {
      type: "gaussian"
      std: 0.01
    }
    bias_filler {
      type: "constant"
      value: 0
    }
  }
}
layer {
  name: "relu3"
  type: "ReLU"
  bottom: "conv3"
  top: "conv3"
}
layer {
  name: "conv4"
  type: "Convolution"
  bottom: "conv3"
  top: "conv4"
  param {
    lr_mult: 1
    decay_mult: 1
  }
  param {
    lr_mult: 2
    decay_mult: 0
  }
  convolution_param {
    num_output: 384
    pad: 1
    kernel_size: 3
    group: 2
    weight_filler {
      type: "gaussian"
      std: 0.01
    }
    bias_filler {
      type: "constant"
      value: 0.1
    }
  }
}
layer {
  name: "relu4"
  type: "ReLU"
  bottom: "conv4"
  top: "conv4"
}
layer {
  name: "conv5"
  type: "Convolution"
  bottom: "conv4"
  top: "conv5"
  param {
    lr_mult: 1
    decay_mult: 1
  }
  param {
    lr_mult: 2
    decay_mult: 0
  }
  convolution_param {
    num_output: 256
    pad: 1
    kernel_size: 3
    group: 2
    weight_filler {
      type: "gaussian"
      std: 0.01
    }
    bias_filler {
      type: "constant"
      value: 0.1
    }
  }
}
layer {
  name: "relu5"
  type: "ReLU"
  bottom: "conv5"
  top: "conv5"
}
layer {
  name: "pool5"
  type: "Pooling"
  bottom: "conv5"
  top: "pool5"
  pooling_param {
    pool: MAX
    kernel_size: 3
    stride: 2
  }
}
layer {
  name: "fc6"
  type: "InnerProduct"
  bottom: "pool5"
  top: "fc6"
  param {
    lr_mult: 1
    decay_mult: 1
  }
  param {
    lr_mult: 2
    decay_mult: 0
  }
  inner_product_param {
    num_output: 4096
    weight_filler {
      type: "gaussian"
      std: 0.005
    }
    bias_filler {
      type: "constant"
      value: 0.1
    }
  }
}
layer {
  name: "relu6"
  type: "ReLU"
  bottom: "fc6"
  top: "fc6"
}
layer {
  name: "drop6"
  type: "Dropout"
  bottom: "fc6"
  top: "fc6"
  dropout_param {
    dropout_ratio: 0.5
  }
}
layer {
  name: "fc7"
  type: "InnerProduct"
  bottom: "fc6"
  top: "fc7"
  param {
    lr_mult: 1
    decay_mult: 1
  }
  param {
    lr_mult: 2
    decay_mult: 0
  }
  inner_product_param {
    num_output: 4096
    weight_filler {
      type: "gaussian"
      std: 0.005
    }
    bias_filler {
      type: "constant"
      value: 0.1
    }
  }
}
layer {
  name: "relu7"
  type: "ReLU"
  bottom: "fc7"
  top: "fc7"
}
layer {
  name: "drop7"
  type: "Dropout"
  bottom: "fc7"
  top: "fc7"
  dropout_param {
    dropout_ratio: 0.5
  }
}
layer {
  name: "fc8_subset"
  type: "InnerProduct"
  bottom: "fc7"
  top: "fc8_subset"
  param {
    lr_mult: 10
    decay_mult: 1
  }
  param {
    lr_mult: 20
    decay_mult: 0
  }
  inner_product_param {
    num_output: 25
    weight_filler {
      type: "gaussian"
      std: 0.01
    }
    bias_filler {
      type: "constant"
      value: 0
    }
  }
}
layer {
  name: "loss"
  type: "SoftmaxWithLoss"
  bottom: "fc8_subset"
  bottom: "label"
  top: "loss"
}
I0308 23:54:48.037665 54992 layer_factory.hpp:77] Creating layer data
I0308 23:54:48.038441 54992 net.cpp:106] Creating Layer data
I0308 23:54:48.038497 54992 net.cpp:411] data -> data
I0308 23:54:48.038607 54992 net.cpp:411] data -> label
I0308 23:54:48.038688 54992 data_transformer.cpp:25] Loading mean file from: /work/01932/dineshj/CS381V/caffe_install_scripts/caffe/data/ilsvrc12/imagenet_mean.binaryproto
I0308 23:54:48.057019 54995 db_lmdb.cpp:38] Opened lmdb /work/04018/wxie/maverick/visual_recognition/data/train-lmdb
I0308 23:54:48.107455 54992 data_layer.cpp:41] output data size: 128,3,227,227
I0308 23:54:48.270934 54992 net.cpp:150] Setting up data
I0308 23:54:48.271037 54992 net.cpp:157] Top shape: 128 3 227 227 (19787136)
I0308 23:54:48.271071 54992 net.cpp:157] Top shape: 128 (128)
I0308 23:54:48.271100 54992 net.cpp:165] Memory required for data: 79149056
I0308 23:54:48.271142 54992 layer_factory.hpp:77] Creating layer conv1
I0308 23:54:48.271219 54992 net.cpp:106] Creating Layer conv1
I0308 23:54:48.271252 54992 net.cpp:454] conv1 <- data
I0308 23:54:48.271298 54992 net.cpp:411] conv1 -> conv1
I0308 23:54:48.281608 54992 net.cpp:150] Setting up conv1
I0308 23:54:48.281656 54992 net.cpp:157] Top shape: 128 96 55 55 (37171200)
I0308 23:54:48.281684 54992 net.cpp:165] Memory required for data: 227833856
I0308 23:54:48.281738 54992 layer_factory.hpp:77] Creating layer relu1
I0308 23:54:48.281771 54992 net.cpp:106] Creating Layer relu1
I0308 23:54:48.281800 54992 net.cpp:454] relu1 <- conv1
I0308 23:54:48.281831 54992 net.cpp:397] relu1 -> conv1 (in-place)
I0308 23:54:48.281865 54992 net.cpp:150] Setting up relu1
I0308 23:54:48.281893 54992 net.cpp:157] Top shape: 128 96 55 55 (37171200)
I0308 23:54:48.281916 54992 net.cpp:165] Memory required for data: 376518656
I0308 23:54:48.281939 54992 layer_factory.hpp:77] Creating layer pool1
I0308 23:54:48.281971 54992 net.cpp:106] Creating Layer pool1
I0308 23:54:48.282001 54992 net.cpp:454] pool1 <- conv1
I0308 23:54:48.282032 54992 net.cpp:411] pool1 -> pool1
I0308 23:54:48.282196 54992 net.cpp:150] Setting up pool1
I0308 23:54:48.282237 54992 net.cpp:157] Top shape: 128 96 27 27 (8957952)
I0308 23:54:48.282313 54992 net.cpp:165] Memory required for data: 412350464
I0308 23:54:48.282348 54992 layer_factory.hpp:77] Creating layer norm1
I0308 23:54:48.282382 54992 net.cpp:106] Creating Layer norm1
I0308 23:54:48.282412 54992 net.cpp:454] norm1 <- pool1
I0308 23:54:48.282444 54992 net.cpp:411] norm1 -> norm1
I0308 23:54:48.282548 54992 net.cpp:150] Setting up norm1
I0308 23:54:48.282584 54992 net.cpp:157] Top shape: 128 96 27 27 (8957952)
I0308 23:54:48.282611 54992 net.cpp:165] Memory required for data: 448182272
I0308 23:54:48.282637 54992 layer_factory.hpp:77] Creating layer conv2
I0308 23:54:48.282670 54992 net.cpp:106] Creating Layer conv2
I0308 23:54:48.282696 54992 net.cpp:454] conv2 <- norm1
I0308 23:54:48.282721 54992 net.cpp:411] conv2 -> conv2
I0308 23:54:48.295518 54992 net.cpp:150] Setting up conv2
I0308 23:54:48.295599 54992 net.cpp:157] Top shape: 128 256 27 27 (23887872)
I0308 23:54:48.295639 54992 net.cpp:165] Memory required for data: 543733760
I0308 23:54:48.295675 54992 layer_factory.hpp:77] Creating layer relu2
I0308 23:54:48.295706 54992 net.cpp:106] Creating Layer relu2
I0308 23:54:48.295730 54992 net.cpp:454] relu2 <- conv2
I0308 23:54:48.295758 54992 net.cpp:397] relu2 -> conv2 (in-place)
I0308 23:54:48.295794 54992 net.cpp:150] Setting up relu2
I0308 23:54:48.295825 54992 net.cpp:157] Top shape: 128 256 27 27 (23887872)
I0308 23:54:48.295851 54992 net.cpp:165] Memory required for data: 639285248
I0308 23:54:48.295877 54992 layer_factory.hpp:77] Creating layer pool2
I0308 23:54:48.295908 54992 net.cpp:106] Creating Layer pool2
I0308 23:54:48.295935 54992 net.cpp:454] pool2 <- conv2
I0308 23:54:48.295966 54992 net.cpp:411] pool2 -> pool2
I0308 23:54:48.296027 54992 net.cpp:150] Setting up pool2
I0308 23:54:48.296061 54992 net.cpp:157] Top shape: 128 256 13 13 (5537792)
I0308 23:54:48.296085 54992 net.cpp:165] Memory required for data: 661436416
I0308 23:54:48.296110 54992 layer_factory.hpp:77] Creating layer norm2
I0308 23:54:48.296144 54992 net.cpp:106] Creating Layer norm2
I0308 23:54:48.296171 54992 net.cpp:454] norm2 <- pool2
I0308 23:54:48.296211 54992 net.cpp:411] norm2 -> norm2
I0308 23:54:48.296269 54992 net.cpp:150] Setting up norm2
I0308 23:54:48.296303 54992 net.cpp:157] Top shape: 128 256 13 13 (5537792)
I0308 23:54:48.296334 54992 net.cpp:165] Memory required for data: 683587584
I0308 23:54:48.296361 54992 layer_factory.hpp:77] Creating layer conv3
I0308 23:54:48.296394 54992 net.cpp:106] Creating Layer conv3
I0308 23:54:48.296421 54992 net.cpp:454] conv3 <- norm2
I0308 23:54:48.296449 54992 net.cpp:411] conv3 -> conv3
I0308 23:54:48.331480 54992 net.cpp:150] Setting up conv3
I0308 23:54:48.331609 54992 net.cpp:157] Top shape: 128 384 13 13 (8306688)
I0308 23:54:48.331640 54992 net.cpp:165] Memory required for data: 716814336
I0308 23:54:48.331683 54992 layer_factory.hpp:77] Creating layer relu3
I0308 23:54:48.331722 54992 net.cpp:106] Creating Layer relu3
I0308 23:54:48.331751 54992 net.cpp:454] relu3 <- conv3
I0308 23:54:48.331794 54992 net.cpp:397] relu3 -> conv3 (in-place)
I0308 23:54:48.331832 54992 net.cpp:150] Setting up relu3
I0308 23:54:48.331863 54992 net.cpp:157] Top shape: 128 384 13 13 (8306688)
I0308 23:54:48.331888 54992 net.cpp:165] Memory required for data: 750041088
I0308 23:54:48.331917 54992 layer_factory.hpp:77] Creating layer conv4
I0308 23:54:48.331975 54992 net.cpp:106] Creating Layer conv4
I0308 23:54:48.332007 54992 net.cpp:454] conv4 <- conv3
I0308 23:54:48.332041 54992 net.cpp:411] conv4 -> conv4
I0308 23:54:48.365242 54992 net.cpp:150] Setting up conv4
I0308 23:54:48.365346 54992 net.cpp:157] Top shape: 128 384 13 13 (8306688)
I0308 23:54:48.365372 54992 net.cpp:165] Memory required for data: 783267840
I0308 23:54:48.365401 54992 layer_factory.hpp:77] Creating layer relu4
I0308 23:54:48.365432 54992 net.cpp:106] Creating Layer relu4
I0308 23:54:48.365455 54992 net.cpp:454] relu4 <- conv4
I0308 23:54:48.365481 54992 net.cpp:397] relu4 -> conv4 (in-place)
I0308 23:54:48.365525 54992 net.cpp:150] Setting up relu4
I0308 23:54:48.365576 54992 net.cpp:157] Top shape: 128 384 13 13 (8306688)
I0308 23:54:48.365643 54992 net.cpp:165] Memory required for data: 816494592
I0308 23:54:48.365667 54992 layer_factory.hpp:77] Creating layer conv5
I0308 23:54:48.365703 54992 net.cpp:106] Creating Layer conv5
I0308 23:54:48.365730 54992 net.cpp:454] conv5 <- conv4
I0308 23:54:48.365758 54992 net.cpp:411] conv5 -> conv5
I0308 23:54:48.383707 54992 net.cpp:150] Setting up conv5
I0308 23:54:48.383800 54992 net.cpp:157] Top shape: 128 256 13 13 (5537792)
I0308 23:54:48.383841 54992 net.cpp:165] Memory required for data: 838645760
I0308 23:54:48.383883 54992 layer_factory.hpp:77] Creating layer relu5
I0308 23:54:48.383925 54992 net.cpp:106] Creating Layer relu5
I0308 23:54:48.383958 54992 net.cpp:454] relu5 <- conv5
I0308 23:54:48.383993 54992 net.cpp:397] relu5 -> conv5 (in-place)
I0308 23:54:48.384044 54992 net.cpp:150] Setting up relu5
I0308 23:54:48.384075 54992 net.cpp:157] Top shape: 128 256 13 13 (5537792)
I0308 23:54:48.384102 54992 net.cpp:165] Memory required for data: 860796928
I0308 23:54:48.384130 54992 layer_factory.hpp:77] Creating layer pool5
I0308 23:54:48.384172 54992 net.cpp:106] Creating Layer pool5
I0308 23:54:48.384196 54992 net.cpp:454] pool5 <- conv5
I0308 23:54:48.384224 54992 net.cpp:411] pool5 -> pool5
I0308 23:54:48.384286 54992 net.cpp:150] Setting up pool5
I0308 23:54:48.384330 54992 net.cpp:157] Top shape: 128 256 6 6 (1179648)
I0308 23:54:48.384359 54992 net.cpp:165] Memory required for data: 865515520
I0308 23:54:48.384387 54992 layer_factory.hpp:77] Creating layer fc6
I0308 23:54:48.384456 54992 net.cpp:106] Creating Layer fc6
I0308 23:54:48.384488 54992 net.cpp:454] fc6 <- pool5
I0308 23:54:48.384521 54992 net.cpp:411] fc6 -> fc6
I0308 23:54:48.454449 54996 blocking_queue.cpp:50] Waiting for data
I0308 23:54:49.818090 54992 net.cpp:150] Setting up fc6
I0308 23:54:49.818222 54992 net.cpp:157] Top shape: 128 4096 (524288)
I0308 23:54:49.818248 54992 net.cpp:165] Memory required for data: 867612672
I0308 23:54:49.818279 54992 layer_factory.hpp:77] Creating layer relu6
I0308 23:54:49.818311 54992 net.cpp:106] Creating Layer relu6
I0308 23:54:49.818341 54992 net.cpp:454] relu6 <- fc6
I0308 23:54:49.818369 54992 net.cpp:397] relu6 -> fc6 (in-place)
I0308 23:54:49.818403 54992 net.cpp:150] Setting up relu6
I0308 23:54:49.818428 54992 net.cpp:157] Top shape: 128 4096 (524288)
I0308 23:54:49.818449 54992 net.cpp:165] Memory required for data: 869709824
I0308 23:54:49.818470 54992 layer_factory.hpp:77] Creating layer drop6
I0308 23:54:49.818500 54992 net.cpp:106] Creating Layer drop6
I0308 23:54:49.818523 54992 net.cpp:454] drop6 <- fc6
I0308 23:54:49.818547 54992 net.cpp:397] drop6 -> fc6 (in-place)
I0308 23:54:49.818626 54992 net.cpp:150] Setting up drop6
I0308 23:54:49.818660 54992 net.cpp:157] Top shape: 128 4096 (524288)
I0308 23:54:49.818681 54992 net.cpp:165] Memory required for data: 871806976
I0308 23:54:49.818703 54992 layer_factory.hpp:77] Creating layer fc7
I0308 23:54:49.818733 54992 net.cpp:106] Creating Layer fc7
I0308 23:54:49.818755 54992 net.cpp:454] fc7 <- fc6
I0308 23:54:49.818783 54992 net.cpp:411] fc7 -> fc7
I0308 23:54:50.433538 54992 net.cpp:150] Setting up fc7
I0308 23:54:50.433663 54992 net.cpp:157] Top shape: 128 4096 (524288)
I0308 23:54:50.433687 54992 net.cpp:165] Memory required for data: 873904128
I0308 23:54:50.433719 54992 layer_factory.hpp:77] Creating layer relu7
I0308 23:54:50.433755 54992 net.cpp:106] Creating Layer relu7
I0308 23:54:50.433781 54992 net.cpp:454] relu7 <- fc7
I0308 23:54:50.433809 54992 net.cpp:397] relu7 -> fc7 (in-place)
I0308 23:54:50.433845 54992 net.cpp:150] Setting up relu7
I0308 23:54:50.433869 54992 net.cpp:157] Top shape: 128 4096 (524288)
I0308 23:54:50.433892 54992 net.cpp:165] Memory required for data: 876001280
I0308 23:54:50.433912 54992 layer_factory.hpp:77] Creating layer drop7
I0308 23:54:50.433939 54992 net.cpp:106] Creating Layer drop7
I0308 23:54:50.433961 54992 net.cpp:454] drop7 <- fc7
I0308 23:54:50.433985 54992 net.cpp:397] drop7 -> fc7 (in-place)
I0308 23:54:50.434053 54992 net.cpp:150] Setting up drop7
I0308 23:54:50.434114 54992 net.cpp:157] Top shape: 128 4096 (524288)
I0308 23:54:50.434137 54992 net.cpp:165] Memory required for data: 878098432
I0308 23:54:50.434159 54992 layer_factory.hpp:77] Creating layer fc8_subset
I0308 23:54:50.434190 54992 net.cpp:106] Creating Layer fc8_subset
I0308 23:54:50.434214 54992 net.cpp:454] fc8_subset <- fc7
I0308 23:54:50.434242 54992 net.cpp:411] fc8_subset -> fc8_subset
I0308 23:54:50.438509 54992 net.cpp:150] Setting up fc8_subset
I0308 23:54:50.438549 54992 net.cpp:157] Top shape: 128 25 (3200)
I0308 23:54:50.438571 54992 net.cpp:165] Memory required for data: 878111232
I0308 23:54:50.438597 54992 layer_factory.hpp:77] Creating layer loss
I0308 23:54:50.438624 54992 net.cpp:106] Creating Layer loss
I0308 23:54:50.438647 54992 net.cpp:454] loss <- fc8_subset
I0308 23:54:50.438669 54992 net.cpp:454] loss <- label
I0308 23:54:50.438699 54992 net.cpp:411] loss -> loss
I0308 23:54:50.438765 54992 layer_factory.hpp:77] Creating layer loss
…
I0308 23:54:50.441144 54992 net.cpp:322] The NetState phase (1) differed from the phase (0) specified by a rule in layer data
I0308 23:54:50.441385 54992 net.cpp:49] Initializing net from parameters: 
name: "FlickrStyleCaffeNet"
state {
  phase: TEST
}
layer {
  name: "data"
  type: "Data"
  top: "data"
  top: "label"
  include {
    phase: TEST
  }
  transform_param {
    mirror: false
    crop_size: 227
    mean_file: "/work/01932/dineshj/CS381V/caffe_install_scripts/caffe/data/ilsvrc12/imagenet_mean.binaryproto"
  }
  data_param {
    source: "/work/04018/wxie/maverick/visual_recognition/data/test-lmdb"
    batch_size: 20
    backend: LMDB
  }
}
layer {
  name: "conv1"
  type: "Convolution"
  bottom: "data"
  top: "conv1"
  param {
    lr_mult: 1
    decay_mult: 1
  }
  param {
    lr_mult: 2
    decay_mult: 0
  }
  convolution_param {
    num_output: 96
    kernel_size: 11
    stride: 4
    weight_filler {
      type: "gaussian"
      std: 0.01
    }
    bias_filler {
      type: "constant"
      value: 0
    }
  }
}
layer {
  name: "relu1"
  type: "ReLU"
  bottom: "conv1"
  top: "conv1"
}
layer {
  name: "pool1"
  type: "Pooling"
  bottom: "conv1"
  top: "pool1"
  pooling_param {
    pool: MAX
    kernel_size: 3
    stride: 2
  }
}
layer {
  name: "norm1"
  type: "LRN"
  bottom: "pool1"
  top: "norm1"
  lrn_param {
    local_size: 5
    alpha: 0.0001
    beta: 0.75
  }
}
layer {
  name: "conv2"
  type: "Convolution"
  bottom: "norm1"
  top: "conv2"
  param {
    lr_mult: 1
    decay_mult: 1
  }
  param {
    lr_mult: 2
    decay_mult: 0
  }
  convolution_param {
    num_output: 256
    pad: 2
    kernel_size: 5
    group: 2
    weight_filler {
      type: "gaussian"
      std: 0.01
    }
    bias_filler {
      type: "constant"
      value: 0.1
    }
  }
}
layer {
  name: "relu2"
  type: "ReLU"
  bottom: "conv2"
  top: "conv2"
}
layer {
  name: "pool2"
  type: "Pooling"
  bottom: "conv2"
  top: "pool2"
  pooling_param {
    pool: MAX
    kernel_size: 3
    stride: 2
  }
}
layer {
  name: "norm2"
  type: "LRN"
  bottom: "pool2"
  top: "norm2"
  lrn_param {
    local_size: 5
    alpha: 0.0001
    beta: 0.75
  }
}
layer {
  name: "conv3"
  type: "Convolution"
  bottom: "norm2"
  top: "conv3"
  param {
    lr_mult: 1
    decay_mult: 1
  }
  param {
    lr_mult: 2
    decay_mult: 0
  }
  convolution_param {
    num_output: 384
    pad: 1
    kernel_size: 3
    weight_filler {
      type: "gaussian"
      std: 0.01
    }
    bias_filler {
      type: "constant"
      value: 0
    }
  }
}
layer {
  name: "relu3"
  type: "ReLU"
  bottom: "conv3"
  top: "conv3"
}
layer {
  name: "conv4"
  type: "Convolution"
  bottom: "conv3"
  top: "conv4"
  param {
    lr_mult: 1
    decay_mult: 1
  }
  param {
    lr_mult: 2
    decay_mult: 0
  }
  convolution_param {
    num_output: 384
    pad: 1
    kernel_size: 3
    group: 2
    weight_filler {
      type: "gaussian"
      std: 0.01
    }
    bias_filler {
      type: "constant"
      value: 0.1
    }
  }
}
layer {
  name: "relu4"
  type: "ReLU"
  bottom: "conv4"
  top: "conv4"
}
layer {
  name: "conv5"
  type: "Convolution"
  bottom: "conv4"
  top: "conv5"
  param {
    lr_mult: 1
    decay_mult: 1
  }
  param {
    lr_mult: 2
    decay_mult: 0
  }
  convolution_param {
    num_output: 256
    pad: 1
    kernel_size: 3
    group: 2
    weight_filler {
      type: "gaussian"
      std: 0.01
    }
    bias_filler {
      type: "constant"
      value: 0.1
    }
  }
}
layer {
  name: "relu5"
  type: "ReLU"
  bottom: "conv5"
  top: "conv5"
}
layer {
  name: "pool5"
  type: "Pooling"
  bottom: "conv5"
  top: "pool5"
  pooling_param {
    pool: MAX
    kernel_size: 3
    stride: 2
  }
}
layer {
  name: "fc6"
  type: "InnerProduct"
  bottom: "pool5"
  top: "fc6"
  param {
    lr_mult: 1
    decay_mult: 1
  }
  param {
    lr_mult: 2
    decay_mult: 0
  }
  inner_product_param {
    num_output: 4096
    weight_filler {
      type: "gaussian"
      std: 0.005
    }
    bias_filler {
      type: "constant"
      value: 0.1
    }
  }
}
layer {
  name: "relu6"
  type: "ReLU"
  bottom: "fc6"
  top: "fc6"
}
layer {
  name: "drop6"
  type: "Dropout"
  bottom: "fc6"
  top: "fc6"
  dropout_param {
    dropout_ratio: 0.5
  }
}
layer {
  name: "fc7"
  type: "InnerProduct"
  bottom: "fc6"
  top: "fc7"
  param {
    lr_mult: 1
    decay_mult: 1
  }
  param {
    lr_mult: 2
    decay_mult: 0
  }
  inner_product_param {
    num_output: 4096
    weight_filler {
      type: "gaussian"
      std: 0.005
    }
    bias_filler {
      type: "constant"
      value: 0.1
    }
  }
}
layer {
  name: "relu7"
  type: "ReLU"
  bottom: "fc7"
  top: "fc7"
}
layer {
  name: "drop7"
  type: "Dropout"
  bottom: "fc7"
  top: "fc7"
  dropout_param {
    dropout_ratio: 0.5
  }
}
layer {
  name: "fc8_subset"
  type: "InnerProduct"
  bottom: "fc7"
  top: "fc8_subset"
  param {
    lr_mult: 10
    decay_mult: 1
  }
  param {
    lr_mult: 20
    decay_mult: 0
  }
  inner_product_param {
    num_output: 25
    weight_filler {
      type: "gaussian"
      std: 0.01
    }
    bias_filler {
      type: "constant"
      value: 0
    }
  }
}
layer {
  name: "loss"
  type: "SoftmaxWithLoss"
  bottom: "fc8_subset"
  bottom: "label"
  top: "loss"
}
layer {
  name: "accuracy"
  type: "Accuracy"
  bottom: "fc8_subset"
  bottom: "label"
  top: "accuracy"
  include {
    phase: TEST
  }
}
I0308 23:54:50.441558 54992 layer_factory.hpp:77] Creating layer data
I0308 23:54:50.441757 54992 net.cpp:106] Creating Layer data
I0308 23:54:50.441803 54992 net.cpp:411] data -> data
I0308 23:54:50.441836 54992 net.cpp:411] data -> label
I0308 23:54:50.441869 54992 data_transformer.cpp:25] Loading mean file from: /work/01932/dineshj/CS381V/caffe_install_scripts/caffe/data/ilsvrc12/imagenet_mean.binaryproto
I0308 23:54:50.457157 54997 db_lmdb.cpp:38] Opened lmdb /work/04018/wxie/maverick/visual_recognition/data/test-lmdb
I0308 23:54:50.459141 54992 data_layer.cpp:41] output data size: 20,3,227,227
I0308 23:54:50.484272 54992 net.cpp:150] Setting up data
I0308 23:54:50.484385 54992 net.cpp:157] Top shape: 20 3 227 227 (3091740)
I0308 23:54:50.484449 54992 net.cpp:157] Top shape: 20 (20)
I0308 23:54:50.484482 54992 net.cpp:165] Memory required for data: 12367040
I0308 23:54:50.484513 54992 layer_factory.hpp:77] Creating layer label_data_1_split
I0308 23:54:50.484547 54992 net.cpp:106] Creating Layer label_data_1_split
I0308 23:54:50.484578 54992 net.cpp:454] label_data_1_split <- label
I0308 23:54:50.484608 54992 net.cpp:411] label_data_1_split -> label_data_1_split_0
I0308 23:54:50.484653 54992 net.cpp:411] label_data_1_split -> label_data_1_split_1
I0308 23:54:50.484741 54992 net.cpp:150] Setting up label_data_1_split
I0308 23:54:50.484778 54992 net.cpp:157] Top shape: 20 (20)
I0308 23:54:50.484807 54992 net.cpp:157] Top shape: 20 (20)
I0308 23:54:50.484834 54992 net.cpp:165] Memory required for data: 12367200
I0308 23:54:50.484861 54992 layer_factory.hpp:77] Creating layer conv1
I0308 23:54:50.484899 54992 net.cpp:106] Creating Layer conv1
I0308 23:54:50.484930 54992 net.cpp:454] conv1 <- data
I0308 23:54:50.484962 54992 net.cpp:411] conv1 -> conv1
I0308 23:54:50.486575 54992 net.cpp:150] Setting up conv1
I0308 23:54:50.486634 54992 net.cpp:157] Top shape: 20 96 55 55 (5808000)
I0308 23:54:50.486663 54992 net.cpp:165] Memory required for data: 35599200
I0308 23:54:50.486699 54992 layer_factory.hpp:77] Creating layer relu1
I0308 23:54:50.486733 54992 net.cpp:106] Creating Layer relu1
I0308 23:54:50.486762 54992 net.cpp:454] relu1 <- conv1
I0308 23:54:50.486791 54992 net.cpp:397] relu1 -> conv1 (in-place)
I0308 23:54:50.486824 54992 net.cpp:150] Setting up relu1
I0308 23:54:50.486853 54992 net.cpp:157] Top shape: 20 96 55 55 (5808000)
I0308 23:54:50.486879 54992 net.cpp:165] Memory required for data: 58831200
I0308 23:54:50.486907 54992 layer_factory.hpp:77] Creating layer pool1
I0308 23:54:50.486942 54992 net.cpp:106] Creating Layer pool1
I0308 23:54:50.486969 54992 net.cpp:454] pool1 <- conv1
I0308 23:54:50.486999 54992 net.cpp:411] pool1 -> pool1
I0308 23:54:50.487057 54992 net.cpp:150] Setting up pool1
I0308 23:54:50.487092 54992 net.cpp:157] Top shape: 20 96 27 27 (1399680)
I0308 23:54:50.487121 54992 net.cpp:165] Memory required for data: 64429920
I0308 23:54:50.487149 54992 layer_factory.hpp:77] Creating layer norm1
I0308 23:54:50.487180 54992 net.cpp:106] Creating Layer norm1
I0308 23:54:50.487208 54992 net.cpp:454] norm1 <- pool1
I0308 23:54:50.487238 54992 net.cpp:411] norm1 -> norm1
I0308 23:54:50.487295 54992 net.cpp:150] Setting up norm1
I0308 23:54:50.487336 54992 net.cpp:157] Top shape: 20 96 27 27 (1399680)
I0308 23:54:50.487365 54992 net.cpp:165] Memory required for data: 70028640
I0308 23:54:50.487392 54992 layer_factory.hpp:77] Creating layer conv2
I0308 23:54:50.487424 54992 net.cpp:106] Creating Layer conv2
I0308 23:54:50.487473 54992 net.cpp:454] conv2 <- norm1
I0308 23:54:50.487530 54992 net.cpp:411] conv2 -> conv2
I0308 23:54:50.500282 54992 net.cpp:150] Setting up conv2
I0308 23:54:50.500332 54992 net.cpp:157] Top shape: 20 256 27 27 (3732480)
I0308 23:54:50.500360 54992 net.cpp:165] Memory required for data: 84958560
I0308 23:54:50.500390 54992 layer_factory.hpp:77] Creating layer relu2
I0308 23:54:50.500417 54992 net.cpp:106] Creating Layer relu2
I0308 23:54:50.500454 54992 net.cpp:454] relu2 <- conv2
I0308 23:54:50.500496 54992 net.cpp:397] relu2 -> conv2 (in-place)
I0308 23:54:50.500529 54992 net.cpp:150] Setting up relu2
I0308 23:54:50.500569 54992 net.cpp:157] Top shape: 20 256 27 27 (3732480)
I0308 23:54:50.500594 54992 net.cpp:165] Memory required for data: 99888480
I0308 23:54:50.500619 54992 layer_factory.hpp:77] Creating layer pool2
I0308 23:54:50.500649 54992 net.cpp:106] Creating Layer pool2
I0308 23:54:50.500676 54992 net.cpp:454] pool2 <- conv2
I0308 23:54:50.500718 54992 net.cpp:411] pool2 -> pool2
I0308 23:54:50.500790 54992 net.cpp:150] Setting up pool2
I0308 23:54:50.500836 54992 net.cpp:157] Top shape: 20 256 13 13 (865280)
I0308 23:54:50.500867 54992 net.cpp:165] Memory required for data: 103349600
I0308 23:54:50.500896 54992 layer_factory.hpp:77] Creating layer norm2
I0308 23:54:50.500931 54992 net.cpp:106] Creating Layer norm2
I0308 23:54:50.500973 54992 net.cpp:454] norm2 <- pool2
I0308 23:54:50.501006 54992 net.cpp:411] norm2 -> norm2
I0308 23:54:50.501081 54992 net.cpp:150] Setting up norm2
I0308 23:54:50.501118 54992 net.cpp:157] Top shape: 20 256 13 13 (865280)
I0308 23:54:50.501145 54992 net.cpp:165] Memory required for data: 106810720
I0308 23:54:50.501173 54992 layer_factory.hpp:77] Creating layer conv3
I0308 23:54:50.501209 54992 net.cpp:106] Creating Layer conv3
I0308 23:54:50.501240 54992 net.cpp:454] conv3 <- norm2
I0308 23:54:50.501271 54992 net.cpp:411] conv3 -> conv3
I0308 23:54:50.536259 54992 net.cpp:150] Setting up conv3
I0308 23:54:50.536362 54992 net.cpp:157] Top shape: 20 384 13 13 (1297920)
I0308 23:54:50.536392 54992 net.cpp:165] Memory required for data: 112002400
I0308 23:54:50.536432 54992 layer_factory.hpp:77] Creating layer relu3
I0308 23:54:50.536468 54992 net.cpp:106] Creating Layer relu3
I0308 23:54:50.536499 54992 net.cpp:454] relu3 <- conv3
I0308 23:54:50.536530 54992 net.cpp:397] relu3 -> conv3 (in-place)
I0308 23:54:50.536566 54992 net.cpp:150] Setting up relu3
I0308 23:54:50.536597 54992 net.cpp:157] Top shape: 20 384 13 13 (1297920)
I0308 23:54:50.536623 54992 net.cpp:165] Memory required for data: 117194080
I0308 23:54:50.536650 54992 layer_factory.hpp:77] Creating layer conv4
I0308 23:54:50.536695 54992 net.cpp:106] Creating Layer conv4
I0308 23:54:50.536725 54992 net.cpp:454] conv4 <- conv3
I0308 23:54:50.536757 54992 net.cpp:411] conv4 -> conv4
I0308 23:54:50.562502 54992 net.cpp:150] Setting up conv4
I0308 23:54:50.562548 54992 net.cpp:157] Top shape: 20 384 13 13 (1297920)
I0308 23:54:50.562584 54992 net.cpp:165] Memory required for data: 122385760
I0308 23:54:50.562611 54992 layer_factory.hpp:77] Creating layer relu4
I0308 23:54:50.562649 54992 net.cpp:106] Creating Layer relu4
I0308 23:54:50.562685 54992 net.cpp:454] relu4 <- conv4
I0308 23:54:50.562714 54992 net.cpp:397] relu4 -> conv4 (in-place)
I0308 23:54:50.562744 54992 net.cpp:150] Setting up relu4
I0308 23:54:50.562772 54992 net.cpp:157] Top shape: 20 384 13 13 (1297920)
I0308 23:54:50.562793 54992 net.cpp:165] Memory required for data: 127577440
I0308 23:54:50.562816 54992 layer_factory.hpp:77] Creating layer conv5
I0308 23:54:50.562844 54992 net.cpp:106] Creating Layer conv5
I0308 23:54:50.562880 54992 net.cpp:454] conv5 <- conv4
I0308 23:54:50.562917 54992 net.cpp:411] conv5 -> conv5
I0308 23:54:50.580377 54992 net.cpp:150] Setting up conv5
I0308 23:54:50.580421 54992 net.cpp:157] Top shape: 20 256 13 13 (865280)
I0308 23:54:50.580451 54992 net.cpp:165] Memory required for data: 131038560
I0308 23:54:50.580487 54992 layer_factory.hpp:77] Creating layer relu5
I0308 23:54:50.580518 54992 net.cpp:106] Creating Layer relu5
I0308 23:54:50.580564 54992 net.cpp:454] relu5 <- conv5
I0308 23:54:50.580626 54992 net.cpp:397] relu5 -> conv5 (in-place)
I0308 23:54:50.580658 54992 net.cpp:150] Setting up relu5
I0308 23:54:50.580689 54992 net.cpp:157] Top shape: 20 256 13 13 (865280)
I0308 23:54:50.580715 54992 net.cpp:165] Memory required for data: 134499680
I0308 23:54:50.580741 54992 layer_factory.hpp:77] Creating layer pool5
I0308 23:54:50.580777 54992 net.cpp:106] Creating Layer pool5
I0308 23:54:50.580806 54992 net.cpp:454] pool5 <- conv5
I0308 23:54:50.580835 54992 net.cpp:411] pool5 -> pool5
I0308 23:54:50.580899 54992 net.cpp:150] Setting up pool5
I0308 23:54:50.580935 54992 net.cpp:157] Top shape: 20 256 6 6 (184320)
I0308 23:54:50.580961 54992 net.cpp:165] Memory required for data: 135236960
I0308 23:54:50.580988 54992 layer_factory.hpp:77] Creating layer fc6
I0308 23:54:50.581020 54992 net.cpp:106] Creating Layer fc6
I0308 23:54:50.581048 54992 net.cpp:454] fc6 <- pool5
I0308 23:54:50.581081 54992 net.cpp:411] fc6 -> fc6
I0308 23:54:51.963296 54992 net.cpp:150] Setting up fc6
I0308 23:54:51.963429 54992 net.cpp:157] Top shape: 20 4096 (81920)
I0308 23:54:51.963455 54992 net.cpp:165] Memory required for data: 135564640
I0308 23:54:51.963486 54992 layer_factory.hpp:77] Creating layer relu6
I0308 23:54:51.963520 54992 net.cpp:106] Creating Layer relu6
I0308 23:54:51.963544 54992 net.cpp:454] relu6 <- fc6
I0308 23:54:51.963572 54992 net.cpp:397] relu6 -> fc6 (in-place)
I0308 23:54:51.963608 54992 net.cpp:150] Setting up relu6
I0308 23:54:51.963632 54992 net.cpp:157] Top shape: 20 4096 (81920)
I0308 23:54:51.963654 54992 net.cpp:165] Memory required for data: 135892320
I0308 23:54:51.963675 54992 layer_factory.hpp:77] Creating layer drop6
I0308 23:54:51.963701 54992 net.cpp:106] Creating Layer drop6
I0308 23:54:51.963724 54992 net.cpp:454] drop6 <- fc6
I0308 23:54:51.963750 54992 net.cpp:397] drop6 -> fc6 (in-place)
I0308 23:54:51.963800 54992 net.cpp:150] Setting up drop6
I0308 23:54:51.963829 54992 net.cpp:157] Top shape: 20 4096 (81920)
I0308 23:54:51.963851 54992 net.cpp:165] Memory required for data: 136220000
I0308 23:54:51.963873 54992 layer_factory.hpp:77] Creating layer fc7
I0308 23:54:51.963901 54992 net.cpp:106] Creating Layer fc7
I0308 23:54:51.963924 54992 net.cpp:454] fc7 <- fc6
I0308 23:54:51.963953 54992 net.cpp:411] fc7 -> fc7
I0308 23:54:52.578727 54992 net.cpp:150] Setting up fc7
I0308 23:54:52.578850 54992 net.cpp:157] Top shape: 20 4096 (81920)
I0308 23:54:52.578874 54992 net.cpp:165] Memory required for data: 136547680
I0308 23:54:52.578905 54992 layer_factory.hpp:77] Creating layer relu7
I0308 23:54:52.578940 54992 net.cpp:106] Creating Layer relu7
I0308 23:54:52.578966 54992 net.cpp:454] relu7 <- fc7
I0308 23:54:52.578994 54992 net.cpp:397] relu7 -> fc7 (in-place)
I0308 23:54:52.579030 54992 net.cpp:150] Setting up relu7
I0308 23:54:52.579056 54992 net.cpp:157] Top shape: 20 4096 (81920)
I0308 23:54:52.579077 54992 net.cpp:165] Memory required for data: 136875360
I0308 23:54:52.579098 54992 layer_factory.hpp:77] Creating layer drop7
I0308 23:54:52.579128 54992 net.cpp:106] Creating Layer drop7
I0308 23:54:52.579151 54992 net.cpp:454] drop7 <- fc7
I0308 23:54:52.579175 54992 net.cpp:397] drop7 -> fc7 (in-place)
I0308 23:54:52.579224 54992 net.cpp:150] Setting up drop7
I0308 23:54:52.579253 54992 net.cpp:157] Top shape: 20 4096 (81920)
I0308 23:54:52.579275 54992 net.cpp:165] Memory required for data: 137203040
I0308 23:54:52.579296 54992 layer_factory.hpp:77] Creating layer fc8_subset
I0308 23:54:52.579331 54992 net.cpp:106] Creating Layer fc8_subset
I0308 23:54:52.579356 54992 net.cpp:454] fc8_subset <- fc7
I0308 23:54:52.579385 54992 net.cpp:411] fc8_subset -> fc8_subset
I0308 23:54:52.583070 54992 net.cpp:150] Setting up fc8_subset
I0308 23:54:52.583104 54992 net.cpp:157] Top shape: 20 25 (500)
I0308 23:54:52.583127 54992 net.cpp:165] Memory required for data: 137205040
I0308 23:54:52.583153 54992 layer_factory.hpp:77] Creating layer fc8_subset_fc8_subset_0_split
I0308 23:54:52.583179 54992 net.cpp:106] Creating Layer fc8_subset_fc8_subset_0_split
I0308 23:54:52.583262 54992 net.cpp:454] fc8_subset_fc8_subset_0_split <- fc8_subset
I0308 23:54:52.583288 54992 net.cpp:411] fc8_subset_fc8_subset_0_split -> fc8_subset_fc8_subset_0_split_0
I0308 23:54:52.583318 54992 net.cpp:411] fc8_subset_fc8_subset_0_split -> fc8_subset_fc8_subset_0_split_1
I0308 23:54:52.583390 54992 net.cpp:150] Setting up fc8_subset_fc8_subset_0_split
I0308 23:54:52.583421 54992 net.cpp:157] Top shape: 20 25 (500)
I0308 23:54:52.583444 54992 net.cpp:157] Top shape: 20 25 (500)
I0308 23:54:52.583466 54992 net.cpp:165] Memory required for data: 137209040
I0308 23:54:52.583487 54992 layer_factory.hpp:77] Creating layer loss
I0308 23:54:52.583513 54992 net.cpp:106] Creating Layer loss
I0308 23:54:52.583536 54992 net.cpp:454] loss <- fc8_subset_fc8_subset_0_split_0
I0308 23:54:52.583559 54992 net.cpp:454] loss <- label_data_1_split_0
I0308 23:54:52.583585 54992 net.cpp:411] loss -> loss
…
