…
I0309 03:03:48.455297  9137 net.cpp:322] The NetState phase (0) differed from the phase (1) specified by a rule in layer accuracy
I0309 03:03:48.455493  9137 net.cpp:49] Initializing net from parameters: 
name: "FlickrStyleCaffeNet"
state {
  phase: TRAIN
}
layer {
  name: "data"
  type: "Data"
  top: "data"
  top: "label"
  include {
    phase: TRAIN
  }
  transform_param {
    mirror: true
    crop_size: 227
    mean_file: "/work/01932/dineshj/CS381V/caffe_install_scripts/caffe/data/ilsvrc12/imagenet_mean.binaryproto"
  }
  data_param {
    source: "/work/04018/wxie/maverick/visual_recognition/data/train-lmdb"
    batch_size: 128
    backend: LMDB
  }
}
layer {
  name: "conv1"
  type: "Convolution"
  bottom: "data"
  top: "conv1"
  param {
    lr_mult: 1
    decay_mult: 1
  }
  param {
    lr_mult: 2
    decay_mult: 0
  }
  convolution_param {
    num_output: 96
    kernel_size: 11
    stride: 4
    weight_filler {
      type: "gaussian"
      std: 0.01
    }
    bias_filler {
      type: "constant"
      value: 0
    }
  }
}
layer {
  name: "relu1"
  type: "ReLU"
  bottom: "conv1"
  top: "conv1"
}
layer {
  name: "pool1"
  type: "Pooling"
  bottom: "conv1"
  top: "pool1"
  pooling_param {
    pool: MAX
    kernel_size: 3
    stride: 2
  }
}
layer {
  name: "norm1"
  type: "LRN"
  bottom: "pool1"
  top: "norm1"
  lrn_param {
    local_size: 5
    alpha: 0.0001
    beta: 0.75
  }
}
layer {
  name: "conv2"
  type: "Convolution"
  bottom: "norm1"
  top: "conv2"
  param {
    lr_mult: 1
    decay_mult: 1
  }
  param {
    lr_mult: 2
    decay_mult: 0
  }
  convolution_param {
    num_output: 256
    pad: 2
    kernel_size: 5
    group: 2
    weight_filler {
      type: "gaussian"
      std: 0.01
    }
    bias_filler {
      type: "constant"
      value: 0.1
    }
  }
}
layer {
  name: "relu2"
  type: "ReLU"
  bottom: "conv2"
  top: "conv2"
}
layer {
  name: "pool2"
  type: "Pooling"
  bottom: "conv2"
  top: "pool2"
  pooling_param {
    pool: MAX
    kernel_size: 3
    stride: 2
  }
}
layer {
  name: "norm2"
  type: "LRN"
  bottom: "pool2"
  top: "norm2"
  lrn_param {
    local_size: 5
    alpha: 0.0001
    beta: 0.75
  }
}
layer {
  name: "conv3"
  type: "Convolution"
  bottom: "norm2"
  top: "conv3"
  param {
    lr_mult: 1
    decay_mult: 1
  }
  param {
    lr_mult: 2
    decay_mult: 0
  }
  convolution_param {
    num_output: 384
    pad: 1
    kernel_size: 3
    weight_filler {
      type: "gaussian"
      std: 0.01
    }
    bias_filler {
      type: "constant"
      value: 0
    }
  }
}
layer {
  name: "relu3"
  type: "ReLU"
  bottom: "conv3"
  top: "conv3"
}
layer {
  name: "conv4"
  type: "Convolution"
  bottom: "conv3"
  top: "conv4"
  param {
    lr_mult: 1
    decay_mult: 1
  }
  param {
    lr_mult: 2
    decay_mult: 0
  }
  convolution_param {
    num_output: 384
    pad: 1
    kernel_size: 3
    group: 2
    weight_filler {
      type: "gaussian"
      std: 0.01
    }
    bias_filler {
      type: "constant"
      value: 0.1
    }
  }
}
layer {
  name: "relu4"
  type: "ReLU"
  bottom: "conv4"
  top: "conv4"
}
layer {
  name: "conv5"
  type: "Convolution"
  bottom: "conv4"
  top: "conv5"
  param {
    lr_mult: 1
    decay_mult: 1
  }
  param {
    lr_mult: 2
    decay_mult: 0
  }
  convolution_param {
    num_output: 256
    pad: 1
    kernel_size: 3
    group: 2
    weight_filler {
      type: "gaussian"
      std: 0.01
    }
    bias_filler {
      type: "constant"
      value: 0.1
    }
  }
}
layer {
  name: "relu5"
  type: "ReLU"
  bottom: "conv5"
  top: "conv5"
}
layer {
  name: "pool5"
  type: "Pooling"
  bottom: "conv5"
  top: "pool5"
  pooling_param {
    pool: MAX
    kernel_size: 3
    stride: 2
  }
}
layer {
  name: "fc6"
  type: "InnerProduct"
  bottom: "pool5"
  top: "fc6"
  param {
    lr_mult: 1
    decay_mult: 1
  }
  param {
    lr_mult: 2
    decay_mult: 0
  }
  inner_product_param {
    num_output: 4096
    weight_filler {
      type: "gaussian"
      std: 0.005
    }
    bias_filler {
      type: "constant"
      value: 0.1
    }
  }
}
layer {
  name: "relu6"
  type: "ReLU"
  bottom: "fc6"
  top: "fc6"
}
layer {
  name: "drop6"
  type: "Dropout"
  bottom: "fc6"
  top: "fc6"
  dropout_param {
    dropout_ratio: 0.5
  }
}
layer {
  name: "fc7"
  type: "InnerProduct"
  bottom: "fc6"
  top: "fc7"
  param {
    lr_mult: 1
    decay_mult: 1
  }
  param {
    lr_mult: 2
    decay_mult: 0
  }
  inner_product_param {
    num_output: 4096
    weight_filler {
      type: "gaussian"
      std: 0.005
    }
    bias_filler {
      type: "constant"
      value: 0.1
    }
  }
}
layer {
  name: "relu7"
  type: "ReLU"
  bottom: "fc7"
  top: "fc7"
}
layer {
  name: "drop7"
  type: "Dropout"
  bottom: "fc7"
  top: "fc7"
  dropout_param {
    dropout_ratio: 0.5
  }
}
layer {
  name: "fc8_subset"
  type: "InnerProduct"
  bottom: "fc7"
  top: "fc8_subset"
  param {
    lr_mult: 10
    decay_mult: 1
  }
  param {
    lr_mult: 20
    decay_mult: 0
  }
  inner_product_param {
    num_output: 25
    weight_filler {
      type: "gaussian"
      std: 0.01
    }
    bias_filler {
      type: "constant"
      value: 0
    }
  }
}
layer {
  name: "loss"
  type: "SoftmaxWithLoss"
  bottom: "fc8_subset"
  bottom: "label"
  top: "loss"
}
I0309 03:03:48.455773  9137 layer_factory.hpp:77] Creating layer data
I0309 03:03:48.456512  9137 net.cpp:106] Creating Layer data
I0309 03:03:48.456588  9137 net.cpp:411] data -> data
I0309 03:03:48.456688  9137 net.cpp:411] data -> label
I0309 03:03:48.456768  9137 data_transformer.cpp:25] Loading mean file from: /work/01932/dineshj/CS381V/caffe_install_scripts/caffe/data/ilsvrc12/imagenet_mean.binaryproto
I0309 03:03:48.472154  9139 db_lmdb.cpp:38] Opened lmdb /work/04018/wxie/maverick/visual_recognition/data/train-lmdb
I0309 03:03:48.524078  9137 data_layer.cpp:41] output data size: 128,3,227,227
I0309 03:03:48.691114  9137 net.cpp:150] Setting up data
I0309 03:03:48.691192  9137 net.cpp:157] Top shape: 128 3 227 227 (19787136)
I0309 03:03:48.691221  9137 net.cpp:157] Top shape: 128 (128)
I0309 03:03:48.691246  9137 net.cpp:165] Memory required for data: 79149056
I0309 03:03:48.691282  9137 layer_factory.hpp:77] Creating layer conv1
I0309 03:03:48.691372  9137 net.cpp:106] Creating Layer conv1
I0309 03:03:48.691406  9137 net.cpp:454] conv1 <- data
I0309 03:03:48.691468  9137 net.cpp:411] conv1 -> conv1
I0309 03:03:48.701616  9137 net.cpp:150] Setting up conv1
I0309 03:03:48.701660  9137 net.cpp:157] Top shape: 128 96 55 55 (37171200)
I0309 03:03:48.701691  9137 net.cpp:165] Memory required for data: 227833856
I0309 03:03:48.701750  9137 layer_factory.hpp:77] Creating layer relu1
I0309 03:03:48.701786  9137 net.cpp:106] Creating Layer relu1
I0309 03:03:48.701812  9137 net.cpp:454] relu1 <- conv1
I0309 03:03:48.701838  9137 net.cpp:397] relu1 -> conv1 (in-place)
I0309 03:03:48.701869  9137 net.cpp:150] Setting up relu1
I0309 03:03:48.701897  9137 net.cpp:157] Top shape: 128 96 55 55 (37171200)
I0309 03:03:48.701921  9137 net.cpp:165] Memory required for data: 376518656
I0309 03:03:48.701943  9137 layer_factory.hpp:77] Creating layer pool1
I0309 03:03:48.701975  9137 net.cpp:106] Creating Layer pool1
I0309 03:03:48.702000  9137 net.cpp:454] pool1 <- conv1
I0309 03:03:48.702026  9137 net.cpp:411] pool1 -> pool1
I0309 03:03:48.702179  9137 net.cpp:150] Setting up pool1
I0309 03:03:48.702211  9137 net.cpp:157] Top shape: 128 96 27 27 (8957952)
I0309 03:03:48.702298  9137 net.cpp:165] Memory required for data: 412350464
I0309 03:03:48.702324  9137 layer_factory.hpp:77] Creating layer norm1
I0309 03:03:48.702353  9137 net.cpp:106] Creating Layer norm1
I0309 03:03:48.702378  9137 net.cpp:454] norm1 <- pool1
I0309 03:03:48.702404  9137 net.cpp:411] norm1 -> norm1
I0309 03:03:48.702502  9137 net.cpp:150] Setting up norm1
I0309 03:03:48.702534  9137 net.cpp:157] Top shape: 128 96 27 27 (8957952)
I0309 03:03:48.702558  9137 net.cpp:165] Memory required for data: 448182272
I0309 03:03:48.702579  9137 layer_factory.hpp:77] Creating layer conv2
I0309 03:03:48.702630  9137 net.cpp:106] Creating Layer conv2
I0309 03:03:48.702657  9137 net.cpp:454] conv2 <- norm1
I0309 03:03:48.702684  9137 net.cpp:411] conv2 -> conv2
I0309 03:03:48.716269  9137 net.cpp:150] Setting up conv2
I0309 03:03:48.716346  9137 net.cpp:157] Top shape: 128 256 27 27 (23887872)
I0309 03:03:48.716372  9137 net.cpp:165] Memory required for data: 543733760
I0309 03:03:48.716413  9137 layer_factory.hpp:77] Creating layer relu2
I0309 03:03:48.716446  9137 net.cpp:106] Creating Layer relu2
I0309 03:03:48.716472  9137 net.cpp:454] relu2 <- conv2
I0309 03:03:48.716497  9137 net.cpp:397] relu2 -> conv2 (in-place)
I0309 03:03:48.716528  9137 net.cpp:150] Setting up relu2
I0309 03:03:48.716554  9137 net.cpp:157] Top shape: 128 256 27 27 (23887872)
I0309 03:03:48.716577  9137 net.cpp:165] Memory required for data: 639285248
I0309 03:03:48.716599  9137 layer_factory.hpp:77] Creating layer pool2
I0309 03:03:48.716639  9137 net.cpp:106] Creating Layer pool2
I0309 03:03:48.716675  9137 net.cpp:454] pool2 <- conv2
I0309 03:03:48.716704  9137 net.cpp:411] pool2 -> pool2
I0309 03:03:48.716771  9137 net.cpp:150] Setting up pool2
I0309 03:03:48.716805  9137 net.cpp:157] Top shape: 128 256 13 13 (5537792)
I0309 03:03:48.716830  9137 net.cpp:165] Memory required for data: 661436416
I0309 03:03:48.716855  9137 layer_factory.hpp:77] Creating layer norm2
I0309 03:03:48.716892  9137 net.cpp:106] Creating Layer norm2
I0309 03:03:48.716917  9137 net.cpp:454] norm2 <- pool2
I0309 03:03:48.716954  9137 net.cpp:411] norm2 -> norm2
I0309 03:03:48.717023  9137 net.cpp:150] Setting up norm2
I0309 03:03:48.717057  9137 net.cpp:157] Top shape: 128 256 13 13 (5537792)
I0309 03:03:48.717082  9137 net.cpp:165] Memory required for data: 683587584
I0309 03:03:48.717106  9137 layer_factory.hpp:77] Creating layer conv3
I0309 03:03:48.717150  9137 net.cpp:106] Creating Layer conv3
I0309 03:03:48.717177  9137 net.cpp:454] conv3 <- norm2
I0309 03:03:48.717206  9137 net.cpp:411] conv3 -> conv3
I0309 03:03:48.752446  9137 net.cpp:150] Setting up conv3
I0309 03:03:48.752544  9137 net.cpp:157] Top shape: 128 384 13 13 (8306688)
I0309 03:03:48.752570  9137 net.cpp:165] Memory required for data: 716814336
I0309 03:03:48.752610  9137 layer_factory.hpp:77] Creating layer relu3
I0309 03:03:48.752647  9137 net.cpp:106] Creating Layer relu3
I0309 03:03:48.752674  9137 net.cpp:454] relu3 <- conv3
I0309 03:03:48.752704  9137 net.cpp:397] relu3 -> conv3 (in-place)
I0309 03:03:48.752740  9137 net.cpp:150] Setting up relu3
I0309 03:03:48.752768  9137 net.cpp:157] Top shape: 128 384 13 13 (8306688)
I0309 03:03:48.752790  9137 net.cpp:165] Memory required for data: 750041088
I0309 03:03:48.752813  9137 layer_factory.hpp:77] Creating layer conv4
I0309 03:03:48.752852  9137 net.cpp:106] Creating Layer conv4
I0309 03:03:48.752878  9137 net.cpp:454] conv4 <- conv3
I0309 03:03:48.752908  9137 net.cpp:411] conv4 -> conv4
I0309 03:03:48.786021  9137 net.cpp:150] Setting up conv4
I0309 03:03:48.786113  9137 net.cpp:157] Top shape: 128 384 13 13 (8306688)
I0309 03:03:48.786141  9137 net.cpp:165] Memory required for data: 783267840
I0309 03:03:48.786181  9137 layer_factory.hpp:77] Creating layer relu4
I0309 03:03:48.786216  9137 net.cpp:106] Creating Layer relu4
I0309 03:03:48.786242  9137 net.cpp:454] relu4 <- conv4
I0309 03:03:48.786274  9137 net.cpp:397] relu4 -> conv4 (in-place)
I0309 03:03:48.786310  9137 net.cpp:150] Setting up relu4
I0309 03:03:48.786361  9137 net.cpp:157] Top shape: 128 384 13 13 (8306688)
I0309 03:03:48.786427  9137 net.cpp:165] Memory required for data: 816494592
I0309 03:03:48.786450  9137 layer_factory.hpp:77] Creating layer conv5
I0309 03:03:48.786484  9137 net.cpp:106] Creating Layer conv5
I0309 03:03:48.786509  9137 net.cpp:454] conv5 <- conv4
I0309 03:03:48.786540  9137 net.cpp:411] conv5 -> conv5
I0309 03:03:48.804777  9137 net.cpp:150] Setting up conv5
I0309 03:03:48.804865  9137 net.cpp:157] Top shape: 128 256 13 13 (5537792)
I0309 03:03:48.804891  9137 net.cpp:165] Memory required for data: 838645760
I0309 03:03:48.804934  9137 layer_factory.hpp:77] Creating layer relu5
I0309 03:03:48.804970  9137 net.cpp:106] Creating Layer relu5
I0309 03:03:48.804996  9137 net.cpp:454] relu5 <- conv5
I0309 03:03:48.805025  9137 net.cpp:397] relu5 -> conv5 (in-place)
I0309 03:03:48.805059  9137 net.cpp:150] Setting up relu5
I0309 03:03:48.805086  9137 net.cpp:157] Top shape: 128 256 13 13 (5537792)
I0309 03:03:48.805109  9137 net.cpp:165] Memory required for data: 860796928
I0309 03:03:48.805132  9137 layer_factory.hpp:77] Creating layer pool5
I0309 03:03:48.805163  9137 net.cpp:106] Creating Layer pool5
I0309 03:03:48.805189  9137 net.cpp:454] pool5 <- conv5
I0309 03:03:48.805215  9137 net.cpp:411] pool5 -> pool5
I0309 03:03:48.805284  9137 net.cpp:150] Setting up pool5
I0309 03:03:48.805316  9137 net.cpp:157] Top shape: 128 256 6 6 (1179648)
I0309 03:03:48.805340  9137 net.cpp:165] Memory required for data: 865515520
I0309 03:03:48.805362  9137 layer_factory.hpp:77] Creating layer fc6
I0309 03:03:48.805433  9137 net.cpp:106] Creating Layer fc6
I0309 03:03:48.805461  9137 net.cpp:454] fc6 <- pool5
I0309 03:03:48.805490  9137 net.cpp:411] fc6 -> fc6
I0309 03:03:48.871001  9140 blocking_queue.cpp:50] Waiting for data
I0309 03:03:50.243888  9137 net.cpp:150] Setting up fc6
I0309 03:03:50.244050  9137 net.cpp:157] Top shape: 128 4096 (524288)
I0309 03:03:50.244073  9137 net.cpp:165] Memory required for data: 867612672
I0309 03:03:50.244107  9137 layer_factory.hpp:77] Creating layer relu6
I0309 03:03:50.244139  9137 net.cpp:106] Creating Layer relu6
I0309 03:03:50.244164  9137 net.cpp:454] relu6 <- fc6
I0309 03:03:50.244192  9137 net.cpp:397] relu6 -> fc6 (in-place)
I0309 03:03:50.244227  9137 net.cpp:150] Setting up relu6
I0309 03:03:50.244251  9137 net.cpp:157] Top shape: 128 4096 (524288)
I0309 03:03:50.244272  9137 net.cpp:165] Memory required for data: 869709824
I0309 03:03:50.244293  9137 layer_factory.hpp:77] Creating layer drop6
I0309 03:03:50.244323  9137 net.cpp:106] Creating Layer drop6
I0309 03:03:50.244345  9137 net.cpp:454] drop6 <- fc6
I0309 03:03:50.244369  9137 net.cpp:397] drop6 -> fc6 (in-place)
I0309 03:03:50.244462  9137 net.cpp:150] Setting up drop6
I0309 03:03:50.244491  9137 net.cpp:157] Top shape: 128 4096 (524288)
I0309 03:03:50.244516  9137 net.cpp:165] Memory required for data: 871806976
I0309 03:03:50.244537  9137 layer_factory.hpp:77] Creating layer fc7
I0309 03:03:50.244566  9137 net.cpp:106] Creating Layer fc7
I0309 03:03:50.244588  9137 net.cpp:454] fc7 <- fc6
I0309 03:03:50.244621  9137 net.cpp:411] fc7 -> fc7
I0309 03:03:50.857354  9137 net.cpp:150] Setting up fc7
I0309 03:03:50.857512  9137 net.cpp:157] Top shape: 128 4096 (524288)
I0309 03:03:50.857537  9137 net.cpp:165] Memory required for data: 873904128
I0309 03:03:50.857568  9137 layer_factory.hpp:77] Creating layer relu7
I0309 03:03:50.857601  9137 net.cpp:106] Creating Layer relu7
I0309 03:03:50.857631  9137 net.cpp:454] relu7 <- fc7
I0309 03:03:50.857661  9137 net.cpp:397] relu7 -> fc7 (in-place)
I0309 03:03:50.857697  9137 net.cpp:150] Setting up relu7
I0309 03:03:50.857722  9137 net.cpp:157] Top shape: 128 4096 (524288)
I0309 03:03:50.857741  9137 net.cpp:165] Memory required for data: 876001280
I0309 03:03:50.857763  9137 layer_factory.hpp:77] Creating layer drop7
I0309 03:03:50.857789  9137 net.cpp:106] Creating Layer drop7
I0309 03:03:50.857810  9137 net.cpp:454] drop7 <- fc7
I0309 03:03:50.857833  9137 net.cpp:397] drop7 -> fc7 (in-place)
I0309 03:03:50.857910  9137 net.cpp:150] Setting up drop7
I0309 03:03:50.857985  9137 net.cpp:157] Top shape: 128 4096 (524288)
I0309 03:03:50.858006  9137 net.cpp:165] Memory required for data: 878098432
I0309 03:03:50.858027  9137 layer_factory.hpp:77] Creating layer fc8_subset
I0309 03:03:50.858058  9137 net.cpp:106] Creating Layer fc8_subset
I0309 03:03:50.858081  9137 net.cpp:454] fc8_subset <- fc7
I0309 03:03:50.858108  9137 net.cpp:411] fc8_subset -> fc8_subset
I0309 03:03:50.862465  9137 net.cpp:150] Setting up fc8_subset
I0309 03:03:50.862504  9137 net.cpp:157] Top shape: 128 25 (3200)
I0309 03:03:50.862525  9137 net.cpp:165] Memory required for data: 878111232
I0309 03:03:50.862550  9137 layer_factory.hpp:77] Creating layer loss
I0309 03:03:50.862577  9137 net.cpp:106] Creating Layer loss
I0309 03:03:50.862599  9137 net.cpp:454] loss <- fc8_subset
I0309 03:03:50.862627  9137 net.cpp:454] loss <- label
I0309 03:03:50.862658  9137 net.cpp:411] loss -> loss
I0309 03:03:50.862727  9137 layer_factory.hpp:77] Creating layer loss
…
I0309 03:03:50.865618  9137 net.cpp:322] The NetState phase (1) differed from the phase (0) specified by a rule in layer data
I0309 03:03:50.865811  9137 net.cpp:49] Initializing net from parameters: 
name: "FlickrStyleCaffeNet"
state {
  phase: TEST
}
layer {
  name: "data"
  type: "Data"
  top: "data"
  top: "label"
  include {
    phase: TEST
  }
  transform_param {
    mirror: false
    crop_size: 227
    mean_file: "/work/01932/dineshj/CS381V/caffe_install_scripts/caffe/data/ilsvrc12/imagenet_mean.binaryproto"
  }
  data_param {
    source: "/work/04018/wxie/maverick/visual_recognition/data/test-lmdb"
    batch_size: 20
    backend: LMDB
  }
}
layer {
  name: "conv1"
  type: "Convolution"
  bottom: "data"
  top: "conv1"
  param {
    lr_mult: 1
    decay_mult: 1
  }
  param {
    lr_mult: 2
    decay_mult: 0
  }
  convolution_param {
    num_output: 96
    kernel_size: 11
    stride: 4
    weight_filler {
      type: "gaussian"
      std: 0.01
    }
    bias_filler {
      type: "constant"
      value: 0
    }
  }
}
layer {
  name: "relu1"
  type: "ReLU"
  bottom: "conv1"
  top: "conv1"
}
layer {
  name: "pool1"
  type: "Pooling"
  bottom: "conv1"
  top: "pool1"
  pooling_param {
    pool: MAX
    kernel_size: 3
    stride: 2
  }
}
layer {
  name: "norm1"
  type: "LRN"
  bottom: "pool1"
  top: "norm1"
  lrn_param {
    local_size: 5
    alpha: 0.0001
    beta: 0.75
  }
}
layer {
  name: "conv2"
  type: "Convolution"
  bottom: "norm1"
  top: "conv2"
  param {
    lr_mult: 1
    decay_mult: 1
  }
  param {
    lr_mult: 2
    decay_mult: 0
  }
  convolution_param {
    num_output: 256
    pad: 2
    kernel_size: 5
    group: 2
    weight_filler {
      type: "gaussian"
      std: 0.01
    }
    bias_filler {
      type: "constant"
      value: 0.1
    }
  }
}
layer {
  name: "relu2"
  type: "ReLU"
  bottom: "conv2"
  top: "conv2"
}
layer {
  name: "pool2"
  type: "Pooling"
  bottom: "conv2"
  top: "pool2"
  pooling_param {
    pool: MAX
    kernel_size: 3
    stride: 2
  }
}
layer {
  name: "norm2"
  type: "LRN"
  bottom: "pool2"
  top: "norm2"
  lrn_param {
    local_size: 5
    alpha: 0.0001
    beta: 0.75
  }
}
layer {
  name: "conv3"
  type: "Convolution"
  bottom: "norm2"
  top: "conv3"
  param {
    lr_mult: 1
    decay_mult: 1
  }
  param {
    lr_mult: 2
    decay_mult: 0
  }
  convolution_param {
    num_output: 384
    pad: 1
    kernel_size: 3
    weight_filler {
      type: "gaussian"
      std: 0.01
    }
    bias_filler {
      type: "constant"
      value: 0
    }
  }
}
layer {
  name: "relu3"
  type: "ReLU"
  bottom: "conv3"
  top: "conv3"
}
layer {
  name: "conv4"
  type: "Convolution"
  bottom: "conv3"
  top: "conv4"
  param {
    lr_mult: 1
    decay_mult: 1
  }
  param {
    lr_mult: 2
    decay_mult: 0
  }
  convolution_param {
    num_output: 384
    pad: 1
    kernel_size: 3
    group: 2
    weight_filler {
      type: "gaussian"
      std: 0.01
    }
    bias_filler {
      type: "constant"
      value: 0.1
    }
  }
}
layer {
  name: "relu4"
  type: "ReLU"
  bottom: "conv4"
  top: "conv4"
}
layer {
  name: "conv5"
  type: "Convolution"
  bottom: "conv4"
  top: "conv5"
  param {
    lr_mult: 1
    decay_mult: 1
  }
  param {
    lr_mult: 2
    decay_mult: 0
  }
  convolution_param {
    num_output: 256
    pad: 1
    kernel_size: 3
    group: 2
    weight_filler {
      type: "gaussian"
      std: 0.01
    }
    bias_filler {
      type: "constant"
      value: 0.1
    }
  }
}
layer {
  name: "relu5"
  type: "ReLU"
  bottom: "conv5"
  top: "conv5"
}
layer {
  name: "pool5"
  type: "Pooling"
  bottom: "conv5"
  top: "pool5"
  pooling_param {
    pool: MAX
    kernel_size: 3
    stride: 2
  }
}
layer {
  name: "fc6"
  type: "InnerProduct"
  bottom: "pool5"
  top: "fc6"
  param {
    lr_mult: 1
    decay_mult: 1
  }
  param {
    lr_mult: 2
    decay_mult: 0
  }
  inner_product_param {
    num_output: 4096
    weight_filler {
      type: "gaussian"
      std: 0.005
    }
    bias_filler {
      type: "constant"
      value: 0.1
    }
  }
}
layer {
  name: "relu6"
  type: "ReLU"
  bottom: "fc6"
  top: "fc6"
}
layer {
  name: "drop6"
  type: "Dropout"
  bottom: "fc6"
  top: "fc6"
  dropout_param {
    dropout_ratio: 0.5
  }
}
layer {
  name: "fc7"
  type: "InnerProduct"
  bottom: "fc6"
  top: "fc7"
  param {
    lr_mult: 1
    decay_mult: 1
  }
  param {
    lr_mult: 2
    decay_mult: 0
  }
  inner_product_param {
    num_output: 4096
    weight_filler {
      type: "gaussian"
      std: 0.005
    }
    bias_filler {
      type: "constant"
      value: 0.1
    }
  }
}
layer {
  name: "relu7"
  type: "ReLU"
  bottom: "fc7"
  top: "fc7"
}
layer {
  name: "drop7"
  type: "Dropout"
  bottom: "fc7"
  top: "fc7"
  dropout_param {
    dropout_ratio: 0.5
  }
}
layer {
  name: "fc8_subset"
  type: "InnerProduct"
  bottom: "fc7"
  top: "fc8_subset"
  param {
    lr_mult: 10
    decay_mult: 1
  }
  param {
    lr_mult: 20
    decay_mult: 0
  }
  inner_product_param {
    num_output: 25
    weight_filler {
      type: "gaussian"
      std: 0.01
    }
    bias_filler {
      type: "constant"
      value: 0
    }
  }
}
layer {
  name: "loss"
  type: "SoftmaxWithLoss"
  bottom: "fc8_subset"
  bottom: "label"
  top: "loss"
}
layer {
  name: "accuracy"
  type: "Accuracy"
  bottom: "fc8_subset"
  bottom: "label"
  top: "accuracy"
  include {
    phase: TEST
  }
}
I0309 03:03:50.865996  9137 layer_factory.hpp:77] Creating layer data
I0309 03:03:50.866153  9137 net.cpp:106] Creating Layer data
I0309 03:03:50.866188  9137 net.cpp:411] data -> data
I0309 03:03:50.866230  9137 net.cpp:411] data -> label
I0309 03:03:50.866263  9137 data_transformer.cpp:25] Loading mean file from: /work/01932/dineshj/CS381V/caffe_install_scripts/caffe/data/ilsvrc12/imagenet_mean.binaryproto
I0309 03:03:50.880641  9141 db_lmdb.cpp:38] Opened lmdb /work/04018/wxie/maverick/visual_recognition/data/test-lmdb
I0309 03:03:50.882553  9137 data_layer.cpp:41] output data size: 20,3,227,227
I0309 03:03:50.906949  9137 net.cpp:150] Setting up data
I0309 03:03:50.907048  9137 net.cpp:157] Top shape: 20 3 227 227 (3091740)
I0309 03:03:50.907090  9137 net.cpp:157] Top shape: 20 (20)
I0309 03:03:50.907120  9137 net.cpp:165] Memory required for data: 12367040
I0309 03:03:50.907147  9137 layer_factory.hpp:77] Creating layer label_data_1_split
I0309 03:03:50.907179  9137 net.cpp:106] Creating Layer label_data_1_split
I0309 03:03:50.907207  9137 net.cpp:454] label_data_1_split <- label
I0309 03:03:50.907237  9137 net.cpp:411] label_data_1_split -> label_data_1_split_0
I0309 03:03:50.907269  9137 net.cpp:411] label_data_1_split -> label_data_1_split_1
I0309 03:03:50.907362  9137 net.cpp:150] Setting up label_data_1_split
I0309 03:03:50.907398  9137 net.cpp:157] Top shape: 20 (20)
I0309 03:03:50.907434  9137 net.cpp:157] Top shape: 20 (20)
I0309 03:03:50.907462  9137 net.cpp:165] Memory required for data: 12367200
I0309 03:03:50.907488  9137 layer_factory.hpp:77] Creating layer conv1
I0309 03:03:50.907523  9137 net.cpp:106] Creating Layer conv1
I0309 03:03:50.907551  9137 net.cpp:454] conv1 <- data
I0309 03:03:50.907579  9137 net.cpp:411] conv1 -> conv1
I0309 03:03:50.909255  9137 net.cpp:150] Setting up conv1
I0309 03:03:50.909292  9137 net.cpp:157] Top shape: 20 96 55 55 (5808000)
I0309 03:03:50.909318  9137 net.cpp:165] Memory required for data: 35599200
I0309 03:03:50.909353  9137 layer_factory.hpp:77] Creating layer relu1
I0309 03:03:50.909384  9137 net.cpp:106] Creating Layer relu1
I0309 03:03:50.909412  9137 net.cpp:454] relu1 <- conv1
I0309 03:03:50.909441  9137 net.cpp:397] relu1 -> conv1 (in-place)
I0309 03:03:50.909474  9137 net.cpp:150] Setting up relu1
I0309 03:03:50.909503  9137 net.cpp:157] Top shape: 20 96 55 55 (5808000)
I0309 03:03:50.909529  9137 net.cpp:165] Memory required for data: 58831200
I0309 03:03:50.909555  9137 layer_factory.hpp:77] Creating layer pool1
I0309 03:03:50.909587  9137 net.cpp:106] Creating Layer pool1
I0309 03:03:50.909618  9137 net.cpp:454] pool1 <- conv1
I0309 03:03:50.909657  9137 net.cpp:411] pool1 -> pool1
I0309 03:03:50.909718  9137 net.cpp:150] Setting up pool1
I0309 03:03:50.909754  9137 net.cpp:157] Top shape: 20 96 27 27 (1399680)
I0309 03:03:50.909782  9137 net.cpp:165] Memory required for data: 64429920
I0309 03:03:50.909808  9137 layer_factory.hpp:77] Creating layer norm1
I0309 03:03:50.909838  9137 net.cpp:106] Creating Layer norm1
I0309 03:03:50.909865  9137 net.cpp:454] norm1 <- pool1
I0309 03:03:50.909894  9137 net.cpp:411] norm1 -> norm1
I0309 03:03:50.909960  9137 net.cpp:150] Setting up norm1
I0309 03:03:50.909993  9137 net.cpp:157] Top shape: 20 96 27 27 (1399680)
I0309 03:03:50.910019  9137 net.cpp:165] Memory required for data: 70028640
I0309 03:03:50.910046  9137 layer_factory.hpp:77] Creating layer conv2
I0309 03:03:50.910076  9137 net.cpp:106] Creating Layer conv2
I0309 03:03:50.910121  9137 net.cpp:454] conv2 <- norm1
I0309 03:03:50.910171  9137 net.cpp:411] conv2 -> conv2
I0309 03:03:50.922368  9137 net.cpp:150] Setting up conv2
I0309 03:03:50.922416  9137 net.cpp:157] Top shape: 20 256 27 27 (3732480)
I0309 03:03:50.922444  9137 net.cpp:165] Memory required for data: 84958560
I0309 03:03:50.922477  9137 layer_factory.hpp:77] Creating layer relu2
I0309 03:03:50.922511  9137 net.cpp:106] Creating Layer relu2
I0309 03:03:50.922539  9137 net.cpp:454] relu2 <- conv2
I0309 03:03:50.922569  9137 net.cpp:397] relu2 -> conv2 (in-place)
I0309 03:03:50.922600  9137 net.cpp:150] Setting up relu2
I0309 03:03:50.922634  9137 net.cpp:157] Top shape: 20 256 27 27 (3732480)
I0309 03:03:50.922662  9137 net.cpp:165] Memory required for data: 99888480
I0309 03:03:50.922688  9137 layer_factory.hpp:77] Creating layer pool2
I0309 03:03:50.922719  9137 net.cpp:106] Creating Layer pool2
I0309 03:03:50.922746  9137 net.cpp:454] pool2 <- conv2
I0309 03:03:50.922775  9137 net.cpp:411] pool2 -> pool2
I0309 03:03:50.922842  9137 net.cpp:150] Setting up pool2
I0309 03:03:50.922878  9137 net.cpp:157] Top shape: 20 256 13 13 (865280)
I0309 03:03:50.922905  9137 net.cpp:165] Memory required for data: 103349600
I0309 03:03:50.922932  9137 layer_factory.hpp:77] Creating layer norm2
I0309 03:03:50.922962  9137 net.cpp:106] Creating Layer norm2
I0309 03:03:50.922988  9137 net.cpp:454] norm2 <- pool2
I0309 03:03:50.923017  9137 net.cpp:411] norm2 -> norm2
I0309 03:03:50.923072  9137 net.cpp:150] Setting up norm2
I0309 03:03:50.923106  9137 net.cpp:157] Top shape: 20 256 13 13 (865280)
I0309 03:03:50.923132  9137 net.cpp:165] Memory required for data: 106810720
I0309 03:03:50.923157  9137 layer_factory.hpp:77] Creating layer conv3
I0309 03:03:50.923192  9137 net.cpp:106] Creating Layer conv3
I0309 03:03:50.923219  9137 net.cpp:454] conv3 <- norm2
I0309 03:03:50.923249  9137 net.cpp:411] conv3 -> conv3
I0309 03:03:50.958067  9137 net.cpp:150] Setting up conv3
I0309 03:03:50.958156  9137 net.cpp:157] Top shape: 20 384 13 13 (1297920)
I0309 03:03:50.958183  9137 net.cpp:165] Memory required for data: 112002400
I0309 03:03:50.958220  9137 layer_factory.hpp:77] Creating layer relu3
I0309 03:03:50.958252  9137 net.cpp:106] Creating Layer relu3
I0309 03:03:50.958281  9137 net.cpp:454] relu3 <- conv3
I0309 03:03:50.958312  9137 net.cpp:397] relu3 -> conv3 (in-place)
I0309 03:03:50.958353  9137 net.cpp:150] Setting up relu3
I0309 03:03:50.958379  9137 net.cpp:157] Top shape: 20 384 13 13 (1297920)
I0309 03:03:50.958400  9137 net.cpp:165] Memory required for data: 117194080
I0309 03:03:50.958421  9137 layer_factory.hpp:77] Creating layer conv4
I0309 03:03:50.958478  9137 net.cpp:106] Creating Layer conv4
I0309 03:03:50.958518  9137 net.cpp:454] conv4 <- conv3
I0309 03:03:50.958544  9137 net.cpp:411] conv4 -> conv4
I0309 03:03:50.984417  9137 net.cpp:150] Setting up conv4
I0309 03:03:50.984472  9137 net.cpp:157] Top shape: 20 384 13 13 (1297920)
I0309 03:03:50.984501  9137 net.cpp:165] Memory required for data: 122385760
I0309 03:03:50.984541  9137 layer_factory.hpp:77] Creating layer relu4
I0309 03:03:50.984575  9137 net.cpp:106] Creating Layer relu4
I0309 03:03:50.984608  9137 net.cpp:454] relu4 <- conv4
I0309 03:03:50.984640  9137 net.cpp:397] relu4 -> conv4 (in-place)
I0309 03:03:50.984671  9137 net.cpp:150] Setting up relu4
I0309 03:03:50.984702  9137 net.cpp:157] Top shape: 20 384 13 13 (1297920)
I0309 03:03:50.984727  9137 net.cpp:165] Memory required for data: 127577440
I0309 03:03:50.984762  9137 layer_factory.hpp:77] Creating layer conv5
I0309 03:03:50.984797  9137 net.cpp:106] Creating Layer conv5
I0309 03:03:50.984825  9137 net.cpp:454] conv5 <- conv4
I0309 03:03:50.984855  9137 net.cpp:411] conv5 -> conv5
I0309 03:03:51.001775  9137 net.cpp:150] Setting up conv5
I0309 03:03:51.001817  9137 net.cpp:157] Top shape: 20 256 13 13 (865280)
I0309 03:03:51.001843  9137 net.cpp:165] Memory required for data: 131038560
I0309 03:03:51.001875  9137 layer_factory.hpp:77] Creating layer relu5
I0309 03:03:51.001907  9137 net.cpp:106] Creating Layer relu5
I0309 03:03:51.001993  9137 net.cpp:454] relu5 <- conv5
I0309 03:03:51.002019  9137 net.cpp:397] relu5 -> conv5 (in-place)
I0309 03:03:51.002050  9137 net.cpp:150] Setting up relu5
I0309 03:03:51.002080  9137 net.cpp:157] Top shape: 20 256 13 13 (865280)
I0309 03:03:51.002105  9137 net.cpp:165] Memory required for data: 134499680
I0309 03:03:51.002131  9137 layer_factory.hpp:77] Creating layer pool5
I0309 03:03:51.002163  9137 net.cpp:106] Creating Layer pool5
I0309 03:03:51.002189  9137 net.cpp:454] pool5 <- conv5
I0309 03:03:51.002218  9137 net.cpp:411] pool5 -> pool5
I0309 03:03:51.002281  9137 net.cpp:150] Setting up pool5
I0309 03:03:51.002317  9137 net.cpp:157] Top shape: 20 256 6 6 (184320)
I0309 03:03:51.002341  9137 net.cpp:165] Memory required for data: 135236960
I0309 03:03:51.002368  9137 layer_factory.hpp:77] Creating layer fc6
I0309 03:03:51.002401  9137 net.cpp:106] Creating Layer fc6
I0309 03:03:51.002430  9137 net.cpp:454] fc6 <- pool5
I0309 03:03:51.002461  9137 net.cpp:411] fc6 -> fc6
I0309 03:03:52.381450  9137 net.cpp:150] Setting up fc6
I0309 03:03:52.381616  9137 net.cpp:157] Top shape: 20 4096 (81920)
I0309 03:03:52.381642  9137 net.cpp:165] Memory required for data: 135564640
I0309 03:03:52.381675  9137 layer_factory.hpp:77] Creating layer relu6
I0309 03:03:52.381710  9137 net.cpp:106] Creating Layer relu6
I0309 03:03:52.381734  9137 net.cpp:454] relu6 <- fc6
I0309 03:03:52.381762  9137 net.cpp:397] relu6 -> fc6 (in-place)
I0309 03:03:52.381799  9137 net.cpp:150] Setting up relu6
I0309 03:03:52.381824  9137 net.cpp:157] Top shape: 20 4096 (81920)
I0309 03:03:52.381844  9137 net.cpp:165] Memory required for data: 135892320
I0309 03:03:52.381865  9137 layer_factory.hpp:77] Creating layer drop6
I0309 03:03:52.381896  9137 net.cpp:106] Creating Layer drop6
I0309 03:03:52.381918  9137 net.cpp:454] drop6 <- fc6
I0309 03:03:52.381942  9137 net.cpp:397] drop6 -> fc6 (in-place)
I0309 03:03:52.381992  9137 net.cpp:150] Setting up drop6
I0309 03:03:52.382022  9137 net.cpp:157] Top shape: 20 4096 (81920)
I0309 03:03:52.382043  9137 net.cpp:165] Memory required for data: 136220000
I0309 03:03:52.382064  9137 layer_factory.hpp:77] Creating layer fc7
I0309 03:03:52.382094  9137 net.cpp:106] Creating Layer fc7
I0309 03:03:52.382117  9137 net.cpp:454] fc7 <- fc6
I0309 03:03:52.382143  9137 net.cpp:411] fc7 -> fc7
I0309 03:03:52.994349  9137 net.cpp:150] Setting up fc7
I0309 03:03:52.994509  9137 net.cpp:157] Top shape: 20 4096 (81920)
I0309 03:03:52.994534  9137 net.cpp:165] Memory required for data: 136547680
I0309 03:03:52.994565  9137 layer_factory.hpp:77] Creating layer relu7
I0309 03:03:52.994601  9137 net.cpp:106] Creating Layer relu7
I0309 03:03:52.994631  9137 net.cpp:454] relu7 <- fc7
I0309 03:03:52.994662  9137 net.cpp:397] relu7 -> fc7 (in-place)
I0309 03:03:52.994700  9137 net.cpp:150] Setting up relu7
I0309 03:03:52.994725  9137 net.cpp:157] Top shape: 20 4096 (81920)
I0309 03:03:52.994746  9137 net.cpp:165] Memory required for data: 136875360
I0309 03:03:52.994767  9137 layer_factory.hpp:77] Creating layer drop7
I0309 03:03:52.994794  9137 net.cpp:106] Creating Layer drop7
I0309 03:03:52.994817  9137 net.cpp:454] drop7 <- fc7
I0309 03:03:52.994840  9137 net.cpp:397] drop7 -> fc7 (in-place)
I0309 03:03:52.994894  9137 net.cpp:150] Setting up drop7
I0309 03:03:52.994923  9137 net.cpp:157] Top shape: 20 4096 (81920)
I0309 03:03:52.994945  9137 net.cpp:165] Memory required for data: 137203040
I0309 03:03:52.994966  9137 layer_factory.hpp:77] Creating layer fc8_subset
I0309 03:03:52.994997  9137 net.cpp:106] Creating Layer fc8_subset
I0309 03:03:52.995020  9137 net.cpp:454] fc8_subset <- fc7
I0309 03:03:52.995044  9137 net.cpp:411] fc8_subset -> fc8_subset
I0309 03:03:52.998736  9137 net.cpp:150] Setting up fc8_subset
I0309 03:03:52.998771  9137 net.cpp:157] Top shape: 20 25 (500)
I0309 03:03:52.998793  9137 net.cpp:165] Memory required for data: 137205040
I0309 03:03:52.998817  9137 layer_factory.hpp:77] Creating layer fc8_subset_fc8_subset_0_split
I0309 03:03:52.998878  9137 net.cpp:106] Creating Layer fc8_subset_fc8_subset_0_split
I0309 03:03:52.998968  9137 net.cpp:454] fc8_subset_fc8_subset_0_split <- fc8_subset
I0309 03:03:52.998996  9137 net.cpp:411] fc8_subset_fc8_subset_0_split -> fc8_subset_fc8_subset_0_split_0
I0309 03:03:52.999025  9137 net.cpp:411] fc8_subset_fc8_subset_0_split -> fc8_subset_fc8_subset_0_split_1
I0309 03:03:52.999083  9137 net.cpp:150] Setting up fc8_subset_fc8_subset_0_split
I0309 03:03:52.999114  9137 net.cpp:157] Top shape: 20 25 (500)
I0309 03:03:52.999137  9137 net.cpp:157] Top shape: 20 25 (500)
I0309 03:03:52.999158  9137 net.cpp:165] Memory required for data: 137209040
I0309 03:03:52.999179  9137 layer_factory.hpp:77] Creating layer loss
I0309 03:03:52.999210  9137 net.cpp:106] Creating Layer loss
I0309 03:03:52.999234  9137 net.cpp:454] loss <- fc8_subset_fc8_subset_0_split_0
I0309 03:03:52.999258  9137 net.cpp:454] loss <- label_data_1_split_0
I0309 03:03:52.999284  9137 net.cpp:411] loss -> loss
…
