…
I0306 03:39:11.073465 54333 net.cpp:322] The NetState phase (0) differed from the phase (1) specified by a rule in layer accuracy
I0306 03:39:11.073675 54333 net.cpp:49] Initializing net from parameters: 
name: "FlickrStyleCaffeNet"
state {
  phase: TRAIN
}
layer {
  name: "data"
  type: "Data"
  top: "data"
  top: "label"
  include {
    phase: TRAIN
  }
  transform_param {
    mirror: true
    crop_size: 227
    mean_file: "/work/01932/dineshj/CS381V/caffe_install_scripts/caffe/data/ilsvrc12/imagenet_mean.binaryproto"
  }
  data_param {
    source: "/work/04018/wxie/maverick/visual_recognition/data/train-lmdb"
    batch_size: 50
    backend: LMDB
  }
}
layer {
  name: "conv1"
  type: "Convolution"
  bottom: "data"
  top: "conv1"
  param {
    lr_mult: 1
    decay_mult: 1
  }
  param {
    lr_mult: 2
    decay_mult: 0
  }
  convolution_param {
    num_output: 96
    kernel_size: 11
    stride: 4
    weight_filler {
      type: "gaussian"
      std: 0.01
    }
    bias_filler {
      type: "constant"
      value: 0
    }
  }
}
layer {
  name: "relu1"
  type: "ReLU"
  bottom: "conv1"
  top: "conv1"
}
layer {
  name: "pool1"
  type: "Pooling"
  bottom: "conv1"
  top: "pool1"
  pooling_param {
    pool: MAX
    kernel_size: 3
    stride: 2
  }
}
layer {
  name: "norm1"
  type: "LRN"
  bottom: "pool1"
  top: "norm1"
  lrn_param {
    local_size: 5
    alpha: 0.0001
    beta: 0.75
  }
}
layer {
  name: "conv2"
  type: "Convolution"
  bottom: "norm1"
  top: "conv2"
  param {
    lr_mult: 1
    decay_mult: 1
  }
  param {
    lr_mult: 2
    decay_mult: 0
  }
  convolution_param {
    num_output: 256
    pad: 2
    kernel_size: 5
    group: 2
    weight_filler {
      type: "gaussian"
      std: 0.01
    }
    bias_filler {
      type: "constant"
      value: 1
    }
  }
}
layer {
  name: "relu2"
  type: "ReLU"
  bottom: "conv2"
  top: "conv2"
}
layer {
  name: "pool2"
  type: "Pooling"
  bottom: "conv2"
  top: "pool2"
  pooling_param {
    pool: MAX
    kernel_size: 3
    stride: 2
  }
}
layer {
  name: "norm2"
  type: "LRN"
  bottom: "pool2"
  top: "norm2"
  lrn_param {
    local_size: 5
    alpha: 0.0001
    beta: 0.75
  }
}
layer {
  name: "conv3"
  type: "Convolution"
  bottom: "norm2"
  top: "conv3"
  param {
    lr_mult: 1
    decay_mult: 1
  }
  param {
    lr_mult: 2
    decay_mult: 0
  }
  convolution_param {
    num_output: 384
    pad: 1
    kernel_size: 3
    weight_filler {
      type: "gaussian"
      std: 0.01
    }
    bias_filler {
      type: "constant"
      value: 0
    }
  }
}
layer {
  name: "relu3"
  type: "ReLU"
  bottom: "conv3"
  top: "conv3"
}
layer {
  name: "conv4"
  type: "Convolution"
  bottom: "conv3"
  top: "conv4"
  param {
    lr_mult: 1
    decay_mult: 1
  }
  param {
    lr_mult: 2
    decay_mult: 0
  }
  convolution_param {
    num_output: 384
    pad: 1
    kernel_size: 3
    group: 2
    weight_filler {
      type: "gaussian"
      std: 0.01
    }
    bias_filler {
      type: "constant"
      value: 1
    }
  }
}
layer {
  name: "relu4"
  type: "ReLU"
  bottom: "conv4"
  top: "conv4"
}
layer {
  name: "conv5"
  type: "Convolution"
  bottom: "conv4"
  top: "conv5"
  param {
    lr_mult: 1
    decay_mult: 1
  }
  param {
    lr_mult: 2
    decay_mult: 0
  }
  convolution_param {
    num_output: 256
    pad: 1
    kernel_size: 3
    group: 2
    weight_filler {
      type: "gaussian"
      std: 0.01
    }
    bias_filler {
      type: "constant"
      value: 1
    }
  }
}
layer {
  name: "relu5"
  type: "ReLU"
  bottom: "conv5"
  top: "conv5"
}
layer {
  name: "pool5"
  type: "Pooling"
  bottom: "conv5"
  top: "pool5"
  pooling_param {
    pool: MAX
    kernel_size: 3
    stride: 2
  }
}
layer {
  name: "fc6"
  type: "InnerProduct"
  bottom: "pool5"
  top: "fc6"
  param {
    lr_mult: 1
    decay_mult: 1
  }
  param {
    lr_mult: 2
    decay_mult: 0
  }
  inner_product_param {
    num_output: 4096
    weight_filler {
      type: "gaussian"
      std: 0.005
    }
    bias_filler {
      type: "constant"
      value: 1
    }
  }
}
layer {
  name: "relu6"
  type: "ReLU"
  bottom: "fc6"
  top: "fc6"
}
layer {
  name: "drop6"
  type: "Dropout"
  bottom: "fc6"
  top: "fc6"
  dropout_param {
    dropout_ratio: 0.5
  }
}
layer {
  name: "fc7"
  type: "InnerProduct"
  bottom: "fc6"
  top: "fc7"
  param {
    lr_mult: 1
    decay_mult: 1
  }
  param {
    lr_mult: 2
    decay_mult: 0
  }
  inner_product_param {
    num_output: 4096
    weight_filler {
      type: "gaussian"
      std: 0.005
    }
    bias_filler {
      type: "constant"
      value: 1
    }
  }
}
layer {
  name: "relu7"
  type: "ReLU"
  bottom: "fc7"
  top: "fc7"
}
layer {
  name: "drop7"
  type: "Dropout"
  bottom: "fc7"
  top: "fc7"
  dropout_param {
    dropout_ratio: 0.5
  }
}
layer {
  name: "fc8_subset"
  type: "InnerProduct"
  bottom: "fc7"
  top: "fc8_subset"
  param {
    lr_mult: 10
    decay_mult: 1
  }
  param {
    lr_mult: 20
    decay_mult: 0
  }
  inner_product_param {
    num_output: 25
    weight_filler {
      type: "gaussian"
      std: 0.01
    }
    bias_filler {
      type: "constant"
      value: 0
    }
  }
}
layer {
  name: "loss"
  type: "SoftmaxWithLoss"
  bottom: "fc8_subset"
  bottom: "label"
  top: "loss"
}
I0306 03:39:11.074002 54333 layer_factory.hpp:77] Creating layer data
I0306 03:39:11.074807 54333 net.cpp:106] Creating Layer data
I0306 03:39:11.074889 54333 net.cpp:411] data -> data
I0306 03:39:11.075018 54333 net.cpp:411] data -> label
I0306 03:39:11.075114 54333 data_transformer.cpp:25] Loading mean file from: /work/01932/dineshj/CS381V/caffe_install_scripts/caffe/data/ilsvrc12/imagenet_mean.binaryproto
I0306 03:39:11.102628 54337 db_lmdb.cpp:38] Opened lmdb /work/04018/wxie/maverick/visual_recognition/data/train-lmdb
I0306 03:39:11.160394 54333 data_layer.cpp:41] output data size: 50,3,227,227
I0306 03:39:11.220867 54333 net.cpp:150] Setting up data
I0306 03:39:11.220979 54333 net.cpp:157] Top shape: 50 3 227 227 (7729350)
I0306 03:39:11.221015 54333 net.cpp:157] Top shape: 50 (50)
I0306 03:39:11.221045 54333 net.cpp:165] Memory required for data: 30917600
I0306 03:39:11.221088 54333 layer_factory.hpp:77] Creating layer conv1
I0306 03:39:11.221170 54333 net.cpp:106] Creating Layer conv1
I0306 03:39:11.221202 54333 net.cpp:454] conv1 <- data
I0306 03:39:11.221242 54333 net.cpp:411] conv1 -> conv1
I0306 03:39:11.226380 54333 net.cpp:150] Setting up conv1
I0306 03:39:11.226425 54333 net.cpp:157] Top shape: 50 96 55 55 (14520000)
I0306 03:39:11.226452 54333 net.cpp:165] Memory required for data: 88997600
I0306 03:39:11.226512 54333 layer_factory.hpp:77] Creating layer relu1
I0306 03:39:11.226546 54333 net.cpp:106] Creating Layer relu1
I0306 03:39:11.226572 54333 net.cpp:454] relu1 <- conv1
I0306 03:39:11.226599 54333 net.cpp:397] relu1 -> conv1 (in-place)
I0306 03:39:11.226631 54333 net.cpp:150] Setting up relu1
I0306 03:39:11.226660 54333 net.cpp:157] Top shape: 50 96 55 55 (14520000)
I0306 03:39:11.226683 54333 net.cpp:165] Memory required for data: 147077600
I0306 03:39:11.226706 54333 layer_factory.hpp:77] Creating layer pool1
I0306 03:39:11.226733 54333 net.cpp:106] Creating Layer pool1
I0306 03:39:11.226758 54333 net.cpp:454] pool1 <- conv1
I0306 03:39:11.226783 54333 net.cpp:411] pool1 -> pool1
I0306 03:39:11.226974 54333 net.cpp:150] Setting up pool1
I0306 03:39:11.227012 54333 net.cpp:157] Top shape: 50 96 27 27 (3499200)
I0306 03:39:11.227063 54333 net.cpp:165] Memory required for data: 161074400
I0306 03:39:11.227141 54333 layer_factory.hpp:77] Creating layer norm1
I0306 03:39:11.227179 54333 net.cpp:106] Creating Layer norm1
I0306 03:39:11.227210 54333 net.cpp:454] norm1 <- pool1
I0306 03:39:11.227241 54333 net.cpp:411] norm1 -> norm1
I0306 03:39:11.227355 54333 net.cpp:150] Setting up norm1
I0306 03:39:11.227392 54333 net.cpp:157] Top shape: 50 96 27 27 (3499200)
I0306 03:39:11.227417 54333 net.cpp:165] Memory required for data: 175071200
I0306 03:39:11.227442 54333 layer_factory.hpp:77] Creating layer conv2
I0306 03:39:11.227473 54333 net.cpp:106] Creating Layer conv2
I0306 03:39:11.227499 54333 net.cpp:454] conv2 <- norm1
I0306 03:39:11.227533 54333 net.cpp:411] conv2 -> conv2
I0306 03:39:11.240454 54333 net.cpp:150] Setting up conv2
I0306 03:39:11.240535 54333 net.cpp:157] Top shape: 50 256 27 27 (9331200)
I0306 03:39:11.240564 54333 net.cpp:165] Memory required for data: 212396000
I0306 03:39:11.240600 54333 layer_factory.hpp:77] Creating layer relu2
I0306 03:39:11.240635 54333 net.cpp:106] Creating Layer relu2
I0306 03:39:11.240664 54333 net.cpp:454] relu2 <- conv2
I0306 03:39:11.240695 54333 net.cpp:397] relu2 -> conv2 (in-place)
I0306 03:39:11.240731 54333 net.cpp:150] Setting up relu2
I0306 03:39:11.240762 54333 net.cpp:157] Top shape: 50 256 27 27 (9331200)
I0306 03:39:11.240790 54333 net.cpp:165] Memory required for data: 249720800
I0306 03:39:11.240820 54333 layer_factory.hpp:77] Creating layer pool2
I0306 03:39:11.240854 54333 net.cpp:106] Creating Layer pool2
I0306 03:39:11.240881 54333 net.cpp:454] pool2 <- conv2
I0306 03:39:11.240911 54333 net.cpp:411] pool2 -> pool2
I0306 03:39:11.240974 54333 net.cpp:150] Setting up pool2
I0306 03:39:11.241010 54333 net.cpp:157] Top shape: 50 256 13 13 (2163200)
I0306 03:39:11.241036 54333 net.cpp:165] Memory required for data: 258373600
I0306 03:39:11.241062 54333 layer_factory.hpp:77] Creating layer norm2
I0306 03:39:11.241098 54333 net.cpp:106] Creating Layer norm2
I0306 03:39:11.241127 54333 net.cpp:454] norm2 <- pool2
I0306 03:39:11.241158 54333 net.cpp:411] norm2 -> norm2
I0306 03:39:11.241217 54333 net.cpp:150] Setting up norm2
I0306 03:39:11.241248 54333 net.cpp:157] Top shape: 50 256 13 13 (2163200)
I0306 03:39:11.241272 54333 net.cpp:165] Memory required for data: 267026400
I0306 03:39:11.241299 54333 layer_factory.hpp:77] Creating layer conv3
I0306 03:39:11.241336 54333 net.cpp:106] Creating Layer conv3
I0306 03:39:11.241364 54333 net.cpp:454] conv3 <- norm2
I0306 03:39:11.241396 54333 net.cpp:411] conv3 -> conv3
I0306 03:39:11.273923 54338 blocking_queue.cpp:50] Waiting for data
I0306 03:39:11.277050 54333 net.cpp:150] Setting up conv3
I0306 03:39:11.277110 54333 net.cpp:157] Top shape: 50 384 13 13 (3244800)
I0306 03:39:11.277142 54333 net.cpp:165] Memory required for data: 280005600
I0306 03:39:11.277182 54333 layer_factory.hpp:77] Creating layer relu3
I0306 03:39:11.277230 54333 net.cpp:106] Creating Layer relu3
I0306 03:39:11.277259 54333 net.cpp:454] relu3 <- conv3
I0306 03:39:11.277292 54333 net.cpp:397] relu3 -> conv3 (in-place)
I0306 03:39:11.277333 54333 net.cpp:150] Setting up relu3
I0306 03:39:11.277362 54333 net.cpp:157] Top shape: 50 384 13 13 (3244800)
I0306 03:39:11.277390 54333 net.cpp:165] Memory required for data: 292984800
I0306 03:39:11.277416 54333 layer_factory.hpp:77] Creating layer conv4
I0306 03:39:11.277477 54333 net.cpp:106] Creating Layer conv4
I0306 03:39:11.277508 54333 net.cpp:454] conv4 <- conv3
I0306 03:39:11.277539 54333 net.cpp:411] conv4 -> conv4
I0306 03:39:11.306165 54333 net.cpp:150] Setting up conv4
I0306 03:39:11.306239 54333 net.cpp:157] Top shape: 50 384 13 13 (3244800)
I0306 03:39:11.306269 54333 net.cpp:165] Memory required for data: 305964000
I0306 03:39:11.306303 54333 layer_factory.hpp:77] Creating layer relu4
I0306 03:39:11.306339 54333 net.cpp:106] Creating Layer relu4
I0306 03:39:11.306368 54333 net.cpp:454] relu4 <- conv4
I0306 03:39:11.306399 54333 net.cpp:397] relu4 -> conv4 (in-place)
I0306 03:39:11.306460 54333 net.cpp:150] Setting up relu4
I0306 03:39:11.306526 54333 net.cpp:157] Top shape: 50 384 13 13 (3244800)
I0306 03:39:11.306553 54333 net.cpp:165] Memory required for data: 318943200
I0306 03:39:11.306581 54333 layer_factory.hpp:77] Creating layer conv5
I0306 03:39:11.306618 54333 net.cpp:106] Creating Layer conv5
I0306 03:39:11.306643 54333 net.cpp:454] conv5 <- conv4
I0306 03:39:11.306670 54333 net.cpp:411] conv5 -> conv5
I0306 03:39:11.324455 54333 net.cpp:150] Setting up conv5
I0306 03:39:11.324520 54333 net.cpp:157] Top shape: 50 256 13 13 (2163200)
I0306 03:39:11.324549 54333 net.cpp:165] Memory required for data: 327596000
I0306 03:39:11.324587 54333 layer_factory.hpp:77] Creating layer relu5
I0306 03:39:11.324622 54333 net.cpp:106] Creating Layer relu5
I0306 03:39:11.324651 54333 net.cpp:454] relu5 <- conv5
I0306 03:39:11.324683 54333 net.cpp:397] relu5 -> conv5 (in-place)
I0306 03:39:11.324718 54333 net.cpp:150] Setting up relu5
I0306 03:39:11.324749 54333 net.cpp:157] Top shape: 50 256 13 13 (2163200)
I0306 03:39:11.324775 54333 net.cpp:165] Memory required for data: 336248800
I0306 03:39:11.324803 54333 layer_factory.hpp:77] Creating layer pool5
I0306 03:39:11.324837 54333 net.cpp:106] Creating Layer pool5
I0306 03:39:11.324862 54333 net.cpp:454] pool5 <- conv5
I0306 03:39:11.324887 54333 net.cpp:411] pool5 -> pool5
I0306 03:39:11.324950 54333 net.cpp:150] Setting up pool5
I0306 03:39:11.324987 54333 net.cpp:157] Top shape: 50 256 6 6 (460800)
I0306 03:39:11.325014 54333 net.cpp:165] Memory required for data: 338092000
I0306 03:39:11.325042 54333 layer_factory.hpp:77] Creating layer fc6
I0306 03:39:11.325117 54333 net.cpp:106] Creating Layer fc6
I0306 03:39:11.325150 54333 net.cpp:454] fc6 <- pool5
I0306 03:39:11.325184 54333 net.cpp:411] fc6 -> fc6
I0306 03:39:12.723327 54333 net.cpp:150] Setting up fc6
I0306 03:39:12.723465 54333 net.cpp:157] Top shape: 50 4096 (204800)
I0306 03:39:12.723490 54333 net.cpp:165] Memory required for data: 338911200
I0306 03:39:12.723523 54333 layer_factory.hpp:77] Creating layer relu6
I0306 03:39:12.723561 54333 net.cpp:106] Creating Layer relu6
I0306 03:39:12.723587 54333 net.cpp:454] relu6 <- fc6
I0306 03:39:12.723614 54333 net.cpp:397] relu6 -> fc6 (in-place)
I0306 03:39:12.723651 54333 net.cpp:150] Setting up relu6
I0306 03:39:12.723676 54333 net.cpp:157] Top shape: 50 4096 (204800)
I0306 03:39:12.723698 54333 net.cpp:165] Memory required for data: 339730400
I0306 03:39:12.723719 54333 layer_factory.hpp:77] Creating layer drop6
I0306 03:39:12.723747 54333 net.cpp:106] Creating Layer drop6
I0306 03:39:12.723768 54333 net.cpp:454] drop6 <- fc6
I0306 03:39:12.723794 54333 net.cpp:397] drop6 -> fc6 (in-place)
I0306 03:39:12.723896 54333 net.cpp:150] Setting up drop6
I0306 03:39:12.723927 54333 net.cpp:157] Top shape: 50 4096 (204800)
I0306 03:39:12.723948 54333 net.cpp:165] Memory required for data: 340549600
I0306 03:39:12.723969 54333 layer_factory.hpp:77] Creating layer fc7
I0306 03:39:12.723999 54333 net.cpp:106] Creating Layer fc7
I0306 03:39:12.724022 54333 net.cpp:454] fc7 <- fc6
I0306 03:39:12.724047 54333 net.cpp:411] fc7 -> fc7
I0306 03:39:13.337592 54333 net.cpp:150] Setting up fc7
I0306 03:39:13.337723 54333 net.cpp:157] Top shape: 50 4096 (204800)
I0306 03:39:13.337746 54333 net.cpp:165] Memory required for data: 341368800
I0306 03:39:13.337779 54333 layer_factory.hpp:77] Creating layer relu7
I0306 03:39:13.337821 54333 net.cpp:106] Creating Layer relu7
I0306 03:39:13.337847 54333 net.cpp:454] relu7 <- fc7
I0306 03:39:13.337877 54333 net.cpp:397] relu7 -> fc7 (in-place)
I0306 03:39:13.337914 54333 net.cpp:150] Setting up relu7
I0306 03:39:13.337939 54333 net.cpp:157] Top shape: 50 4096 (204800)
I0306 03:39:13.337960 54333 net.cpp:165] Memory required for data: 342188000
I0306 03:39:13.337981 54333 layer_factory.hpp:77] Creating layer drop7
I0306 03:39:13.338011 54333 net.cpp:106] Creating Layer drop7
I0306 03:39:13.338034 54333 net.cpp:454] drop7 <- fc7
I0306 03:39:13.338058 54333 net.cpp:397] drop7 -> fc7 (in-place)
I0306 03:39:13.338106 54333 net.cpp:150] Setting up drop7
I0306 03:39:13.338162 54333 net.cpp:157] Top shape: 50 4096 (204800)
I0306 03:39:13.338219 54333 net.cpp:165] Memory required for data: 343007200
I0306 03:39:13.338241 54333 layer_factory.hpp:77] Creating layer fc8_subset
I0306 03:39:13.338274 54333 net.cpp:106] Creating Layer fc8_subset
I0306 03:39:13.338296 54333 net.cpp:454] fc8_subset <- fc7
I0306 03:39:13.338323 54333 net.cpp:411] fc8_subset -> fc8_subset
I0306 03:39:13.342598 54333 net.cpp:150] Setting up fc8_subset
I0306 03:39:13.342636 54333 net.cpp:157] Top shape: 50 25 (1250)
I0306 03:39:13.342659 54333 net.cpp:165] Memory required for data: 343012200
I0306 03:39:13.342684 54333 layer_factory.hpp:77] Creating layer loss
I0306 03:39:13.342711 54333 net.cpp:106] Creating Layer loss
I0306 03:39:13.342735 54333 net.cpp:454] loss <- fc8_subset
I0306 03:39:13.342756 54333 net.cpp:454] loss <- label
I0306 03:39:13.342788 54333 net.cpp:411] loss -> loss
I0306 03:39:13.342864 54333 layer_factory.hpp:77] Creating layer loss
…
I0306 03:39:13.345515 54333 net.cpp:322] The NetState phase (1) differed from the phase (0) specified by a rule in layer data
I0306 03:39:13.345751 54333 net.cpp:49] Initializing net from parameters: 
name: "FlickrStyleCaffeNet"
state {
  phase: TEST
}
layer {
  name: "data"
  type: "Data"
  top: "data"
  top: "label"
  include {
    phase: TEST
  }
  transform_param {
    mirror: false
    crop_size: 227
    mean_file: "/work/01932/dineshj/CS381V/caffe_install_scripts/caffe/data/ilsvrc12/imagenet_mean.binaryproto"
  }
  data_param {
    source: "/work/04018/wxie/maverick/visual_recognition/data/test-lmdb"
    batch_size: 20
    backend: LMDB
  }
}
layer {
  name: "conv1"
  type: "Convolution"
  bottom: "data"
  top: "conv1"
  param {
    lr_mult: 1
    decay_mult: 1
  }
  param {
    lr_mult: 2
    decay_mult: 0
  }
  convolution_param {
    num_output: 96
    kernel_size: 11
    stride: 4
    weight_filler {
      type: "gaussian"
      std: 0.01
    }
    bias_filler {
      type: "constant"
      value: 0
    }
  }
}
layer {
  name: "relu1"
  type: "ReLU"
  bottom: "conv1"
  top: "conv1"
}
layer {
  name: "pool1"
  type: "Pooling"
  bottom: "conv1"
  top: "pool1"
  pooling_param {
    pool: MAX
    kernel_size: 3
    stride: 2
  }
}
layer {
  name: "norm1"
  type: "LRN"
  bottom: "pool1"
  top: "norm1"
  lrn_param {
    local_size: 5
    alpha: 0.0001
    beta: 0.75
  }
}
layer {
  name: "conv2"
  type: "Convolution"
  bottom: "norm1"
  top: "conv2"
  param {
    lr_mult: 1
    decay_mult: 1
  }
  param {
    lr_mult: 2
    decay_mult: 0
  }
  convolution_param {
    num_output: 256
    pad: 2
    kernel_size: 5
    group: 2
    weight_filler {
      type: "gaussian"
      std: 0.01
    }
    bias_filler {
      type: "constant"
      value: 1
    }
  }
}
layer {
  name: "relu2"
  type: "ReLU"
  bottom: "conv2"
  top: "conv2"
}
layer {
  name: "pool2"
  type: "Pooling"
  bottom: "conv2"
  top: "pool2"
  pooling_param {
    pool: MAX
    kernel_size: 3
    stride: 2
  }
}
layer {
  name: "norm2"
  type: "LRN"
  bottom: "pool2"
  top: "norm2"
  lrn_param {
    local_size: 5
    alpha: 0.0001
    beta: 0.75
  }
}
layer {
  name: "conv3"
  type: "Convolution"
  bottom: "norm2"
  top: "conv3"
  param {
    lr_mult: 1
    decay_mult: 1
  }
  param {
    lr_mult: 2
    decay_mult: 0
  }
  convolution_param {
    num_output: 384
    pad: 1
    kernel_size: 3
    weight_filler {
      type: "gaussian"
      std: 0.01
    }
    bias_filler {
      type: "constant"
      value: 0
    }
  }
}
layer {
  name: "relu3"
  type: "ReLU"
  bottom: "conv3"
  top: "conv3"
}
layer {
  name: "conv4"
  type: "Convolution"
  bottom: "conv3"
  top: "conv4"
  param {
    lr_mult: 1
    decay_mult: 1
  }
  param {
    lr_mult: 2
    decay_mult: 0
  }
  convolution_param {
    num_output: 384
    pad: 1
    kernel_size: 3
    group: 2
    weight_filler {
      type: "gaussian"
      std: 0.01
    }
    bias_filler {
      type: "constant"
      value: 1
    }
  }
}
layer {
  name: "relu4"
  type: "ReLU"
  bottom: "conv4"
  top: "conv4"
}
layer {
  name: "conv5"
  type: "Convolution"
  bottom: "conv4"
  top: "conv5"
  param {
    lr_mult: 1
    decay_mult: 1
  }
  param {
    lr_mult: 2
    decay_mult: 0
  }
  convolution_param {
    num_output: 256
    pad: 1
    kernel_size: 3
    group: 2
    weight_filler {
      type: "gaussian"
      std: 0.01
    }
    bias_filler {
      type: "constant"
      value: 1
    }
  }
}
layer {
  name: "relu5"
  type: "ReLU"
  bottom: "conv5"
  top: "conv5"
}
layer {
  name: "pool5"
  type: "Pooling"
  bottom: "conv5"
  top: "pool5"
  pooling_param {
    pool: MAX
    kernel_size: 3
    stride: 2
  }
}
layer {
  name: "fc6"
  type: "InnerProduct"
  bottom: "pool5"
  top: "fc6"
  param {
    lr_mult: 1
    decay_mult: 1
  }
  param {
    lr_mult: 2
    decay_mult: 0
  }
  inner_product_param {
    num_output: 4096
    weight_filler {
      type: "gaussian"
      std: 0.005
    }
    bias_filler {
      type: "constant"
      value: 1
    }
  }
}
layer {
  name: "relu6"
  type: "ReLU"
  bottom: "fc6"
  top: "fc6"
}
layer {
  name: "drop6"
  type: "Dropout"
  bottom: "fc6"
  top: "fc6"
  dropout_param {
    dropout_ratio: 0.5
  }
}
layer {
  name: "fc7"
  type: "InnerProduct"
  bottom: "fc6"
  top: "fc7"
  param {
    lr_mult: 1
    decay_mult: 1
  }
  param {
    lr_mult: 2
    decay_mult: 0
  }
  inner_product_param {
    num_output: 4096
    weight_filler {
      type: "gaussian"
      std: 0.005
    }
    bias_filler {
      type: "constant"
      value: 1
    }
  }
}
layer {
  name: "relu7"
  type: "ReLU"
  bottom: "fc7"
  top: "fc7"
}
layer {
  name: "drop7"
  type: "Dropout"
  bottom: "fc7"
  top: "fc7"
  dropout_param {
    dropout_ratio: 0.5
  }
}
layer {
  name: "fc8_subset"
  type: "InnerProduct"
  bottom: "fc7"
  top: "fc8_subset"
  param {
    lr_mult: 10
    decay_mult: 1
  }
  param {
    lr_mult: 20
    decay_mult: 0
  }
  inner_product_param {
    num_output: 25
    weight_filler {
      type: "gaussian"
      std: 0.01
    }
    bias_filler {
      type: "constant"
      value: 0
    }
  }
}
layer {
  name: "loss"
  type: "SoftmaxWithLoss"
  bottom: "fc8_subset"
  bottom: "label"
  top: "loss"
}
layer {
  name: "accuracy"
  type: "Accuracy"
  bottom: "fc8_subset"
  bottom: "label"
  top: "accuracy"
  include {
    phase: TEST
  }
}
I0306 03:39:13.345950 54333 layer_factory.hpp:77] Creating layer data
I0306 03:39:13.346089 54333 net.cpp:106] Creating Layer data
I0306 03:39:13.346138 54333 net.cpp:411] data -> data
I0306 03:39:13.346175 54333 net.cpp:411] data -> label
I0306 03:39:13.346210 54333 data_transformer.cpp:25] Loading mean file from: /work/01932/dineshj/CS381V/caffe_install_scripts/caffe/data/ilsvrc12/imagenet_mean.binaryproto
I0306 03:39:13.361155 54339 db_lmdb.cpp:38] Opened lmdb /work/04018/wxie/maverick/visual_recognition/data/test-lmdb
I0306 03:39:13.363143 54333 data_layer.cpp:41] output data size: 20,3,227,227
I0306 03:39:13.387162 54333 net.cpp:150] Setting up data
I0306 03:39:13.387253 54333 net.cpp:157] Top shape: 20 3 227 227 (3091740)
I0306 03:39:13.387287 54333 net.cpp:157] Top shape: 20 (20)
I0306 03:39:13.387316 54333 net.cpp:165] Memory required for data: 12367040
I0306 03:39:13.387347 54333 layer_factory.hpp:77] Creating layer label_data_1_split
I0306 03:39:13.387382 54333 net.cpp:106] Creating Layer label_data_1_split
I0306 03:39:13.387410 54333 net.cpp:454] label_data_1_split <- label
I0306 03:39:13.387441 54333 net.cpp:411] label_data_1_split -> label_data_1_split_0
I0306 03:39:13.387476 54333 net.cpp:411] label_data_1_split -> label_data_1_split_1
I0306 03:39:13.387563 54333 net.cpp:150] Setting up label_data_1_split
I0306 03:39:13.387617 54333 net.cpp:157] Top shape: 20 (20)
I0306 03:39:13.387646 54333 net.cpp:157] Top shape: 20 (20)
I0306 03:39:13.387672 54333 net.cpp:165] Memory required for data: 12367200
I0306 03:39:13.387701 54333 layer_factory.hpp:77] Creating layer conv1
I0306 03:39:13.387737 54333 net.cpp:106] Creating Layer conv1
I0306 03:39:13.387768 54333 net.cpp:454] conv1 <- data
I0306 03:39:13.387799 54333 net.cpp:411] conv1 -> conv1
I0306 03:39:13.389345 54333 net.cpp:150] Setting up conv1
I0306 03:39:13.389392 54333 net.cpp:157] Top shape: 20 96 55 55 (5808000)
I0306 03:39:13.389420 54333 net.cpp:165] Memory required for data: 35599200
I0306 03:39:13.389456 54333 layer_factory.hpp:77] Creating layer relu1
I0306 03:39:13.389487 54333 net.cpp:106] Creating Layer relu1
I0306 03:39:13.389515 54333 net.cpp:454] relu1 <- conv1
I0306 03:39:13.389545 54333 net.cpp:397] relu1 -> conv1 (in-place)
I0306 03:39:13.389578 54333 net.cpp:150] Setting up relu1
I0306 03:39:13.389610 54333 net.cpp:157] Top shape: 20 96 55 55 (5808000)
I0306 03:39:13.389636 54333 net.cpp:165] Memory required for data: 58831200
I0306 03:39:13.389662 54333 layer_factory.hpp:77] Creating layer pool1
I0306 03:39:13.389693 54333 net.cpp:106] Creating Layer pool1
I0306 03:39:13.389721 54333 net.cpp:454] pool1 <- conv1
I0306 03:39:13.389752 54333 net.cpp:411] pool1 -> pool1
I0306 03:39:13.389811 54333 net.cpp:150] Setting up pool1
I0306 03:39:13.389847 54333 net.cpp:157] Top shape: 20 96 27 27 (1399680)
I0306 03:39:13.389873 54333 net.cpp:165] Memory required for data: 64429920
I0306 03:39:13.389899 54333 layer_factory.hpp:77] Creating layer norm1
I0306 03:39:13.389930 54333 net.cpp:106] Creating Layer norm1
I0306 03:39:13.389957 54333 net.cpp:454] norm1 <- pool1
I0306 03:39:13.389987 54333 net.cpp:411] norm1 -> norm1
I0306 03:39:13.390045 54333 net.cpp:150] Setting up norm1
I0306 03:39:13.390080 54333 net.cpp:157] Top shape: 20 96 27 27 (1399680)
I0306 03:39:13.390106 54333 net.cpp:165] Memory required for data: 70028640
I0306 03:39:13.390133 54333 layer_factory.hpp:77] Creating layer conv2
I0306 03:39:13.390167 54333 net.cpp:106] Creating Layer conv2
I0306 03:39:13.390197 54333 net.cpp:454] conv2 <- norm1
I0306 03:39:13.390247 54333 net.cpp:411] conv2 -> conv2
I0306 03:39:13.402787 54333 net.cpp:150] Setting up conv2
I0306 03:39:13.402858 54333 net.cpp:157] Top shape: 20 256 27 27 (3732480)
I0306 03:39:13.402884 54333 net.cpp:165] Memory required for data: 84958560
I0306 03:39:13.402922 54333 layer_factory.hpp:77] Creating layer relu2
I0306 03:39:13.402952 54333 net.cpp:106] Creating Layer relu2
I0306 03:39:13.402989 54333 net.cpp:454] relu2 <- conv2
I0306 03:39:13.403015 54333 net.cpp:397] relu2 -> conv2 (in-place)
I0306 03:39:13.403045 54333 net.cpp:150] Setting up relu2
I0306 03:39:13.403084 54333 net.cpp:157] Top shape: 20 256 27 27 (3732480)
I0306 03:39:13.403107 54333 net.cpp:165] Memory required for data: 99888480
I0306 03:39:13.403129 54333 layer_factory.hpp:77] Creating layer pool2
I0306 03:39:13.403167 54333 net.cpp:106] Creating Layer pool2
I0306 03:39:13.403190 54333 net.cpp:454] pool2 <- conv2
I0306 03:39:13.403216 54333 net.cpp:411] pool2 -> pool2
I0306 03:39:13.403285 54333 net.cpp:150] Setting up pool2
I0306 03:39:13.403317 54333 net.cpp:157] Top shape: 20 256 13 13 (865280)
I0306 03:39:13.403340 54333 net.cpp:165] Memory required for data: 103349600
I0306 03:39:13.403375 54333 layer_factory.hpp:77] Creating layer norm2
I0306 03:39:13.403403 54333 net.cpp:106] Creating Layer norm2
I0306 03:39:13.403427 54333 net.cpp:454] norm2 <- pool2
I0306 03:39:13.403453 54333 net.cpp:411] norm2 -> norm2
I0306 03:39:13.403511 54333 net.cpp:150] Setting up norm2
I0306 03:39:13.403542 54333 net.cpp:157] Top shape: 20 256 13 13 (865280)
I0306 03:39:13.403566 54333 net.cpp:165] Memory required for data: 106810720
I0306 03:39:13.403589 54333 layer_factory.hpp:77] Creating layer conv3
I0306 03:39:13.403620 54333 net.cpp:106] Creating Layer conv3
I0306 03:39:13.403645 54333 net.cpp:454] conv3 <- norm2
I0306 03:39:13.403673 54333 net.cpp:411] conv3 -> conv3
I0306 03:39:13.438452 54333 net.cpp:150] Setting up conv3
I0306 03:39:13.438560 54333 net.cpp:157] Top shape: 20 384 13 13 (1297920)
I0306 03:39:13.438585 54333 net.cpp:165] Memory required for data: 112002400
I0306 03:39:13.438621 54333 layer_factory.hpp:77] Creating layer relu3
I0306 03:39:13.438676 54333 net.cpp:106] Creating Layer relu3
I0306 03:39:13.438719 54333 net.cpp:454] relu3 <- conv3
I0306 03:39:13.438747 54333 net.cpp:397] relu3 -> conv3 (in-place)
I0306 03:39:13.438796 54333 net.cpp:150] Setting up relu3
I0306 03:39:13.438843 54333 net.cpp:157] Top shape: 20 384 13 13 (1297920)
I0306 03:39:13.438868 54333 net.cpp:165] Memory required for data: 117194080
I0306 03:39:13.438892 54333 layer_factory.hpp:77] Creating layer conv4
I0306 03:39:13.438951 54333 net.cpp:106] Creating Layer conv4
I0306 03:39:13.438977 54333 net.cpp:454] conv4 <- conv3
I0306 03:39:13.439020 54333 net.cpp:411] conv4 -> conv4
I0306 03:39:13.464936 54333 net.cpp:150] Setting up conv4
I0306 03:39:13.464984 54333 net.cpp:157] Top shape: 20 384 13 13 (1297920)
I0306 03:39:13.465013 54333 net.cpp:165] Memory required for data: 122385760
I0306 03:39:13.465042 54333 layer_factory.hpp:77] Creating layer relu4
I0306 03:39:13.465075 54333 net.cpp:106] Creating Layer relu4
I0306 03:39:13.465102 54333 net.cpp:454] relu4 <- conv4
I0306 03:39:13.465131 54333 net.cpp:397] relu4 -> conv4 (in-place)
I0306 03:39:13.465162 54333 net.cpp:150] Setting up relu4
I0306 03:39:13.465193 54333 net.cpp:157] Top shape: 20 384 13 13 (1297920)
I0306 03:39:13.465219 54333 net.cpp:165] Memory required for data: 127577440
I0306 03:39:13.465245 54333 layer_factory.hpp:77] Creating layer conv5
I0306 03:39:13.465276 54333 net.cpp:106] Creating Layer conv5
I0306 03:39:13.465303 54333 net.cpp:454] conv5 <- conv4
I0306 03:39:13.465337 54333 net.cpp:411] conv5 -> conv5
I0306 03:39:13.482811 54333 net.cpp:150] Setting up conv5
I0306 03:39:13.482859 54333 net.cpp:157] Top shape: 20 256 13 13 (865280)
I0306 03:39:13.482883 54333 net.cpp:165] Memory required for data: 131038560
I0306 03:39:13.482925 54333 layer_factory.hpp:77] Creating layer relu5
I0306 03:39:13.482961 54333 net.cpp:106] Creating Layer relu5
I0306 03:39:13.482985 54333 net.cpp:454] relu5 <- conv5
I0306 03:39:13.483037 54333 net.cpp:397] relu5 -> conv5 (in-place)
I0306 03:39:13.483114 54333 net.cpp:150] Setting up relu5
I0306 03:39:13.483141 54333 net.cpp:157] Top shape: 20 256 13 13 (865280)
I0306 03:39:13.483177 54333 net.cpp:165] Memory required for data: 134499680
I0306 03:39:13.483201 54333 layer_factory.hpp:77] Creating layer pool5
I0306 03:39:13.483235 54333 net.cpp:106] Creating Layer pool5
I0306 03:39:13.483263 54333 net.cpp:454] pool5 <- conv5
I0306 03:39:13.483289 54333 net.cpp:411] pool5 -> pool5
I0306 03:39:13.483368 54333 net.cpp:150] Setting up pool5
I0306 03:39:13.483414 54333 net.cpp:157] Top shape: 20 256 6 6 (184320)
I0306 03:39:13.483436 54333 net.cpp:165] Memory required for data: 135236960
I0306 03:39:13.483458 54333 layer_factory.hpp:77] Creating layer fc6
I0306 03:39:13.483500 54333 net.cpp:106] Creating Layer fc6
I0306 03:39:13.483521 54333 net.cpp:454] fc6 <- pool5
I0306 03:39:13.483548 54333 net.cpp:411] fc6 -> fc6
I0306 03:39:14.863939 54333 net.cpp:150] Setting up fc6
I0306 03:39:14.864071 54333 net.cpp:157] Top shape: 20 4096 (81920)
I0306 03:39:14.864096 54333 net.cpp:165] Memory required for data: 135564640
I0306 03:39:14.864130 54333 layer_factory.hpp:77] Creating layer relu6
I0306 03:39:14.864163 54333 net.cpp:106] Creating Layer relu6
I0306 03:39:14.864188 54333 net.cpp:454] relu6 <- fc6
I0306 03:39:14.864220 54333 net.cpp:397] relu6 -> fc6 (in-place)
I0306 03:39:14.864259 54333 net.cpp:150] Setting up relu6
I0306 03:39:14.864284 54333 net.cpp:157] Top shape: 20 4096 (81920)
I0306 03:39:14.864305 54333 net.cpp:165] Memory required for data: 135892320
I0306 03:39:14.864326 54333 layer_factory.hpp:77] Creating layer drop6
I0306 03:39:14.864352 54333 net.cpp:106] Creating Layer drop6
I0306 03:39:14.864374 54333 net.cpp:454] drop6 <- fc6
I0306 03:39:14.864401 54333 net.cpp:397] drop6 -> fc6 (in-place)
I0306 03:39:14.864451 54333 net.cpp:150] Setting up drop6
I0306 03:39:14.864481 54333 net.cpp:157] Top shape: 20 4096 (81920)
I0306 03:39:14.864503 54333 net.cpp:165] Memory required for data: 136220000
I0306 03:39:14.864523 54333 layer_factory.hpp:77] Creating layer fc7
I0306 03:39:14.864555 54333 net.cpp:106] Creating Layer fc7
I0306 03:39:14.864578 54333 net.cpp:454] fc7 <- fc6
I0306 03:39:14.864603 54333 net.cpp:411] fc7 -> fc7
I0306 03:39:15.478247 54333 net.cpp:150] Setting up fc7
I0306 03:39:15.478379 54333 net.cpp:157] Top shape: 20 4096 (81920)
I0306 03:39:15.478402 54333 net.cpp:165] Memory required for data: 136547680
I0306 03:39:15.478435 54333 layer_factory.hpp:77] Creating layer relu7
I0306 03:39:15.478471 54333 net.cpp:106] Creating Layer relu7
I0306 03:39:15.478495 54333 net.cpp:454] relu7 <- fc7
I0306 03:39:15.478524 54333 net.cpp:397] relu7 -> fc7 (in-place)
I0306 03:39:15.478561 54333 net.cpp:150] Setting up relu7
I0306 03:39:15.478586 54333 net.cpp:157] Top shape: 20 4096 (81920)
I0306 03:39:15.478607 54333 net.cpp:165] Memory required for data: 136875360
I0306 03:39:15.478628 54333 layer_factory.hpp:77] Creating layer drop7
I0306 03:39:15.478657 54333 net.cpp:106] Creating Layer drop7
I0306 03:39:15.478678 54333 net.cpp:454] drop7 <- fc7
I0306 03:39:15.478704 54333 net.cpp:397] drop7 -> fc7 (in-place)
I0306 03:39:15.478755 54333 net.cpp:150] Setting up drop7
I0306 03:39:15.478788 54333 net.cpp:157] Top shape: 20 4096 (81920)
I0306 03:39:15.478811 54333 net.cpp:165] Memory required for data: 137203040
I0306 03:39:15.478835 54333 layer_factory.hpp:77] Creating layer fc8_subset
I0306 03:39:15.478866 54333 net.cpp:106] Creating Layer fc8_subset
I0306 03:39:15.478888 54333 net.cpp:454] fc8_subset <- fc7
I0306 03:39:15.478915 54333 net.cpp:411] fc8_subset -> fc8_subset
I0306 03:39:15.482638 54333 net.cpp:150] Setting up fc8_subset
I0306 03:39:15.482673 54333 net.cpp:157] Top shape: 20 25 (500)
I0306 03:39:15.482695 54333 net.cpp:165] Memory required for data: 137205040
I0306 03:39:15.482720 54333 layer_factory.hpp:77] Creating layer fc8_subset_fc8_subset_0_split
I0306 03:39:15.482750 54333 net.cpp:106] Creating Layer fc8_subset_fc8_subset_0_split
I0306 03:39:15.482801 54333 net.cpp:454] fc8_subset_fc8_subset_0_split <- fc8_subset
I0306 03:39:15.482879 54333 net.cpp:411] fc8_subset_fc8_subset_0_split -> fc8_subset_fc8_subset_0_split_0
I0306 03:39:15.482908 54333 net.cpp:411] fc8_subset_fc8_subset_0_split -> fc8_subset_fc8_subset_0_split_1
I0306 03:39:15.482969 54333 net.cpp:150] Setting up fc8_subset_fc8_subset_0_split
I0306 03:39:15.483000 54333 net.cpp:157] Top shape: 20 25 (500)
I0306 03:39:15.483023 54333 net.cpp:157] Top shape: 20 25 (500)
I0306 03:39:15.483044 54333 net.cpp:165] Memory required for data: 137209040
I0306 03:39:15.483067 54333 layer_factory.hpp:77] Creating layer loss
I0306 03:39:15.483094 54333 net.cpp:106] Creating Layer loss
I0306 03:39:15.483117 54333 net.cpp:454] loss <- fc8_subset_fc8_subset_0_split_0
I0306 03:39:15.483155 54333 net.cpp:454] loss <- label_data_1_split_0
I0306 03:39:15.483178 54333 net.cpp:411] loss -> loss
…
