…
I0308 22:48:04.951030  5883 net.cpp:322] The NetState phase (0) differed from the phase (1) specified by a rule in layer accuracy
I0308 22:48:04.951227  5883 net.cpp:49] Initializing net from parameters: 
name: "FlickrStyleCaffeNet"
state {
  phase: TRAIN
}
layer {
  name: "data"
  type: "Data"
  top: "data"
  top: "label"
  include {
    phase: TRAIN
  }
  transform_param {
    mirror: true
    crop_size: 227
    mean_file: "/work/01932/dineshj/CS381V/caffe_install_scripts/caffe/data/ilsvrc12/imagenet_mean.binaryproto"
  }
  data_param {
    source: "/work/04018/wxie/maverick/visual_recognition/data/train-lmdb"
    batch_size: 128
    backend: LMDB
  }
}
layer {
  name: "conv1"
  type: "Convolution"
  bottom: "data"
  top: "conv1"
  param {
    lr_mult: 1
    decay_mult: 1
  }
  param {
    lr_mult: 2
    decay_mult: 0
  }
  convolution_param {
    num_output: 96
    kernel_size: 11
    stride: 4
    weight_filler {
      type: "gaussian"
      std: 0.01
    }
    bias_filler {
      type: "constant"
      value: 0
    }
  }
}
layer {
  name: "relu1"
  type: "ReLU"
  bottom: "conv1"
  top: "conv1"
}
layer {
  name: "pool1"
  type: "Pooling"
  bottom: "conv1"
  top: "pool1"
  pooling_param {
    pool: MAX
    kernel_size: 3
    stride: 2
  }
}
layer {
  name: "norm1"
  type: "LRN"
  bottom: "pool1"
  top: "norm1"
  lrn_param {
    local_size: 5
    alpha: 0.0001
    beta: 0.75
  }
}
layer {
  name: "conv2"
  type: "Convolution"
  bottom: "norm1"
  top: "conv2"
  param {
    lr_mult: 1
    decay_mult: 1
  }
  param {
    lr_mult: 2
    decay_mult: 0
  }
  convolution_param {
    num_output: 256
    pad: 2
    kernel_size: 5
    group: 2
    weight_filler {
      type: "gaussian"
      std: 0.01
    }
    bias_filler {
      type: "constant"
      value: 0.1
    }
  }
}
layer {
  name: "relu2"
  type: "ReLU"
  bottom: "conv2"
  top: "conv2"
}
layer {
  name: "pool2"
  type: "Pooling"
  bottom: "conv2"
  top: "pool2"
  pooling_param {
    pool: MAX
    kernel_size: 3
    stride: 2
  }
}
layer {
  name: "norm2"
  type: "LRN"
  bottom: "pool2"
  top: "norm2"
  lrn_param {
    local_size: 5
    alpha: 0.0001
    beta: 0.75
  }
}
layer {
  name: "conv3"
  type: "Convolution"
  bottom: "norm2"
  top: "conv3"
  param {
    lr_mult: 1
    decay_mult: 1
  }
  param {
    lr_mult: 2
    decay_mult: 0
  }
  convolution_param {
    num_output: 384
    pad: 1
    kernel_size: 3
    weight_filler {
      type: "gaussian"
      std: 0.01
    }
    bias_filler {
      type: "constant"
      value: 0
    }
  }
}
layer {
  name: "relu3"
  type: "ReLU"
  bottom: "conv3"
  top: "conv3"
}
layer {
  name: "conv4"
  type: "Convolution"
  bottom: "conv3"
  top: "conv4"
  param {
    lr_mult: 1
    decay_mult: 1
  }
  param {
    lr_mult: 2
    decay_mult: 0
  }
  convolution_param {
    num_output: 384
    pad: 1
    kernel_size: 3
    group: 2
    weight_filler {
      type: "gaussian"
      std: 0.01
    }
    bias_filler {
      type: "constant"
      value: 0.1
    }
  }
}
layer {
  name: "relu4"
  type: "ReLU"
  bottom: "conv4"
  top: "conv4"
}
layer {
  name: "conv5"
  type: "Convolution"
  bottom: "conv4"
  top: "conv5"
  param {
    lr_mult: 1
    decay_mult: 1
  }
  param {
    lr_mult: 2
    decay_mult: 0
  }
  convolution_param {
    num_output: 256
    pad: 1
    kernel_size: 3
    group: 2
    weight_filler {
      type: "gaussian"
      std: 0.01
    }
    bias_filler {
      type: "constant"
      value: 0.1
    }
  }
}
layer {
  name: "relu5"
  type: "ReLU"
  bottom: "conv5"
  top: "conv5"
}
layer {
  name: "pool5"
  type: "Pooling"
  bottom: "conv5"
  top: "pool5"
  pooling_param {
    pool: MAX
    kernel_size: 3
    stride: 2
  }
}
layer {
  name: "fc6"
  type: "InnerProduct"
  bottom: "pool5"
  top: "fc6"
  param {
    lr_mult: 1
    decay_mult: 1
  }
  param {
    lr_mult: 2
    decay_mult: 0
  }
  inner_product_param {
    num_output: 4096
    weight_filler {
      type: "gaussian"
      std: 0.005
    }
    bias_filler {
      type: "constant"
      value: 0.1
    }
  }
}
layer {
  name: "relu6"
  type: "ReLU"
  bottom: "fc6"
  top: "fc6"
}
layer {
  name: "drop6"
  type: "Dropout"
  bottom: "fc6"
  top: "fc6"
  dropout_param {
    dropout_ratio: 0.5
  }
}
layer {
  name: "fc7"
  type: "InnerProduct"
  bottom: "fc6"
  top: "fc7"
  param {
    lr_mult: 1
    decay_mult: 1
  }
  param {
    lr_mult: 2
    decay_mult: 0
  }
  inner_product_param {
    num_output: 4096
    weight_filler {
      type: "gaussian"
      std: 0.005
    }
    bias_filler {
      type: "constant"
      value: 0.1
    }
  }
}
layer {
  name: "relu7"
  type: "ReLU"
  bottom: "fc7"
  top: "fc7"
}
layer {
  name: "drop7"
  type: "Dropout"
  bottom: "fc7"
  top: "fc7"
  dropout_param {
    dropout_ratio: 0.5
  }
}
layer {
  name: "fc8_subset"
  type: "InnerProduct"
  bottom: "fc7"
  top: "fc8_subset"
  param {
    lr_mult: 10
    decay_mult: 1
  }
  param {
    lr_mult: 20
    decay_mult: 0
  }
  inner_product_param {
    num_output: 25
    weight_filler {
      type: "gaussian"
      std: 0.01
    }
    bias_filler {
      type: "constant"
      value: 0
    }
  }
}
layer {
  name: "loss"
  type: "SoftmaxWithLoss"
  bottom: "fc8_subset"
  bottom: "label"
  top: "loss"
}
I0308 22:48:04.951498  5883 layer_factory.hpp:77] Creating layer data
I0308 22:48:04.952276  5883 net.cpp:106] Creating Layer data
I0308 22:48:04.952333  5883 net.cpp:411] data -> data
I0308 22:48:04.952428  5883 net.cpp:411] data -> label
I0308 22:48:04.952520  5883 data_transformer.cpp:25] Loading mean file from: /work/01932/dineshj/CS381V/caffe_install_scripts/caffe/data/ilsvrc12/imagenet_mean.binaryproto
I0308 22:48:04.969307  5886 db_lmdb.cpp:38] Opened lmdb /work/04018/wxie/maverick/visual_recognition/data/train-lmdb
I0308 22:48:05.024647  5883 data_layer.cpp:41] output data size: 128,3,227,227
I0308 22:48:05.182257  5883 net.cpp:150] Setting up data
I0308 22:48:05.182353  5883 net.cpp:157] Top shape: 128 3 227 227 (19787136)
I0308 22:48:05.182389  5883 net.cpp:157] Top shape: 128 (128)
I0308 22:48:05.182417  5883 net.cpp:165] Memory required for data: 79149056
I0308 22:48:05.182451  5883 layer_factory.hpp:77] Creating layer conv1
I0308 22:48:05.182513  5883 net.cpp:106] Creating Layer conv1
I0308 22:48:05.182545  5883 net.cpp:454] conv1 <- data
I0308 22:48:05.182592  5883 net.cpp:411] conv1 -> conv1
I0308 22:48:05.192785  5883 net.cpp:150] Setting up conv1
I0308 22:48:05.192829  5883 net.cpp:157] Top shape: 128 96 55 55 (37171200)
I0308 22:48:05.192857  5883 net.cpp:165] Memory required for data: 227833856
I0308 22:48:05.192916  5883 layer_factory.hpp:77] Creating layer relu1
I0308 22:48:05.192953  5883 net.cpp:106] Creating Layer relu1
I0308 22:48:05.192983  5883 net.cpp:454] relu1 <- conv1
I0308 22:48:05.193012  5883 net.cpp:397] relu1 -> conv1 (in-place)
I0308 22:48:05.193045  5883 net.cpp:150] Setting up relu1
I0308 22:48:05.193076  5883 net.cpp:157] Top shape: 128 96 55 55 (37171200)
I0308 22:48:05.193102  5883 net.cpp:165] Memory required for data: 376518656
I0308 22:48:05.193130  5883 layer_factory.hpp:77] Creating layer pool1
I0308 22:48:05.193161  5883 net.cpp:106] Creating Layer pool1
I0308 22:48:05.193187  5883 net.cpp:454] pool1 <- conv1
I0308 22:48:05.193219  5883 net.cpp:411] pool1 -> pool1
I0308 22:48:05.193377  5883 net.cpp:150] Setting up pool1
I0308 22:48:05.193413  5883 net.cpp:157] Top shape: 128 96 27 27 (8957952)
I0308 22:48:05.193496  5883 net.cpp:165] Memory required for data: 412350464
I0308 22:48:05.193527  5883 layer_factory.hpp:77] Creating layer norm1
I0308 22:48:05.193564  5883 net.cpp:106] Creating Layer norm1
I0308 22:48:05.193594  5883 net.cpp:454] norm1 <- pool1
I0308 22:48:05.193622  5883 net.cpp:411] norm1 -> norm1
I0308 22:48:05.193722  5883 net.cpp:150] Setting up norm1
I0308 22:48:05.193759  5883 net.cpp:157] Top shape: 128 96 27 27 (8957952)
I0308 22:48:05.193786  5883 net.cpp:165] Memory required for data: 448182272
I0308 22:48:05.193814  5883 layer_factory.hpp:77] Creating layer conv2
I0308 22:48:05.193846  5883 net.cpp:106] Creating Layer conv2
I0308 22:48:05.193877  5883 net.cpp:454] conv2 <- norm1
I0308 22:48:05.193907  5883 net.cpp:411] conv2 -> conv2
I0308 22:48:05.206576  5883 net.cpp:150] Setting up conv2
I0308 22:48:05.206652  5883 net.cpp:157] Top shape: 128 256 27 27 (23887872)
I0308 22:48:05.206677  5883 net.cpp:165] Memory required for data: 543733760
I0308 22:48:05.206707  5883 layer_factory.hpp:77] Creating layer relu2
I0308 22:48:05.206739  5883 net.cpp:106] Creating Layer relu2
I0308 22:48:05.206769  5883 net.cpp:454] relu2 <- conv2
I0308 22:48:05.206800  5883 net.cpp:397] relu2 -> conv2 (in-place)
I0308 22:48:05.206836  5883 net.cpp:150] Setting up relu2
I0308 22:48:05.206866  5883 net.cpp:157] Top shape: 128 256 27 27 (23887872)
I0308 22:48:05.206892  5883 net.cpp:165] Memory required for data: 639285248
I0308 22:48:05.206918  5883 layer_factory.hpp:77] Creating layer pool2
I0308 22:48:05.206948  5883 net.cpp:106] Creating Layer pool2
I0308 22:48:05.206975  5883 net.cpp:454] pool2 <- conv2
I0308 22:48:05.207007  5883 net.cpp:411] pool2 -> pool2
I0308 22:48:05.207072  5883 net.cpp:150] Setting up pool2
I0308 22:48:05.207108  5883 net.cpp:157] Top shape: 128 256 13 13 (5537792)
I0308 22:48:05.207134  5883 net.cpp:165] Memory required for data: 661436416
I0308 22:48:05.207161  5883 layer_factory.hpp:77] Creating layer norm2
I0308 22:48:05.207195  5883 net.cpp:106] Creating Layer norm2
I0308 22:48:05.207223  5883 net.cpp:454] norm2 <- pool2
I0308 22:48:05.207255  5883 net.cpp:411] norm2 -> norm2
I0308 22:48:05.207314  5883 net.cpp:150] Setting up norm2
I0308 22:48:05.207350  5883 net.cpp:157] Top shape: 128 256 13 13 (5537792)
I0308 22:48:05.207376  5883 net.cpp:165] Memory required for data: 683587584
I0308 22:48:05.207402  5883 layer_factory.hpp:77] Creating layer conv3
I0308 22:48:05.207435  5883 net.cpp:106] Creating Layer conv3
I0308 22:48:05.207464  5883 net.cpp:454] conv3 <- norm2
I0308 22:48:05.207499  5883 net.cpp:411] conv3 -> conv3
I0308 22:48:05.242723  5883 net.cpp:150] Setting up conv3
I0308 22:48:05.242842  5883 net.cpp:157] Top shape: 128 384 13 13 (8306688)
I0308 22:48:05.242884  5883 net.cpp:165] Memory required for data: 716814336
I0308 22:48:05.242919  5883 layer_factory.hpp:77] Creating layer relu3
I0308 22:48:05.242972  5883 net.cpp:106] Creating Layer relu3
I0308 22:48:05.243005  5883 net.cpp:454] relu3 <- conv3
I0308 22:48:05.243037  5883 net.cpp:397] relu3 -> conv3 (in-place)
I0308 22:48:05.243074  5883 net.cpp:150] Setting up relu3
I0308 22:48:05.243105  5883 net.cpp:157] Top shape: 128 384 13 13 (8306688)
I0308 22:48:05.243131  5883 net.cpp:165] Memory required for data: 750041088
I0308 22:48:05.243157  5883 layer_factory.hpp:77] Creating layer conv4
I0308 22:48:05.243196  5883 net.cpp:106] Creating Layer conv4
I0308 22:48:05.243227  5883 net.cpp:454] conv4 <- conv3
I0308 22:48:05.243257  5883 net.cpp:411] conv4 -> conv4
I0308 22:48:05.275977  5883 net.cpp:150] Setting up conv4
I0308 22:48:05.276062  5883 net.cpp:157] Top shape: 128 384 13 13 (8306688)
I0308 22:48:05.276089  5883 net.cpp:165] Memory required for data: 783267840
I0308 22:48:05.276121  5883 layer_factory.hpp:77] Creating layer relu4
I0308 22:48:05.276154  5883 net.cpp:106] Creating Layer relu4
I0308 22:48:05.276181  5883 net.cpp:454] relu4 <- conv4
I0308 22:48:05.276211  5883 net.cpp:397] relu4 -> conv4 (in-place)
I0308 22:48:05.276245  5883 net.cpp:150] Setting up relu4
I0308 22:48:05.276300  5883 net.cpp:157] Top shape: 128 384 13 13 (8306688)
I0308 22:48:05.276363  5883 net.cpp:165] Memory required for data: 816494592
I0308 22:48:05.276387  5883 layer_factory.hpp:77] Creating layer conv5
I0308 22:48:05.276420  5883 net.cpp:106] Creating Layer conv5
I0308 22:48:05.276448  5883 net.cpp:454] conv5 <- conv4
I0308 22:48:05.276475  5883 net.cpp:411] conv5 -> conv5
I0308 22:48:05.294138  5883 net.cpp:150] Setting up conv5
I0308 22:48:05.294227  5883 net.cpp:157] Top shape: 128 256 13 13 (5537792)
I0308 22:48:05.294256  5883 net.cpp:165] Memory required for data: 838645760
I0308 22:48:05.294294  5883 layer_factory.hpp:77] Creating layer relu5
I0308 22:48:05.294327  5883 net.cpp:106] Creating Layer relu5
I0308 22:48:05.294355  5883 net.cpp:454] relu5 <- conv5
I0308 22:48:05.294384  5883 net.cpp:397] relu5 -> conv5 (in-place)
I0308 22:48:05.294419  5883 net.cpp:150] Setting up relu5
I0308 22:48:05.294447  5883 net.cpp:157] Top shape: 128 256 13 13 (5537792)
I0308 22:48:05.294474  5883 net.cpp:165] Memory required for data: 860796928
I0308 22:48:05.294502  5883 layer_factory.hpp:77] Creating layer pool5
I0308 22:48:05.294531  5883 net.cpp:106] Creating Layer pool5
I0308 22:48:05.294559  5883 net.cpp:454] pool5 <- conv5
I0308 22:48:05.294598  5883 net.cpp:411] pool5 -> pool5
I0308 22:48:05.294664  5883 net.cpp:150] Setting up pool5
I0308 22:48:05.294699  5883 net.cpp:157] Top shape: 128 256 6 6 (1179648)
I0308 22:48:05.294726  5883 net.cpp:165] Memory required for data: 865515520
I0308 22:48:05.294750  5883 layer_factory.hpp:77] Creating layer fc6
I0308 22:48:05.294814  5883 net.cpp:106] Creating Layer fc6
I0308 22:48:05.294842  5883 net.cpp:454] fc6 <- pool5
I0308 22:48:05.294875  5883 net.cpp:411] fc6 -> fc6
I0308 22:48:05.352272  5887 blocking_queue.cpp:50] Waiting for data
I0308 22:48:06.750581  5883 net.cpp:150] Setting up fc6
I0308 22:48:06.750701  5883 net.cpp:157] Top shape: 128 4096 (524288)
I0308 22:48:06.750726  5883 net.cpp:165] Memory required for data: 867612672
I0308 22:48:06.750756  5883 layer_factory.hpp:77] Creating layer relu6
I0308 22:48:06.750798  5883 net.cpp:106] Creating Layer relu6
I0308 22:48:06.750823  5883 net.cpp:454] relu6 <- fc6
I0308 22:48:06.750850  5883 net.cpp:397] relu6 -> fc6 (in-place)
I0308 22:48:06.750887  5883 net.cpp:150] Setting up relu6
I0308 22:48:06.750913  5883 net.cpp:157] Top shape: 128 4096 (524288)
I0308 22:48:06.750936  5883 net.cpp:165] Memory required for data: 869709824
I0308 22:48:06.750957  5883 layer_factory.hpp:77] Creating layer drop6
I0308 22:48:06.750983  5883 net.cpp:106] Creating Layer drop6
I0308 22:48:06.751008  5883 net.cpp:454] drop6 <- fc6
I0308 22:48:06.751031  5883 net.cpp:397] drop6 -> fc6 (in-place)
I0308 22:48:06.751122  5883 net.cpp:150] Setting up drop6
I0308 22:48:06.751152  5883 net.cpp:157] Top shape: 128 4096 (524288)
I0308 22:48:06.751174  5883 net.cpp:165] Memory required for data: 871806976
I0308 22:48:06.751196  5883 layer_factory.hpp:77] Creating layer fc7
I0308 22:48:06.751226  5883 net.cpp:106] Creating Layer fc7
I0308 22:48:06.751250  5883 net.cpp:454] fc7 <- fc6
I0308 22:48:06.751277  5883 net.cpp:411] fc7 -> fc7
I0308 22:48:07.382098  5883 net.cpp:150] Setting up fc7
I0308 22:48:07.382220  5883 net.cpp:157] Top shape: 128 4096 (524288)
I0308 22:48:07.382243  5883 net.cpp:165] Memory required for data: 873904128
I0308 22:48:07.382273  5883 layer_factory.hpp:77] Creating layer relu7
I0308 22:48:07.382302  5883 net.cpp:106] Creating Layer relu7
I0308 22:48:07.382325  5883 net.cpp:454] relu7 <- fc7
I0308 22:48:07.382352  5883 net.cpp:397] relu7 -> fc7 (in-place)
I0308 22:48:07.382383  5883 net.cpp:150] Setting up relu7
I0308 22:48:07.382408  5883 net.cpp:157] Top shape: 128 4096 (524288)
I0308 22:48:07.382429  5883 net.cpp:165] Memory required for data: 876001280
I0308 22:48:07.382450  5883 layer_factory.hpp:77] Creating layer drop7
I0308 22:48:07.382478  5883 net.cpp:106] Creating Layer drop7
I0308 22:48:07.382503  5883 net.cpp:454] drop7 <- fc7
I0308 22:48:07.382526  5883 net.cpp:397] drop7 -> fc7 (in-place)
I0308 22:48:07.382596  5883 net.cpp:150] Setting up drop7
I0308 22:48:07.382666  5883 net.cpp:157] Top shape: 128 4096 (524288)
I0308 22:48:07.382690  5883 net.cpp:165] Memory required for data: 878098432
I0308 22:48:07.382711  5883 layer_factory.hpp:77] Creating layer fc8_subset
I0308 22:48:07.382740  5883 net.cpp:106] Creating Layer fc8_subset
I0308 22:48:07.382761  5883 net.cpp:454] fc8_subset <- fc7
I0308 22:48:07.382788  5883 net.cpp:411] fc8_subset -> fc8_subset
I0308 22:48:07.387179  5883 net.cpp:150] Setting up fc8_subset
I0308 22:48:07.387217  5883 net.cpp:157] Top shape: 128 25 (3200)
I0308 22:48:07.387241  5883 net.cpp:165] Memory required for data: 878111232
I0308 22:48:07.387266  5883 layer_factory.hpp:77] Creating layer loss
I0308 22:48:07.387292  5883 net.cpp:106] Creating Layer loss
I0308 22:48:07.387315  5883 net.cpp:454] loss <- fc8_subset
I0308 22:48:07.387337  5883 net.cpp:454] loss <- label
I0308 22:48:07.387372  5883 net.cpp:411] loss -> loss
I0308 22:48:07.387434  5883 layer_factory.hpp:77] Creating layer loss
…
I0308 22:48:07.390233  5883 net.cpp:322] The NetState phase (1) differed from the phase (0) specified by a rule in layer data
I0308 22:48:07.390455  5883 net.cpp:49] Initializing net from parameters: 
name: "FlickrStyleCaffeNet"
state {
  phase: TEST
}
layer {
  name: "data"
  type: "Data"
  top: "data"
  top: "label"
  include {
    phase: TEST
  }
  transform_param {
    mirror: false
    crop_size: 227
    mean_file: "/work/01932/dineshj/CS381V/caffe_install_scripts/caffe/data/ilsvrc12/imagenet_mean.binaryproto"
  }
  data_param {
    source: "/work/04018/wxie/maverick/visual_recognition/data/test-lmdb"
    batch_size: 20
    backend: LMDB
  }
}
layer {
  name: "conv1"
  type: "Convolution"
  bottom: "data"
  top: "conv1"
  param {
    lr_mult: 1
    decay_mult: 1
  }
  param {
    lr_mult: 2
    decay_mult: 0
  }
  convolution_param {
    num_output: 96
    kernel_size: 11
    stride: 4
    weight_filler {
      type: "gaussian"
      std: 0.01
    }
    bias_filler {
      type: "constant"
      value: 0
    }
  }
}
layer {
  name: "relu1"
  type: "ReLU"
  bottom: "conv1"
  top: "conv1"
}
layer {
  name: "pool1"
  type: "Pooling"
  bottom: "conv1"
  top: "pool1"
  pooling_param {
    pool: MAX
    kernel_size: 3
    stride: 2
  }
}
layer {
  name: "norm1"
  type: "LRN"
  bottom: "pool1"
  top: "norm1"
  lrn_param {
    local_size: 5
    alpha: 0.0001
    beta: 0.75
  }
}
layer {
  name: "conv2"
  type: "Convolution"
  bottom: "norm1"
  top: "conv2"
  param {
    lr_mult: 1
    decay_mult: 1
  }
  param {
    lr_mult: 2
    decay_mult: 0
  }
  convolution_param {
    num_output: 256
    pad: 2
    kernel_size: 5
    group: 2
    weight_filler {
      type: "gaussian"
      std: 0.01
    }
    bias_filler {
      type: "constant"
      value: 0.1
    }
  }
}
layer {
  name: "relu2"
  type: "ReLU"
  bottom: "conv2"
  top: "conv2"
}
layer {
  name: "pool2"
  type: "Pooling"
  bottom: "conv2"
  top: "pool2"
  pooling_param {
    pool: MAX
    kernel_size: 3
    stride: 2
  }
}
layer {
  name: "norm2"
  type: "LRN"
  bottom: "pool2"
  top: "norm2"
  lrn_param {
    local_size: 5
    alpha: 0.0001
    beta: 0.75
  }
}
layer {
  name: "conv3"
  type: "Convolution"
  bottom: "norm2"
  top: "conv3"
  param {
    lr_mult: 1
    decay_mult: 1
  }
  param {
    lr_mult: 2
    decay_mult: 0
  }
  convolution_param {
    num_output: 384
    pad: 1
    kernel_size: 3
    weight_filler {
      type: "gaussian"
      std: 0.01
    }
    bias_filler {
      type: "constant"
      value: 0
    }
  }
}
layer {
  name: "relu3"
  type: "ReLU"
  bottom: "conv3"
  top: "conv3"
}
layer {
  name: "conv4"
  type: "Convolution"
  bottom: "conv3"
  top: "conv4"
  param {
    lr_mult: 1
    decay_mult: 1
  }
  param {
    lr_mult: 2
    decay_mult: 0
  }
  convolution_param {
    num_output: 384
    pad: 1
    kernel_size: 3
    group: 2
    weight_filler {
      type: "gaussian"
      std: 0.01
    }
    bias_filler {
      type: "constant"
      value: 0.1
    }
  }
}
layer {
  name: "relu4"
  type: "ReLU"
  bottom: "conv4"
  top: "conv4"
}
layer {
  name: "conv5"
  type: "Convolution"
  bottom: "conv4"
  top: "conv5"
  param {
    lr_mult: 1
    decay_mult: 1
  }
  param {
    lr_mult: 2
    decay_mult: 0
  }
  convolution_param {
    num_output: 256
    pad: 1
    kernel_size: 3
    group: 2
    weight_filler {
      type: "gaussian"
      std: 0.01
    }
    bias_filler {
      type: "constant"
      value: 0.1
    }
  }
}
layer {
  name: "relu5"
  type: "ReLU"
  bottom: "conv5"
  top: "conv5"
}
layer {
  name: "pool5"
  type: "Pooling"
  bottom: "conv5"
  top: "pool5"
  pooling_param {
    pool: MAX
    kernel_size: 3
    stride: 2
  }
}
layer {
  name: "fc6"
  type: "InnerProduct"
  bottom: "pool5"
  top: "fc6"
  param {
    lr_mult: 1
    decay_mult: 1
  }
  param {
    lr_mult: 2
    decay_mult: 0
  }
  inner_product_param {
    num_output: 4096
    weight_filler {
      type: "gaussian"
      std: 0.005
    }
    bias_filler {
      type: "constant"
      value: 0.1
    }
  }
}
layer {
  name: "relu6"
  type: "ReLU"
  bottom: "fc6"
  top: "fc6"
}
layer {
  name: "drop6"
  type: "Dropout"
  bottom: "fc6"
  top: "fc6"
  dropout_param {
    dropout_ratio: 0.5
  }
}
layer {
  name: "fc7"
  type: "InnerProduct"
  bottom: "fc6"
  top: "fc7"
  param {
    lr_mult: 1
    decay_mult: 1
  }
  param {
    lr_mult: 2
    decay_mult: 0
  }
  inner_product_param {
    num_output: 4096
    weight_filler {
      type: "gaussian"
      std: 0.005
    }
    bias_filler {
      type: "constant"
      value: 0.1
    }
  }
}
layer {
  name: "relu7"
  type: "ReLU"
  bottom: "fc7"
  top: "fc7"
}
layer {
  name: "drop7"
  type: "Dropout"
  bottom: "fc7"
  top: "fc7"
  dropout_param {
    dropout_ratio: 0.5
  }
}
layer {
  name: "fc8_subset"
  type: "InnerProduct"
  bottom: "fc7"
  top: "fc8_subset"
  param {
    lr_mult: 10
    decay_mult: 1
  }
  param {
    lr_mult: 20
    decay_mult: 0
  }
  inner_product_param {
    num_output: 25
    weight_filler {
      type: "gaussian"
      std: 0.01
    }
    bias_filler {
      type: "constant"
      value: 0
    }
  }
}
layer {
  name: "loss"
  type: "SoftmaxWithLoss"
  bottom: "fc8_subset"
  bottom: "label"
  top: "loss"
}
layer {
  name: "accuracy"
  type: "Accuracy"
  bottom: "fc8_subset"
  bottom: "label"
  top: "accuracy"
  include {
    phase: TEST
  }
}
I0308 22:48:07.390638  5883 layer_factory.hpp:77] Creating layer data
I0308 22:48:07.390784  5883 net.cpp:106] Creating Layer data
I0308 22:48:07.390820  5883 net.cpp:411] data -> data
I0308 22:48:07.390852  5883 net.cpp:411] data -> label
I0308 22:48:07.390882  5883 data_transformer.cpp:25] Loading mean file from: /work/01932/dineshj/CS381V/caffe_install_scripts/caffe/data/ilsvrc12/imagenet_mean.binaryproto
I0308 22:48:07.406373  5888 db_lmdb.cpp:38] Opened lmdb /work/04018/wxie/maverick/visual_recognition/data/test-lmdb
I0308 22:48:07.408382  5883 data_layer.cpp:41] output data size: 20,3,227,227
I0308 22:48:07.432754  5883 net.cpp:150] Setting up data
I0308 22:48:07.432838  5883 net.cpp:157] Top shape: 20 3 227 227 (3091740)
I0308 22:48:07.432884  5883 net.cpp:157] Top shape: 20 (20)
I0308 22:48:07.432919  5883 net.cpp:165] Memory required for data: 12367040
I0308 22:48:07.432950  5883 layer_factory.hpp:77] Creating layer label_data_1_split
I0308 22:48:07.432982  5883 net.cpp:106] Creating Layer label_data_1_split
I0308 22:48:07.433007  5883 net.cpp:454] label_data_1_split <- label
I0308 22:48:07.433032  5883 net.cpp:411] label_data_1_split -> label_data_1_split_0
I0308 22:48:07.433060  5883 net.cpp:411] label_data_1_split -> label_data_1_split_1
I0308 22:48:07.433158  5883 net.cpp:150] Setting up label_data_1_split
I0308 22:48:07.433217  5883 net.cpp:157] Top shape: 20 (20)
I0308 22:48:07.433244  5883 net.cpp:157] Top shape: 20 (20)
I0308 22:48:07.433271  5883 net.cpp:165] Memory required for data: 12367200
I0308 22:48:07.433298  5883 layer_factory.hpp:77] Creating layer conv1
I0308 22:48:07.433331  5883 net.cpp:106] Creating Layer conv1
I0308 22:48:07.433362  5883 net.cpp:454] conv1 <- data
I0308 22:48:07.433392  5883 net.cpp:411] conv1 -> conv1
I0308 22:48:07.434988  5883 net.cpp:150] Setting up conv1
I0308 22:48:07.435035  5883 net.cpp:157] Top shape: 20 96 55 55 (5808000)
I0308 22:48:07.435063  5883 net.cpp:165] Memory required for data: 35599200
I0308 22:48:07.435099  5883 layer_factory.hpp:77] Creating layer relu1
I0308 22:48:07.435132  5883 net.cpp:106] Creating Layer relu1
I0308 22:48:07.435160  5883 net.cpp:454] relu1 <- conv1
I0308 22:48:07.435190  5883 net.cpp:397] relu1 -> conv1 (in-place)
I0308 22:48:07.435222  5883 net.cpp:150] Setting up relu1
I0308 22:48:07.435253  5883 net.cpp:157] Top shape: 20 96 55 55 (5808000)
I0308 22:48:07.435281  5883 net.cpp:165] Memory required for data: 58831200
I0308 22:48:07.435307  5883 layer_factory.hpp:77] Creating layer pool1
I0308 22:48:07.435338  5883 net.cpp:106] Creating Layer pool1
I0308 22:48:07.435367  5883 net.cpp:454] pool1 <- conv1
I0308 22:48:07.435392  5883 net.cpp:411] pool1 -> pool1
I0308 22:48:07.435448  5883 net.cpp:150] Setting up pool1
I0308 22:48:07.435484  5883 net.cpp:157] Top shape: 20 96 27 27 (1399680)
I0308 22:48:07.435510  5883 net.cpp:165] Memory required for data: 64429920
I0308 22:48:07.435537  5883 layer_factory.hpp:77] Creating layer norm1
I0308 22:48:07.435567  5883 net.cpp:106] Creating Layer norm1
I0308 22:48:07.435600  5883 net.cpp:454] norm1 <- pool1
I0308 22:48:07.435631  5883 net.cpp:411] norm1 -> norm1
I0308 22:48:07.435688  5883 net.cpp:150] Setting up norm1
I0308 22:48:07.435721  5883 net.cpp:157] Top shape: 20 96 27 27 (1399680)
I0308 22:48:07.435748  5883 net.cpp:165] Memory required for data: 70028640
I0308 22:48:07.435773  5883 layer_factory.hpp:77] Creating layer conv2
I0308 22:48:07.435806  5883 net.cpp:106] Creating Layer conv2
I0308 22:48:07.435850  5883 net.cpp:454] conv2 <- norm1
I0308 22:48:07.435906  5883 net.cpp:411] conv2 -> conv2
I0308 22:48:07.449206  5883 net.cpp:150] Setting up conv2
I0308 22:48:07.449270  5883 net.cpp:157] Top shape: 20 256 27 27 (3732480)
I0308 22:48:07.449296  5883 net.cpp:165] Memory required for data: 84958560
I0308 22:48:07.449327  5883 layer_factory.hpp:77] Creating layer relu2
I0308 22:48:07.449357  5883 net.cpp:106] Creating Layer relu2
I0308 22:48:07.449383  5883 net.cpp:454] relu2 <- conv2
I0308 22:48:07.449409  5883 net.cpp:397] relu2 -> conv2 (in-place)
I0308 22:48:07.449437  5883 net.cpp:150] Setting up relu2
I0308 22:48:07.449476  5883 net.cpp:157] Top shape: 20 256 27 27 (3732480)
I0308 22:48:07.449503  5883 net.cpp:165] Memory required for data: 99888480
I0308 22:48:07.449539  5883 layer_factory.hpp:77] Creating layer pool2
I0308 22:48:07.449578  5883 net.cpp:106] Creating Layer pool2
I0308 22:48:07.449615  5883 net.cpp:454] pool2 <- conv2
I0308 22:48:07.449657  5883 net.cpp:411] pool2 -> pool2
I0308 22:48:07.449729  5883 net.cpp:150] Setting up pool2
I0308 22:48:07.449769  5883 net.cpp:157] Top shape: 20 256 13 13 (865280)
I0308 22:48:07.449797  5883 net.cpp:165] Memory required for data: 103349600
I0308 22:48:07.449826  5883 layer_factory.hpp:77] Creating layer norm2
I0308 22:48:07.449872  5883 net.cpp:106] Creating Layer norm2
I0308 22:48:07.449901  5883 net.cpp:454] norm2 <- pool2
I0308 22:48:07.449956  5883 net.cpp:411] norm2 -> norm2
I0308 22:48:07.450017  5883 net.cpp:150] Setting up norm2
I0308 22:48:07.450068  5883 net.cpp:157] Top shape: 20 256 13 13 (865280)
I0308 22:48:07.450096  5883 net.cpp:165] Memory required for data: 106810720
I0308 22:48:07.450124  5883 layer_factory.hpp:77] Creating layer conv3
I0308 22:48:07.450157  5883 net.cpp:106] Creating Layer conv3
I0308 22:48:07.450187  5883 net.cpp:454] conv3 <- norm2
I0308 22:48:07.450219  5883 net.cpp:411] conv3 -> conv3
I0308 22:48:07.487130  5883 net.cpp:150] Setting up conv3
I0308 22:48:07.487213  5883 net.cpp:157] Top shape: 20 384 13 13 (1297920)
I0308 22:48:07.487237  5883 net.cpp:165] Memory required for data: 112002400
I0308 22:48:07.487269  5883 layer_factory.hpp:77] Creating layer relu3
I0308 22:48:07.487298  5883 net.cpp:106] Creating Layer relu3
I0308 22:48:07.487336  5883 net.cpp:454] relu3 <- conv3
I0308 22:48:07.487383  5883 net.cpp:397] relu3 -> conv3 (in-place)
I0308 22:48:07.487433  5883 net.cpp:150] Setting up relu3
I0308 22:48:07.487468  5883 net.cpp:157] Top shape: 20 384 13 13 (1297920)
I0308 22:48:07.487495  5883 net.cpp:165] Memory required for data: 117194080
I0308 22:48:07.487524  5883 layer_factory.hpp:77] Creating layer conv4
I0308 22:48:07.487561  5883 net.cpp:106] Creating Layer conv4
I0308 22:48:07.487599  5883 net.cpp:454] conv4 <- conv3
I0308 22:48:07.487648  5883 net.cpp:411] conv4 -> conv4
I0308 22:48:07.514920  5883 net.cpp:150] Setting up conv4
I0308 22:48:07.514971  5883 net.cpp:157] Top shape: 20 384 13 13 (1297920)
I0308 22:48:07.515000  5883 net.cpp:165] Memory required for data: 122385760
I0308 22:48:07.515032  5883 layer_factory.hpp:77] Creating layer relu4
I0308 22:48:07.515064  5883 net.cpp:106] Creating Layer relu4
I0308 22:48:07.515092  5883 net.cpp:454] relu4 <- conv4
I0308 22:48:07.515125  5883 net.cpp:397] relu4 -> conv4 (in-place)
I0308 22:48:07.515157  5883 net.cpp:150] Setting up relu4
I0308 22:48:07.515189  5883 net.cpp:157] Top shape: 20 384 13 13 (1297920)
I0308 22:48:07.515216  5883 net.cpp:165] Memory required for data: 127577440
I0308 22:48:07.515244  5883 layer_factory.hpp:77] Creating layer conv5
I0308 22:48:07.515280  5883 net.cpp:106] Creating Layer conv5
I0308 22:48:07.515308  5883 net.cpp:454] conv5 <- conv4
I0308 22:48:07.515341  5883 net.cpp:411] conv5 -> conv5
I0308 22:48:07.533865  5883 net.cpp:150] Setting up conv5
I0308 22:48:07.533918  5883 net.cpp:157] Top shape: 20 256 13 13 (865280)
I0308 22:48:07.533944  5883 net.cpp:165] Memory required for data: 131038560
I0308 22:48:07.533987  5883 layer_factory.hpp:77] Creating layer relu5
I0308 22:48:07.534014  5883 net.cpp:106] Creating Layer relu5
I0308 22:48:07.534060  5883 net.cpp:454] relu5 <- conv5
I0308 22:48:07.534133  5883 net.cpp:397] relu5 -> conv5 (in-place)
I0308 22:48:07.534162  5883 net.cpp:150] Setting up relu5
I0308 22:48:07.534200  5883 net.cpp:157] Top shape: 20 256 13 13 (865280)
I0308 22:48:07.534221  5883 net.cpp:165] Memory required for data: 134499680
I0308 22:48:07.534241  5883 layer_factory.hpp:77] Creating layer pool5
I0308 22:48:07.534271  5883 net.cpp:106] Creating Layer pool5
I0308 22:48:07.534294  5883 net.cpp:454] pool5 <- conv5
I0308 22:48:07.534320  5883 net.cpp:411] pool5 -> pool5
I0308 22:48:07.534380  5883 net.cpp:150] Setting up pool5
I0308 22:48:07.534411  5883 net.cpp:157] Top shape: 20 256 6 6 (184320)
I0308 22:48:07.534432  5883 net.cpp:165] Memory required for data: 135236960
I0308 22:48:07.534453  5883 layer_factory.hpp:77] Creating layer fc6
I0308 22:48:07.534492  5883 net.cpp:106] Creating Layer fc6
I0308 22:48:07.534517  5883 net.cpp:454] fc6 <- pool5
I0308 22:48:07.534541  5883 net.cpp:411] fc6 -> fc6
I0308 22:48:08.916224  5883 net.cpp:150] Setting up fc6
I0308 22:48:08.916347  5883 net.cpp:157] Top shape: 20 4096 (81920)
I0308 22:48:08.916369  5883 net.cpp:165] Memory required for data: 135564640
I0308 22:48:08.916399  5883 layer_factory.hpp:77] Creating layer relu6
I0308 22:48:08.916429  5883 net.cpp:106] Creating Layer relu6
I0308 22:48:08.916455  5883 net.cpp:454] relu6 <- fc6
I0308 22:48:08.916481  5883 net.cpp:397] relu6 -> fc6 (in-place)
I0308 22:48:08.916512  5883 net.cpp:150] Setting up relu6
I0308 22:48:08.916535  5883 net.cpp:157] Top shape: 20 4096 (81920)
I0308 22:48:08.916556  5883 net.cpp:165] Memory required for data: 135892320
I0308 22:48:08.916581  5883 layer_factory.hpp:77] Creating layer drop6
I0308 22:48:08.916610  5883 net.cpp:106] Creating Layer drop6
I0308 22:48:08.916633  5883 net.cpp:454] drop6 <- fc6
I0308 22:48:08.916657  5883 net.cpp:397] drop6 -> fc6 (in-place)
I0308 22:48:08.916705  5883 net.cpp:150] Setting up drop6
I0308 22:48:08.916734  5883 net.cpp:157] Top shape: 20 4096 (81920)
I0308 22:48:08.916755  5883 net.cpp:165] Memory required for data: 136220000
I0308 22:48:08.916776  5883 layer_factory.hpp:77] Creating layer fc7
I0308 22:48:08.916805  5883 net.cpp:106] Creating Layer fc7
I0308 22:48:08.916827  5883 net.cpp:454] fc7 <- fc6
I0308 22:48:08.916852  5883 net.cpp:411] fc7 -> fc7
I0308 22:48:09.531028  5883 net.cpp:150] Setting up fc7
I0308 22:48:09.531141  5883 net.cpp:157] Top shape: 20 4096 (81920)
I0308 22:48:09.531165  5883 net.cpp:165] Memory required for data: 136547680
I0308 22:48:09.531194  5883 layer_factory.hpp:77] Creating layer relu7
I0308 22:48:09.531224  5883 net.cpp:106] Creating Layer relu7
I0308 22:48:09.531247  5883 net.cpp:454] relu7 <- fc7
I0308 22:48:09.531273  5883 net.cpp:397] relu7 -> fc7 (in-place)
I0308 22:48:09.531304  5883 net.cpp:150] Setting up relu7
I0308 22:48:09.531328  5883 net.cpp:157] Top shape: 20 4096 (81920)
I0308 22:48:09.531349  5883 net.cpp:165] Memory required for data: 136875360
I0308 22:48:09.531369  5883 layer_factory.hpp:77] Creating layer drop7
I0308 22:48:09.531397  5883 net.cpp:106] Creating Layer drop7
I0308 22:48:09.531421  5883 net.cpp:454] drop7 <- fc7
I0308 22:48:09.531445  5883 net.cpp:397] drop7 -> fc7 (in-place)
I0308 22:48:09.531494  5883 net.cpp:150] Setting up drop7
I0308 22:48:09.531524  5883 net.cpp:157] Top shape: 20 4096 (81920)
I0308 22:48:09.531545  5883 net.cpp:165] Memory required for data: 137203040
I0308 22:48:09.531568  5883 layer_factory.hpp:77] Creating layer fc8_subset
I0308 22:48:09.531599  5883 net.cpp:106] Creating Layer fc8_subset
I0308 22:48:09.531621  5883 net.cpp:454] fc8_subset <- fc7
I0308 22:48:09.531648  5883 net.cpp:411] fc8_subset -> fc8_subset
I0308 22:48:09.535362  5883 net.cpp:150] Setting up fc8_subset
I0308 22:48:09.535395  5883 net.cpp:157] Top shape: 20 25 (500)
I0308 22:48:09.535418  5883 net.cpp:165] Memory required for data: 137205040
I0308 22:48:09.535441  5883 layer_factory.hpp:77] Creating layer fc8_subset_fc8_subset_0_split
I0308 22:48:09.535466  5883 net.cpp:106] Creating Layer fc8_subset_fc8_subset_0_split
I0308 22:48:09.572228  5883 net.cpp:454] fc8_subset_fc8_subset_0_split <- fc8_subset
I0308 22:48:09.572264  5883 net.cpp:411] fc8_subset_fc8_subset_0_split -> fc8_subset_fc8_subset_0_split_0
I0308 22:48:09.572295  5883 net.cpp:411] fc8_subset_fc8_subset_0_split -> fc8_subset_fc8_subset_0_split_1
I0308 22:48:09.572360  5883 net.cpp:150] Setting up fc8_subset_fc8_subset_0_split
I0308 22:48:09.572405  5883 net.cpp:157] Top shape: 20 25 (500)
I0308 22:48:09.572430  5883 net.cpp:157] Top shape: 20 25 (500)
I0308 22:48:09.572451  5883 net.cpp:165] Memory required for data: 137209040
I0308 22:48:09.572473  5883 layer_factory.hpp:77] Creating layer loss
I0308 22:48:09.572496  5883 net.cpp:106] Creating Layer loss
I0308 22:48:09.572520  5883 net.cpp:454] loss <- fc8_subset_fc8_subset_0_split_0
I0308 22:48:09.572542  5883 net.cpp:454] loss <- label_data_1_split_0
I0308 22:48:09.572572  5883 net.cpp:411] loss -> loss
…
