…
I0306 05:08:35.898447 56015 net.cpp:322] The NetState phase (0) differed from the phase (1) specified by a rule in layer accuracy
I0306 05:08:35.898648 56015 net.cpp:49] Initializing net from parameters: 
name: "FlickrStyleCaffeNet"
state {
  phase: TRAIN
}
layer {
  name: "data"
  type: "Data"
  top: "data"
  top: "label"
  include {
    phase: TRAIN
  }
  transform_param {
    mirror: true
    crop_size: 227
    mean_file: "/work/01932/dineshj/CS381V/caffe_install_scripts/caffe/data/ilsvrc12/imagenet_mean.binaryproto"
  }
  data_param {
    source: "/work/04018/wxie/maverick/visual_recognition/data/train-lmdb"
    batch_size: 128
    backend: LMDB
  }
}
layer {
  name: "conv1"
  type: "Convolution"
  bottom: "data"
  top: "conv1"
  param {
    lr_mult: 1
    decay_mult: 1
  }
  param {
    lr_mult: 2
    decay_mult: 0
  }
  convolution_param {
    num_output: 96
    kernel_size: 11
    stride: 4
    weight_filler {
      type: "gaussian"
      std: 0.01
    }
    bias_filler {
      type: "constant"
      value: 0
    }
  }
}
layer {
  name: "relu1"
  type: "ReLU"
  bottom: "conv1"
  top: "conv1"
}
layer {
  name: "pool1"
  type: "Pooling"
  bottom: "conv1"
  top: "pool1"
  pooling_param {
    pool: MAX
    kernel_size: 3
    stride: 2
  }
}
layer {
  name: "norm1"
  type: "LRN"
  bottom: "pool1"
  top: "norm1"
  lrn_param {
    local_size: 5
    alpha: 0.0001
    beta: 0.75
  }
}
layer {
  name: "conv2"
  type: "Convolution"
  bottom: "norm1"
  top: "conv2"
  param {
    lr_mult: 1
    decay_mult: 1
  }
  param {
    lr_mult: 2
    decay_mult: 0
  }
  convolution_param {
    num_output: 256
    pad: 2
    kernel_size: 5
    group: 2
    weight_filler {
      type: "gaussian"
      std: 0.01
    }
    bias_filler {
      type: "constant"
      value: 0.1
    }
  }
}
layer {
  name: "relu2"
  type: "ReLU"
  bottom: "conv2"
  top: "conv2"
}
layer {
  name: "pool2"
  type: "Pooling"
  bottom: "conv2"
  top: "pool2"
  pooling_param {
    pool: MAX
    kernel_size: 3
    stride: 2
  }
}
layer {
  name: "norm2"
  type: "LRN"
  bottom: "pool2"
  top: "norm2"
  lrn_param {
    local_size: 5
    alpha: 0.0001
    beta: 0.75
  }
}
layer {
  name: "conv3"
  type: "Convolution"
  bottom: "norm2"
  top: "conv3"
  param {
    lr_mult: 1
    decay_mult: 1
  }
  param {
    lr_mult: 2
    decay_mult: 0
  }
  convolution_param {
    num_output: 384
    pad: 1
    kernel_size: 3
    weight_filler {
      type: "gaussian"
      std: 0.01
    }
    bias_filler {
      type: "constant"
      value: 0
    }
  }
}
layer {
  name: "relu3"
  type: "ReLU"
  bottom: "conv3"
  top: "conv3"
}
layer {
  name: "conv4"
  type: "Convolution"
  bottom: "conv3"
  top: "conv4"
  param {
    lr_mult: 1
    decay_mult: 1
  }
  param {
    lr_mult: 2
    decay_mult: 0
  }
  convolution_param {
    num_output: 384
    pad: 1
    kernel_size: 3
    group: 2
    weight_filler {
      type: "gaussian"
      std: 0.01
    }
    bias_filler {
      type: "constant"
      value: 0.1
    }
  }
}
layer {
  name: "relu4"
  type: "ReLU"
  bottom: "conv4"
  top: "conv4"
}
layer {
  name: "conv5"
  type: "Convolution"
  bottom: "conv4"
  top: "conv5"
  param {
    lr_mult: 1
    decay_mult: 1
  }
  param {
    lr_mult: 2
    decay_mult: 0
  }
  convolution_param {
    num_output: 256
    pad: 1
    kernel_size: 3
    group: 2
    weight_filler {
      type: "gaussian"
      std: 0.01
    }
    bias_filler {
      type: "constant"
      value: 0.1
    }
  }
}
layer {
  name: "relu5"
  type: "ReLU"
  bottom: "conv5"
  top: "conv5"
}
layer {
  name: "pool5"
  type: "Pooling"
  bottom: "conv5"
  top: "pool5"
  pooling_param {
    pool: MAX
    kernel_size: 3
    stride: 2
  }
}
layer {
  name: "fc6"
  type: "InnerProduct"
  bottom: "pool5"
  top: "fc6"
  param {
    lr_mult: 1
    decay_mult: 1
  }
  param {
    lr_mult: 2
    decay_mult: 0
  }
  inner_product_param {
    num_output: 4096
    weight_filler {
      type: "gaussian"
      std: 0.005
    }
    bias_filler {
      type: "constant"
      value: 0.1
    }
  }
}
layer {
  name: "relu6"
  type: "ReLU"
  bottom: "fc6"
  top: "fc6"
}
layer {
  name: "drop6"
  type: "Dropout"
  bottom: "fc6"
  top: "fc6"
  dropout_param {
    dropout_ratio: 0.5
  }
}
layer {
  name: "fc7"
  type: "InnerProduct"
  bottom: "fc6"
  top: "fc7"
  param {
    lr_mult: 1
    decay_mult: 1
  }
  param {
    lr_mult: 2
    decay_mult: 0
  }
  inner_product_param {
    num_output: 4096
    weight_filler {
      type: "gaussian"
      std: 0.005
    }
    bias_filler {
      type: "constant"
      value: 0.1
    }
  }
}
layer {
  name: "relu7"
  type: "ReLU"
  bottom: "fc7"
  top: "fc7"
}
layer {
  name: "drop7"
  type: "Dropout"
  bottom: "fc7"
  top: "fc7"
  dropout_param {
    dropout_ratio: 0.5
  }
}
layer {
  name: "fc8_subset"
  type: "InnerProduct"
  bottom: "fc7"
  top: "fc8_subset"
  param {
    lr_mult: 10
    decay_mult: 1
  }
  param {
    lr_mult: 20
    decay_mult: 0
  }
  inner_product_param {
    num_output: 25
    weight_filler {
      type: "gaussian"
      std: 0.01
    }
    bias_filler {
      type: "constant"
      value: 0
    }
  }
}
layer {
  name: "loss"
  type: "SoftmaxWithLoss"
  bottom: "fc8_subset"
  bottom: "label"
  top: "loss"
}
I0306 05:08:35.898934 56015 layer_factory.hpp:77] Creating layer data
I0306 05:08:35.899688 56015 net.cpp:106] Creating Layer data
I0306 05:08:35.899746 56015 net.cpp:411] data -> data
I0306 05:08:35.899857 56015 net.cpp:411] data -> label
I0306 05:08:35.899936 56015 data_transformer.cpp:25] Loading mean file from: /work/01932/dineshj/CS381V/caffe_install_scripts/caffe/data/ilsvrc12/imagenet_mean.binaryproto
I0306 05:08:35.975999 56018 db_lmdb.cpp:38] Opened lmdb /work/04018/wxie/maverick/visual_recognition/data/train-lmdb
I0306 05:08:35.982938 56015 data_layer.cpp:41] output data size: 128,3,227,227
I0306 05:08:36.142771 56015 net.cpp:150] Setting up data
I0306 05:08:36.142900 56015 net.cpp:157] Top shape: 128 3 227 227 (19787136)
I0306 05:08:36.142942 56015 net.cpp:157] Top shape: 128 (128)
I0306 05:08:36.142966 56015 net.cpp:165] Memory required for data: 79149056
I0306 05:08:36.143000 56015 layer_factory.hpp:77] Creating layer conv1
I0306 05:08:36.143085 56015 net.cpp:106] Creating Layer conv1
I0306 05:08:36.143118 56015 net.cpp:454] conv1 <- data
I0306 05:08:36.143162 56015 net.cpp:411] conv1 -> conv1
I0306 05:08:36.153316 56015 net.cpp:150] Setting up conv1
I0306 05:08:36.153367 56015 net.cpp:157] Top shape: 128 96 55 55 (37171200)
I0306 05:08:36.153398 56015 net.cpp:165] Memory required for data: 227833856
I0306 05:08:36.153460 56015 layer_factory.hpp:77] Creating layer relu1
I0306 05:08:36.153494 56015 net.cpp:106] Creating Layer relu1
I0306 05:08:36.153523 56015 net.cpp:454] relu1 <- conv1
I0306 05:08:36.153553 56015 net.cpp:397] relu1 -> conv1 (in-place)
I0306 05:08:36.153587 56015 net.cpp:150] Setting up relu1
I0306 05:08:36.153617 56015 net.cpp:157] Top shape: 128 96 55 55 (37171200)
I0306 05:08:36.153643 56015 net.cpp:165] Memory required for data: 376518656
I0306 05:08:36.153669 56015 layer_factory.hpp:77] Creating layer pool1
I0306 05:08:36.153720 56015 net.cpp:106] Creating Layer pool1
I0306 05:08:36.153751 56015 net.cpp:454] pool1 <- conv1
I0306 05:08:36.153781 56015 net.cpp:411] pool1 -> pool1
I0306 05:08:36.153946 56015 net.cpp:150] Setting up pool1
I0306 05:08:36.153982 56015 net.cpp:157] Top shape: 128 96 27 27 (8957952)
I0306 05:08:36.154062 56015 net.cpp:165] Memory required for data: 412350464
I0306 05:08:36.154096 56015 layer_factory.hpp:77] Creating layer norm1
I0306 05:08:36.154129 56015 net.cpp:106] Creating Layer norm1
I0306 05:08:36.154152 56015 net.cpp:454] norm1 <- pool1
I0306 05:08:36.154176 56015 net.cpp:411] norm1 -> norm1
I0306 05:08:36.154281 56015 net.cpp:150] Setting up norm1
I0306 05:08:36.154316 56015 net.cpp:157] Top shape: 128 96 27 27 (8957952)
I0306 05:08:36.154342 56015 net.cpp:165] Memory required for data: 448182272
I0306 05:08:36.154369 56015 layer_factory.hpp:77] Creating layer conv2
I0306 05:08:36.154403 56015 net.cpp:106] Creating Layer conv2
I0306 05:08:36.154430 56015 net.cpp:454] conv2 <- norm1
I0306 05:08:36.154460 56015 net.cpp:411] conv2 -> conv2
I0306 05:08:36.167491 56015 net.cpp:150] Setting up conv2
I0306 05:08:36.167542 56015 net.cpp:157] Top shape: 128 256 27 27 (23887872)
I0306 05:08:36.167567 56015 net.cpp:165] Memory required for data: 543733760
I0306 05:08:36.167599 56015 layer_factory.hpp:77] Creating layer relu2
I0306 05:08:36.167626 56015 net.cpp:106] Creating Layer relu2
I0306 05:08:36.167649 56015 net.cpp:454] relu2 <- conv2
I0306 05:08:36.167672 56015 net.cpp:397] relu2 -> conv2 (in-place)
I0306 05:08:36.167700 56015 net.cpp:150] Setting up relu2
I0306 05:08:36.167724 56015 net.cpp:157] Top shape: 128 256 27 27 (23887872)
I0306 05:08:36.167745 56015 net.cpp:165] Memory required for data: 639285248
I0306 05:08:36.167767 56015 layer_factory.hpp:77] Creating layer pool2
I0306 05:08:36.167796 56015 net.cpp:106] Creating Layer pool2
I0306 05:08:36.167839 56015 net.cpp:454] pool2 <- conv2
I0306 05:08:36.167865 56015 net.cpp:411] pool2 -> pool2
I0306 05:08:36.167937 56015 net.cpp:150] Setting up pool2
I0306 05:08:36.167980 56015 net.cpp:157] Top shape: 128 256 13 13 (5537792)
I0306 05:08:36.168004 56015 net.cpp:165] Memory required for data: 661436416
I0306 05:08:36.168025 56015 layer_factory.hpp:77] Creating layer norm2
I0306 05:08:36.168078 56015 net.cpp:106] Creating Layer norm2
I0306 05:08:36.168105 56015 net.cpp:454] norm2 <- pool2
I0306 05:08:36.168136 56015 net.cpp:411] norm2 -> norm2
I0306 05:08:36.168208 56015 net.cpp:150] Setting up norm2
I0306 05:08:36.168244 56015 net.cpp:157] Top shape: 128 256 13 13 (5537792)
I0306 05:08:36.168272 56015 net.cpp:165] Memory required for data: 683587584
I0306 05:08:36.168303 56015 layer_factory.hpp:77] Creating layer conv3
I0306 05:08:36.168359 56015 net.cpp:106] Creating Layer conv3
I0306 05:08:36.168398 56015 net.cpp:454] conv3 <- norm2
I0306 05:08:36.168429 56015 net.cpp:411] conv3 -> conv3
I0306 05:08:36.202523 56015 net.cpp:150] Setting up conv3
I0306 05:08:36.202567 56015 net.cpp:157] Top shape: 128 384 13 13 (8306688)
I0306 05:08:36.202592 56015 net.cpp:165] Memory required for data: 716814336
I0306 05:08:36.202630 56015 layer_factory.hpp:77] Creating layer relu3
I0306 05:08:36.202671 56015 net.cpp:106] Creating Layer relu3
I0306 05:08:36.202693 56015 net.cpp:454] relu3 <- conv3
I0306 05:08:36.202733 56015 net.cpp:397] relu3 -> conv3 (in-place)
I0306 05:08:36.202759 56015 net.cpp:150] Setting up relu3
I0306 05:08:36.202797 56015 net.cpp:157] Top shape: 128 384 13 13 (8306688)
I0306 05:08:36.202823 56015 net.cpp:165] Memory required for data: 750041088
I0306 05:08:36.202847 56015 layer_factory.hpp:77] Creating layer conv4
I0306 05:08:36.202888 56015 net.cpp:106] Creating Layer conv4
I0306 05:08:36.202911 56015 net.cpp:454] conv4 <- conv3
I0306 05:08:36.202940 56015 net.cpp:411] conv4 -> conv4
I0306 05:08:36.228646 56015 net.cpp:150] Setting up conv4
I0306 05:08:36.228693 56015 net.cpp:157] Top shape: 128 384 13 13 (8306688)
I0306 05:08:36.228720 56015 net.cpp:165] Memory required for data: 783267840
I0306 05:08:36.228750 56015 layer_factory.hpp:77] Creating layer relu4
I0306 05:08:36.228780 56015 net.cpp:106] Creating Layer relu4
I0306 05:08:36.228807 56015 net.cpp:454] relu4 <- conv4
I0306 05:08:36.228850 56015 net.cpp:397] relu4 -> conv4 (in-place)
I0306 05:08:36.228883 56015 net.cpp:150] Setting up relu4
I0306 05:08:36.228926 56015 net.cpp:157] Top shape: 128 384 13 13 (8306688)
I0306 05:08:36.228970 56015 net.cpp:165] Memory required for data: 816494592
I0306 05:08:36.228998 56015 layer_factory.hpp:77] Creating layer conv5
I0306 05:08:36.229033 56015 net.cpp:106] Creating Layer conv5
I0306 05:08:36.229063 56015 net.cpp:454] conv5 <- conv4
I0306 05:08:36.229092 56015 net.cpp:411] conv5 -> conv5
I0306 05:08:36.254573 56015 net.cpp:150] Setting up conv5
I0306 05:08:36.254626 56015 net.cpp:157] Top shape: 128 256 13 13 (5537792)
I0306 05:08:36.254654 56015 net.cpp:165] Memory required for data: 838645760
I0306 05:08:36.254688 56015 layer_factory.hpp:77] Creating layer relu5
I0306 05:08:36.254719 56015 net.cpp:106] Creating Layer relu5
I0306 05:08:36.254745 56015 net.cpp:454] relu5 <- conv5
I0306 05:08:36.254775 56015 net.cpp:397] relu5 -> conv5 (in-place)
I0306 05:08:36.254806 56015 net.cpp:150] Setting up relu5
I0306 05:08:36.254842 56015 net.cpp:157] Top shape: 128 256 13 13 (5537792)
I0306 05:08:36.254868 56015 net.cpp:165] Memory required for data: 860796928
I0306 05:08:36.254892 56015 layer_factory.hpp:77] Creating layer pool5
I0306 05:08:36.254923 56015 net.cpp:106] Creating Layer pool5
I0306 05:08:36.254951 56015 net.cpp:454] pool5 <- conv5
I0306 05:08:36.254981 56015 net.cpp:411] pool5 -> pool5
I0306 05:08:36.255041 56015 net.cpp:150] Setting up pool5
I0306 05:08:36.255079 56015 net.cpp:157] Top shape: 128 256 6 6 (1179648)
I0306 05:08:36.255105 56015 net.cpp:165] Memory required for data: 865515520
I0306 05:08:36.255131 56015 layer_factory.hpp:77] Creating layer fc6
I0306 05:08:36.255194 56015 net.cpp:106] Creating Layer fc6
I0306 05:08:36.255223 56015 net.cpp:454] fc6 <- pool5
I0306 05:08:36.255249 56015 net.cpp:411] fc6 -> fc6
I0306 05:08:36.310130 56019 blocking_queue.cpp:50] Waiting for data
I0306 05:08:37.672096 56015 net.cpp:150] Setting up fc6
I0306 05:08:37.672224 56015 net.cpp:157] Top shape: 128 4096 (524288)
I0306 05:08:37.672247 56015 net.cpp:165] Memory required for data: 867612672
I0306 05:08:37.672276 56015 layer_factory.hpp:77] Creating layer relu6
I0306 05:08:37.672304 56015 net.cpp:106] Creating Layer relu6
I0306 05:08:37.672328 56015 net.cpp:454] relu6 <- fc6
I0306 05:08:37.672358 56015 net.cpp:397] relu6 -> fc6 (in-place)
I0306 05:08:37.672390 56015 net.cpp:150] Setting up relu6
I0306 05:08:37.672415 56015 net.cpp:157] Top shape: 128 4096 (524288)
I0306 05:08:37.672436 56015 net.cpp:165] Memory required for data: 869709824
I0306 05:08:37.672457 56015 layer_factory.hpp:77] Creating layer drop6
I0306 05:08:37.672482 56015 net.cpp:106] Creating Layer drop6
I0306 05:08:37.672504 56015 net.cpp:454] drop6 <- fc6
I0306 05:08:37.672528 56015 net.cpp:397] drop6 -> fc6 (in-place)
I0306 05:08:37.672611 56015 net.cpp:150] Setting up drop6
I0306 05:08:37.672641 56015 net.cpp:157] Top shape: 128 4096 (524288)
I0306 05:08:37.672662 56015 net.cpp:165] Memory required for data: 871806976
I0306 05:08:37.672684 56015 layer_factory.hpp:77] Creating layer fc7
I0306 05:08:37.672710 56015 net.cpp:106] Creating Layer fc7
I0306 05:08:37.672732 56015 net.cpp:454] fc7 <- fc6
I0306 05:08:37.672760 56015 net.cpp:411] fc7 -> fc7
I0306 05:08:38.287451 56015 net.cpp:150] Setting up fc7
I0306 05:08:38.287569 56015 net.cpp:157] Top shape: 128 4096 (524288)
I0306 05:08:38.287592 56015 net.cpp:165] Memory required for data: 873904128
I0306 05:08:38.287621 56015 layer_factory.hpp:77] Creating layer relu7
I0306 05:08:38.287652 56015 net.cpp:106] Creating Layer relu7
I0306 05:08:38.287674 56015 net.cpp:454] relu7 <- fc7
I0306 05:08:38.287701 56015 net.cpp:397] relu7 -> fc7 (in-place)
I0306 05:08:38.287734 56015 net.cpp:150] Setting up relu7
I0306 05:08:38.287758 56015 net.cpp:157] Top shape: 128 4096 (524288)
I0306 05:08:38.287781 56015 net.cpp:165] Memory required for data: 876001280
I0306 05:08:38.287801 56015 layer_factory.hpp:77] Creating layer drop7
I0306 05:08:38.287835 56015 net.cpp:106] Creating Layer drop7
I0306 05:08:38.287859 56015 net.cpp:454] drop7 <- fc7
I0306 05:08:38.287883 56015 net.cpp:397] drop7 -> fc7 (in-place)
I0306 05:08:38.287952 56015 net.cpp:150] Setting up drop7
I0306 05:08:38.288012 56015 net.cpp:157] Top shape: 128 4096 (524288)
I0306 05:08:38.288033 56015 net.cpp:165] Memory required for data: 878098432
I0306 05:08:38.288054 56015 layer_factory.hpp:77] Creating layer fc8_subset
I0306 05:08:38.288081 56015 net.cpp:106] Creating Layer fc8_subset
I0306 05:08:38.288103 56015 net.cpp:454] fc8_subset <- fc7
I0306 05:08:38.288130 56015 net.cpp:411] fc8_subset -> fc8_subset
I0306 05:08:38.292402 56015 net.cpp:150] Setting up fc8_subset
I0306 05:08:38.292439 56015 net.cpp:157] Top shape: 128 25 (3200)
I0306 05:08:38.292462 56015 net.cpp:165] Memory required for data: 878111232
I0306 05:08:38.292487 56015 layer_factory.hpp:77] Creating layer loss
I0306 05:08:38.292515 56015 net.cpp:106] Creating Layer loss
I0306 05:08:38.292538 56015 net.cpp:454] loss <- fc8_subset
I0306 05:08:38.292562 56015 net.cpp:454] loss <- label
I0306 05:08:38.292589 56015 net.cpp:411] loss -> loss
I0306 05:08:38.292651 56015 layer_factory.hpp:77] Creating layer loss
…
I0306 05:08:38.295224 56015 net.cpp:322] The NetState phase (1) differed from the phase (0) specified by a rule in layer data
I0306 05:08:38.295426 56015 net.cpp:49] Initializing net from parameters: 
name: "FlickrStyleCaffeNet"
state {
  phase: TEST
}
layer {
  name: "data"
  type: "Data"
  top: "data"
  top: "label"
  include {
    phase: TEST
  }
  transform_param {
    mirror: false
    crop_size: 227
    mean_file: "/work/01932/dineshj/CS381V/caffe_install_scripts/caffe/data/ilsvrc12/imagenet_mean.binaryproto"
  }
  data_param {
    source: "/work/04018/wxie/maverick/visual_recognition/data/test-lmdb"
    batch_size: 20
    backend: LMDB
  }
}
layer {
  name: "conv1"
  type: "Convolution"
  bottom: "data"
  top: "conv1"
  param {
    lr_mult: 1
    decay_mult: 1
  }
  param {
    lr_mult: 2
    decay_mult: 0
  }
  convolution_param {
    num_output: 96
    kernel_size: 11
    stride: 4
    weight_filler {
      type: "gaussian"
      std: 0.01
    }
    bias_filler {
      type: "constant"
      value: 0
    }
  }
}
layer {
  name: "relu1"
  type: "ReLU"
  bottom: "conv1"
  top: "conv1"
}
layer {
  name: "pool1"
  type: "Pooling"
  bottom: "conv1"
  top: "pool1"
  pooling_param {
    pool: MAX
    kernel_size: 3
    stride: 2
  }
}
layer {
  name: "norm1"
  type: "LRN"
  bottom: "pool1"
  top: "norm1"
  lrn_param {
    local_size: 5
    alpha: 0.0001
    beta: 0.75
  }
}
layer {
  name: "conv2"
  type: "Convolution"
  bottom: "norm1"
  top: "conv2"
  param {
    lr_mult: 1
    decay_mult: 1
  }
  param {
    lr_mult: 2
    decay_mult: 0
  }
  convolution_param {
    num_output: 256
    pad: 2
    kernel_size: 5
    group: 2
    weight_filler {
      type: "gaussian"
      std: 0.01
    }
    bias_filler {
      type: "constant"
      value: 0.1
    }
  }
}
layer {
  name: "relu2"
  type: "ReLU"
  bottom: "conv2"
  top: "conv2"
}
layer {
  name: "pool2"
  type: "Pooling"
  bottom: "conv2"
  top: "pool2"
  pooling_param {
    pool: MAX
    kernel_size: 3
    stride: 2
  }
}
layer {
  name: "norm2"
  type: "LRN"
  bottom: "pool2"
  top: "norm2"
  lrn_param {
    local_size: 5
    alpha: 0.0001
    beta: 0.75
  }
}
layer {
  name: "conv3"
  type: "Convolution"
  bottom: "norm2"
  top: "conv3"
  param {
    lr_mult: 1
    decay_mult: 1
  }
  param {
    lr_mult: 2
    decay_mult: 0
  }
  convolution_param {
    num_output: 384
    pad: 1
    kernel_size: 3
    weight_filler {
      type: "gaussian"
      std: 0.01
    }
    bias_filler {
      type: "constant"
      value: 0
    }
  }
}
layer {
  name: "relu3"
  type: "ReLU"
  bottom: "conv3"
  top: "conv3"
}
layer {
  name: "conv4"
  type: "Convolution"
  bottom: "conv3"
  top: "conv4"
  param {
    lr_mult: 1
    decay_mult: 1
  }
  param {
    lr_mult: 2
    decay_mult: 0
  }
  convolution_param {
    num_output: 384
    pad: 1
    kernel_size: 3
    group: 2
    weight_filler {
      type: "gaussian"
      std: 0.01
    }
    bias_filler {
      type: "constant"
      value: 0.1
    }
  }
}
layer {
  name: "relu4"
  type: "ReLU"
  bottom: "conv4"
  top: "conv4"
}
layer {
  name: "conv5"
  type: "Convolution"
  bottom: "conv4"
  top: "conv5"
  param {
    lr_mult: 1
    decay_mult: 1
  }
  param {
    lr_mult: 2
    decay_mult: 0
  }
  convolution_param {
    num_output: 256
    pad: 1
    kernel_size: 3
    group: 2
    weight_filler {
      type: "gaussian"
      std: 0.01
    }
    bias_filler {
      type: "constant"
      value: 0.1
    }
  }
}
layer {
  name: "relu5"
  type: "ReLU"
  bottom: "conv5"
  top: "conv5"
}
layer {
  name: "pool5"
  type: "Pooling"
  bottom: "conv5"
  top: "pool5"
  pooling_param {
    pool: MAX
    kernel_size: 3
    stride: 2
  }
}
layer {
  name: "fc6"
  type: "InnerProduct"
  bottom: "pool5"
  top: "fc6"
  param {
    lr_mult: 1
    decay_mult: 1
  }
  param {
    lr_mult: 2
    decay_mult: 0
  }
  inner_product_param {
    num_output: 4096
    weight_filler {
      type: "gaussian"
      std: 0.005
    }
    bias_filler {
      type: "constant"
      value: 0.1
    }
  }
}
layer {
  name: "relu6"
  type: "ReLU"
  bottom: "fc6"
  top: "fc6"
}
layer {
  name: "drop6"
  type: "Dropout"
  bottom: "fc6"
  top: "fc6"
  dropout_param {
    dropout_ratio: 0.5
  }
}
layer {
  name: "fc7"
  type: "InnerProduct"
  bottom: "fc6"
  top: "fc7"
  param {
    lr_mult: 1
    decay_mult: 1
  }
  param {
    lr_mult: 2
    decay_mult: 0
  }
  inner_product_param {
    num_output: 4096
    weight_filler {
      type: "gaussian"
      std: 0.005
    }
    bias_filler {
      type: "constant"
      value: 0.1
    }
  }
}
layer {
  name: "relu7"
  type: "ReLU"
  bottom: "fc7"
  top: "fc7"
}
layer {
  name: "drop7"
  type: "Dropout"
  bottom: "fc7"
  top: "fc7"
  dropout_param {
    dropout_ratio: 0.5
  }
}
layer {
  name: "fc8_subset"
  type: "InnerProduct"
  bottom: "fc7"
  top: "fc8_subset"
  param {
    lr_mult: 10
    decay_mult: 1
  }
  param {
    lr_mult: 20
    decay_mult: 0
  }
  inner_product_param {
    num_output: 25
    weight_filler {
      type: "gaussian"
      std: 0.01
    }
    bias_filler {
      type: "constant"
      value: 0
    }
  }
}
layer {
  name: "loss"
  type: "SoftmaxWithLoss"
  bottom: "fc8_subset"
  bottom: "label"
  top: "loss"
}
layer {
  name: "accuracy"
  type: "Accuracy"
  bottom: "fc8_subset"
  bottom: "label"
  top: "accuracy"
  include {
    phase: TEST
  }
}
I0306 05:08:38.295593 56015 layer_factory.hpp:77] Creating layer data
I0306 05:08:38.295749 56015 net.cpp:106] Creating Layer data
I0306 05:08:38.295783 56015 net.cpp:411] data -> data
I0306 05:08:38.295835 56015 net.cpp:411] data -> label
I0306 05:08:38.295869 56015 data_transformer.cpp:25] Loading mean file from: /work/01932/dineshj/CS381V/caffe_install_scripts/caffe/data/ilsvrc12/imagenet_mean.binaryproto
I0306 05:08:38.365578 56020 db_lmdb.cpp:38] Opened lmdb /work/04018/wxie/maverick/visual_recognition/data/test-lmdb
I0306 05:08:38.367543 56015 data_layer.cpp:41] output data size: 20,3,227,227
I0306 05:08:38.390563 56015 net.cpp:150] Setting up data
I0306 05:08:38.390626 56015 net.cpp:157] Top shape: 20 3 227 227 (3091740)
I0306 05:08:38.390655 56015 net.cpp:157] Top shape: 20 (20)
I0306 05:08:38.390677 56015 net.cpp:165] Memory required for data: 12367040
I0306 05:08:38.390702 56015 layer_factory.hpp:77] Creating layer label_data_1_split
I0306 05:08:38.390733 56015 net.cpp:106] Creating Layer label_data_1_split
I0306 05:08:38.390764 56015 net.cpp:454] label_data_1_split <- label
I0306 05:08:38.390794 56015 net.cpp:411] label_data_1_split -> label_data_1_split_0
I0306 05:08:38.390835 56015 net.cpp:411] label_data_1_split -> label_data_1_split_1
I0306 05:08:38.390926 56015 net.cpp:150] Setting up label_data_1_split
I0306 05:08:38.390964 56015 net.cpp:157] Top shape: 20 (20)
I0306 05:08:38.390993 56015 net.cpp:157] Top shape: 20 (20)
I0306 05:08:38.391021 56015 net.cpp:165] Memory required for data: 12367200
I0306 05:08:38.391048 56015 layer_factory.hpp:77] Creating layer conv1
I0306 05:08:38.391083 56015 net.cpp:106] Creating Layer conv1
I0306 05:08:38.391113 56015 net.cpp:454] conv1 <- data
I0306 05:08:38.391144 56015 net.cpp:411] conv1 -> conv1
I0306 05:08:38.392648 56015 net.cpp:150] Setting up conv1
I0306 05:08:38.392694 56015 net.cpp:157] Top shape: 20 96 55 55 (5808000)
I0306 05:08:38.392722 56015 net.cpp:165] Memory required for data: 35599200
I0306 05:08:38.392757 56015 layer_factory.hpp:77] Creating layer relu1
I0306 05:08:38.392788 56015 net.cpp:106] Creating Layer relu1
I0306 05:08:38.392822 56015 net.cpp:454] relu1 <- conv1
I0306 05:08:38.392849 56015 net.cpp:397] relu1 -> conv1 (in-place)
I0306 05:08:38.392877 56015 net.cpp:150] Setting up relu1
I0306 05:08:38.392904 56015 net.cpp:157] Top shape: 20 96 55 55 (5808000)
I0306 05:08:38.392927 56015 net.cpp:165] Memory required for data: 58831200
I0306 05:08:38.392954 56015 layer_factory.hpp:77] Creating layer pool1
I0306 05:08:38.392984 56015 net.cpp:106] Creating Layer pool1
I0306 05:08:38.393013 56015 net.cpp:454] pool1 <- conv1
I0306 05:08:38.393041 56015 net.cpp:411] pool1 -> pool1
I0306 05:08:38.393101 56015 net.cpp:150] Setting up pool1
I0306 05:08:38.393138 56015 net.cpp:157] Top shape: 20 96 27 27 (1399680)
I0306 05:08:38.393164 56015 net.cpp:165] Memory required for data: 64429920
I0306 05:08:38.393193 56015 layer_factory.hpp:77] Creating layer norm1
I0306 05:08:38.393224 56015 net.cpp:106] Creating Layer norm1
I0306 05:08:38.393252 56015 net.cpp:454] norm1 <- pool1
I0306 05:08:38.393282 56015 net.cpp:411] norm1 -> norm1
I0306 05:08:38.393338 56015 net.cpp:150] Setting up norm1
I0306 05:08:38.393374 56015 net.cpp:157] Top shape: 20 96 27 27 (1399680)
I0306 05:08:38.393399 56015 net.cpp:165] Memory required for data: 70028640
I0306 05:08:38.393424 56015 layer_factory.hpp:77] Creating layer conv2
I0306 05:08:38.393455 56015 net.cpp:106] Creating Layer conv2
I0306 05:08:38.393499 56015 net.cpp:454] conv2 <- norm1
I0306 05:08:38.393553 56015 net.cpp:411] conv2 -> conv2
I0306 05:08:38.405789 56015 net.cpp:150] Setting up conv2
I0306 05:08:38.405841 56015 net.cpp:157] Top shape: 20 256 27 27 (3732480)
I0306 05:08:38.405865 56015 net.cpp:165] Memory required for data: 84958560
I0306 05:08:38.405907 56015 layer_factory.hpp:77] Creating layer relu2
I0306 05:08:38.405936 56015 net.cpp:106] Creating Layer relu2
I0306 05:08:38.405961 56015 net.cpp:454] relu2 <- conv2
I0306 05:08:38.405987 56015 net.cpp:397] relu2 -> conv2 (in-place)
I0306 05:08:38.406015 56015 net.cpp:150] Setting up relu2
I0306 05:08:38.406043 56015 net.cpp:157] Top shape: 20 256 27 27 (3732480)
I0306 05:08:38.406065 56015 net.cpp:165] Memory required for data: 99888480
I0306 05:08:38.406088 56015 layer_factory.hpp:77] Creating layer pool2
I0306 05:08:38.406118 56015 net.cpp:106] Creating Layer pool2
I0306 05:08:38.406157 56015 net.cpp:454] pool2 <- conv2
I0306 05:08:38.406190 56015 net.cpp:411] pool2 -> pool2
I0306 05:08:38.406260 56015 net.cpp:150] Setting up pool2
I0306 05:08:38.406301 56015 net.cpp:157] Top shape: 20 256 13 13 (865280)
I0306 05:08:38.406329 56015 net.cpp:165] Memory required for data: 103349600
I0306 05:08:38.406358 56015 layer_factory.hpp:77] Creating layer norm2
I0306 05:08:38.406405 56015 net.cpp:106] Creating Layer norm2
I0306 05:08:38.406435 56015 net.cpp:454] norm2 <- pool2
I0306 05:08:38.406464 56015 net.cpp:411] norm2 -> norm2
I0306 05:08:38.406525 56015 net.cpp:150] Setting up norm2
I0306 05:08:38.406563 56015 net.cpp:157] Top shape: 20 256 13 13 (865280)
I0306 05:08:38.406602 56015 net.cpp:165] Memory required for data: 106810720
I0306 05:08:38.406628 56015 layer_factory.hpp:77] Creating layer conv3
I0306 05:08:38.406663 56015 net.cpp:106] Creating Layer conv3
I0306 05:08:38.406693 56015 net.cpp:454] conv3 <- norm2
I0306 05:08:38.406723 56015 net.cpp:411] conv3 -> conv3
I0306 05:08:38.441620 56015 net.cpp:150] Setting up conv3
I0306 05:08:38.441716 56015 net.cpp:157] Top shape: 20 384 13 13 (1297920)
I0306 05:08:38.441750 56015 net.cpp:165] Memory required for data: 112002400
I0306 05:08:38.441800 56015 layer_factory.hpp:77] Creating layer relu3
I0306 05:08:38.441848 56015 net.cpp:106] Creating Layer relu3
I0306 05:08:38.441879 56015 net.cpp:454] relu3 <- conv3
I0306 05:08:38.441911 56015 net.cpp:397] relu3 -> conv3 (in-place)
I0306 05:08:38.441947 56015 net.cpp:150] Setting up relu3
I0306 05:08:38.441978 56015 net.cpp:157] Top shape: 20 384 13 13 (1297920)
I0306 05:08:38.442005 56015 net.cpp:165] Memory required for data: 117194080
I0306 05:08:38.442033 56015 layer_factory.hpp:77] Creating layer conv4
I0306 05:08:38.442070 56015 net.cpp:106] Creating Layer conv4
I0306 05:08:38.442114 56015 net.cpp:454] conv4 <- conv3
I0306 05:08:38.442147 56015 net.cpp:411] conv4 -> conv4
I0306 05:08:38.467895 56015 net.cpp:150] Setting up conv4
I0306 05:08:38.467958 56015 net.cpp:157] Top shape: 20 384 13 13 (1297920)
I0306 05:08:38.467986 56015 net.cpp:165] Memory required for data: 122385760
I0306 05:08:38.468029 56015 layer_factory.hpp:77] Creating layer relu4
I0306 05:08:38.468060 56015 net.cpp:106] Creating Layer relu4
I0306 05:08:38.468098 56015 net.cpp:454] relu4 <- conv4
I0306 05:08:38.468129 56015 net.cpp:397] relu4 -> conv4 (in-place)
I0306 05:08:38.468163 56015 net.cpp:150] Setting up relu4
I0306 05:08:38.468194 56015 net.cpp:157] Top shape: 20 384 13 13 (1297920)
I0306 05:08:38.468221 56015 net.cpp:165] Memory required for data: 127577440
I0306 05:08:38.468245 56015 layer_factory.hpp:77] Creating layer conv5
I0306 05:08:38.468277 56015 net.cpp:106] Creating Layer conv5
I0306 05:08:38.468304 56015 net.cpp:454] conv5 <- conv4
I0306 05:08:38.468334 56015 net.cpp:411] conv5 -> conv5
I0306 05:08:38.485332 56015 net.cpp:150] Setting up conv5
I0306 05:08:38.485376 56015 net.cpp:157] Top shape: 20 256 13 13 (865280)
I0306 05:08:38.485404 56015 net.cpp:165] Memory required for data: 131038560
I0306 05:08:38.485435 56015 layer_factory.hpp:77] Creating layer relu5
I0306 05:08:38.485463 56015 net.cpp:106] Creating Layer relu5
I0306 05:08:38.485515 56015 net.cpp:454] relu5 <- conv5
I0306 05:08:38.485579 56015 net.cpp:397] relu5 -> conv5 (in-place)
I0306 05:08:38.485615 56015 net.cpp:150] Setting up relu5
I0306 05:08:38.485643 56015 net.cpp:157] Top shape: 20 256 13 13 (865280)
I0306 05:08:38.485669 56015 net.cpp:165] Memory required for data: 134499680
I0306 05:08:38.485695 56015 layer_factory.hpp:77] Creating layer pool5
I0306 05:08:38.485728 56015 net.cpp:106] Creating Layer pool5
I0306 05:08:38.485754 56015 net.cpp:454] pool5 <- conv5
I0306 05:08:38.485787 56015 net.cpp:411] pool5 -> pool5
I0306 05:08:38.485857 56015 net.cpp:150] Setting up pool5
I0306 05:08:38.485895 56015 net.cpp:157] Top shape: 20 256 6 6 (184320)
I0306 05:08:38.485924 56015 net.cpp:165] Memory required for data: 135236960
I0306 05:08:38.485949 56015 layer_factory.hpp:77] Creating layer fc6
I0306 05:08:38.485980 56015 net.cpp:106] Creating Layer fc6
I0306 05:08:38.486006 56015 net.cpp:454] fc6 <- pool5
I0306 05:08:38.486035 56015 net.cpp:411] fc6 -> fc6
I0306 05:08:39.915930 56015 net.cpp:150] Setting up fc6
I0306 05:08:39.916064 56015 net.cpp:157] Top shape: 20 4096 (81920)
I0306 05:08:39.916088 56015 net.cpp:165] Memory required for data: 135564640
I0306 05:08:39.916118 56015 layer_factory.hpp:77] Creating layer relu6
I0306 05:08:39.916147 56015 net.cpp:106] Creating Layer relu6
I0306 05:08:39.916172 56015 net.cpp:454] relu6 <- fc6
I0306 05:08:39.916200 56015 net.cpp:397] relu6 -> fc6 (in-place)
I0306 05:08:39.916234 56015 net.cpp:150] Setting up relu6
I0306 05:08:39.916259 56015 net.cpp:157] Top shape: 20 4096 (81920)
I0306 05:08:39.916280 56015 net.cpp:165] Memory required for data: 135892320
I0306 05:08:39.916301 56015 layer_factory.hpp:77] Creating layer drop6
I0306 05:08:39.916327 56015 net.cpp:106] Creating Layer drop6
I0306 05:08:39.916349 56015 net.cpp:454] drop6 <- fc6
I0306 05:08:39.916373 56015 net.cpp:397] drop6 -> fc6 (in-place)
I0306 05:08:39.916421 56015 net.cpp:150] Setting up drop6
I0306 05:08:39.916451 56015 net.cpp:157] Top shape: 20 4096 (81920)
I0306 05:08:39.916472 56015 net.cpp:165] Memory required for data: 136220000
I0306 05:08:39.916493 56015 layer_factory.hpp:77] Creating layer fc7
I0306 05:08:39.916520 56015 net.cpp:106] Creating Layer fc7
I0306 05:08:39.916543 56015 net.cpp:454] fc7 <- fc6
I0306 05:08:39.916568 56015 net.cpp:411] fc7 -> fc7
I0306 05:08:40.551496 56015 net.cpp:150] Setting up fc7
I0306 05:08:40.551619 56015 net.cpp:157] Top shape: 20 4096 (81920)
I0306 05:08:40.551642 56015 net.cpp:165] Memory required for data: 136547680
I0306 05:08:40.551671 56015 layer_factory.hpp:77] Creating layer relu7
I0306 05:08:40.551702 56015 net.cpp:106] Creating Layer relu7
I0306 05:08:40.551725 56015 net.cpp:454] relu7 <- fc7
I0306 05:08:40.551758 56015 net.cpp:397] relu7 -> fc7 (in-place)
I0306 05:08:40.551791 56015 net.cpp:150] Setting up relu7
I0306 05:08:40.551820 56015 net.cpp:157] Top shape: 20 4096 (81920)
I0306 05:08:40.551843 56015 net.cpp:165] Memory required for data: 136875360
I0306 05:08:40.551864 56015 layer_factory.hpp:77] Creating layer drop7
I0306 05:08:40.551890 56015 net.cpp:106] Creating Layer drop7
I0306 05:08:40.551913 56015 net.cpp:454] drop7 <- fc7
I0306 05:08:40.551939 56015 net.cpp:397] drop7 -> fc7 (in-place)
I0306 05:08:40.551987 56015 net.cpp:150] Setting up drop7
I0306 05:08:40.552017 56015 net.cpp:157] Top shape: 20 4096 (81920)
I0306 05:08:40.552038 56015 net.cpp:165] Memory required for data: 137203040
I0306 05:08:40.552059 56015 layer_factory.hpp:77] Creating layer fc8_subset
I0306 05:08:40.552089 56015 net.cpp:106] Creating Layer fc8_subset
I0306 05:08:40.552114 56015 net.cpp:454] fc8_subset <- fc7
I0306 05:08:40.552137 56015 net.cpp:411] fc8_subset -> fc8_subset
I0306 05:08:40.555951 56015 net.cpp:150] Setting up fc8_subset
I0306 05:08:40.555986 56015 net.cpp:157] Top shape: 20 25 (500)
I0306 05:08:40.556008 56015 net.cpp:165] Memory required for data: 137205040
I0306 05:08:40.556033 56015 layer_factory.hpp:77] Creating layer fc8_subset_fc8_subset_0_split
I0306 05:08:40.556061 56015 net.cpp:106] Creating Layer fc8_subset_fc8_subset_0_split
I0306 05:08:40.556146 56015 net.cpp:454] fc8_subset_fc8_subset_0_split <- fc8_subset
I0306 05:08:40.556174 56015 net.cpp:411] fc8_subset_fc8_subset_0_split -> fc8_subset_fc8_subset_0_split_0
I0306 05:08:40.556200 56015 net.cpp:411] fc8_subset_fc8_subset_0_split -> fc8_subset_fc8_subset_0_split_1
I0306 05:08:40.556257 56015 net.cpp:150] Setting up fc8_subset_fc8_subset_0_split
I0306 05:08:40.556288 56015 net.cpp:157] Top shape: 20 25 (500)
I0306 05:08:40.556310 56015 net.cpp:157] Top shape: 20 25 (500)
I0306 05:08:40.556331 56015 net.cpp:165] Memory required for data: 137209040
I0306 05:08:40.556352 56015 layer_factory.hpp:77] Creating layer loss
I0306 05:08:40.556377 56015 net.cpp:106] Creating Layer loss
I0306 05:08:40.556399 56015 net.cpp:454] loss <- fc8_subset_fc8_subset_0_split_0
I0306 05:08:40.556422 56015 net.cpp:454] loss <- label_data_1_split_0
I0306 05:08:40.556447 56015 net.cpp:411] loss -> loss
…
