…
I0306 05:48:41.094926 32941 net.cpp:322] The NetState phase (0) differed from the phase (1) specified by a rule in layer accuracy
I0306 05:48:41.095134 32941 net.cpp:49] Initializing net from parameters: 
name: "FlickrStyleCaffeNet"
state {
  phase: TRAIN
}
layer {
  name: "data"
  type: "Data"
  top: "data"
  top: "label"
  include {
    phase: TRAIN
  }
  transform_param {
    mirror: true
    crop_size: 227
    mean_file: "/work/01932/dineshj/CS381V/caffe_install_scripts/caffe/data/ilsvrc12/imagenet_mean.binaryproto"
  }
  data_param {
    source: "/work/04018/wxie/maverick/visual_recognition/data/train-lmdb"
    batch_size: 128
    backend: LMDB
  }
}
layer {
  name: "conv1"
  type: "Convolution"
  bottom: "data"
  top: "conv1"
  param {
    lr_mult: 1
    decay_mult: 1
  }
  param {
    lr_mult: 2
    decay_mult: 0
  }
  convolution_param {
    num_output: 96
    kernel_size: 11
    stride: 4
    weight_filler {
      type: "gaussian"
      std: 0.01
    }
    bias_filler {
      type: "constant"
      value: 0
    }
  }
}
layer {
  name: "relu1"
  type: "ReLU"
  bottom: "conv1"
  top: "conv1"
}
layer {
  name: "pool1"
  type: "Pooling"
  bottom: "conv1"
  top: "pool1"
  pooling_param {
    pool: MAX
    kernel_size: 3
    stride: 2
  }
}
layer {
  name: "norm1"
  type: "LRN"
  bottom: "pool1"
  top: "norm1"
  lrn_param {
    local_size: 5
    alpha: 0.0001
    beta: 0.75
  }
}
layer {
  name: "conv2"
  type: "Convolution"
  bottom: "norm1"
  top: "conv2"
  param {
    lr_mult: 1
    decay_mult: 1
  }
  param {
    lr_mult: 2
    decay_mult: 0
  }
  convolution_param {
    num_output: 256
    pad: 2
    kernel_size: 5
    group: 2
    weight_filler {
      type: "gaussian"
      std: 0.01
    }
    bias_filler {
      type: "constant"
      value: 0.1
    }
  }
}
layer {
  name: "relu2"
  type: "ReLU"
  bottom: "conv2"
  top: "conv2"
}
layer {
  name: "pool2"
  type: "Pooling"
  bottom: "conv2"
  top: "pool2"
  pooling_param {
    pool: MAX
    kernel_size: 3
    stride: 2
  }
}
layer {
  name: "norm2"
  type: "LRN"
  bottom: "pool2"
  top: "norm2"
  lrn_param {
    local_size: 5
    alpha: 0.0001
    beta: 0.75
  }
}
layer {
  name: "conv3"
  type: "Convolution"
  bottom: "norm2"
  top: "conv3"
  param {
    lr_mult: 1
    decay_mult: 1
  }
  param {
    lr_mult: 2
    decay_mult: 0
  }
  convolution_param {
    num_output: 384
    pad: 1
    kernel_size: 3
    weight_filler {
      type: "gaussian"
      std: 0.01
    }
    bias_filler {
      type: "constant"
      value: 0
    }
  }
}
layer {
  name: "relu3"
  type: "ReLU"
  bottom: "conv3"
  top: "conv3"
}
layer {
  name: "conv4"
  type: "Convolution"
  bottom: "conv3"
  top: "conv4"
  param {
    lr_mult: 1
    decay_mult: 1
  }
  param {
    lr_mult: 2
    decay_mult: 0
  }
  convolution_param {
    num_output: 384
    pad: 1
    kernel_size: 3
    group: 2
    weight_filler {
      type: "gaussian"
      std: 0.01
    }
    bias_filler {
      type: "constant"
      value: 0.1
    }
  }
}
layer {
  name: "relu4"
  type: "ReLU"
  bottom: "conv4"
  top: "conv4"
}
layer {
  name: "conv5"
  type: "Convolution"
  bottom: "conv4"
  top: "conv5"
  param {
    lr_mult: 1
    decay_mult: 1
  }
  param {
    lr_mult: 2
    decay_mult: 0
  }
  convolution_param {
    num_output: 256
    pad: 1
    kernel_size: 3
    group: 2
    weight_filler {
      type: "gaussian"
      std: 0.01
    }
    bias_filler {
      type: "constant"
      value: 0.1
    }
  }
}
layer {
  name: "relu5"
  type: "ReLU"
  bottom: "conv5"
  top: "conv5"
}
layer {
  name: "pool5"
  type: "Pooling"
  bottom: "conv5"
  top: "pool5"
  pooling_param {
    pool: MAX
    kernel_size: 3
    stride: 2
  }
}
layer {
  name: "fc6"
  type: "InnerProduct"
  bottom: "pool5"
  top: "fc6"
  param {
    lr_mult: 1
    decay_mult: 1
  }
  param {
    lr_mult: 2
    decay_mult: 0
  }
  inner_product_param {
    num_output: 4096
    weight_filler {
      type: "gaussian"
      std: 0.005
    }
    bias_filler {
      type: "constant"
      value: 0.1
    }
  }
}
layer {
  name: "relu6"
  type: "ReLU"
  bottom: "fc6"
  top: "fc6"
}
layer {
  name: "drop6"
  type: "Dropout"
  bottom: "fc6"
  top: "fc6"
  dropout_param {
    dropout_ratio: 0.5
  }
}
layer {
  name: "fc7"
  type: "InnerProduct"
  bottom: "fc6"
  top: "fc7"
  param {
    lr_mult: 1
    decay_mult: 1
  }
  param {
    lr_mult: 2
    decay_mult: 0
  }
  inner_product_param {
    num_output: 4096
    weight_filler {
      type: "gaussian"
      std: 0.005
    }
    bias_filler {
      type: "constant"
      value: 0.1
    }
  }
}
layer {
  name: "relu7"
  type: "ReLU"
  bottom: "fc7"
  top: "fc7"
}
layer {
  name: "drop7"
  type: "Dropout"
  bottom: "fc7"
  top: "fc7"
  dropout_param {
    dropout_ratio: 0.5
  }
}
layer {
  name: "fc8_subset"
  type: "InnerProduct"
  bottom: "fc7"
  top: "fc8_subset"
  param {
    lr_mult: 10
    decay_mult: 1
  }
  param {
    lr_mult: 20
    decay_mult: 0
  }
  inner_product_param {
    num_output: 25
    weight_filler {
      type: "gaussian"
      std: 0.01
    }
    bias_filler {
      type: "constant"
      value: 0
    }
  }
}
layer {
  name: "loss"
  type: "SoftmaxWithLoss"
  bottom: "fc8_subset"
  bottom: "label"
  top: "loss"
}
I0306 05:48:41.095432 32941 layer_factory.hpp:77] Creating layer data
I0306 05:48:41.096211 32941 net.cpp:106] Creating Layer data
I0306 05:48:41.096271 32941 net.cpp:411] data -> data
I0306 05:48:41.096372 32941 net.cpp:411] data -> label
I0306 05:48:41.096451 32941 data_transformer.cpp:25] Loading mean file from: /work/01932/dineshj/CS381V/caffe_install_scripts/caffe/data/ilsvrc12/imagenet_mean.binaryproto
I0306 05:48:41.166606 32944 db_lmdb.cpp:38] Opened lmdb /work/04018/wxie/maverick/visual_recognition/data/train-lmdb
I0306 05:48:41.172277 32941 data_layer.cpp:41] output data size: 128,3,227,227
I0306 05:48:41.325232 32941 net.cpp:150] Setting up data
I0306 05:48:41.325340 32941 net.cpp:157] Top shape: 128 3 227 227 (19787136)
I0306 05:48:41.325378 32941 net.cpp:157] Top shape: 128 (128)
I0306 05:48:41.325408 32941 net.cpp:165] Memory required for data: 79149056
I0306 05:48:41.325451 32941 layer_factory.hpp:77] Creating layer conv1
I0306 05:48:41.325531 32941 net.cpp:106] Creating Layer conv1
I0306 05:48:41.325567 32941 net.cpp:454] conv1 <- data
I0306 05:48:41.325608 32941 net.cpp:411] conv1 -> conv1
I0306 05:48:41.335449 32941 net.cpp:150] Setting up conv1
I0306 05:48:41.335499 32941 net.cpp:157] Top shape: 128 96 55 55 (37171200)
I0306 05:48:41.335526 32941 net.cpp:165] Memory required for data: 227833856
I0306 05:48:41.335588 32941 layer_factory.hpp:77] Creating layer relu1
I0306 05:48:41.335620 32941 net.cpp:106] Creating Layer relu1
I0306 05:48:41.335645 32941 net.cpp:454] relu1 <- conv1
I0306 05:48:41.335669 32941 net.cpp:397] relu1 -> conv1 (in-place)
I0306 05:48:41.335700 32941 net.cpp:150] Setting up relu1
I0306 05:48:41.335736 32941 net.cpp:157] Top shape: 128 96 55 55 (37171200)
I0306 05:48:41.335765 32941 net.cpp:165] Memory required for data: 376518656
I0306 05:48:41.335791 32941 layer_factory.hpp:77] Creating layer pool1
I0306 05:48:41.335824 32941 net.cpp:106] Creating Layer pool1
I0306 05:48:41.335853 32941 net.cpp:454] pool1 <- conv1
I0306 05:48:41.335882 32941 net.cpp:411] pool1 -> pool1
I0306 05:48:41.336042 32941 net.cpp:150] Setting up pool1
I0306 05:48:41.336078 32941 net.cpp:157] Top shape: 128 96 27 27 (8957952)
I0306 05:48:41.336166 32941 net.cpp:165] Memory required for data: 412350464
I0306 05:48:41.336196 32941 layer_factory.hpp:77] Creating layer norm1
I0306 05:48:41.336231 32941 net.cpp:106] Creating Layer norm1
I0306 05:48:41.336261 32941 net.cpp:454] norm1 <- pool1
I0306 05:48:41.336290 32941 net.cpp:411] norm1 -> norm1
I0306 05:48:41.336395 32941 net.cpp:150] Setting up norm1
I0306 05:48:41.336431 32941 net.cpp:157] Top shape: 128 96 27 27 (8957952)
I0306 05:48:41.336457 32941 net.cpp:165] Memory required for data: 448182272
I0306 05:48:41.336479 32941 layer_factory.hpp:77] Creating layer conv2
I0306 05:48:41.336509 32941 net.cpp:106] Creating Layer conv2
I0306 05:48:41.336534 32941 net.cpp:454] conv2 <- norm1
I0306 05:48:41.336567 32941 net.cpp:411] conv2 -> conv2
I0306 05:48:41.349560 32941 net.cpp:150] Setting up conv2
I0306 05:48:41.349647 32941 net.cpp:157] Top shape: 128 256 27 27 (23887872)
I0306 05:48:41.349694 32941 net.cpp:165] Memory required for data: 543733760
I0306 05:48:41.349725 32941 layer_factory.hpp:77] Creating layer relu2
I0306 05:48:41.349761 32941 net.cpp:106] Creating Layer relu2
I0306 05:48:41.349786 32941 net.cpp:454] relu2 <- conv2
I0306 05:48:41.349812 32941 net.cpp:397] relu2 -> conv2 (in-place)
I0306 05:48:41.349841 32941 net.cpp:150] Setting up relu2
I0306 05:48:41.349869 32941 net.cpp:157] Top shape: 128 256 27 27 (23887872)
I0306 05:48:41.349891 32941 net.cpp:165] Memory required for data: 639285248
I0306 05:48:41.349933 32941 layer_factory.hpp:77] Creating layer pool2
I0306 05:48:41.349970 32941 net.cpp:106] Creating Layer pool2
I0306 05:48:41.350006 32941 net.cpp:454] pool2 <- conv2
I0306 05:48:41.350040 32941 net.cpp:411] pool2 -> pool2
I0306 05:48:41.350106 32941 net.cpp:150] Setting up pool2
I0306 05:48:41.350136 32941 net.cpp:157] Top shape: 128 256 13 13 (5537792)
I0306 05:48:41.350159 32941 net.cpp:165] Memory required for data: 661436416
I0306 05:48:41.350193 32941 layer_factory.hpp:77] Creating layer norm2
I0306 05:48:41.350224 32941 net.cpp:106] Creating Layer norm2
I0306 05:48:41.350261 32941 net.cpp:454] norm2 <- pool2
I0306 05:48:41.350287 32941 net.cpp:411] norm2 -> norm2
I0306 05:48:41.350344 32941 net.cpp:150] Setting up norm2
I0306 05:48:41.350376 32941 net.cpp:157] Top shape: 128 256 13 13 (5537792)
I0306 05:48:41.350400 32941 net.cpp:165] Memory required for data: 683587584
I0306 05:48:41.350425 32941 layer_factory.hpp:77] Creating layer conv3
I0306 05:48:41.350456 32941 net.cpp:106] Creating Layer conv3
I0306 05:48:41.350502 32941 net.cpp:454] conv3 <- norm2
I0306 05:48:41.350533 32941 net.cpp:411] conv3 -> conv3
I0306 05:48:41.385949 32941 net.cpp:150] Setting up conv3
I0306 05:48:41.386067 32941 net.cpp:157] Top shape: 128 384 13 13 (8306688)
I0306 05:48:41.386112 32941 net.cpp:165] Memory required for data: 716814336
I0306 05:48:41.386152 32941 layer_factory.hpp:77] Creating layer relu3
I0306 05:48:41.386204 32941 net.cpp:106] Creating Layer relu3
I0306 05:48:41.386235 32941 net.cpp:454] relu3 <- conv3
I0306 05:48:41.386288 32941 net.cpp:397] relu3 -> conv3 (in-place)
I0306 05:48:41.386327 32941 net.cpp:150] Setting up relu3
I0306 05:48:41.386368 32941 net.cpp:157] Top shape: 128 384 13 13 (8306688)
I0306 05:48:41.386394 32941 net.cpp:165] Memory required for data: 750041088
I0306 05:48:41.386420 32941 layer_factory.hpp:77] Creating layer conv4
I0306 05:48:41.386458 32941 net.cpp:106] Creating Layer conv4
I0306 05:48:41.386490 32941 net.cpp:454] conv4 <- conv3
I0306 05:48:41.386520 32941 net.cpp:411] conv4 -> conv4
I0306 05:48:41.418381 32941 net.cpp:150] Setting up conv4
I0306 05:48:41.418478 32941 net.cpp:157] Top shape: 128 384 13 13 (8306688)
I0306 05:48:41.418508 32941 net.cpp:165] Memory required for data: 783267840
I0306 05:48:41.418541 32941 layer_factory.hpp:77] Creating layer relu4
I0306 05:48:41.418573 32941 net.cpp:106] Creating Layer relu4
I0306 05:48:41.418602 32941 net.cpp:454] relu4 <- conv4
I0306 05:48:41.418637 32941 net.cpp:397] relu4 -> conv4 (in-place)
I0306 05:48:41.418673 32941 net.cpp:150] Setting up relu4
I0306 05:48:41.418727 32941 net.cpp:157] Top shape: 128 384 13 13 (8306688)
I0306 05:48:41.418797 32941 net.cpp:165] Memory required for data: 816494592
I0306 05:48:41.418833 32941 layer_factory.hpp:77] Creating layer conv5
I0306 05:48:41.418867 32941 net.cpp:106] Creating Layer conv5
I0306 05:48:41.418894 32941 net.cpp:454] conv5 <- conv4
I0306 05:48:41.418920 32941 net.cpp:411] conv5 -> conv5
I0306 05:48:41.436898 32941 net.cpp:150] Setting up conv5
I0306 05:48:41.436988 32941 net.cpp:157] Top shape: 128 256 13 13 (5537792)
I0306 05:48:41.437026 32941 net.cpp:165] Memory required for data: 838645760
I0306 05:48:41.437058 32941 layer_factory.hpp:77] Creating layer relu5
I0306 05:48:41.437098 32941 net.cpp:106] Creating Layer relu5
I0306 05:48:41.437122 32941 net.cpp:454] relu5 <- conv5
I0306 05:48:41.437150 32941 net.cpp:397] relu5 -> conv5 (in-place)
I0306 05:48:41.437182 32941 net.cpp:150] Setting up relu5
I0306 05:48:41.437209 32941 net.cpp:157] Top shape: 128 256 13 13 (5537792)
I0306 05:48:41.437232 32941 net.cpp:165] Memory required for data: 860796928
I0306 05:48:41.437254 32941 layer_factory.hpp:77] Creating layer pool5
I0306 05:48:41.437281 32941 net.cpp:106] Creating Layer pool5
I0306 05:48:41.437305 32941 net.cpp:454] pool5 <- conv5
I0306 05:48:41.437345 32941 net.cpp:411] pool5 -> pool5
I0306 05:48:41.437422 32941 net.cpp:150] Setting up pool5
I0306 05:48:41.437464 32941 net.cpp:157] Top shape: 128 256 6 6 (1179648)
I0306 05:48:41.437489 32941 net.cpp:165] Memory required for data: 865515520
I0306 05:48:41.437513 32941 layer_factory.hpp:77] Creating layer fc6
I0306 05:48:41.437600 32941 net.cpp:106] Creating Layer fc6
I0306 05:48:41.437628 32941 net.cpp:454] fc6 <- pool5
I0306 05:48:41.437672 32941 net.cpp:411] fc6 -> fc6
I0306 05:48:41.491289 32945 blocking_queue.cpp:50] Waiting for data
I0306 05:48:42.866070 32941 net.cpp:150] Setting up fc6
I0306 05:48:42.866200 32941 net.cpp:157] Top shape: 128 4096 (524288)
I0306 05:48:42.866225 32941 net.cpp:165] Memory required for data: 867612672
I0306 05:48:42.866255 32941 layer_factory.hpp:77] Creating layer relu6
I0306 05:48:42.866286 32941 net.cpp:106] Creating Layer relu6
I0306 05:48:42.866312 32941 net.cpp:454] relu6 <- fc6
I0306 05:48:42.866338 32941 net.cpp:397] relu6 -> fc6 (in-place)
I0306 05:48:42.866369 32941 net.cpp:150] Setting up relu6
I0306 05:48:42.866394 32941 net.cpp:157] Top shape: 128 4096 (524288)
I0306 05:48:42.866415 32941 net.cpp:165] Memory required for data: 869709824
I0306 05:48:42.866436 32941 layer_factory.hpp:77] Creating layer drop6
I0306 05:48:42.866462 32941 net.cpp:106] Creating Layer drop6
I0306 05:48:42.866484 32941 net.cpp:454] drop6 <- fc6
I0306 05:48:42.866508 32941 net.cpp:397] drop6 -> fc6 (in-place)
I0306 05:48:42.866590 32941 net.cpp:150] Setting up drop6
I0306 05:48:42.866619 32941 net.cpp:157] Top shape: 128 4096 (524288)
I0306 05:48:42.866641 32941 net.cpp:165] Memory required for data: 871806976
I0306 05:48:42.866663 32941 layer_factory.hpp:77] Creating layer fc7
I0306 05:48:42.866691 32941 net.cpp:106] Creating Layer fc7
I0306 05:48:42.866715 32941 net.cpp:454] fc7 <- fc6
I0306 05:48:42.866745 32941 net.cpp:411] fc7 -> fc7
I0306 05:48:43.480746 32941 net.cpp:150] Setting up fc7
I0306 05:48:43.480868 32941 net.cpp:157] Top shape: 128 4096 (524288)
I0306 05:48:43.480892 32941 net.cpp:165] Memory required for data: 873904128
I0306 05:48:43.480921 32941 layer_factory.hpp:77] Creating layer relu7
I0306 05:48:43.480952 32941 net.cpp:106] Creating Layer relu7
I0306 05:48:43.480975 32941 net.cpp:454] relu7 <- fc7
I0306 05:48:43.481004 32941 net.cpp:397] relu7 -> fc7 (in-place)
I0306 05:48:43.481037 32941 net.cpp:150] Setting up relu7
I0306 05:48:43.481062 32941 net.cpp:157] Top shape: 128 4096 (524288)
I0306 05:48:43.481083 32941 net.cpp:165] Memory required for data: 876001280
I0306 05:48:43.481104 32941 layer_factory.hpp:77] Creating layer drop7
I0306 05:48:43.481130 32941 net.cpp:106] Creating Layer drop7
I0306 05:48:43.481153 32941 net.cpp:454] drop7 <- fc7
I0306 05:48:43.481179 32941 net.cpp:397] drop7 -> fc7 (in-place)
I0306 05:48:43.481247 32941 net.cpp:150] Setting up drop7
I0306 05:48:43.481312 32941 net.cpp:157] Top shape: 128 4096 (524288)
I0306 05:48:43.481334 32941 net.cpp:165] Memory required for data: 878098432
I0306 05:48:43.481355 32941 layer_factory.hpp:77] Creating layer fc8_subset
I0306 05:48:43.481382 32941 net.cpp:106] Creating Layer fc8_subset
I0306 05:48:43.481405 32941 net.cpp:454] fc8_subset <- fc7
I0306 05:48:43.481431 32941 net.cpp:411] fc8_subset -> fc8_subset
I0306 05:48:43.485748 32941 net.cpp:150] Setting up fc8_subset
I0306 05:48:43.485787 32941 net.cpp:157] Top shape: 128 25 (3200)
I0306 05:48:43.485811 32941 net.cpp:165] Memory required for data: 878111232
I0306 05:48:43.485836 32941 layer_factory.hpp:77] Creating layer loss
I0306 05:48:43.485862 32941 net.cpp:106] Creating Layer loss
I0306 05:48:43.485884 32941 net.cpp:454] loss <- fc8_subset
I0306 05:48:43.485908 32941 net.cpp:454] loss <- label
I0306 05:48:43.485935 32941 net.cpp:411] loss -> loss
I0306 05:48:43.485996 32941 layer_factory.hpp:77] Creating layer loss
…
I0306 05:48:43.488625 32941 net.cpp:322] The NetState phase (1) differed from the phase (0) specified by a rule in layer data
I0306 05:48:43.488864 32941 net.cpp:49] Initializing net from parameters: 
name: "FlickrStyleCaffeNet"
state {
  phase: TEST
}
layer {
  name: "data"
  type: "Data"
  top: "data"
  top: "label"
  include {
    phase: TEST
  }
  transform_param {
    mirror: false
    crop_size: 227
    mean_file: "/work/01932/dineshj/CS381V/caffe_install_scripts/caffe/data/ilsvrc12/imagenet_mean.binaryproto"
  }
  data_param {
    source: "/work/04018/wxie/maverick/visual_recognition/data/test-lmdb"
    batch_size: 20
    backend: LMDB
  }
}
layer {
  name: "conv1"
  type: "Convolution"
  bottom: "data"
  top: "conv1"
  param {
    lr_mult: 1
    decay_mult: 1
  }
  param {
    lr_mult: 2
    decay_mult: 0
  }
  convolution_param {
    num_output: 96
    kernel_size: 11
    stride: 4
    weight_filler {
      type: "gaussian"
      std: 0.01
    }
    bias_filler {
      type: "constant"
      value: 0
    }
  }
}
layer {
  name: "relu1"
  type: "ReLU"
  bottom: "conv1"
  top: "conv1"
}
layer {
  name: "pool1"
  type: "Pooling"
  bottom: "conv1"
  top: "pool1"
  pooling_param {
    pool: MAX
    kernel_size: 3
    stride: 2
  }
}
layer {
  name: "norm1"
  type: "LRN"
  bottom: "pool1"
  top: "norm1"
  lrn_param {
    local_size: 5
    alpha: 0.0001
    beta: 0.75
  }
}
layer {
  name: "conv2"
  type: "Convolution"
  bottom: "norm1"
  top: "conv2"
  param {
    lr_mult: 1
    decay_mult: 1
  }
  param {
    lr_mult: 2
    decay_mult: 0
  }
  convolution_param {
    num_output: 256
    pad: 2
    kernel_size: 5
    group: 2
    weight_filler {
      type: "gaussian"
      std: 0.01
    }
    bias_filler {
      type: "constant"
      value: 0.1
    }
  }
}
layer {
  name: "relu2"
  type: "ReLU"
  bottom: "conv2"
  top: "conv2"
}
layer {
  name: "pool2"
  type: "Pooling"
  bottom: "conv2"
  top: "pool2"
  pooling_param {
    pool: MAX
    kernel_size: 3
    stride: 2
  }
}
layer {
  name: "norm2"
  type: "LRN"
  bottom: "pool2"
  top: "norm2"
  lrn_param {
    local_size: 5
    alpha: 0.0001
    beta: 0.75
  }
}
layer {
  name: "conv3"
  type: "Convolution"
  bottom: "norm2"
  top: "conv3"
  param {
    lr_mult: 1
    decay_mult: 1
  }
  param {
    lr_mult: 2
    decay_mult: 0
  }
  convolution_param {
    num_output: 384
    pad: 1
    kernel_size: 3
    weight_filler {
      type: "gaussian"
      std: 0.01
    }
    bias_filler {
      type: "constant"
      value: 0
    }
  }
}
layer {
  name: "relu3"
  type: "ReLU"
  bottom: "conv3"
  top: "conv3"
}
layer {
  name: "conv4"
  type: "Convolution"
  bottom: "conv3"
  top: "conv4"
  param {
    lr_mult: 1
    decay_mult: 1
  }
  param {
    lr_mult: 2
    decay_mult: 0
  }
  convolution_param {
    num_output: 384
    pad: 1
    kernel_size: 3
    group: 2
    weight_filler {
      type: "gaussian"
      std: 0.01
    }
    bias_filler {
      type: "constant"
      value: 0.1
    }
  }
}
layer {
  name: "relu4"
  type: "ReLU"
  bottom: "conv4"
  top: "conv4"
}
layer {
  name: "conv5"
  type: "Convolution"
  bottom: "conv4"
  top: "conv5"
  param {
    lr_mult: 1
    decay_mult: 1
  }
  param {
    lr_mult: 2
    decay_mult: 0
  }
  convolution_param {
    num_output: 256
    pad: 1
    kernel_size: 3
    group: 2
    weight_filler {
      type: "gaussian"
      std: 0.01
    }
    bias_filler {
      type: "constant"
      value: 0.1
    }
  }
}
layer {
  name: "relu5"
  type: "ReLU"
  bottom: "conv5"
  top: "conv5"
}
layer {
  name: "pool5"
  type: "Pooling"
  bottom: "conv5"
  top: "pool5"
  pooling_param {
    pool: MAX
    kernel_size: 3
    stride: 2
  }
}
layer {
  name: "fc6"
  type: "InnerProduct"
  bottom: "pool5"
  top: "fc6"
  param {
    lr_mult: 1
    decay_mult: 1
  }
  param {
    lr_mult: 2
    decay_mult: 0
  }
  inner_product_param {
    num_output: 4096
    weight_filler {
      type: "gaussian"
      std: 0.005
    }
    bias_filler {
      type: "constant"
      value: 0.1
    }
  }
}
layer {
  name: "relu6"
  type: "ReLU"
  bottom: "fc6"
  top: "fc6"
}
layer {
  name: "drop6"
  type: "Dropout"
  bottom: "fc6"
  top: "fc6"
  dropout_param {
    dropout_ratio: 0.5
  }
}
layer {
  name: "fc7"
  type: "InnerProduct"
  bottom: "fc6"
  top: "fc7"
  param {
    lr_mult: 1
    decay_mult: 1
  }
  param {
    lr_mult: 2
    decay_mult: 0
  }
  inner_product_param {
    num_output: 4096
    weight_filler {
      type: "gaussian"
      std: 0.005
    }
    bias_filler {
      type: "constant"
      value: 0.1
    }
  }
}
layer {
  name: "relu7"
  type: "ReLU"
  bottom: "fc7"
  top: "fc7"
}
layer {
  name: "drop7"
  type: "Dropout"
  bottom: "fc7"
  top: "fc7"
  dropout_param {
    dropout_ratio: 0.5
  }
}
layer {
  name: "fc8_subset"
  type: "InnerProduct"
  bottom: "fc7"
  top: "fc8_subset"
  param {
    lr_mult: 10
    decay_mult: 1
  }
  param {
    lr_mult: 20
    decay_mult: 0
  }
  inner_product_param {
    num_output: 25
    weight_filler {
      type: "gaussian"
      std: 0.01
    }
    bias_filler {
      type: "constant"
      value: 0
    }
  }
}
layer {
  name: "loss"
  type: "SoftmaxWithLoss"
  bottom: "fc8_subset"
  bottom: "label"
  top: "loss"
}
layer {
  name: "accuracy"
  type: "Accuracy"
  bottom: "fc8_subset"
  bottom: "label"
  top: "accuracy"
  include {
    phase: TEST
  }
}
I0306 05:48:43.489029 32941 layer_factory.hpp:77] Creating layer data
I0306 05:48:43.489174 32941 net.cpp:106] Creating Layer data
I0306 05:48:43.489207 32941 net.cpp:411] data -> data
I0306 05:48:43.489249 32941 net.cpp:411] data -> label
I0306 05:48:43.489281 32941 data_transformer.cpp:25] Loading mean file from: /work/01932/dineshj/CS381V/caffe_install_scripts/caffe/data/ilsvrc12/imagenet_mean.binaryproto
I0306 05:48:43.561411 32946 db_lmdb.cpp:38] Opened lmdb /work/04018/wxie/maverick/visual_recognition/data/test-lmdb
I0306 05:48:43.563427 32941 data_layer.cpp:41] output data size: 20,3,227,227
I0306 05:48:43.586364 32941 net.cpp:150] Setting up data
I0306 05:48:43.586452 32941 net.cpp:157] Top shape: 20 3 227 227 (3091740)
I0306 05:48:43.586503 32941 net.cpp:157] Top shape: 20 (20)
I0306 05:48:43.586534 32941 net.cpp:165] Memory required for data: 12367040
I0306 05:48:43.586565 32941 layer_factory.hpp:77] Creating layer label_data_1_split
I0306 05:48:43.586598 32941 net.cpp:106] Creating Layer label_data_1_split
I0306 05:48:43.586627 32941 net.cpp:454] label_data_1_split <- label
I0306 05:48:43.586652 32941 net.cpp:411] label_data_1_split -> label_data_1_split_0
I0306 05:48:43.586683 32941 net.cpp:411] label_data_1_split -> label_data_1_split_1
I0306 05:48:43.586778 32941 net.cpp:150] Setting up label_data_1_split
I0306 05:48:43.586814 32941 net.cpp:157] Top shape: 20 (20)
I0306 05:48:43.586843 32941 net.cpp:157] Top shape: 20 (20)
I0306 05:48:43.586869 32941 net.cpp:165] Memory required for data: 12367200
I0306 05:48:43.586894 32941 layer_factory.hpp:77] Creating layer conv1
I0306 05:48:43.586926 32941 net.cpp:106] Creating Layer conv1
I0306 05:48:43.586956 32941 net.cpp:454] conv1 <- data
I0306 05:48:43.586985 32941 net.cpp:411] conv1 -> conv1
I0306 05:48:43.588563 32941 net.cpp:150] Setting up conv1
I0306 05:48:43.588610 32941 net.cpp:157] Top shape: 20 96 55 55 (5808000)
I0306 05:48:43.588639 32941 net.cpp:165] Memory required for data: 35599200
I0306 05:48:43.588672 32941 layer_factory.hpp:77] Creating layer relu1
I0306 05:48:43.588703 32941 net.cpp:106] Creating Layer relu1
I0306 05:48:43.588735 32941 net.cpp:454] relu1 <- conv1
I0306 05:48:43.588767 32941 net.cpp:397] relu1 -> conv1 (in-place)
I0306 05:48:43.588798 32941 net.cpp:150] Setting up relu1
I0306 05:48:43.588829 32941 net.cpp:157] Top shape: 20 96 55 55 (5808000)
I0306 05:48:43.588855 32941 net.cpp:165] Memory required for data: 58831200
I0306 05:48:43.588881 32941 layer_factory.hpp:77] Creating layer pool1
I0306 05:48:43.588912 32941 net.cpp:106] Creating Layer pool1
I0306 05:48:43.588937 32941 net.cpp:454] pool1 <- conv1
I0306 05:48:43.588963 32941 net.cpp:411] pool1 -> pool1
I0306 05:48:43.589017 32941 net.cpp:150] Setting up pool1
I0306 05:48:43.589053 32941 net.cpp:157] Top shape: 20 96 27 27 (1399680)
I0306 05:48:43.589081 32941 net.cpp:165] Memory required for data: 64429920
I0306 05:48:43.589107 32941 layer_factory.hpp:77] Creating layer norm1
I0306 05:48:43.589138 32941 net.cpp:106] Creating Layer norm1
I0306 05:48:43.589164 32941 net.cpp:454] norm1 <- pool1
I0306 05:48:43.589193 32941 net.cpp:411] norm1 -> norm1
I0306 05:48:43.589249 32941 net.cpp:150] Setting up norm1
I0306 05:48:43.589283 32941 net.cpp:157] Top shape: 20 96 27 27 (1399680)
I0306 05:48:43.589310 32941 net.cpp:165] Memory required for data: 70028640
I0306 05:48:43.589337 32941 layer_factory.hpp:77] Creating layer conv2
I0306 05:48:43.589370 32941 net.cpp:106] Creating Layer conv2
I0306 05:48:43.589417 32941 net.cpp:454] conv2 <- norm1
I0306 05:48:43.589473 32941 net.cpp:411] conv2 -> conv2
I0306 05:48:43.602264 32941 net.cpp:150] Setting up conv2
I0306 05:48:43.602310 32941 net.cpp:157] Top shape: 20 256 27 27 (3732480)
I0306 05:48:43.602334 32941 net.cpp:165] Memory required for data: 84958560
I0306 05:48:43.602365 32941 layer_factory.hpp:77] Creating layer relu2
I0306 05:48:43.602391 32941 net.cpp:106] Creating Layer relu2
I0306 05:48:43.602416 32941 net.cpp:454] relu2 <- conv2
I0306 05:48:43.602440 32941 net.cpp:397] relu2 -> conv2 (in-place)
I0306 05:48:43.602468 32941 net.cpp:150] Setting up relu2
I0306 05:48:43.602507 32941 net.cpp:157] Top shape: 20 256 27 27 (3732480)
I0306 05:48:43.602530 32941 net.cpp:165] Memory required for data: 99888480
I0306 05:48:43.602566 32941 layer_factory.hpp:77] Creating layer pool2
I0306 05:48:43.602596 32941 net.cpp:106] Creating Layer pool2
I0306 05:48:43.602623 32941 net.cpp:454] pool2 <- conv2
I0306 05:48:43.602651 32941 net.cpp:411] pool2 -> pool2
I0306 05:48:43.602715 32941 net.cpp:150] Setting up pool2
I0306 05:48:43.602777 32941 net.cpp:157] Top shape: 20 256 13 13 (865280)
I0306 05:48:43.602815 32941 net.cpp:165] Memory required for data: 103349600
I0306 05:48:43.602845 32941 layer_factory.hpp:77] Creating layer norm2
I0306 05:48:43.602891 32941 net.cpp:106] Creating Layer norm2
I0306 05:48:43.602923 32941 net.cpp:454] norm2 <- pool2
I0306 05:48:43.602957 32941 net.cpp:411] norm2 -> norm2
I0306 05:48:43.603034 32941 net.cpp:150] Setting up norm2
I0306 05:48:43.603082 32941 net.cpp:157] Top shape: 20 256 13 13 (865280)
I0306 05:48:43.603111 32941 net.cpp:165] Memory required for data: 106810720
I0306 05:48:43.603138 32941 layer_factory.hpp:77] Creating layer conv3
I0306 05:48:43.603185 32941 net.cpp:106] Creating Layer conv3
I0306 05:48:43.603215 32941 net.cpp:454] conv3 <- norm2
I0306 05:48:43.603248 32941 net.cpp:411] conv3 -> conv3
I0306 05:48:43.638154 32941 net.cpp:150] Setting up conv3
I0306 05:48:43.638273 32941 net.cpp:157] Top shape: 20 384 13 13 (1297920)
I0306 05:48:43.638311 32941 net.cpp:165] Memory required for data: 112002400
I0306 05:48:43.638351 32941 layer_factory.hpp:77] Creating layer relu3
I0306 05:48:43.638386 32941 net.cpp:106] Creating Layer relu3
I0306 05:48:43.638428 32941 net.cpp:454] relu3 <- conv3
I0306 05:48:43.638458 32941 net.cpp:397] relu3 -> conv3 (in-place)
I0306 05:48:43.638490 32941 net.cpp:150] Setting up relu3
I0306 05:48:43.638520 32941 net.cpp:157] Top shape: 20 384 13 13 (1297920)
I0306 05:48:43.638547 32941 net.cpp:165] Memory required for data: 117194080
I0306 05:48:43.638574 32941 layer_factory.hpp:77] Creating layer conv4
I0306 05:48:43.638620 32941 net.cpp:106] Creating Layer conv4
I0306 05:48:43.638649 32941 net.cpp:454] conv4 <- conv3
I0306 05:48:43.638684 32941 net.cpp:411] conv4 -> conv4
I0306 05:48:43.665148 32941 net.cpp:150] Setting up conv4
I0306 05:48:43.665208 32941 net.cpp:157] Top shape: 20 384 13 13 (1297920)
I0306 05:48:43.665238 32941 net.cpp:165] Memory required for data: 122385760
I0306 05:48:43.665266 32941 layer_factory.hpp:77] Creating layer relu4
I0306 05:48:43.665305 32941 net.cpp:106] Creating Layer relu4
I0306 05:48:43.665331 32941 net.cpp:454] relu4 <- conv4
I0306 05:48:43.665357 32941 net.cpp:397] relu4 -> conv4 (in-place)
I0306 05:48:43.665392 32941 net.cpp:150] Setting up relu4
I0306 05:48:43.665419 32941 net.cpp:157] Top shape: 20 384 13 13 (1297920)
I0306 05:48:43.665442 32941 net.cpp:165] Memory required for data: 127577440
I0306 05:48:43.665477 32941 layer_factory.hpp:77] Creating layer conv5
I0306 05:48:43.665509 32941 net.cpp:106] Creating Layer conv5
I0306 05:48:43.665554 32941 net.cpp:454] conv5 <- conv4
I0306 05:48:43.665581 32941 net.cpp:411] conv5 -> conv5
I0306 05:48:43.682910 32941 net.cpp:150] Setting up conv5
I0306 05:48:43.682953 32941 net.cpp:157] Top shape: 20 256 13 13 (865280)
I0306 05:48:43.682979 32941 net.cpp:165] Memory required for data: 131038560
I0306 05:48:43.683012 32941 layer_factory.hpp:77] Creating layer relu5
I0306 05:48:43.683045 32941 net.cpp:106] Creating Layer relu5
I0306 05:48:43.683094 32941 net.cpp:454] relu5 <- conv5
I0306 05:48:43.683156 32941 net.cpp:397] relu5 -> conv5 (in-place)
I0306 05:48:43.683189 32941 net.cpp:150] Setting up relu5
I0306 05:48:43.683219 32941 net.cpp:157] Top shape: 20 256 13 13 (865280)
I0306 05:48:43.683245 32941 net.cpp:165] Memory required for data: 134499680
I0306 05:48:43.683271 32941 layer_factory.hpp:77] Creating layer pool5
I0306 05:48:43.683305 32941 net.cpp:106] Creating Layer pool5
I0306 05:48:43.683333 32941 net.cpp:454] pool5 <- conv5
I0306 05:48:43.683363 32941 net.cpp:411] pool5 -> pool5
I0306 05:48:43.683424 32941 net.cpp:150] Setting up pool5
I0306 05:48:43.683460 32941 net.cpp:157] Top shape: 20 256 6 6 (184320)
I0306 05:48:43.683487 32941 net.cpp:165] Memory required for data: 135236960
I0306 05:48:43.683512 32941 layer_factory.hpp:77] Creating layer fc6
I0306 05:48:43.683542 32941 net.cpp:106] Creating Layer fc6
I0306 05:48:43.683569 32941 net.cpp:454] fc6 <- pool5
I0306 05:48:43.683600 32941 net.cpp:411] fc6 -> fc6
I0306 05:48:45.063357 32941 net.cpp:150] Setting up fc6
I0306 05:48:45.063485 32941 net.cpp:157] Top shape: 20 4096 (81920)
I0306 05:48:45.063509 32941 net.cpp:165] Memory required for data: 135564640
I0306 05:48:45.063539 32941 layer_factory.hpp:77] Creating layer relu6
I0306 05:48:45.063567 32941 net.cpp:106] Creating Layer relu6
I0306 05:48:45.063591 32941 net.cpp:454] relu6 <- fc6
I0306 05:48:45.063621 32941 net.cpp:397] relu6 -> fc6 (in-place)
I0306 05:48:45.063653 32941 net.cpp:150] Setting up relu6
I0306 05:48:45.063678 32941 net.cpp:157] Top shape: 20 4096 (81920)
I0306 05:48:45.063699 32941 net.cpp:165] Memory required for data: 135892320
I0306 05:48:45.063721 32941 layer_factory.hpp:77] Creating layer drop6
I0306 05:48:45.063751 32941 net.cpp:106] Creating Layer drop6
I0306 05:48:45.063776 32941 net.cpp:454] drop6 <- fc6
I0306 05:48:45.063799 32941 net.cpp:397] drop6 -> fc6 (in-place)
I0306 05:48:45.063848 32941 net.cpp:150] Setting up drop6
I0306 05:48:45.063877 32941 net.cpp:157] Top shape: 20 4096 (81920)
I0306 05:48:45.063899 32941 net.cpp:165] Memory required for data: 136220000
I0306 05:48:45.063921 32941 layer_factory.hpp:77] Creating layer fc7
I0306 05:48:45.063948 32941 net.cpp:106] Creating Layer fc7
I0306 05:48:45.063971 32941 net.cpp:454] fc7 <- fc6
I0306 05:48:45.063995 32941 net.cpp:411] fc7 -> fc7
I0306 05:48:45.676882 32941 net.cpp:150] Setting up fc7
I0306 05:48:45.677001 32941 net.cpp:157] Top shape: 20 4096 (81920)
I0306 05:48:45.677024 32941 net.cpp:165] Memory required for data: 136547680
I0306 05:48:45.677053 32941 layer_factory.hpp:77] Creating layer relu7
I0306 05:48:45.677083 32941 net.cpp:106] Creating Layer relu7
I0306 05:48:45.677108 32941 net.cpp:454] relu7 <- fc7
I0306 05:48:45.677135 32941 net.cpp:397] relu7 -> fc7 (in-place)
I0306 05:48:45.677170 32941 net.cpp:150] Setting up relu7
I0306 05:48:45.677194 32941 net.cpp:157] Top shape: 20 4096 (81920)
I0306 05:48:45.677216 32941 net.cpp:165] Memory required for data: 136875360
I0306 05:48:45.677237 32941 layer_factory.hpp:77] Creating layer drop7
I0306 05:48:45.677263 32941 net.cpp:106] Creating Layer drop7
I0306 05:48:45.677284 32941 net.cpp:454] drop7 <- fc7
I0306 05:48:45.677311 32941 net.cpp:397] drop7 -> fc7 (in-place)
I0306 05:48:45.677359 32941 net.cpp:150] Setting up drop7
I0306 05:48:45.677388 32941 net.cpp:157] Top shape: 20 4096 (81920)
I0306 05:48:45.677409 32941 net.cpp:165] Memory required for data: 137203040
I0306 05:48:45.677430 32941 layer_factory.hpp:77] Creating layer fc8_subset
I0306 05:48:45.677460 32941 net.cpp:106] Creating Layer fc8_subset
I0306 05:48:45.677484 32941 net.cpp:454] fc8_subset <- fc7
I0306 05:48:45.677511 32941 net.cpp:411] fc8_subset -> fc8_subset
I0306 05:48:45.681196 32941 net.cpp:150] Setting up fc8_subset
I0306 05:48:45.681233 32941 net.cpp:157] Top shape: 20 25 (500)
I0306 05:48:45.681257 32941 net.cpp:165] Memory required for data: 137205040
I0306 05:48:45.681282 32941 layer_factory.hpp:77] Creating layer fc8_subset_fc8_subset_0_split
I0306 05:48:45.681308 32941 net.cpp:106] Creating Layer fc8_subset_fc8_subset_0_split
I0306 05:48:45.681390 32941 net.cpp:454] fc8_subset_fc8_subset_0_split <- fc8_subset
I0306 05:48:45.681416 32941 net.cpp:411] fc8_subset_fc8_subset_0_split -> fc8_subset_fc8_subset_0_split_0
I0306 05:48:45.681442 32941 net.cpp:411] fc8_subset_fc8_subset_0_split -> fc8_subset_fc8_subset_0_split_1
I0306 05:48:45.681498 32941 net.cpp:150] Setting up fc8_subset_fc8_subset_0_split
I0306 05:48:45.681527 32941 net.cpp:157] Top shape: 20 25 (500)
I0306 05:48:45.681550 32941 net.cpp:157] Top shape: 20 25 (500)
I0306 05:48:45.681571 32941 net.cpp:165] Memory required for data: 137209040
I0306 05:48:45.681592 32941 layer_factory.hpp:77] Creating layer loss
I0306 05:48:45.681617 32941 net.cpp:106] Creating Layer loss
I0306 05:48:45.681638 32941 net.cpp:454] loss <- fc8_subset_fc8_subset_0_split_0
I0306 05:48:45.681660 32941 net.cpp:454] loss <- label_data_1_split_0
I0306 05:48:45.681687 32941 net.cpp:411] loss -> loss
…
