…
I0309 00:00:41.177924 64359 net.cpp:322] The NetState phase (0) differed from the phase (1) specified by a rule in layer accuracy
I0309 00:00:41.178133 64359 net.cpp:49] Initializing net from parameters: 
name: "FlickrStyleCaffeNet"
state {
  phase: TRAIN
}
layer {
  name: "data"
  type: "Data"
  top: "data"
  top: "label"
  include {
    phase: TRAIN
  }
  transform_param {
    mirror: true
    crop_size: 227
    mean_file: "/work/01932/dineshj/CS381V/caffe_install_scripts/caffe/data/ilsvrc12/imagenet_mean.binaryproto"
  }
  data_param {
    source: "/work/04018/wxie/maverick/visual_recognition/data/train-lmdb"
    batch_size: 128
    backend: LMDB
  }
}
layer {
  name: "conv1"
  type: "Convolution"
  bottom: "data"
  top: "conv1"
  param {
    lr_mult: 0
    decay_mult: 0
  }
  param {
    lr_mult: 0
    decay_mult: 0
  }
  convolution_param {
    num_output: 96
    kernel_size: 11
    stride: 4
    weight_filler {
      type: "gaussian"
      std: 0.01
    }
    bias_filler {
      type: "constant"
      value: 0
    }
  }
}
layer {
  name: "relu1"
  type: "ReLU"
  bottom: "conv1"
  top: "conv1"
}
layer {
  name: "pool1"
  type: "Pooling"
  bottom: "conv1"
  top: "pool1"
  pooling_param {
    pool: MAX
    kernel_size: 3
    stride: 2
  }
}
layer {
  name: "norm1"
  type: "LRN"
  bottom: "pool1"
  top: "norm1"
  lrn_param {
    local_size: 5
    alpha: 0.0001
    beta: 0.75
  }
}
layer {
  name: "conv2"
  type: "Convolution"
  bottom: "norm1"
  top: "conv2"
  param {
    lr_mult: 0
    decay_mult: 0
  }
  param {
    lr_mult: 0
    decay_mult: 0
  }
  convolution_param {
    num_output: 256
    pad: 2
    kernel_size: 5
    group: 2
    weight_filler {
      type: "gaussian"
      std: 0.01
    }
    bias_filler {
      type: "constant"
      value: 0.1
    }
  }
}
layer {
  name: "relu2"
  type: "ReLU"
  bottom: "conv2"
  top: "conv2"
}
layer {
  name: "pool2"
  type: "Pooling"
  bottom: "conv2"
  top: "pool2"
  pooling_param {
    pool: MAX
    kernel_size: 3
    stride: 2
  }
}
layer {
  name: "norm2"
  type: "LRN"
  bottom: "pool2"
  top: "norm2"
  lrn_param {
    local_size: 5
    alpha: 0.0001
    beta: 0.75
  }
}
layer {
  name: "conv3"
  type: "Convolution"
  bottom: "norm2"
  top: "conv3"
  param {
    lr_mult: 0
    decay_mult: 0
  }
  param {
    lr_mult: 0
    decay_mult: 0
  }
  convolution_param {
    num_output: 384
    pad: 1
    kernel_size: 3
    weight_filler {
      type: "gaussian"
      std: 0.01
    }
    bias_filler {
      type: "constant"
      value: 0
    }
  }
}
layer {
  name: "relu3"
  type: "ReLU"
  bottom: "conv3"
  top: "conv3"
}
layer {
  name: "conv4"
  type: "Convolution"
  bottom: "conv3"
  top: "conv4"
  param {
    lr_mult: 0
    decay_mult: 0
  }
  param {
    lr_mult: 0
    decay_mult: 0
  }
  convolution_param {
    num_output: 384
    pad: 1
    kernel_size: 3
    group: 2
    weight_filler {
      type: "gaussian"
      std: 0.01
    }
    bias_filler {
      type: "constant"
      value: 0.1
    }
  }
}
layer {
  name: "relu4"
  type: "ReLU"
  bottom: "conv4"
  top: "conv4"
}
layer {
  name: "conv5"
  type: "Convolution"
  bottom: "conv4"
  top: "conv5"
  param {
    lr_mult: 0
    decay_mult: 0
  }
  param {
    lr_mult: 0
    decay_mult: 0
  }
  convolution_param {
    num_output: 256
    pad: 1
    kernel_size: 3
    group: 2
    weight_filler {
      type: "gaussian"
      std: 0.01
    }
    bias_filler {
      type: "constant"
      value: 0.1
    }
  }
}
layer {
  name: "relu5"
  type: "ReLU"
  bottom: "conv5"
  top: "conv5"
}
layer {
  name: "pool5"
  type: "Pooling"
  bottom: "conv5"
  top: "pool5"
  pooling_param {
    pool: MAX
    kernel_size: 3
    stride: 2
  }
}
layer {
  name: "fc6"
  type: "InnerProduct"
  bottom: "pool5"
  top: "fc6"
  param {
    lr_mult: 1
    decay_mult: 1
  }
  param {
    lr_mult: 2
    decay_mult: 0
  }
  inner_product_param {
    num_output: 4096
    weight_filler {
      type: "gaussian"
      std: 0.005
    }
    bias_filler {
      type: "constant"
      value: 0.1
    }
  }
}
layer {
  name: "relu6"
  type: "ReLU"
  bottom: "fc6"
  top: "fc6"
}
layer {
  name: "drop6"
  type: "Dropout"
  bottom: "fc6"
  top: "fc6"
  dropout_param {
    dropout_ratio: 0.5
  }
}
layer {
  name: "fc7"
  type: "InnerProduct"
  bottom: "fc6"
  top: "fc7"
  param {
    lr_mult: 1
    decay_mult: 1
  }
  param {
    lr_mult: 2
    decay_mult: 0
  }
  inner_product_param {
    num_output: 4096
    weight_filler {
      type: "gaussian"
      std: 0.005
    }
    bias_filler {
      type: "constant"
      value: 0.1
    }
  }
}
layer {
  name: "relu7"
  type: "ReLU"
  bottom: "fc7"
  top: "fc7"
}
layer {
  name: "drop7"
  type: "Dropout"
  bottom: "fc7"
  top: "fc7"
  dropout_param {
    dropout_ratio: 0.5
  }
}
layer {
  name: "fc8_subset"
  type: "InnerProduct"
  bottom: "fc7"
  top: "fc8_subset"
  param {
    lr_mult: 10
    decay_mult: 1
  }
  param {
    lr_mult: 20
    decay_mult: 0
  }
  inner_product_param {
    num_output: 25
    weight_filler {
      type: "gaussian"
      std: 0.01
    }
    bias_filler {
      type: "constant"
      value: 0
    }
  }
}
layer {
  name: "loss"
  type: "SoftmaxWithLoss"
  bottom: "fc8_subset"
  bottom: "label"
  top: "loss"
}
I0309 00:00:41.178469 64359 layer_factory.hpp:77] Creating layer data
I0309 00:00:41.179278 64359 net.cpp:106] Creating Layer data
I0309 00:00:41.179339 64359 net.cpp:411] data -> data
I0309 00:00:41.179458 64359 net.cpp:411] data -> label
I0309 00:00:41.179540 64359 data_transformer.cpp:25] Loading mean file from: /work/01932/dineshj/CS381V/caffe_install_scripts/caffe/data/ilsvrc12/imagenet_mean.binaryproto
I0309 00:00:41.257009 64362 db_lmdb.cpp:38] Opened lmdb /work/04018/wxie/maverick/visual_recognition/data/train-lmdb
I0309 00:00:41.261900 64359 data_layer.cpp:41] output data size: 128,3,227,227
I0309 00:00:41.415361 64359 net.cpp:150] Setting up data
I0309 00:00:41.415464 64359 net.cpp:157] Top shape: 128 3 227 227 (19787136)
I0309 00:00:41.415514 64359 net.cpp:157] Top shape: 128 (128)
I0309 00:00:41.415546 64359 net.cpp:165] Memory required for data: 79149056
I0309 00:00:41.415585 64359 layer_factory.hpp:77] Creating layer conv1
I0309 00:00:41.415673 64359 net.cpp:106] Creating Layer conv1
I0309 00:00:41.415711 64359 net.cpp:454] conv1 <- data
I0309 00:00:41.415760 64359 net.cpp:411] conv1 -> conv1
I0309 00:00:41.425945 64359 net.cpp:150] Setting up conv1
I0309 00:00:41.425989 64359 net.cpp:157] Top shape: 128 96 55 55 (37171200)
I0309 00:00:41.426014 64359 net.cpp:165] Memory required for data: 227833856
I0309 00:00:41.426071 64359 layer_factory.hpp:77] Creating layer relu1
I0309 00:00:41.426102 64359 net.cpp:106] Creating Layer relu1
I0309 00:00:41.426127 64359 net.cpp:454] relu1 <- conv1
I0309 00:00:41.426154 64359 net.cpp:397] relu1 -> conv1 (in-place)
I0309 00:00:41.426184 64359 net.cpp:150] Setting up relu1
I0309 00:00:41.426210 64359 net.cpp:157] Top shape: 128 96 55 55 (37171200)
I0309 00:00:41.426233 64359 net.cpp:165] Memory required for data: 376518656
I0309 00:00:41.426254 64359 layer_factory.hpp:77] Creating layer pool1
I0309 00:00:41.426280 64359 net.cpp:106] Creating Layer pool1
I0309 00:00:41.426303 64359 net.cpp:454] pool1 <- conv1
I0309 00:00:41.426328 64359 net.cpp:411] pool1 -> pool1
I0309 00:00:41.426460 64359 net.cpp:150] Setting up pool1
I0309 00:00:41.426501 64359 net.cpp:157] Top shape: 128 96 27 27 (8957952)
I0309 00:00:41.426586 64359 net.cpp:165] Memory required for data: 412350464
I0309 00:00:41.426611 64359 layer_factory.hpp:77] Creating layer norm1
I0309 00:00:41.426642 64359 net.cpp:106] Creating Layer norm1
I0309 00:00:41.426667 64359 net.cpp:454] norm1 <- pool1
I0309 00:00:41.426713 64359 net.cpp:411] norm1 -> norm1
I0309 00:00:41.426815 64359 net.cpp:150] Setting up norm1
I0309 00:00:41.426846 64359 net.cpp:157] Top shape: 128 96 27 27 (8957952)
I0309 00:00:41.426869 64359 net.cpp:165] Memory required for data: 448182272
I0309 00:00:41.426892 64359 layer_factory.hpp:77] Creating layer conv2
I0309 00:00:41.426923 64359 net.cpp:106] Creating Layer conv2
I0309 00:00:41.426949 64359 net.cpp:454] conv2 <- norm1
I0309 00:00:41.426983 64359 net.cpp:411] conv2 -> conv2
I0309 00:00:41.439738 64359 net.cpp:150] Setting up conv2
I0309 00:00:41.439781 64359 net.cpp:157] Top shape: 128 256 27 27 (23887872)
I0309 00:00:41.439807 64359 net.cpp:165] Memory required for data: 543733760
I0309 00:00:41.439837 64359 layer_factory.hpp:77] Creating layer relu2
I0309 00:00:41.439865 64359 net.cpp:106] Creating Layer relu2
I0309 00:00:41.439889 64359 net.cpp:454] relu2 <- conv2
I0309 00:00:41.439914 64359 net.cpp:397] relu2 -> conv2 (in-place)
I0309 00:00:41.439942 64359 net.cpp:150] Setting up relu2
I0309 00:00:41.439970 64359 net.cpp:157] Top shape: 128 256 27 27 (23887872)
I0309 00:00:41.439993 64359 net.cpp:165] Memory required for data: 639285248
I0309 00:00:41.440016 64359 layer_factory.hpp:77] Creating layer pool2
I0309 00:00:41.440042 64359 net.cpp:106] Creating Layer pool2
I0309 00:00:41.440068 64359 net.cpp:454] pool2 <- conv2
I0309 00:00:41.440093 64359 net.cpp:411] pool2 -> pool2
I0309 00:00:41.440150 64359 net.cpp:150] Setting up pool2
I0309 00:00:41.440182 64359 net.cpp:157] Top shape: 128 256 13 13 (5537792)
I0309 00:00:41.440206 64359 net.cpp:165] Memory required for data: 661436416
I0309 00:00:41.440228 64359 layer_factory.hpp:77] Creating layer norm2
I0309 00:00:41.440258 64359 net.cpp:106] Creating Layer norm2
I0309 00:00:41.440284 64359 net.cpp:454] norm2 <- pool2
I0309 00:00:41.440310 64359 net.cpp:411] norm2 -> norm2
I0309 00:00:41.440364 64359 net.cpp:150] Setting up norm2
I0309 00:00:41.440397 64359 net.cpp:157] Top shape: 128 256 13 13 (5537792)
I0309 00:00:41.440419 64359 net.cpp:165] Memory required for data: 683587584
I0309 00:00:41.440443 64359 layer_factory.hpp:77] Creating layer conv3
I0309 00:00:41.440474 64359 net.cpp:106] Creating Layer conv3
I0309 00:00:41.440505 64359 net.cpp:454] conv3 <- norm2
I0309 00:00:41.440531 64359 net.cpp:411] conv3 -> conv3
I0309 00:00:41.475209 64359 net.cpp:150] Setting up conv3
I0309 00:00:41.475260 64359 net.cpp:157] Top shape: 128 384 13 13 (8306688)
I0309 00:00:41.475286 64359 net.cpp:165] Memory required for data: 716814336
I0309 00:00:41.475317 64359 layer_factory.hpp:77] Creating layer relu3
I0309 00:00:41.475344 64359 net.cpp:106] Creating Layer relu3
I0309 00:00:41.475369 64359 net.cpp:454] relu3 <- conv3
I0309 00:00:41.475397 64359 net.cpp:397] relu3 -> conv3 (in-place)
I0309 00:00:41.475427 64359 net.cpp:150] Setting up relu3
I0309 00:00:41.475453 64359 net.cpp:157] Top shape: 128 384 13 13 (8306688)
I0309 00:00:41.475476 64359 net.cpp:165] Memory required for data: 750041088
I0309 00:00:41.475502 64359 layer_factory.hpp:77] Creating layer conv4
I0309 00:00:41.475536 64359 net.cpp:106] Creating Layer conv4
I0309 00:00:41.475561 64359 net.cpp:454] conv4 <- conv3
I0309 00:00:41.475589 64359 net.cpp:411] conv4 -> conv4
I0309 00:00:41.509892 64359 net.cpp:150] Setting up conv4
I0309 00:00:41.509948 64359 net.cpp:157] Top shape: 128 384 13 13 (8306688)
I0309 00:00:41.509974 64359 net.cpp:165] Memory required for data: 783267840
I0309 00:00:41.510002 64359 layer_factory.hpp:77] Creating layer relu4
I0309 00:00:41.510031 64359 net.cpp:106] Creating Layer relu4
I0309 00:00:41.510057 64359 net.cpp:454] relu4 <- conv4
I0309 00:00:41.510084 64359 net.cpp:397] relu4 -> conv4 (in-place)
I0309 00:00:41.510113 64359 net.cpp:150] Setting up relu4
I0309 00:00:41.510161 64359 net.cpp:157] Top shape: 128 384 13 13 (8306688)
I0309 00:00:41.510226 64359 net.cpp:165] Memory required for data: 816494592
I0309 00:00:41.510249 64359 layer_factory.hpp:77] Creating layer conv5
I0309 00:00:41.510282 64359 net.cpp:106] Creating Layer conv5
I0309 00:00:41.510308 64359 net.cpp:454] conv5 <- conv4
I0309 00:00:41.510335 64359 net.cpp:411] conv5 -> conv5
I0309 00:00:41.527899 64359 net.cpp:150] Setting up conv5
I0309 00:00:41.527940 64359 net.cpp:157] Top shape: 128 256 13 13 (5537792)
I0309 00:00:41.527966 64359 net.cpp:165] Memory required for data: 838645760
I0309 00:00:41.527995 64359 layer_factory.hpp:77] Creating layer relu5
I0309 00:00:41.528025 64359 net.cpp:106] Creating Layer relu5
I0309 00:00:41.528049 64359 net.cpp:454] relu5 <- conv5
I0309 00:00:41.528074 64359 net.cpp:397] relu5 -> conv5 (in-place)
I0309 00:00:41.528102 64359 net.cpp:150] Setting up relu5
I0309 00:00:41.528128 64359 net.cpp:157] Top shape: 128 256 13 13 (5537792)
I0309 00:00:41.528149 64359 net.cpp:165] Memory required for data: 860796928
I0309 00:00:41.528172 64359 layer_factory.hpp:77] Creating layer pool5
I0309 00:00:41.528198 64359 net.cpp:106] Creating Layer pool5
I0309 00:00:41.528220 64359 net.cpp:454] pool5 <- conv5
I0309 00:00:41.528245 64359 net.cpp:411] pool5 -> pool5
I0309 00:00:41.528312 64359 net.cpp:150] Setting up pool5
I0309 00:00:41.528344 64359 net.cpp:157] Top shape: 128 256 6 6 (1179648)
I0309 00:00:41.528367 64359 net.cpp:165] Memory required for data: 865515520
I0309 00:00:41.528390 64359 layer_factory.hpp:77] Creating layer fc6
I0309 00:00:41.528470 64359 net.cpp:106] Creating Layer fc6
I0309 00:00:41.528504 64359 net.cpp:454] fc6 <- pool5
I0309 00:00:41.528547 64359 net.cpp:411] fc6 -> fc6
I0309 00:00:41.583065 64363 blocking_queue.cpp:50] Waiting for data
I0309 00:00:42.960515 64359 net.cpp:150] Setting up fc6
I0309 00:00:42.960690 64359 net.cpp:157] Top shape: 128 4096 (524288)
I0309 00:00:42.960713 64359 net.cpp:165] Memory required for data: 867612672
I0309 00:00:42.960743 64359 layer_factory.hpp:77] Creating layer relu6
I0309 00:00:42.960773 64359 net.cpp:106] Creating Layer relu6
I0309 00:00:42.960798 64359 net.cpp:454] relu6 <- fc6
I0309 00:00:42.960827 64359 net.cpp:397] relu6 -> fc6 (in-place)
I0309 00:00:42.960861 64359 net.cpp:150] Setting up relu6
I0309 00:00:42.960886 64359 net.cpp:157] Top shape: 128 4096 (524288)
I0309 00:00:42.960907 64359 net.cpp:165] Memory required for data: 869709824
I0309 00:00:42.960928 64359 layer_factory.hpp:77] Creating layer drop6
I0309 00:00:42.960955 64359 net.cpp:106] Creating Layer drop6
I0309 00:00:42.960978 64359 net.cpp:454] drop6 <- fc6
I0309 00:00:42.961004 64359 net.cpp:397] drop6 -> fc6 (in-place)
I0309 00:00:42.961091 64359 net.cpp:150] Setting up drop6
I0309 00:00:42.961122 64359 net.cpp:157] Top shape: 128 4096 (524288)
I0309 00:00:42.961143 64359 net.cpp:165] Memory required for data: 871806976
I0309 00:00:42.961164 64359 layer_factory.hpp:77] Creating layer fc7
I0309 00:00:42.961192 64359 net.cpp:106] Creating Layer fc7
I0309 00:00:42.961215 64359 net.cpp:454] fc7 <- fc6
I0309 00:00:42.961242 64359 net.cpp:411] fc7 -> fc7
I0309 00:00:43.575652 64359 net.cpp:150] Setting up fc7
I0309 00:00:43.575819 64359 net.cpp:157] Top shape: 128 4096 (524288)
I0309 00:00:43.575842 64359 net.cpp:165] Memory required for data: 873904128
I0309 00:00:43.575873 64359 layer_factory.hpp:77] Creating layer relu7
I0309 00:00:43.575903 64359 net.cpp:106] Creating Layer relu7
I0309 00:00:43.575928 64359 net.cpp:454] relu7 <- fc7
I0309 00:00:43.575955 64359 net.cpp:397] relu7 -> fc7 (in-place)
I0309 00:00:43.575987 64359 net.cpp:150] Setting up relu7
I0309 00:00:43.576011 64359 net.cpp:157] Top shape: 128 4096 (524288)
I0309 00:00:43.576032 64359 net.cpp:165] Memory required for data: 876001280
I0309 00:00:43.576055 64359 layer_factory.hpp:77] Creating layer drop7
I0309 00:00:43.576081 64359 net.cpp:106] Creating Layer drop7
I0309 00:00:43.576102 64359 net.cpp:454] drop7 <- fc7
I0309 00:00:43.576127 64359 net.cpp:397] drop7 -> fc7 (in-place)
I0309 00:00:43.576207 64359 net.cpp:150] Setting up drop7
I0309 00:00:43.576290 64359 net.cpp:157] Top shape: 128 4096 (524288)
I0309 00:00:43.576313 64359 net.cpp:165] Memory required for data: 878098432
I0309 00:00:43.576334 64359 layer_factory.hpp:77] Creating layer fc8_subset
I0309 00:00:43.576364 64359 net.cpp:106] Creating Layer fc8_subset
I0309 00:00:43.576388 64359 net.cpp:454] fc8_subset <- fc7
I0309 00:00:43.576414 64359 net.cpp:411] fc8_subset -> fc8_subset
I0309 00:00:43.580771 64359 net.cpp:150] Setting up fc8_subset
I0309 00:00:43.580811 64359 net.cpp:157] Top shape: 128 25 (3200)
I0309 00:00:43.580833 64359 net.cpp:165] Memory required for data: 878111232
I0309 00:00:43.580858 64359 layer_factory.hpp:77] Creating layer loss
I0309 00:00:43.580888 64359 net.cpp:106] Creating Layer loss
I0309 00:00:43.580910 64359 net.cpp:454] loss <- fc8_subset
I0309 00:00:43.580934 64359 net.cpp:454] loss <- label
I0309 00:00:43.580960 64359 net.cpp:411] loss -> loss
I0309 00:00:43.581027 64359 layer_factory.hpp:77] Creating layer loss
…
I0309 00:00:43.583585 64359 net.cpp:322] The NetState phase (1) differed from the phase (0) specified by a rule in layer data
I0309 00:00:43.583816 64359 net.cpp:49] Initializing net from parameters: 
name: "FlickrStyleCaffeNet"
state {
  phase: TEST
}
layer {
  name: "data"
  type: "Data"
  top: "data"
  top: "label"
  include {
    phase: TEST
  }
  transform_param {
    mirror: false
    crop_size: 227
    mean_file: "/work/01932/dineshj/CS381V/caffe_install_scripts/caffe/data/ilsvrc12/imagenet_mean.binaryproto"
  }
  data_param {
    source: "/work/04018/wxie/maverick/visual_recognition/data/test-lmdb"
    batch_size: 20
    backend: LMDB
  }
}
layer {
  name: "conv1"
  type: "Convolution"
  bottom: "data"
  top: "conv1"
  param {
    lr_mult: 0
    decay_mult: 0
  }
  param {
    lr_mult: 0
    decay_mult: 0
  }
  convolution_param {
    num_output: 96
    kernel_size: 11
    stride: 4
    weight_filler {
      type: "gaussian"
      std: 0.01
    }
    bias_filler {
      type: "constant"
      value: 0
    }
  }
}
layer {
  name: "relu1"
  type: "ReLU"
  bottom: "conv1"
  top: "conv1"
}
layer {
  name: "pool1"
  type: "Pooling"
  bottom: "conv1"
  top: "pool1"
  pooling_param {
    pool: MAX
    kernel_size: 3
    stride: 2
  }
}
layer {
  name: "norm1"
  type: "LRN"
  bottom: "pool1"
  top: "norm1"
  lrn_param {
    local_size: 5
    alpha: 0.0001
    beta: 0.75
  }
}
layer {
  name: "conv2"
  type: "Convolution"
  bottom: "norm1"
  top: "conv2"
  param {
    lr_mult: 0
    decay_mult: 0
  }
  param {
    lr_mult: 0
    decay_mult: 0
  }
  convolution_param {
    num_output: 256
    pad: 2
    kernel_size: 5
    group: 2
    weight_filler {
      type: "gaussian"
      std: 0.01
    }
    bias_filler {
      type: "constant"
      value: 0.1
    }
  }
}
layer {
  name: "relu2"
  type: "ReLU"
  bottom: "conv2"
  top: "conv2"
}
layer {
  name: "pool2"
  type: "Pooling"
  bottom: "conv2"
  top: "pool2"
  pooling_param {
    pool: MAX
    kernel_size: 3
    stride: 2
  }
}
layer {
  name: "norm2"
  type: "LRN"
  bottom: "pool2"
  top: "norm2"
  lrn_param {
    local_size: 5
    alpha: 0.0001
    beta: 0.75
  }
}
layer {
  name: "conv3"
  type: "Convolution"
  bottom: "norm2"
  top: "conv3"
  param {
    lr_mult: 0
    decay_mult: 0
  }
  param {
    lr_mult: 0
    decay_mult: 0
  }
  convolution_param {
    num_output: 384
    pad: 1
    kernel_size: 3
    weight_filler {
      type: "gaussian"
      std: 0.01
    }
    bias_filler {
      type: "constant"
      value: 0
    }
  }
}
layer {
  name: "relu3"
  type: "ReLU"
  bottom: "conv3"
  top: "conv3"
}
layer {
  name: "conv4"
  type: "Convolution"
  bottom: "conv3"
  top: "conv4"
  param {
    lr_mult: 0
    decay_mult: 0
  }
  param {
    lr_mult: 0
    decay_mult: 0
  }
  convolution_param {
    num_output: 384
    pad: 1
    kernel_size: 3
    group: 2
    weight_filler {
      type: "gaussian"
      std: 0.01
    }
    bias_filler {
      type: "constant"
      value: 0.1
    }
  }
}
layer {
  name: "relu4"
  type: "ReLU"
  bottom: "conv4"
  top: "conv4"
}
layer {
  name: "conv5"
  type: "Convolution"
  bottom: "conv4"
  top: "conv5"
  param {
    lr_mult: 0
    decay_mult: 0
  }
  param {
    lr_mult: 0
    decay_mult: 0
  }
  convolution_param {
    num_output: 256
    pad: 1
    kernel_size: 3
    group: 2
    weight_filler {
      type: "gaussian"
      std: 0.01
    }
    bias_filler {
      type: "constant"
      value: 0.1
    }
  }
}
layer {
  name: "relu5"
  type: "ReLU"
  bottom: "conv5"
  top: "conv5"
}
layer {
  name: "pool5"
  type: "Pooling"
  bottom: "conv5"
  top: "pool5"
  pooling_param {
    pool: MAX
    kernel_size: 3
    stride: 2
  }
}
layer {
  name: "fc6"
  type: "InnerProduct"
  bottom: "pool5"
  top: "fc6"
  param {
    lr_mult: 1
    decay_mult: 1
  }
  param {
    lr_mult: 2
    decay_mult: 0
  }
  inner_product_param {
    num_output: 4096
    weight_filler {
      type: "gaussian"
      std: 0.005
    }
    bias_filler {
      type: "constant"
      value: 0.1
    }
  }
}
layer {
  name: "relu6"
  type: "ReLU"
  bottom: "fc6"
  top: "fc6"
}
layer {
  name: "drop6"
  type: "Dropout"
  bottom: "fc6"
  top: "fc6"
  dropout_param {
    dropout_ratio: 0.5
  }
}
layer {
  name: "fc7"
  type: "InnerProduct"
  bottom: "fc6"
  top: "fc7"
  param {
    lr_mult: 1
    decay_mult: 1
  }
  param {
    lr_mult: 2
    decay_mult: 0
  }
  inner_product_param {
    num_output: 4096
    weight_filler {
      type: "gaussian"
      std: 0.005
    }
    bias_filler {
      type: "constant"
      value: 0.1
    }
  }
}
layer {
  name: "relu7"
  type: "ReLU"
  bottom: "fc7"
  top: "fc7"
}
layer {
  name: "drop7"
  type: "Dropout"
  bottom: "fc7"
  top: "fc7"
  dropout_param {
    dropout_ratio: 0.5
  }
}
layer {
  name: "fc8_subset"
  type: "InnerProduct"
  bottom: "fc7"
  top: "fc8_subset"
  param {
    lr_mult: 10
    decay_mult: 1
  }
  param {
    lr_mult: 20
    decay_mult: 0
  }
  inner_product_param {
    num_output: 25
    weight_filler {
      type: "gaussian"
      std: 0.01
    }
    bias_filler {
      type: "constant"
      value: 0
    }
  }
}
layer {
  name: "loss"
  type: "SoftmaxWithLoss"
  bottom: "fc8_subset"
  bottom: "label"
  top: "loss"
}
layer {
  name: "accuracy"
  type: "Accuracy"
  bottom: "fc8_subset"
  bottom: "label"
  top: "accuracy"
  include {
    phase: TEST
  }
}
I0309 00:00:43.583998 64359 layer_factory.hpp:77] Creating layer data
I0309 00:00:43.584147 64359 net.cpp:106] Creating Layer data
I0309 00:00:43.584194 64359 net.cpp:411] data -> data
I0309 00:00:43.584230 64359 net.cpp:411] data -> label
I0309 00:00:43.584260 64359 data_transformer.cpp:25] Loading mean file from: /work/01932/dineshj/CS381V/caffe_install_scripts/caffe/data/ilsvrc12/imagenet_mean.binaryproto
I0309 00:00:43.599609 64364 db_lmdb.cpp:38] Opened lmdb /work/04018/wxie/maverick/visual_recognition/data/test-lmdb
I0309 00:00:43.601373 64359 data_layer.cpp:41] output data size: 20,3,227,227
I0309 00:00:43.624368 64359 net.cpp:150] Setting up data
I0309 00:00:43.624457 64359 net.cpp:157] Top shape: 20 3 227 227 (3091740)
I0309 00:00:43.624490 64359 net.cpp:157] Top shape: 20 (20)
I0309 00:00:43.624516 64359 net.cpp:165] Memory required for data: 12367040
I0309 00:00:43.624543 64359 layer_factory.hpp:77] Creating layer label_data_1_split
I0309 00:00:43.624579 64359 net.cpp:106] Creating Layer label_data_1_split
I0309 00:00:43.624606 64359 net.cpp:454] label_data_1_split <- label
I0309 00:00:43.624635 64359 net.cpp:411] label_data_1_split -> label_data_1_split_0
I0309 00:00:43.624670 64359 net.cpp:411] label_data_1_split -> label_data_1_split_1
I0309 00:00:43.624779 64359 net.cpp:150] Setting up label_data_1_split
I0309 00:00:43.624814 64359 net.cpp:157] Top shape: 20 (20)
I0309 00:00:43.624841 64359 net.cpp:157] Top shape: 20 (20)
I0309 00:00:43.624864 64359 net.cpp:165] Memory required for data: 12367200
I0309 00:00:43.624888 64359 layer_factory.hpp:77] Creating layer conv1
I0309 00:00:43.624925 64359 net.cpp:106] Creating Layer conv1
I0309 00:00:43.624950 64359 net.cpp:454] conv1 <- data
I0309 00:00:43.624979 64359 net.cpp:411] conv1 -> conv1
I0309 00:00:43.626663 64359 net.cpp:150] Setting up conv1
I0309 00:00:43.626704 64359 net.cpp:157] Top shape: 20 96 55 55 (5808000)
I0309 00:00:43.626730 64359 net.cpp:165] Memory required for data: 35599200
I0309 00:00:43.626762 64359 layer_factory.hpp:77] Creating layer relu1
I0309 00:00:43.626792 64359 net.cpp:106] Creating Layer relu1
I0309 00:00:43.626817 64359 net.cpp:454] relu1 <- conv1
I0309 00:00:43.626844 64359 net.cpp:397] relu1 -> conv1 (in-place)
I0309 00:00:43.626874 64359 net.cpp:150] Setting up relu1
I0309 00:00:43.626902 64359 net.cpp:157] Top shape: 20 96 55 55 (5808000)
I0309 00:00:43.626925 64359 net.cpp:165] Memory required for data: 58831200
I0309 00:00:43.626950 64359 layer_factory.hpp:77] Creating layer pool1
I0309 00:00:43.626979 64359 net.cpp:106] Creating Layer pool1
I0309 00:00:43.627004 64359 net.cpp:454] pool1 <- conv1
I0309 00:00:43.627032 64359 net.cpp:411] pool1 -> pool1
I0309 00:00:43.627092 64359 net.cpp:150] Setting up pool1
I0309 00:00:43.627126 64359 net.cpp:157] Top shape: 20 96 27 27 (1399680)
I0309 00:00:43.627151 64359 net.cpp:165] Memory required for data: 64429920
I0309 00:00:43.627174 64359 layer_factory.hpp:77] Creating layer norm1
I0309 00:00:43.627203 64359 net.cpp:106] Creating Layer norm1
I0309 00:00:43.627229 64359 net.cpp:454] norm1 <- pool1
I0309 00:00:43.627256 64359 net.cpp:411] norm1 -> norm1
I0309 00:00:43.627313 64359 net.cpp:150] Setting up norm1
I0309 00:00:43.627346 64359 net.cpp:157] Top shape: 20 96 27 27 (1399680)
I0309 00:00:43.627370 64359 net.cpp:165] Memory required for data: 70028640
I0309 00:00:43.627415 64359 layer_factory.hpp:77] Creating layer conv2
I0309 00:00:43.627480 64359 net.cpp:106] Creating Layer conv2
I0309 00:00:43.627507 64359 net.cpp:454] conv2 <- norm1
I0309 00:00:43.627537 64359 net.cpp:411] conv2 -> conv2
I0309 00:00:43.640260 64359 net.cpp:150] Setting up conv2
I0309 00:00:43.640343 64359 net.cpp:157] Top shape: 20 256 27 27 (3732480)
I0309 00:00:43.640372 64359 net.cpp:165] Memory required for data: 84958560
I0309 00:00:43.640415 64359 layer_factory.hpp:77] Creating layer relu2
I0309 00:00:43.640446 64359 net.cpp:106] Creating Layer relu2
I0309 00:00:43.640472 64359 net.cpp:454] relu2 <- conv2
I0309 00:00:43.640499 64359 net.cpp:397] relu2 -> conv2 (in-place)
I0309 00:00:43.640542 64359 net.cpp:150] Setting up relu2
I0309 00:00:43.640568 64359 net.cpp:157] Top shape: 20 256 27 27 (3732480)
I0309 00:00:43.640601 64359 net.cpp:165] Memory required for data: 99888480
I0309 00:00:43.640624 64359 layer_factory.hpp:77] Creating layer pool2
I0309 00:00:43.640669 64359 net.cpp:106] Creating Layer pool2
I0309 00:00:43.640692 64359 net.cpp:454] pool2 <- conv2
I0309 00:00:43.640727 64359 net.cpp:411] pool2 -> pool2
I0309 00:00:43.640805 64359 net.cpp:150] Setting up pool2
I0309 00:00:43.640838 64359 net.cpp:157] Top shape: 20 256 13 13 (865280)
I0309 00:00:43.640874 64359 net.cpp:165] Memory required for data: 103349600
I0309 00:00:43.640897 64359 layer_factory.hpp:77] Creating layer norm2
I0309 00:00:43.640938 64359 net.cpp:106] Creating Layer norm2
I0309 00:00:43.640964 64359 net.cpp:454] norm2 <- pool2
I0309 00:00:43.640992 64359 net.cpp:411] norm2 -> norm2
I0309 00:00:43.641053 64359 net.cpp:150] Setting up norm2
I0309 00:00:43.641088 64359 net.cpp:157] Top shape: 20 256 13 13 (865280)
I0309 00:00:43.641111 64359 net.cpp:165] Memory required for data: 106810720
I0309 00:00:43.641136 64359 layer_factory.hpp:77] Creating layer conv3
I0309 00:00:43.641170 64359 net.cpp:106] Creating Layer conv3
I0309 00:00:43.641197 64359 net.cpp:454] conv3 <- norm2
I0309 00:00:43.641226 64359 net.cpp:411] conv3 -> conv3
I0309 00:00:43.677147 64359 net.cpp:150] Setting up conv3
I0309 00:00:43.677192 64359 net.cpp:157] Top shape: 20 384 13 13 (1297920)
I0309 00:00:43.677217 64359 net.cpp:165] Memory required for data: 112002400
I0309 00:00:43.677258 64359 layer_factory.hpp:77] Creating layer relu3
I0309 00:00:43.677287 64359 net.cpp:106] Creating Layer relu3
I0309 00:00:43.677311 64359 net.cpp:454] relu3 <- conv3
I0309 00:00:43.677336 64359 net.cpp:397] relu3 -> conv3 (in-place)
I0309 00:00:43.677363 64359 net.cpp:150] Setting up relu3
I0309 00:00:43.677389 64359 net.cpp:157] Top shape: 20 384 13 13 (1297920)
I0309 00:00:43.677417 64359 net.cpp:165] Memory required for data: 117194080
I0309 00:00:43.677439 64359 layer_factory.hpp:77] Creating layer conv4
I0309 00:00:43.677470 64359 net.cpp:106] Creating Layer conv4
I0309 00:00:43.677495 64359 net.cpp:454] conv4 <- conv3
I0309 00:00:43.677521 64359 net.cpp:411] conv4 -> conv4
I0309 00:00:43.704201 64359 net.cpp:150] Setting up conv4
I0309 00:00:43.704248 64359 net.cpp:157] Top shape: 20 384 13 13 (1297920)
I0309 00:00:43.704275 64359 net.cpp:165] Memory required for data: 122385760
I0309 00:00:43.704303 64359 layer_factory.hpp:77] Creating layer relu4
I0309 00:00:43.704331 64359 net.cpp:106] Creating Layer relu4
I0309 00:00:43.704357 64359 net.cpp:454] relu4 <- conv4
I0309 00:00:43.704385 64359 net.cpp:397] relu4 -> conv4 (in-place)
I0309 00:00:43.704418 64359 net.cpp:150] Setting up relu4
I0309 00:00:43.704447 64359 net.cpp:157] Top shape: 20 384 13 13 (1297920)
I0309 00:00:43.704470 64359 net.cpp:165] Memory required for data: 127577440
I0309 00:00:43.704493 64359 layer_factory.hpp:77] Creating layer conv5
I0309 00:00:43.704526 64359 net.cpp:106] Creating Layer conv5
I0309 00:00:43.704553 64359 net.cpp:454] conv5 <- conv4
I0309 00:00:43.704584 64359 net.cpp:411] conv5 -> conv5
I0309 00:00:43.722533 64359 net.cpp:150] Setting up conv5
I0309 00:00:43.722574 64359 net.cpp:157] Top shape: 20 256 13 13 (865280)
I0309 00:00:43.722599 64359 net.cpp:165] Memory required for data: 131038560
I0309 00:00:43.722654 64359 layer_factory.hpp:77] Creating layer relu5
I0309 00:00:43.722717 64359 net.cpp:106] Creating Layer relu5
I0309 00:00:43.722741 64359 net.cpp:454] relu5 <- conv5
I0309 00:00:43.722767 64359 net.cpp:397] relu5 -> conv5 (in-place)
I0309 00:00:43.722795 64359 net.cpp:150] Setting up relu5
I0309 00:00:43.722822 64359 net.cpp:157] Top shape: 20 256 13 13 (865280)
I0309 00:00:43.722844 64359 net.cpp:165] Memory required for data: 134499680
I0309 00:00:43.722867 64359 layer_factory.hpp:77] Creating layer pool5
I0309 00:00:43.722897 64359 net.cpp:106] Creating Layer pool5
I0309 00:00:43.722920 64359 net.cpp:454] pool5 <- conv5
I0309 00:00:43.722955 64359 net.cpp:411] pool5 -> pool5
I0309 00:00:43.723016 64359 net.cpp:150] Setting up pool5
I0309 00:00:43.723049 64359 net.cpp:157] Top shape: 20 256 6 6 (184320)
I0309 00:00:43.723081 64359 net.cpp:165] Memory required for data: 135236960
I0309 00:00:43.723104 64359 layer_factory.hpp:77] Creating layer fc6
I0309 00:00:43.723134 64359 net.cpp:106] Creating Layer fc6
I0309 00:00:43.723171 64359 net.cpp:454] fc6 <- pool5
I0309 00:00:43.723198 64359 net.cpp:411] fc6 -> fc6
I0309 00:00:45.123888 64359 net.cpp:150] Setting up fc6
I0309 00:00:45.124030 64359 net.cpp:157] Top shape: 20 4096 (81920)
I0309 00:00:45.124054 64359 net.cpp:165] Memory required for data: 135564640
I0309 00:00:45.124088 64359 layer_factory.hpp:77] Creating layer relu6
I0309 00:00:45.124121 64359 net.cpp:106] Creating Layer relu6
I0309 00:00:45.124146 64359 net.cpp:454] relu6 <- fc6
I0309 00:00:45.124178 64359 net.cpp:397] relu6 -> fc6 (in-place)
I0309 00:00:45.124217 64359 net.cpp:150] Setting up relu6
I0309 00:00:45.124243 64359 net.cpp:157] Top shape: 20 4096 (81920)
I0309 00:00:45.124264 64359 net.cpp:165] Memory required for data: 135892320
I0309 00:00:45.124284 64359 layer_factory.hpp:77] Creating layer drop6
I0309 00:00:45.124311 64359 net.cpp:106] Creating Layer drop6
I0309 00:00:45.124333 64359 net.cpp:454] drop6 <- fc6
I0309 00:00:45.124357 64359 net.cpp:397] drop6 -> fc6 (in-place)
I0309 00:00:45.124418 64359 net.cpp:150] Setting up drop6
I0309 00:00:45.124449 64359 net.cpp:157] Top shape: 20 4096 (81920)
I0309 00:00:45.124469 64359 net.cpp:165] Memory required for data: 136220000
I0309 00:00:45.124491 64359 layer_factory.hpp:77] Creating layer fc7
I0309 00:00:45.124523 64359 net.cpp:106] Creating Layer fc7
I0309 00:00:45.124547 64359 net.cpp:454] fc7 <- fc6
I0309 00:00:45.124572 64359 net.cpp:411] fc7 -> fc7
I0309 00:00:45.741219 64359 net.cpp:150] Setting up fc7
I0309 00:00:45.741358 64359 net.cpp:157] Top shape: 20 4096 (81920)
I0309 00:00:45.741381 64359 net.cpp:165] Memory required for data: 136547680
I0309 00:00:45.741420 64359 layer_factory.hpp:77] Creating layer relu7
I0309 00:00:45.741458 64359 net.cpp:106] Creating Layer relu7
I0309 00:00:45.741484 64359 net.cpp:454] relu7 <- fc7
I0309 00:00:45.741513 64359 net.cpp:397] relu7 -> fc7 (in-place)
I0309 00:00:45.741550 64359 net.cpp:150] Setting up relu7
I0309 00:00:45.741575 64359 net.cpp:157] Top shape: 20 4096 (81920)
I0309 00:00:45.741595 64359 net.cpp:165] Memory required for data: 136875360
I0309 00:00:45.741617 64359 layer_factory.hpp:77] Creating layer drop7
I0309 00:00:45.741644 64359 net.cpp:106] Creating Layer drop7
I0309 00:00:45.741667 64359 net.cpp:454] drop7 <- fc7
I0309 00:00:45.741693 64359 net.cpp:397] drop7 -> fc7 (in-place)
I0309 00:00:45.741745 64359 net.cpp:150] Setting up drop7
I0309 00:00:45.741775 64359 net.cpp:157] Top shape: 20 4096 (81920)
I0309 00:00:45.741796 64359 net.cpp:165] Memory required for data: 137203040
I0309 00:00:45.741817 64359 layer_factory.hpp:77] Creating layer fc8_subset
I0309 00:00:45.741849 64359 net.cpp:106] Creating Layer fc8_subset
I0309 00:00:45.741873 64359 net.cpp:454] fc8_subset <- fc7
I0309 00:00:45.741896 64359 net.cpp:411] fc8_subset -> fc8_subset
I0309 00:00:45.745641 64359 net.cpp:150] Setting up fc8_subset
I0309 00:00:45.745689 64359 net.cpp:157] Top shape: 20 25 (500)
I0309 00:00:45.745712 64359 net.cpp:165] Memory required for data: 137205040
I0309 00:00:45.745764 64359 layer_factory.hpp:77] Creating layer fc8_subset_fc8_subset_0_split
I0309 00:00:45.745834 64359 net.cpp:106] Creating Layer fc8_subset_fc8_subset_0_split
I0309 00:00:45.745858 64359 net.cpp:454] fc8_subset_fc8_subset_0_split <- fc8_subset
I0309 00:00:45.745882 64359 net.cpp:411] fc8_subset_fc8_subset_0_split -> fc8_subset_fc8_subset_0_split_0
I0309 00:00:45.745909 64359 net.cpp:411] fc8_subset_fc8_subset_0_split -> fc8_subset_fc8_subset_0_split_1
I0309 00:00:45.745967 64359 net.cpp:150] Setting up fc8_subset_fc8_subset_0_split
I0309 00:00:45.745998 64359 net.cpp:157] Top shape: 20 25 (500)
I0309 00:00:45.746021 64359 net.cpp:157] Top shape: 20 25 (500)
I0309 00:00:45.746042 64359 net.cpp:165] Memory required for data: 137209040
I0309 00:00:45.746063 64359 layer_factory.hpp:77] Creating layer loss
I0309 00:00:45.746088 64359 net.cpp:106] Creating Layer loss
I0309 00:00:45.746110 64359 net.cpp:454] loss <- fc8_subset_fc8_subset_0_split_0
I0309 00:00:45.746132 64359 net.cpp:454] loss <- label_data_1_split_0
I0309 00:00:45.746160 64359 net.cpp:411] loss -> loss
…
