…
I0309 02:52:11.519263 15565 net.cpp:322] The NetState phase (0) differed from the phase (1) specified by a rule in layer accuracy
I0309 02:52:11.519479 15565 net.cpp:49] Initializing net from parameters: 
name: "FlickrStyleCaffeNet"
state {
  phase: TRAIN
}
layer {
  name: "data"
  type: "Data"
  top: "data"
  top: "label"
  include {
    phase: TRAIN
  }
  transform_param {
    mirror: true
    crop_size: 227
    mean_file: "/work/01932/dineshj/CS381V/caffe_install_scripts/caffe/data/ilsvrc12/imagenet_mean.binaryproto"
  }
  data_param {
    source: "/work/04018/wxie/maverick/visual_recognition/data/train-lmdb"
    batch_size: 128
    backend: LMDB
  }
}
layer {
  name: "conv1"
  type: "Convolution"
  bottom: "data"
  top: "conv1"
  param {
    lr_mult: 0
    decay_mult: 0
  }
  param {
    lr_mult: 0
    decay_mult: 0
  }
  convolution_param {
    num_output: 96
    kernel_size: 11
    stride: 4
    weight_filler {
      type: "gaussian"
      std: 0.01
    }
    bias_filler {
      type: "constant"
      value: 0
    }
  }
}
layer {
  name: "relu1"
  type: "ReLU"
  bottom: "conv1"
  top: "conv1"
}
layer {
  name: "pool1"
  type: "Pooling"
  bottom: "conv1"
  top: "pool1"
  pooling_param {
    pool: MAX
    kernel_size: 3
    stride: 2
  }
}
layer {
  name: "norm1"
  type: "LRN"
  bottom: "pool1"
  top: "norm1"
  lrn_param {
    local_size: 5
    alpha: 0.0001
    beta: 0.75
  }
}
layer {
  name: "conv2"
  type: "Convolution"
  bottom: "norm1"
  top: "conv2"
  param {
    lr_mult: 0
    decay_mult: 0
  }
  param {
    lr_mult: 0
    decay_mult: 0
  }
  convolution_param {
    num_output: 256
    pad: 2
    kernel_size: 5
    group: 2
    weight_filler {
      type: "gaussian"
      std: 0.01
    }
    bias_filler {
      type: "constant"
      value: 0.1
    }
  }
}
layer {
  name: "relu2"
  type: "ReLU"
  bottom: "conv2"
  top: "conv2"
}
layer {
  name: "pool2"
  type: "Pooling"
  bottom: "conv2"
  top: "pool2"
  pooling_param {
    pool: MAX
    kernel_size: 3
    stride: 2
  }
}
layer {
  name: "norm2"
  type: "LRN"
  bottom: "pool2"
  top: "norm2"
  lrn_param {
    local_size: 5
    alpha: 0.0001
    beta: 0.75
  }
}
layer {
  name: "conv3"
  type: "Convolution"
  bottom: "norm2"
  top: "conv3"
  param {
    lr_mult: 0
    decay_mult: 0
  }
  param {
    lr_mult: 0
    decay_mult: 0
  }
  convolution_param {
    num_output: 384
    pad: 1
    kernel_size: 3
    weight_filler {
      type: "gaussian"
      std: 0.01
    }
    bias_filler {
      type: "constant"
      value: 0
    }
  }
}
layer {
  name: "relu3"
  type: "ReLU"
  bottom: "conv3"
  top: "conv3"
}
layer {
  name: "conv4"
  type: "Convolution"
  bottom: "conv3"
  top: "conv4"
  param {
    lr_mult: 0
    decay_mult: 0
  }
  param {
    lr_mult: 0
    decay_mult: 0
  }
  convolution_param {
    num_output: 384
    pad: 1
    kernel_size: 3
    group: 2
    weight_filler {
      type: "gaussian"
      std: 0.01
    }
    bias_filler {
      type: "constant"
      value: 0.1
    }
  }
}
layer {
  name: "relu4"
  type: "ReLU"
  bottom: "conv4"
  top: "conv4"
}
layer {
  name: "conv5"
  type: "Convolution"
  bottom: "conv4"
  top: "conv5"
  param {
    lr_mult: 0
    decay_mult: 0
  }
  param {
    lr_mult: 0
    decay_mult: 0
  }
  convolution_param {
    num_output: 256
    pad: 1
    kernel_size: 3
    group: 2
    weight_filler {
      type: "gaussian"
      std: 0.01
    }
    bias_filler {
      type: "constant"
      value: 0.1
    }
  }
}
layer {
  name: "relu5"
  type: "ReLU"
  bottom: "conv5"
  top: "conv5"
}
layer {
  name: "pool5"
  type: "Pooling"
  bottom: "conv5"
  top: "pool5"
  pooling_param {
    pool: MAX
    kernel_size: 3
    stride: 2
  }
}
layer {
  name: "fc6"
  type: "InnerProduct"
  bottom: "pool5"
  top: "fc6"
  param {
    lr_mult: 1
    decay_mult: 1
  }
  param {
    lr_mult: 2
    decay_mult: 0
  }
  inner_product_param {
    num_output: 4096
    weight_filler {
      type: "gaussian"
      std: 0.005
    }
    bias_filler {
      type: "constant"
      value: 0.1
    }
  }
}
layer {
  name: "relu6"
  type: "ReLU"
  bottom: "fc6"
  top: "fc6"
}
layer {
  name: "drop6"
  type: "Dropout"
  bottom: "fc6"
  top: "fc6"
  dropout_param {
    dropout_ratio: 0.5
  }
}
layer {
  name: "fc7"
  type: "InnerProduct"
  bottom: "fc6"
  top: "fc7"
  param {
    lr_mult: 1
    decay_mult: 1
  }
  param {
    lr_mult: 2
    decay_mult: 0
  }
  inner_product_param {
    num_output: 4096
    weight_filler {
      type: "gaussian"
      std: 0.005
    }
    bias_filler {
      type: "constant"
      value: 0.1
    }
  }
}
layer {
  name: "relu7"
  type: "ReLU"
  bottom: "fc7"
  top: "fc7"
}
layer {
  name: "drop7"
  type: "Dropout"
  bottom: "fc7"
  top: "fc7"
  dropout_param {
    dropout_ratio: 0.5
  }
}
layer {
  name: "fc8_subset"
  type: "InnerProduct"
  bottom: "fc7"
  top: "fc8_subset"
  param {
    lr_mult: 10
    decay_mult: 1
  }
  param {
    lr_mult: 20
    decay_mult: 0
  }
  inner_product_param {
    num_output: 25
    weight_filler {
      type: "gaussian"
      std: 0.01
    }
    bias_filler {
      type: "constant"
      value: 0
    }
  }
}
layer {
  name: "loss"
  type: "SoftmaxWithLoss"
  bottom: "fc8_subset"
  bottom: "label"
  top: "loss"
}
I0309 02:52:11.519748 15565 layer_factory.hpp:77] Creating layer data
I0309 02:52:11.520506 15565 net.cpp:106] Creating Layer data
I0309 02:52:11.520565 15565 net.cpp:411] data -> data
I0309 02:52:11.520658 15565 net.cpp:411] data -> label
I0309 02:52:11.520747 15565 data_transformer.cpp:25] Loading mean file from: /work/01932/dineshj/CS381V/caffe_install_scripts/caffe/data/ilsvrc12/imagenet_mean.binaryproto
I0309 02:52:11.594928 15567 db_lmdb.cpp:38] Opened lmdb /work/04018/wxie/maverick/visual_recognition/data/train-lmdb
I0309 02:52:11.600080 15565 data_layer.cpp:41] output data size: 128,3,227,227
I0309 02:52:11.759495 15565 net.cpp:150] Setting up data
I0309 02:52:11.759582 15565 net.cpp:157] Top shape: 128 3 227 227 (19787136)
I0309 02:52:11.759615 15565 net.cpp:157] Top shape: 128 (128)
I0309 02:52:11.759642 15565 net.cpp:165] Memory required for data: 79149056
I0309 02:52:11.759683 15565 layer_factory.hpp:77] Creating layer conv1
I0309 02:52:11.759755 15565 net.cpp:106] Creating Layer conv1
I0309 02:52:11.759788 15565 net.cpp:454] conv1 <- data
I0309 02:52:11.759830 15565 net.cpp:411] conv1 -> conv1
I0309 02:52:11.770113 15565 net.cpp:150] Setting up conv1
I0309 02:52:11.770159 15565 net.cpp:157] Top shape: 128 96 55 55 (37171200)
I0309 02:52:11.770186 15565 net.cpp:165] Memory required for data: 227833856
I0309 02:52:11.770249 15565 layer_factory.hpp:77] Creating layer relu1
I0309 02:52:11.770287 15565 net.cpp:106] Creating Layer relu1
I0309 02:52:11.770314 15565 net.cpp:454] relu1 <- conv1
I0309 02:52:11.770344 15565 net.cpp:397] relu1 -> conv1 (in-place)
I0309 02:52:11.770375 15565 net.cpp:150] Setting up relu1
I0309 02:52:11.770406 15565 net.cpp:157] Top shape: 128 96 55 55 (37171200)
I0309 02:52:11.770432 15565 net.cpp:165] Memory required for data: 376518656
I0309 02:52:11.770463 15565 layer_factory.hpp:77] Creating layer pool1
I0309 02:52:11.770496 15565 net.cpp:106] Creating Layer pool1
I0309 02:52:11.770524 15565 net.cpp:454] pool1 <- conv1
I0309 02:52:11.770552 15565 net.cpp:411] pool1 -> pool1
I0309 02:52:11.770705 15565 net.cpp:150] Setting up pool1
I0309 02:52:11.770764 15565 net.cpp:157] Top shape: 128 96 27 27 (8957952)
I0309 02:52:11.770824 15565 net.cpp:165] Memory required for data: 412350464
I0309 02:52:11.770853 15565 layer_factory.hpp:77] Creating layer norm1
I0309 02:52:11.770884 15565 net.cpp:106] Creating Layer norm1
I0309 02:52:11.770912 15565 net.cpp:454] norm1 <- pool1
I0309 02:52:11.770939 15565 net.cpp:411] norm1 -> norm1
I0309 02:52:11.771030 15565 net.cpp:150] Setting up norm1
I0309 02:52:11.771066 15565 net.cpp:157] Top shape: 128 96 27 27 (8957952)
I0309 02:52:11.771093 15565 net.cpp:165] Memory required for data: 448182272
I0309 02:52:11.771121 15565 layer_factory.hpp:77] Creating layer conv2
I0309 02:52:11.771155 15565 net.cpp:106] Creating Layer conv2
I0309 02:52:11.771185 15565 net.cpp:454] conv2 <- norm1
I0309 02:52:11.771215 15565 net.cpp:411] conv2 -> conv2
I0309 02:52:11.784234 15565 net.cpp:150] Setting up conv2
I0309 02:52:11.784340 15565 net.cpp:157] Top shape: 128 256 27 27 (23887872)
I0309 02:52:11.784375 15565 net.cpp:165] Memory required for data: 543733760
I0309 02:52:11.784407 15565 layer_factory.hpp:77] Creating layer relu2
I0309 02:52:11.784452 15565 net.cpp:106] Creating Layer relu2
I0309 02:52:11.784489 15565 net.cpp:454] relu2 <- conv2
I0309 02:52:11.784528 15565 net.cpp:397] relu2 -> conv2 (in-place)
I0309 02:52:11.784564 15565 net.cpp:150] Setting up relu2
I0309 02:52:11.784590 15565 net.cpp:157] Top shape: 128 256 27 27 (23887872)
I0309 02:52:11.784623 15565 net.cpp:165] Memory required for data: 639285248
I0309 02:52:11.784644 15565 layer_factory.hpp:77] Creating layer pool2
I0309 02:52:11.784672 15565 net.cpp:106] Creating Layer pool2
I0309 02:52:11.784703 15565 net.cpp:454] pool2 <- conv2
I0309 02:52:11.784726 15565 net.cpp:411] pool2 -> pool2
I0309 02:52:11.784798 15565 net.cpp:150] Setting up pool2
I0309 02:52:11.784831 15565 net.cpp:157] Top shape: 128 256 13 13 (5537792)
I0309 02:52:11.784852 15565 net.cpp:165] Memory required for data: 661436416
I0309 02:52:11.784874 15565 layer_factory.hpp:77] Creating layer norm2
I0309 02:52:11.784911 15565 net.cpp:106] Creating Layer norm2
I0309 02:52:11.784934 15565 net.cpp:454] norm2 <- pool2
I0309 02:52:11.784961 15565 net.cpp:411] norm2 -> norm2
I0309 02:52:11.785018 15565 net.cpp:150] Setting up norm2
I0309 02:52:11.785049 15565 net.cpp:157] Top shape: 128 256 13 13 (5537792)
I0309 02:52:11.785071 15565 net.cpp:165] Memory required for data: 683587584
I0309 02:52:11.785094 15565 layer_factory.hpp:77] Creating layer conv3
I0309 02:52:11.785126 15565 net.cpp:106] Creating Layer conv3
I0309 02:52:11.785152 15565 net.cpp:454] conv3 <- norm2
I0309 02:52:11.785189 15565 net.cpp:411] conv3 -> conv3
I0309 02:52:11.820711 15565 net.cpp:150] Setting up conv3
I0309 02:52:11.820823 15565 net.cpp:157] Top shape: 128 384 13 13 (8306688)
I0309 02:52:11.820854 15565 net.cpp:165] Memory required for data: 716814336
I0309 02:52:11.820894 15565 layer_factory.hpp:77] Creating layer relu3
I0309 02:52:11.820929 15565 net.cpp:106] Creating Layer relu3
I0309 02:52:11.820958 15565 net.cpp:454] relu3 <- conv3
I0309 02:52:11.820993 15565 net.cpp:397] relu3 -> conv3 (in-place)
I0309 02:52:11.821033 15565 net.cpp:150] Setting up relu3
I0309 02:52:11.821063 15565 net.cpp:157] Top shape: 128 384 13 13 (8306688)
I0309 02:52:11.821092 15565 net.cpp:165] Memory required for data: 750041088
I0309 02:52:11.821120 15565 layer_factory.hpp:77] Creating layer conv4
I0309 02:52:11.821158 15565 net.cpp:106] Creating Layer conv4
I0309 02:52:11.821188 15565 net.cpp:454] conv4 <- conv3
I0309 02:52:11.821219 15565 net.cpp:411] conv4 -> conv4
I0309 02:52:11.853858 15565 net.cpp:150] Setting up conv4
I0309 02:52:11.853948 15565 net.cpp:157] Top shape: 128 384 13 13 (8306688)
I0309 02:52:11.853973 15565 net.cpp:165] Memory required for data: 783267840
I0309 02:52:11.854023 15565 layer_factory.hpp:77] Creating layer relu4
I0309 02:52:11.854055 15565 net.cpp:106] Creating Layer relu4
I0309 02:52:11.854079 15565 net.cpp:454] relu4 <- conv4
I0309 02:52:11.854118 15565 net.cpp:397] relu4 -> conv4 (in-place)
I0309 02:52:11.854149 15565 net.cpp:150] Setting up relu4
I0309 02:52:11.854202 15565 net.cpp:157] Top shape: 128 384 13 13 (8306688)
I0309 02:52:11.854269 15565 net.cpp:165] Memory required for data: 816494592
I0309 02:52:11.854311 15565 layer_factory.hpp:77] Creating layer conv5
I0309 02:52:11.854343 15565 net.cpp:106] Creating Layer conv5
I0309 02:52:11.854372 15565 net.cpp:454] conv5 <- conv4
I0309 02:52:11.854413 15565 net.cpp:411] conv5 -> conv5
I0309 02:52:11.872220 15565 net.cpp:150] Setting up conv5
I0309 02:52:11.872303 15565 net.cpp:157] Top shape: 128 256 13 13 (5537792)
I0309 02:52:11.872328 15565 net.cpp:165] Memory required for data: 838645760
I0309 02:52:11.872360 15565 layer_factory.hpp:77] Creating layer relu5
I0309 02:52:11.872395 15565 net.cpp:106] Creating Layer relu5
I0309 02:52:11.872424 15565 net.cpp:454] relu5 <- conv5
I0309 02:52:11.872462 15565 net.cpp:397] relu5 -> conv5 (in-place)
I0309 02:52:11.872498 15565 net.cpp:150] Setting up relu5
I0309 02:52:11.872529 15565 net.cpp:157] Top shape: 128 256 13 13 (5537792)
I0309 02:52:11.872555 15565 net.cpp:165] Memory required for data: 860796928
I0309 02:52:11.872581 15565 layer_factory.hpp:77] Creating layer pool5
I0309 02:52:11.872611 15565 net.cpp:106] Creating Layer pool5
I0309 02:52:11.872637 15565 net.cpp:454] pool5 <- conv5
I0309 02:52:11.872666 15565 net.cpp:411] pool5 -> pool5
I0309 02:52:11.872732 15565 net.cpp:150] Setting up pool5
I0309 02:52:11.872766 15565 net.cpp:157] Top shape: 128 256 6 6 (1179648)
I0309 02:52:11.872793 15565 net.cpp:165] Memory required for data: 865515520
I0309 02:52:11.872819 15565 layer_factory.hpp:77] Creating layer fc6
I0309 02:52:11.872895 15565 net.cpp:106] Creating Layer fc6
I0309 02:52:11.872925 15565 net.cpp:454] fc6 <- pool5
I0309 02:52:11.872956 15565 net.cpp:411] fc6 -> fc6
I0309 02:52:11.927803 15568 blocking_queue.cpp:50] Waiting for data
I0309 02:52:13.299716 15565 net.cpp:150] Setting up fc6
I0309 02:52:13.299841 15565 net.cpp:157] Top shape: 128 4096 (524288)
I0309 02:52:13.299865 15565 net.cpp:165] Memory required for data: 867612672
I0309 02:52:13.299895 15565 layer_factory.hpp:77] Creating layer relu6
I0309 02:52:13.299922 15565 net.cpp:106] Creating Layer relu6
I0309 02:52:13.299944 15565 net.cpp:454] relu6 <- fc6
I0309 02:52:13.299975 15565 net.cpp:397] relu6 -> fc6 (in-place)
I0309 02:52:13.300007 15565 net.cpp:150] Setting up relu6
I0309 02:52:13.300031 15565 net.cpp:157] Top shape: 128 4096 (524288)
I0309 02:52:13.300051 15565 net.cpp:165] Memory required for data: 869709824
I0309 02:52:13.300072 15565 layer_factory.hpp:77] Creating layer drop6
I0309 02:52:13.300096 15565 net.cpp:106] Creating Layer drop6
I0309 02:52:13.300117 15565 net.cpp:454] drop6 <- fc6
I0309 02:52:13.300140 15565 net.cpp:397] drop6 -> fc6 (in-place)
I0309 02:52:13.300221 15565 net.cpp:150] Setting up drop6
I0309 02:52:13.300251 15565 net.cpp:157] Top shape: 128 4096 (524288)
I0309 02:52:13.300271 15565 net.cpp:165] Memory required for data: 871806976
I0309 02:52:13.300292 15565 layer_factory.hpp:77] Creating layer fc7
I0309 02:52:13.300318 15565 net.cpp:106] Creating Layer fc7
I0309 02:52:13.300340 15565 net.cpp:454] fc7 <- fc6
I0309 02:52:13.300366 15565 net.cpp:411] fc7 -> fc7
I0309 02:52:13.914194 15565 net.cpp:150] Setting up fc7
I0309 02:52:13.914321 15565 net.cpp:157] Top shape: 128 4096 (524288)
I0309 02:52:13.914345 15565 net.cpp:165] Memory required for data: 873904128
I0309 02:52:13.914372 15565 layer_factory.hpp:77] Creating layer relu7
I0309 02:52:13.914402 15565 net.cpp:106] Creating Layer relu7
I0309 02:52:13.914424 15565 net.cpp:454] relu7 <- fc7
I0309 02:52:13.914454 15565 net.cpp:397] relu7 -> fc7 (in-place)
I0309 02:52:13.914486 15565 net.cpp:150] Setting up relu7
I0309 02:52:13.914510 15565 net.cpp:157] Top shape: 128 4096 (524288)
I0309 02:52:13.914531 15565 net.cpp:165] Memory required for data: 876001280
I0309 02:52:13.914551 15565 layer_factory.hpp:77] Creating layer drop7
I0309 02:52:13.914577 15565 net.cpp:106] Creating Layer drop7
I0309 02:52:13.914597 15565 net.cpp:454] drop7 <- fc7
I0309 02:52:13.914620 15565 net.cpp:397] drop7 -> fc7 (in-place)
I0309 02:52:13.914686 15565 net.cpp:150] Setting up drop7
I0309 02:52:13.914752 15565 net.cpp:157] Top shape: 128 4096 (524288)
I0309 02:52:13.914775 15565 net.cpp:165] Memory required for data: 878098432
I0309 02:52:13.914796 15565 layer_factory.hpp:77] Creating layer fc8_subset
I0309 02:52:13.914822 15565 net.cpp:106] Creating Layer fc8_subset
I0309 02:52:13.914845 15565 net.cpp:454] fc8_subset <- fc7
I0309 02:52:13.914871 15565 net.cpp:411] fc8_subset -> fc8_subset
I0309 02:52:13.919118 15565 net.cpp:150] Setting up fc8_subset
I0309 02:52:13.919155 15565 net.cpp:157] Top shape: 128 25 (3200)
I0309 02:52:13.919178 15565 net.cpp:165] Memory required for data: 878111232
I0309 02:52:13.919203 15565 layer_factory.hpp:77] Creating layer loss
I0309 02:52:13.919230 15565 net.cpp:106] Creating Layer loss
I0309 02:52:13.919253 15565 net.cpp:454] loss <- fc8_subset
I0309 02:52:13.919275 15565 net.cpp:454] loss <- label
I0309 02:52:13.919303 15565 net.cpp:411] loss -> loss
I0309 02:52:13.919363 15565 layer_factory.hpp:77] Creating layer loss
…
I0309 02:52:13.921772 15565 net.cpp:322] The NetState phase (1) differed from the phase (0) specified by a rule in layer data
I0309 02:52:13.922009 15565 net.cpp:49] Initializing net from parameters: 
name: "FlickrStyleCaffeNet"
state {
  phase: TEST
}
layer {
  name: "data"
  type: "Data"
  top: "data"
  top: "label"
  include {
    phase: TEST
  }
  transform_param {
    mirror: false
    crop_size: 227
    mean_file: "/work/01932/dineshj/CS381V/caffe_install_scripts/caffe/data/ilsvrc12/imagenet_mean.binaryproto"
  }
  data_param {
    source: "/work/04018/wxie/maverick/visual_recognition/data/test-lmdb"
    batch_size: 20
    backend: LMDB
  }
}
layer {
  name: "conv1"
  type: "Convolution"
  bottom: "data"
  top: "conv1"
  param {
    lr_mult: 0
    decay_mult: 0
  }
  param {
    lr_mult: 0
    decay_mult: 0
  }
  convolution_param {
    num_output: 96
    kernel_size: 11
    stride: 4
    weight_filler {
      type: "gaussian"
      std: 0.01
    }
    bias_filler {
      type: "constant"
      value: 0
    }
  }
}
layer {
  name: "relu1"
  type: "ReLU"
  bottom: "conv1"
  top: "conv1"
}
layer {
  name: "pool1"
  type: "Pooling"
  bottom: "conv1"
  top: "pool1"
  pooling_param {
    pool: MAX
    kernel_size: 3
    stride: 2
  }
}
layer {
  name: "norm1"
  type: "LRN"
  bottom: "pool1"
  top: "norm1"
  lrn_param {
    local_size: 5
    alpha: 0.0001
    beta: 0.75
  }
}
layer {
  name: "conv2"
  type: "Convolution"
  bottom: "norm1"
  top: "conv2"
  param {
    lr_mult: 0
    decay_mult: 0
  }
  param {
    lr_mult: 0
    decay_mult: 0
  }
  convolution_param {
    num_output: 256
    pad: 2
    kernel_size: 5
    group: 2
    weight_filler {
      type: "gaussian"
      std: 0.01
    }
    bias_filler {
      type: "constant"
      value: 0.1
    }
  }
}
layer {
  name: "relu2"
  type: "ReLU"
  bottom: "conv2"
  top: "conv2"
}
layer {
  name: "pool2"
  type: "Pooling"
  bottom: "conv2"
  top: "pool2"
  pooling_param {
    pool: MAX
    kernel_size: 3
    stride: 2
  }
}
layer {
  name: "norm2"
  type: "LRN"
  bottom: "pool2"
  top: "norm2"
  lrn_param {
    local_size: 5
    alpha: 0.0001
    beta: 0.75
  }
}
layer {
  name: "conv3"
  type: "Convolution"
  bottom: "norm2"
  top: "conv3"
  param {
    lr_mult: 0
    decay_mult: 0
  }
  param {
    lr_mult: 0
    decay_mult: 0
  }
  convolution_param {
    num_output: 384
    pad: 1
    kernel_size: 3
    weight_filler {
      type: "gaussian"
      std: 0.01
    }
    bias_filler {
      type: "constant"
      value: 0
    }
  }
}
layer {
  name: "relu3"
  type: "ReLU"
  bottom: "conv3"
  top: "conv3"
}
layer {
  name: "conv4"
  type: "Convolution"
  bottom: "conv3"
  top: "conv4"
  param {
    lr_mult: 0
    decay_mult: 0
  }
  param {
    lr_mult: 0
    decay_mult: 0
  }
  convolution_param {
    num_output: 384
    pad: 1
    kernel_size: 3
    group: 2
    weight_filler {
      type: "gaussian"
      std: 0.01
    }
    bias_filler {
      type: "constant"
      value: 0.1
    }
  }
}
layer {
  name: "relu4"
  type: "ReLU"
  bottom: "conv4"
  top: "conv4"
}
layer {
  name: "conv5"
  type: "Convolution"
  bottom: "conv4"
  top: "conv5"
  param {
    lr_mult: 0
    decay_mult: 0
  }
  param {
    lr_mult: 0
    decay_mult: 0
  }
  convolution_param {
    num_output: 256
    pad: 1
    kernel_size: 3
    group: 2
    weight_filler {
      type: "gaussian"
      std: 0.01
    }
    bias_filler {
      type: "constant"
      value: 0.1
    }
  }
}
layer {
  name: "relu5"
  type: "ReLU"
  bottom: "conv5"
  top: "conv5"
}
layer {
  name: "pool5"
  type: "Pooling"
  bottom: "conv5"
  top: "pool5"
  pooling_param {
    pool: MAX
    kernel_size: 3
    stride: 2
  }
}
layer {
  name: "fc6"
  type: "InnerProduct"
  bottom: "pool5"
  top: "fc6"
  param {
    lr_mult: 1
    decay_mult: 1
  }
  param {
    lr_mult: 2
    decay_mult: 0
  }
  inner_product_param {
    num_output: 4096
    weight_filler {
      type: "gaussian"
      std: 0.005
    }
    bias_filler {
      type: "constant"
      value: 0.1
    }
  }
}
layer {
  name: "relu6"
  type: "ReLU"
  bottom: "fc6"
  top: "fc6"
}
layer {
  name: "drop6"
  type: "Dropout"
  bottom: "fc6"
  top: "fc6"
  dropout_param {
    dropout_ratio: 0.5
  }
}
layer {
  name: "fc7"
  type: "InnerProduct"
  bottom: "fc6"
  top: "fc7"
  param {
    lr_mult: 1
    decay_mult: 1
  }
  param {
    lr_mult: 2
    decay_mult: 0
  }
  inner_product_param {
    num_output: 4096
    weight_filler {
      type: "gaussian"
      std: 0.005
    }
    bias_filler {
      type: "constant"
      value: 0.1
    }
  }
}
layer {
  name: "relu7"
  type: "ReLU"
  bottom: "fc7"
  top: "fc7"
}
layer {
  name: "drop7"
  type: "Dropout"
  bottom: "fc7"
  top: "fc7"
  dropout_param {
    dropout_ratio: 0.5
  }
}
layer {
  name: "fc8_subset"
  type: "InnerProduct"
  bottom: "fc7"
  top: "fc8_subset"
  param {
    lr_mult: 10
    decay_mult: 1
  }
  param {
    lr_mult: 20
    decay_mult: 0
  }
  inner_product_param {
    num_output: 25
    weight_filler {
      type: "gaussian"
      std: 0.01
    }
    bias_filler {
      type: "constant"
      value: 0
    }
  }
}
layer {
  name: "loss"
  type: "SoftmaxWithLoss"
  bottom: "fc8_subset"
  bottom: "label"
  top: "loss"
}
layer {
  name: "accuracy"
  type: "Accuracy"
  bottom: "fc8_subset"
  bottom: "label"
  top: "accuracy"
  include {
    phase: TEST
  }
}
I0309 02:52:13.922173 15565 layer_factory.hpp:77] Creating layer data
I0309 02:52:13.922319 15565 net.cpp:106] Creating Layer data
I0309 02:52:13.922354 15565 net.cpp:411] data -> data
I0309 02:52:13.922399 15565 net.cpp:411] data -> label
I0309 02:52:13.922430 15565 data_transformer.cpp:25] Loading mean file from: /work/01932/dineshj/CS381V/caffe_install_scripts/caffe/data/ilsvrc12/imagenet_mean.binaryproto
I0309 02:52:13.991616 15569 db_lmdb.cpp:38] Opened lmdb /work/04018/wxie/maverick/visual_recognition/data/test-lmdb
I0309 02:52:13.993512 15565 data_layer.cpp:41] output data size: 20,3,227,227
I0309 02:52:14.017819 15565 net.cpp:150] Setting up data
I0309 02:52:14.017895 15565 net.cpp:157] Top shape: 20 3 227 227 (3091740)
I0309 02:52:14.017930 15565 net.cpp:157] Top shape: 20 (20)
I0309 02:52:14.017956 15565 net.cpp:165] Memory required for data: 12367040
I0309 02:52:14.017982 15565 layer_factory.hpp:77] Creating layer label_data_1_split
I0309 02:52:14.018014 15565 net.cpp:106] Creating Layer label_data_1_split
I0309 02:52:14.018041 15565 net.cpp:454] label_data_1_split <- label
I0309 02:52:14.018070 15565 net.cpp:411] label_data_1_split -> label_data_1_split_0
I0309 02:52:14.018103 15565 net.cpp:411] label_data_1_split -> label_data_1_split_1
I0309 02:52:14.018193 15565 net.cpp:150] Setting up label_data_1_split
I0309 02:52:14.018229 15565 net.cpp:157] Top shape: 20 (20)
I0309 02:52:14.018257 15565 net.cpp:157] Top shape: 20 (20)
I0309 02:52:14.018282 15565 net.cpp:165] Memory required for data: 12367200
I0309 02:52:14.018311 15565 layer_factory.hpp:77] Creating layer conv1
I0309 02:52:14.018344 15565 net.cpp:106] Creating Layer conv1
I0309 02:52:14.018373 15565 net.cpp:454] conv1 <- data
I0309 02:52:14.018402 15565 net.cpp:411] conv1 -> conv1
I0309 02:52:14.019978 15565 net.cpp:150] Setting up conv1
I0309 02:52:14.020025 15565 net.cpp:157] Top shape: 20 96 55 55 (5808000)
I0309 02:52:14.020051 15565 net.cpp:165] Memory required for data: 35599200
I0309 02:52:14.020081 15565 layer_factory.hpp:77] Creating layer relu1
I0309 02:52:14.020107 15565 net.cpp:106] Creating Layer relu1
I0309 02:52:14.020129 15565 net.cpp:454] relu1 <- conv1
I0309 02:52:14.020159 15565 net.cpp:397] relu1 -> conv1 (in-place)
I0309 02:52:14.020190 15565 net.cpp:150] Setting up relu1
I0309 02:52:14.020220 15565 net.cpp:157] Top shape: 20 96 55 55 (5808000)
I0309 02:52:14.020246 15565 net.cpp:165] Memory required for data: 58831200
I0309 02:52:14.020272 15565 layer_factory.hpp:77] Creating layer pool1
I0309 02:52:14.020300 15565 net.cpp:106] Creating Layer pool1
I0309 02:52:14.020328 15565 net.cpp:454] pool1 <- conv1
I0309 02:52:14.020359 15565 net.cpp:411] pool1 -> pool1
I0309 02:52:14.020417 15565 net.cpp:150] Setting up pool1
I0309 02:52:14.020457 15565 net.cpp:157] Top shape: 20 96 27 27 (1399680)
I0309 02:52:14.020484 15565 net.cpp:165] Memory required for data: 64429920
I0309 02:52:14.020510 15565 layer_factory.hpp:77] Creating layer norm1
I0309 02:52:14.020540 15565 net.cpp:106] Creating Layer norm1
I0309 02:52:14.020567 15565 net.cpp:454] norm1 <- pool1
I0309 02:52:14.020597 15565 net.cpp:411] norm1 -> norm1
I0309 02:52:14.020653 15565 net.cpp:150] Setting up norm1
I0309 02:52:14.020686 15565 net.cpp:157] Top shape: 20 96 27 27 (1399680)
I0309 02:52:14.020710 15565 net.cpp:165] Memory required for data: 70028640
I0309 02:52:14.020752 15565 layer_factory.hpp:77] Creating layer conv2
I0309 02:52:14.020804 15565 net.cpp:106] Creating Layer conv2
I0309 02:52:14.020833 15565 net.cpp:454] conv2 <- norm1
I0309 02:52:14.020860 15565 net.cpp:411] conv2 -> conv2
I0309 02:52:14.033556 15565 net.cpp:150] Setting up conv2
I0309 02:52:14.033620 15565 net.cpp:157] Top shape: 20 256 27 27 (3732480)
I0309 02:52:14.033660 15565 net.cpp:165] Memory required for data: 84958560
I0309 02:52:14.033695 15565 layer_factory.hpp:77] Creating layer relu2
I0309 02:52:14.033732 15565 net.cpp:106] Creating Layer relu2
I0309 02:52:14.033776 15565 net.cpp:454] relu2 <- conv2
I0309 02:52:14.033807 15565 net.cpp:397] relu2 -> conv2 (in-place)
I0309 02:52:14.033860 15565 net.cpp:150] Setting up relu2
I0309 02:52:14.033900 15565 net.cpp:157] Top shape: 20 256 27 27 (3732480)
I0309 02:52:14.033927 15565 net.cpp:165] Memory required for data: 99888480
I0309 02:52:14.033965 15565 layer_factory.hpp:77] Creating layer pool2
I0309 02:52:14.033995 15565 net.cpp:106] Creating Layer pool2
I0309 02:52:14.034023 15565 net.cpp:454] pool2 <- conv2
I0309 02:52:14.034051 15565 net.cpp:411] pool2 -> pool2
I0309 02:52:14.034116 15565 net.cpp:150] Setting up pool2
I0309 02:52:14.034150 15565 net.cpp:157] Top shape: 20 256 13 13 (865280)
I0309 02:52:14.034178 15565 net.cpp:165] Memory required for data: 103349600
I0309 02:52:14.034204 15565 layer_factory.hpp:77] Creating layer norm2
I0309 02:52:14.034235 15565 net.cpp:106] Creating Layer norm2
I0309 02:52:14.034265 15565 net.cpp:454] norm2 <- pool2
I0309 02:52:14.034294 15565 net.cpp:411] norm2 -> norm2
I0309 02:52:14.034353 15565 net.cpp:150] Setting up norm2
I0309 02:52:14.034387 15565 net.cpp:157] Top shape: 20 256 13 13 (865280)
I0309 02:52:14.034409 15565 net.cpp:165] Memory required for data: 106810720
I0309 02:52:14.034431 15565 layer_factory.hpp:77] Creating layer conv3
I0309 02:52:14.034479 15565 net.cpp:106] Creating Layer conv3
I0309 02:52:14.034508 15565 net.cpp:454] conv3 <- norm2
I0309 02:52:14.034539 15565 net.cpp:411] conv3 -> conv3
I0309 02:52:14.071080 15565 net.cpp:150] Setting up conv3
I0309 02:52:14.071171 15565 net.cpp:157] Top shape: 20 384 13 13 (1297920)
I0309 02:52:14.071202 15565 net.cpp:165] Memory required for data: 112002400
I0309 02:52:14.071239 15565 layer_factory.hpp:77] Creating layer relu3
I0309 02:52:14.071272 15565 net.cpp:106] Creating Layer relu3
I0309 02:52:14.071301 15565 net.cpp:454] relu3 <- conv3
I0309 02:52:14.071333 15565 net.cpp:397] relu3 -> conv3 (in-place)
I0309 02:52:14.071367 15565 net.cpp:150] Setting up relu3
I0309 02:52:14.071398 15565 net.cpp:157] Top shape: 20 384 13 13 (1297920)
I0309 02:52:14.071424 15565 net.cpp:165] Memory required for data: 117194080
I0309 02:52:14.071457 15565 layer_factory.hpp:77] Creating layer conv4
I0309 02:52:14.071494 15565 net.cpp:106] Creating Layer conv4
I0309 02:52:14.071524 15565 net.cpp:454] conv4 <- conv3
I0309 02:52:14.071555 15565 net.cpp:411] conv4 -> conv4
I0309 02:52:14.098865 15565 net.cpp:150] Setting up conv4
I0309 02:52:14.098914 15565 net.cpp:157] Top shape: 20 384 13 13 (1297920)
I0309 02:52:14.098942 15565 net.cpp:165] Memory required for data: 122385760
I0309 02:52:14.098969 15565 layer_factory.hpp:77] Creating layer relu4
I0309 02:52:14.099000 15565 net.cpp:106] Creating Layer relu4
I0309 02:52:14.099027 15565 net.cpp:454] relu4 <- conv4
I0309 02:52:14.099055 15565 net.cpp:397] relu4 -> conv4 (in-place)
I0309 02:52:14.099083 15565 net.cpp:150] Setting up relu4
I0309 02:52:14.099112 15565 net.cpp:157] Top shape: 20 384 13 13 (1297920)
I0309 02:52:14.099135 15565 net.cpp:165] Memory required for data: 127577440
I0309 02:52:14.099159 15565 layer_factory.hpp:77] Creating layer conv5
I0309 02:52:14.099192 15565 net.cpp:106] Creating Layer conv5
I0309 02:52:14.099220 15565 net.cpp:454] conv5 <- conv4
I0309 02:52:14.099251 15565 net.cpp:411] conv5 -> conv5
I0309 02:52:14.117600 15565 net.cpp:150] Setting up conv5
I0309 02:52:14.117647 15565 net.cpp:157] Top shape: 20 256 13 13 (865280)
I0309 02:52:14.117674 15565 net.cpp:165] Memory required for data: 131038560
I0309 02:52:14.117729 15565 layer_factory.hpp:77] Creating layer relu5
I0309 02:52:14.117794 15565 net.cpp:106] Creating Layer relu5
I0309 02:52:14.117823 15565 net.cpp:454] relu5 <- conv5
I0309 02:52:14.117853 15565 net.cpp:397] relu5 -> conv5 (in-place)
I0309 02:52:14.117884 15565 net.cpp:150] Setting up relu5
I0309 02:52:14.117913 15565 net.cpp:157] Top shape: 20 256 13 13 (865280)
I0309 02:52:14.117934 15565 net.cpp:165] Memory required for data: 134499680
I0309 02:52:14.117957 15565 layer_factory.hpp:77] Creating layer pool5
I0309 02:52:14.117990 15565 net.cpp:106] Creating Layer pool5
I0309 02:52:14.118019 15565 net.cpp:454] pool5 <- conv5
I0309 02:52:14.118052 15565 net.cpp:411] pool5 -> pool5
I0309 02:52:14.118116 15565 net.cpp:150] Setting up pool5
I0309 02:52:14.118151 15565 net.cpp:157] Top shape: 20 256 6 6 (184320)
I0309 02:52:14.118177 15565 net.cpp:165] Memory required for data: 135236960
I0309 02:52:14.118202 15565 layer_factory.hpp:77] Creating layer fc6
I0309 02:52:14.118235 15565 net.cpp:106] Creating Layer fc6
I0309 02:52:14.118264 15565 net.cpp:454] fc6 <- pool5
I0309 02:52:14.118295 15565 net.cpp:411] fc6 -> fc6
I0309 02:52:15.502610 15565 net.cpp:150] Setting up fc6
I0309 02:52:15.502734 15565 net.cpp:157] Top shape: 20 4096 (81920)
I0309 02:52:15.502758 15565 net.cpp:165] Memory required for data: 135564640
I0309 02:52:15.502787 15565 layer_factory.hpp:77] Creating layer relu6
I0309 02:52:15.502816 15565 net.cpp:106] Creating Layer relu6
I0309 02:52:15.502840 15565 net.cpp:454] relu6 <- fc6
I0309 02:52:15.502866 15565 net.cpp:397] relu6 -> fc6 (in-place)
I0309 02:52:15.502897 15565 net.cpp:150] Setting up relu6
I0309 02:52:15.502921 15565 net.cpp:157] Top shape: 20 4096 (81920)
I0309 02:52:15.502943 15565 net.cpp:165] Memory required for data: 135892320
I0309 02:52:15.502962 15565 layer_factory.hpp:77] Creating layer drop6
I0309 02:52:15.502990 15565 net.cpp:106] Creating Layer drop6
I0309 02:52:15.503013 15565 net.cpp:454] drop6 <- fc6
I0309 02:52:15.503036 15565 net.cpp:397] drop6 -> fc6 (in-place)
I0309 02:52:15.503087 15565 net.cpp:150] Setting up drop6
I0309 02:52:15.503116 15565 net.cpp:157] Top shape: 20 4096 (81920)
I0309 02:52:15.503137 15565 net.cpp:165] Memory required for data: 136220000
I0309 02:52:15.503159 15565 layer_factory.hpp:77] Creating layer fc7
I0309 02:52:15.503185 15565 net.cpp:106] Creating Layer fc7
I0309 02:52:15.503206 15565 net.cpp:454] fc7 <- fc6
I0309 02:52:15.503232 15565 net.cpp:411] fc7 -> fc7
I0309 02:52:16.116359 15565 net.cpp:150] Setting up fc7
I0309 02:52:16.116490 15565 net.cpp:157] Top shape: 20 4096 (81920)
I0309 02:52:16.116514 15565 net.cpp:165] Memory required for data: 136547680
I0309 02:52:16.116542 15565 layer_factory.hpp:77] Creating layer relu7
I0309 02:52:16.116571 15565 net.cpp:106] Creating Layer relu7
I0309 02:52:16.116595 15565 net.cpp:454] relu7 <- fc7
I0309 02:52:16.116622 15565 net.cpp:397] relu7 -> fc7 (in-place)
I0309 02:52:16.116654 15565 net.cpp:150] Setting up relu7
I0309 02:52:16.116679 15565 net.cpp:157] Top shape: 20 4096 (81920)
I0309 02:52:16.116699 15565 net.cpp:165] Memory required for data: 136875360
I0309 02:52:16.116720 15565 layer_factory.hpp:77] Creating layer drop7
I0309 02:52:16.116745 15565 net.cpp:106] Creating Layer drop7
I0309 02:52:16.116767 15565 net.cpp:454] drop7 <- fc7
I0309 02:52:16.116791 15565 net.cpp:397] drop7 -> fc7 (in-place)
I0309 02:52:16.116839 15565 net.cpp:150] Setting up drop7
I0309 02:52:16.116869 15565 net.cpp:157] Top shape: 20 4096 (81920)
I0309 02:52:16.116890 15565 net.cpp:165] Memory required for data: 137203040
I0309 02:52:16.116910 15565 layer_factory.hpp:77] Creating layer fc8_subset
I0309 02:52:16.116940 15565 net.cpp:106] Creating Layer fc8_subset
I0309 02:52:16.116962 15565 net.cpp:454] fc8_subset <- fc7
I0309 02:52:16.116986 15565 net.cpp:411] fc8_subset -> fc8_subset
I0309 02:52:16.120671 15565 net.cpp:150] Setting up fc8_subset
I0309 02:52:16.120705 15565 net.cpp:157] Top shape: 20 25 (500)
I0309 02:52:16.120726 15565 net.cpp:165] Memory required for data: 137205040
I0309 02:52:16.120779 15565 layer_factory.hpp:77] Creating layer fc8_subset_fc8_subset_0_split
I0309 02:52:16.120842 15565 net.cpp:106] Creating Layer fc8_subset_fc8_subset_0_split
I0309 02:52:16.120867 15565 net.cpp:454] fc8_subset_fc8_subset_0_split <- fc8_subset
I0309 02:52:16.120895 15565 net.cpp:411] fc8_subset_fc8_subset_0_split -> fc8_subset_fc8_subset_0_split_0
I0309 02:52:16.120923 15565 net.cpp:411] fc8_subset_fc8_subset_0_split -> fc8_subset_fc8_subset_0_split_1
I0309 02:52:16.120988 15565 net.cpp:150] Setting up fc8_subset_fc8_subset_0_split
I0309 02:52:16.121018 15565 net.cpp:157] Top shape: 20 25 (500)
I0309 02:52:16.121042 15565 net.cpp:157] Top shape: 20 25 (500)
I0309 02:52:16.121062 15565 net.cpp:165] Memory required for data: 137209040
I0309 02:52:16.121083 15565 layer_factory.hpp:77] Creating layer loss
I0309 02:52:16.121105 15565 net.cpp:106] Creating Layer loss
I0309 02:52:16.121127 15565 net.cpp:454] loss <- fc8_subset_fc8_subset_0_split_0
I0309 02:52:16.121150 15565 net.cpp:454] loss <- label_data_1_split_0
I0309 02:52:16.121176 15565 net.cpp:411] loss -> loss
…
