…
I0306 06:40:06.149871 37292 net.cpp:322] The NetState phase (0) differed from the phase (1) specified by a rule in layer accuracy
I0306 06:40:06.150084 37292 net.cpp:49] Initializing net from parameters: 
name: "FlickrStyleCaffeNet"
state {
  phase: TRAIN
}
layer {
  name: "data"
  type: "Data"
  top: "data"
  top: "label"
  include {
    phase: TRAIN
  }
  transform_param {
    mirror: true
    crop_size: 227
    mean_file: "/work/01932/dineshj/CS381V/caffe_install_scripts/caffe/data/ilsvrc12/imagenet_mean.binaryproto"
  }
  data_param {
    source: "/work/04018/wxie/maverick/visual_recognition/data/train-lmdb"
    batch_size: 128
    backend: LMDB
  }
}
layer {
  name: "conv1"
  type: "Convolution"
  bottom: "data"
  top: "conv1"
  param {
    lr_mult: 1
    decay_mult: 1
  }
  param {
    lr_mult: 2
    decay_mult: 0
  }
  convolution_param {
    num_output: 96
    kernel_size: 11
    stride: 4
    weight_filler {
      type: "gaussian"
      std: 0.01
    }
    bias_filler {
      type: "constant"
      value: 0
    }
  }
}
layer {
  name: "relu1"
  type: "ReLU"
  bottom: "conv1"
  top: "conv1"
}
layer {
  name: "pool1"
  type: "Pooling"
  bottom: "conv1"
  top: "pool1"
  pooling_param {
    pool: MAX
    kernel_size: 3
    stride: 2
  }
}
layer {
  name: "norm1"
  type: "LRN"
  bottom: "pool1"
  top: "norm1"
  lrn_param {
    local_size: 5
    alpha: 0.0001
    beta: 0.75
  }
}
layer {
  name: "conv2"
  type: "Convolution"
  bottom: "norm1"
  top: "conv2"
  param {
    lr_mult: 1
    decay_mult: 1
  }
  param {
    lr_mult: 2
    decay_mult: 0
  }
  convolution_param {
    num_output: 256
    pad: 2
    kernel_size: 5
    group: 2
    weight_filler {
      type: "gaussian"
      std: 0.01
    }
    bias_filler {
      type: "constant"
      value: 0.1
    }
  }
}
layer {
  name: "relu2"
  type: "ReLU"
  bottom: "conv2"
  top: "conv2"
}
layer {
  name: "pool2"
  type: "Pooling"
  bottom: "conv2"
  top: "pool2"
  pooling_param {
    pool: MAX
    kernel_size: 3
    stride: 2
  }
}
layer {
  name: "norm2"
  type: "LRN"
  bottom: "pool2"
  top: "norm2"
  lrn_param {
    local_size: 5
    alpha: 0.0001
    beta: 0.75
  }
}
layer {
  name: "conv3"
  type: "Convolution"
  bottom: "norm2"
  top: "conv3"
  param {
    lr_mult: 1
    decay_mult: 1
  }
  param {
    lr_mult: 2
    decay_mult: 0
  }
  convolution_param {
    num_output: 384
    pad: 1
    kernel_size: 3
    weight_filler {
      type: "gaussian"
      std: 0.01
    }
    bias_filler {
      type: "constant"
      value: 0
    }
  }
}
layer {
  name: "relu3"
  type: "ReLU"
  bottom: "conv3"
  top: "conv3"
}
layer {
  name: "conv4"
  type: "Convolution"
  bottom: "conv3"
  top: "conv4"
  param {
    lr_mult: 1
    decay_mult: 1
  }
  param {
    lr_mult: 2
    decay_mult: 0
  }
  convolution_param {
    num_output: 384
    pad: 1
    kernel_size: 3
    group: 2
    weight_filler {
      type: "gaussian"
      std: 0.01
    }
    bias_filler {
      type: "constant"
      value: 0.1
    }
  }
}
layer {
  name: "relu4"
  type: "ReLU"
  bottom: "conv4"
  top: "conv4"
}
layer {
  name: "conv5"
  type: "Convolution"
  bottom: "conv4"
  top: "conv5"
  param {
    lr_mult: 1
    decay_mult: 1
  }
  param {
    lr_mult: 2
    decay_mult: 0
  }
  convolution_param {
    num_output: 256
    pad: 1
    kernel_size: 3
    group: 2
    weight_filler {
      type: "gaussian"
      std: 0.01
    }
    bias_filler {
      type: "constant"
      value: 0.1
    }
  }
}
layer {
  name: "relu5"
  type: "ReLU"
  bottom: "conv5"
  top: "conv5"
}
layer {
  name: "pool5"
  type: "Pooling"
  bottom: "conv5"
  top: "pool5"
  pooling_param {
    pool: MAX
    kernel_size: 3
    stride: 2
  }
}
layer {
  name: "fc6"
  type: "InnerProduct"
  bottom: "pool5"
  top: "fc6"
  param {
    lr_mult: 1
    decay_mult: 1
  }
  param {
    lr_mult: 2
    decay_mult: 0
  }
  inner_product_param {
    num_output: 4096
    weight_filler {
      type: "gaussian"
      std: 0.005
    }
    bias_filler {
      type: "constant"
      value: 0.1
    }
  }
}
layer {
  name: "relu6"
  type: "ReLU"
  bottom: "fc6"
  top: "fc6"
}
layer {
  name: "drop6"
  type: "Dropout"
  bottom: "fc6"
  top: "fc6"
  dropout_param {
    dropout_ratio: 0.5
  }
}
layer {
  name: "fc7"
  type: "InnerProduct"
  bottom: "fc6"
  top: "fc7"
  param {
    lr_mult: 1
    decay_mult: 1
  }
  param {
    lr_mult: 2
    decay_mult: 0
  }
  inner_product_param {
    num_output: 4096
    weight_filler {
      type: "gaussian"
      std: 0.005
    }
    bias_filler {
      type: "constant"
      value: 0.1
    }
  }
}
layer {
  name: "relu7"
  type: "ReLU"
  bottom: "fc7"
  top: "fc7"
}
layer {
  name: "drop7"
  type: "Dropout"
  bottom: "fc7"
  top: "fc7"
  dropout_param {
    dropout_ratio: 0.5
  }
}
layer {
  name: "fc8_subset"
  type: "InnerProduct"
  bottom: "fc7"
  top: "fc8_subset"
  param {
    lr_mult: 10
    decay_mult: 1
  }
  param {
    lr_mult: 20
    decay_mult: 0
  }
  inner_product_param {
    num_output: 25
    weight_filler {
      type: "gaussian"
      std: 0.01
    }
    bias_filler {
      type: "constant"
      value: 0
    }
  }
}
layer {
  name: "loss"
  type: "SoftmaxWithLoss"
  bottom: "fc8_subset"
  bottom: "label"
  top: "loss"
}
I0306 06:40:06.150362 37292 layer_factory.hpp:77] Creating layer data
I0306 06:40:06.151229 37292 net.cpp:106] Creating Layer data
I0306 06:40:06.151290 37292 net.cpp:411] data -> data
I0306 06:40:06.151392 37292 net.cpp:411] data -> label
I0306 06:40:06.151482 37292 data_transformer.cpp:25] Loading mean file from: /work/01932/dineshj/CS381V/caffe_install_scripts/caffe/data/ilsvrc12/imagenet_mean.binaryproto
I0306 06:40:06.222537 37295 db_lmdb.cpp:38] Opened lmdb /work/04018/wxie/maverick/visual_recognition/data/train-lmdb
I0306 06:40:06.236443 37292 data_layer.cpp:41] output data size: 128,3,227,227
I0306 06:40:06.393117 37292 net.cpp:150] Setting up data
I0306 06:40:06.393225 37292 net.cpp:157] Top shape: 128 3 227 227 (19787136)
I0306 06:40:06.393263 37292 net.cpp:157] Top shape: 128 (128)
I0306 06:40:06.393291 37292 net.cpp:165] Memory required for data: 79149056
I0306 06:40:06.393332 37292 layer_factory.hpp:77] Creating layer conv1
I0306 06:40:06.393405 37292 net.cpp:106] Creating Layer conv1
I0306 06:40:06.393438 37292 net.cpp:454] conv1 <- data
I0306 06:40:06.393478 37292 net.cpp:411] conv1 -> conv1
I0306 06:40:06.403620 37292 net.cpp:150] Setting up conv1
I0306 06:40:06.403666 37292 net.cpp:157] Top shape: 128 96 55 55 (37171200)
I0306 06:40:06.403694 37292 net.cpp:165] Memory required for data: 227833856
I0306 06:40:06.403755 37292 layer_factory.hpp:77] Creating layer relu1
I0306 06:40:06.403805 37292 net.cpp:106] Creating Layer relu1
I0306 06:40:06.403837 37292 net.cpp:454] relu1 <- conv1
I0306 06:40:06.403867 37292 net.cpp:397] relu1 -> conv1 (in-place)
I0306 06:40:06.403901 37292 net.cpp:150] Setting up relu1
I0306 06:40:06.403933 37292 net.cpp:157] Top shape: 128 96 55 55 (37171200)
I0306 06:40:06.403959 37292 net.cpp:165] Memory required for data: 376518656
I0306 06:40:06.403985 37292 layer_factory.hpp:77] Creating layer pool1
I0306 06:40:06.404016 37292 net.cpp:106] Creating Layer pool1
I0306 06:40:06.404047 37292 net.cpp:454] pool1 <- conv1
I0306 06:40:06.404075 37292 net.cpp:411] pool1 -> pool1
I0306 06:40:06.404229 37292 net.cpp:150] Setting up pool1
I0306 06:40:06.404265 37292 net.cpp:157] Top shape: 128 96 27 27 (8957952)
I0306 06:40:06.404350 37292 net.cpp:165] Memory required for data: 412350464
I0306 06:40:06.404376 37292 layer_factory.hpp:77] Creating layer norm1
I0306 06:40:06.404402 37292 net.cpp:106] Creating Layer norm1
I0306 06:40:06.404424 37292 net.cpp:454] norm1 <- pool1
I0306 06:40:06.404453 37292 net.cpp:411] norm1 -> norm1
I0306 06:40:06.404556 37292 net.cpp:150] Setting up norm1
I0306 06:40:06.404592 37292 net.cpp:157] Top shape: 128 96 27 27 (8957952)
I0306 06:40:06.404618 37292 net.cpp:165] Memory required for data: 448182272
I0306 06:40:06.404644 37292 layer_factory.hpp:77] Creating layer conv2
I0306 06:40:06.404678 37292 net.cpp:106] Creating Layer conv2
I0306 06:40:06.404707 37292 net.cpp:454] conv2 <- norm1
I0306 06:40:06.404738 37292 net.cpp:411] conv2 -> conv2
I0306 06:40:06.417645 37292 net.cpp:150] Setting up conv2
I0306 06:40:06.417726 37292 net.cpp:157] Top shape: 128 256 27 27 (23887872)
I0306 06:40:06.417754 37292 net.cpp:165] Memory required for data: 543733760
I0306 06:40:06.417793 37292 layer_factory.hpp:77] Creating layer relu2
I0306 06:40:06.417830 37292 net.cpp:106] Creating Layer relu2
I0306 06:40:06.417860 37292 net.cpp:454] relu2 <- conv2
I0306 06:40:06.417891 37292 net.cpp:397] relu2 -> conv2 (in-place)
I0306 06:40:06.417922 37292 net.cpp:150] Setting up relu2
I0306 06:40:06.417953 37292 net.cpp:157] Top shape: 128 256 27 27 (23887872)
I0306 06:40:06.417981 37292 net.cpp:165] Memory required for data: 639285248
I0306 06:40:06.418007 37292 layer_factory.hpp:77] Creating layer pool2
I0306 06:40:06.418040 37292 net.cpp:106] Creating Layer pool2
I0306 06:40:06.418069 37292 net.cpp:454] pool2 <- conv2
I0306 06:40:06.418098 37292 net.cpp:411] pool2 -> pool2
I0306 06:40:06.418159 37292 net.cpp:150] Setting up pool2
I0306 06:40:06.418195 37292 net.cpp:157] Top shape: 128 256 13 13 (5537792)
I0306 06:40:06.418220 37292 net.cpp:165] Memory required for data: 661436416
I0306 06:40:06.418246 37292 layer_factory.hpp:77] Creating layer norm2
I0306 06:40:06.418277 37292 net.cpp:106] Creating Layer norm2
I0306 06:40:06.418303 37292 net.cpp:454] norm2 <- pool2
I0306 06:40:06.418334 37292 net.cpp:411] norm2 -> norm2
I0306 06:40:06.418393 37292 net.cpp:150] Setting up norm2
I0306 06:40:06.418429 37292 net.cpp:157] Top shape: 128 256 13 13 (5537792)
I0306 06:40:06.418452 37292 net.cpp:165] Memory required for data: 683587584
I0306 06:40:06.418474 37292 layer_factory.hpp:77] Creating layer conv3
I0306 06:40:06.418508 37292 net.cpp:106] Creating Layer conv3
I0306 06:40:06.418531 37292 net.cpp:454] conv3 <- norm2
I0306 06:40:06.418560 37292 net.cpp:411] conv3 -> conv3
I0306 06:40:06.454252 37292 net.cpp:150] Setting up conv3
I0306 06:40:06.454358 37292 net.cpp:157] Top shape: 128 384 13 13 (8306688)
I0306 06:40:06.454385 37292 net.cpp:165] Memory required for data: 716814336
I0306 06:40:06.454418 37292 layer_factory.hpp:77] Creating layer relu3
I0306 06:40:06.454450 37292 net.cpp:106] Creating Layer relu3
I0306 06:40:06.454476 37292 net.cpp:454] relu3 <- conv3
I0306 06:40:06.454504 37292 net.cpp:397] relu3 -> conv3 (in-place)
I0306 06:40:06.454537 37292 net.cpp:150] Setting up relu3
I0306 06:40:06.454574 37292 net.cpp:157] Top shape: 128 384 13 13 (8306688)
I0306 06:40:06.454596 37292 net.cpp:165] Memory required for data: 750041088
I0306 06:40:06.454618 37292 layer_factory.hpp:77] Creating layer conv4
I0306 06:40:06.454663 37292 net.cpp:106] Creating Layer conv4
I0306 06:40:06.454701 37292 net.cpp:454] conv4 <- conv3
I0306 06:40:06.454727 37292 net.cpp:411] conv4 -> conv4
I0306 06:40:06.487232 37292 net.cpp:150] Setting up conv4
I0306 06:40:06.487328 37292 net.cpp:157] Top shape: 128 384 13 13 (8306688)
I0306 06:40:06.487356 37292 net.cpp:165] Memory required for data: 783267840
I0306 06:40:06.487390 37292 layer_factory.hpp:77] Creating layer relu4
I0306 06:40:06.487422 37292 net.cpp:106] Creating Layer relu4
I0306 06:40:06.487449 37292 net.cpp:454] relu4 <- conv4
I0306 06:40:06.487483 37292 net.cpp:397] relu4 -> conv4 (in-place)
I0306 06:40:06.487519 37292 net.cpp:150] Setting up relu4
I0306 06:40:06.487576 37292 net.cpp:157] Top shape: 128 384 13 13 (8306688)
I0306 06:40:06.487637 37292 net.cpp:165] Memory required for data: 816494592
I0306 06:40:06.487661 37292 layer_factory.hpp:77] Creating layer conv5
I0306 06:40:06.487691 37292 net.cpp:106] Creating Layer conv5
I0306 06:40:06.487720 37292 net.cpp:454] conv5 <- conv4
I0306 06:40:06.487751 37292 net.cpp:411] conv5 -> conv5
I0306 06:40:06.505671 37292 net.cpp:150] Setting up conv5
I0306 06:40:06.505762 37292 net.cpp:157] Top shape: 128 256 13 13 (5537792)
I0306 06:40:06.505798 37292 net.cpp:165] Memory required for data: 838645760
I0306 06:40:06.505842 37292 layer_factory.hpp:77] Creating layer relu5
I0306 06:40:06.505877 37292 net.cpp:106] Creating Layer relu5
I0306 06:40:06.505904 37292 net.cpp:454] relu5 <- conv5
I0306 06:40:06.505936 37292 net.cpp:397] relu5 -> conv5 (in-place)
I0306 06:40:06.505971 37292 net.cpp:150] Setting up relu5
I0306 06:40:06.506001 37292 net.cpp:157] Top shape: 128 256 13 13 (5537792)
I0306 06:40:06.506027 37292 net.cpp:165] Memory required for data: 860796928
I0306 06:40:06.506053 37292 layer_factory.hpp:77] Creating layer pool5
I0306 06:40:06.506084 37292 net.cpp:106] Creating Layer pool5
I0306 06:40:06.506111 37292 net.cpp:454] pool5 <- conv5
I0306 06:40:06.506141 37292 net.cpp:411] pool5 -> pool5
I0306 06:40:06.506211 37292 net.cpp:150] Setting up pool5
I0306 06:40:06.506242 37292 net.cpp:157] Top shape: 128 256 6 6 (1179648)
I0306 06:40:06.506263 37292 net.cpp:165] Memory required for data: 865515520
I0306 06:40:06.506285 37292 layer_factory.hpp:77] Creating layer fc6
I0306 06:40:06.506357 37292 net.cpp:106] Creating Layer fc6
I0306 06:40:06.506388 37292 net.cpp:454] fc6 <- pool5
I0306 06:40:06.506420 37292 net.cpp:411] fc6 -> fc6
I0306 06:40:06.560737 37296 blocking_queue.cpp:50] Waiting for data
I0306 06:40:07.931660 37292 net.cpp:150] Setting up fc6
I0306 06:40:07.931795 37292 net.cpp:157] Top shape: 128 4096 (524288)
I0306 06:40:07.931820 37292 net.cpp:165] Memory required for data: 867612672
I0306 06:40:07.931849 37292 layer_factory.hpp:77] Creating layer relu6
I0306 06:40:07.931877 37292 net.cpp:106] Creating Layer relu6
I0306 06:40:07.931901 37292 net.cpp:454] relu6 <- fc6
I0306 06:40:07.931927 37292 net.cpp:397] relu6 -> fc6 (in-place)
I0306 06:40:07.931957 37292 net.cpp:150] Setting up relu6
I0306 06:40:07.931982 37292 net.cpp:157] Top shape: 128 4096 (524288)
I0306 06:40:07.932003 37292 net.cpp:165] Memory required for data: 869709824
I0306 06:40:07.932023 37292 layer_factory.hpp:77] Creating layer drop6
I0306 06:40:07.932050 37292 net.cpp:106] Creating Layer drop6
I0306 06:40:07.932072 37292 net.cpp:454] drop6 <- fc6
I0306 06:40:07.932096 37292 net.cpp:397] drop6 -> fc6 (in-place)
I0306 06:40:07.932175 37292 net.cpp:150] Setting up drop6
I0306 06:40:07.932205 37292 net.cpp:157] Top shape: 128 4096 (524288)
I0306 06:40:07.932226 37292 net.cpp:165] Memory required for data: 871806976
I0306 06:40:07.932246 37292 layer_factory.hpp:77] Creating layer fc7
I0306 06:40:07.932272 37292 net.cpp:106] Creating Layer fc7
I0306 06:40:07.932294 37292 net.cpp:454] fc7 <- fc6
I0306 06:40:07.932320 37292 net.cpp:411] fc7 -> fc7
I0306 06:40:08.545078 37292 net.cpp:150] Setting up fc7
I0306 06:40:08.545219 37292 net.cpp:157] Top shape: 128 4096 (524288)
I0306 06:40:08.545243 37292 net.cpp:165] Memory required for data: 873904128
I0306 06:40:08.545272 37292 layer_factory.hpp:77] Creating layer relu7
I0306 06:40:08.545300 37292 net.cpp:106] Creating Layer relu7
I0306 06:40:08.545323 37292 net.cpp:454] relu7 <- fc7
I0306 06:40:08.545349 37292 net.cpp:397] relu7 -> fc7 (in-place)
I0306 06:40:08.545379 37292 net.cpp:150] Setting up relu7
I0306 06:40:08.545404 37292 net.cpp:157] Top shape: 128 4096 (524288)
I0306 06:40:08.545424 37292 net.cpp:165] Memory required for data: 876001280
I0306 06:40:08.545445 37292 layer_factory.hpp:77] Creating layer drop7
I0306 06:40:08.545470 37292 net.cpp:106] Creating Layer drop7
I0306 06:40:08.545492 37292 net.cpp:454] drop7 <- fc7
I0306 06:40:08.545516 37292 net.cpp:397] drop7 -> fc7 (in-place)
I0306 06:40:08.545583 37292 net.cpp:150] Setting up drop7
I0306 06:40:08.545649 37292 net.cpp:157] Top shape: 128 4096 (524288)
I0306 06:40:08.545670 37292 net.cpp:165] Memory required for data: 878098432
I0306 06:40:08.545691 37292 layer_factory.hpp:77] Creating layer fc8_subset
I0306 06:40:08.545719 37292 net.cpp:106] Creating Layer fc8_subset
I0306 06:40:08.545742 37292 net.cpp:454] fc8_subset <- fc7
I0306 06:40:08.545769 37292 net.cpp:411] fc8_subset -> fc8_subset
I0306 06:40:08.550060 37292 net.cpp:150] Setting up fc8_subset
I0306 06:40:08.550097 37292 net.cpp:157] Top shape: 128 25 (3200)
I0306 06:40:08.550120 37292 net.cpp:165] Memory required for data: 878111232
I0306 06:40:08.550144 37292 layer_factory.hpp:77] Creating layer loss
I0306 06:40:08.550170 37292 net.cpp:106] Creating Layer loss
I0306 06:40:08.550192 37292 net.cpp:454] loss <- fc8_subset
I0306 06:40:08.550215 37292 net.cpp:454] loss <- label
I0306 06:40:08.550245 37292 net.cpp:411] loss -> loss
I0306 06:40:08.550307 37292 layer_factory.hpp:77] Creating layer loss
…
I0306 06:40:08.553153 37292 net.cpp:322] The NetState phase (1) differed from the phase (0) specified by a rule in layer data
I0306 06:40:08.553356 37292 net.cpp:49] Initializing net from parameters: 
name: "FlickrStyleCaffeNet"
state {
  phase: TEST
}
layer {
  name: "data"
  type: "Data"
  top: "data"
  top: "label"
  include {
    phase: TEST
  }
  transform_param {
    mirror: false
    crop_size: 227
    mean_file: "/work/01932/dineshj/CS381V/caffe_install_scripts/caffe/data/ilsvrc12/imagenet_mean.binaryproto"
  }
  data_param {
    source: "/work/04018/wxie/maverick/visual_recognition/data/test-lmdb"
    batch_size: 20
    backend: LMDB
  }
}
layer {
  name: "conv1"
  type: "Convolution"
  bottom: "data"
  top: "conv1"
  param {
    lr_mult: 1
    decay_mult: 1
  }
  param {
    lr_mult: 2
    decay_mult: 0
  }
  convolution_param {
    num_output: 96
    kernel_size: 11
    stride: 4
    weight_filler {
      type: "gaussian"
      std: 0.01
    }
    bias_filler {
      type: "constant"
      value: 0
    }
  }
}
layer {
  name: "relu1"
  type: "ReLU"
  bottom: "conv1"
  top: "conv1"
}
layer {
  name: "pool1"
  type: "Pooling"
  bottom: "conv1"
  top: "pool1"
  pooling_param {
    pool: MAX
    kernel_size: 3
    stride: 2
  }
}
layer {
  name: "norm1"
  type: "LRN"
  bottom: "pool1"
  top: "norm1"
  lrn_param {
    local_size: 5
    alpha: 0.0001
    beta: 0.75
  }
}
layer {
  name: "conv2"
  type: "Convolution"
  bottom: "norm1"
  top: "conv2"
  param {
    lr_mult: 1
    decay_mult: 1
  }
  param {
    lr_mult: 2
    decay_mult: 0
  }
  convolution_param {
    num_output: 256
    pad: 2
    kernel_size: 5
    group: 2
    weight_filler {
      type: "gaussian"
      std: 0.01
    }
    bias_filler {
      type: "constant"
      value: 0.1
    }
  }
}
layer {
  name: "relu2"
  type: "ReLU"
  bottom: "conv2"
  top: "conv2"
}
layer {
  name: "pool2"
  type: "Pooling"
  bottom: "conv2"
  top: "pool2"
  pooling_param {
    pool: MAX
    kernel_size: 3
    stride: 2
  }
}
layer {
  name: "norm2"
  type: "LRN"
  bottom: "pool2"
  top: "norm2"
  lrn_param {
    local_size: 5
    alpha: 0.0001
    beta: 0.75
  }
}
layer {
  name: "conv3"
  type: "Convolution"
  bottom: "norm2"
  top: "conv3"
  param {
    lr_mult: 1
    decay_mult: 1
  }
  param {
    lr_mult: 2
    decay_mult: 0
  }
  convolution_param {
    num_output: 384
    pad: 1
    kernel_size: 3
    weight_filler {
      type: "gaussian"
      std: 0.01
    }
    bias_filler {
      type: "constant"
      value: 0
    }
  }
}
layer {
  name: "relu3"
  type: "ReLU"
  bottom: "conv3"
  top: "conv3"
}
layer {
  name: "conv4"
  type: "Convolution"
  bottom: "conv3"
  top: "conv4"
  param {
    lr_mult: 1
    decay_mult: 1
  }
  param {
    lr_mult: 2
    decay_mult: 0
  }
  convolution_param {
    num_output: 384
    pad: 1
    kernel_size: 3
    group: 2
    weight_filler {
      type: "gaussian"
      std: 0.01
    }
    bias_filler {
      type: "constant"
      value: 0.1
    }
  }
}
layer {
  name: "relu4"
  type: "ReLU"
  bottom: "conv4"
  top: "conv4"
}
layer {
  name: "conv5"
  type: "Convolution"
  bottom: "conv4"
  top: "conv5"
  param {
    lr_mult: 1
    decay_mult: 1
  }
  param {
    lr_mult: 2
    decay_mult: 0
  }
  convolution_param {
    num_output: 256
    pad: 1
    kernel_size: 3
    group: 2
    weight_filler {
      type: "gaussian"
      std: 0.01
    }
    bias_filler {
      type: "constant"
      value: 0.1
    }
  }
}
layer {
  name: "relu5"
  type: "ReLU"
  bottom: "conv5"
  top: "conv5"
}
layer {
  name: "pool5"
  type: "Pooling"
  bottom: "conv5"
  top: "pool5"
  pooling_param {
    pool: MAX
    kernel_size: 3
    stride: 2
  }
}
layer {
  name: "fc6"
  type: "InnerProduct"
  bottom: "pool5"
  top: "fc6"
  param {
    lr_mult: 1
    decay_mult: 1
  }
  param {
    lr_mult: 2
    decay_mult: 0
  }
  inner_product_param {
    num_output: 4096
    weight_filler {
      type: "gaussian"
      std: 0.005
    }
    bias_filler {
      type: "constant"
      value: 0.1
    }
  }
}
layer {
  name: "relu6"
  type: "ReLU"
  bottom: "fc6"
  top: "fc6"
}
layer {
  name: "drop6"
  type: "Dropout"
  bottom: "fc6"
  top: "fc6"
  dropout_param {
    dropout_ratio: 0.5
  }
}
layer {
  name: "fc7"
  type: "InnerProduct"
  bottom: "fc6"
  top: "fc7"
  param {
    lr_mult: 1
    decay_mult: 1
  }
  param {
    lr_mult: 2
    decay_mult: 0
  }
  inner_product_param {
    num_output: 4096
    weight_filler {
      type: "gaussian"
      std: 0.005
    }
    bias_filler {
      type: "constant"
      value: 0.1
    }
  }
}
layer {
  name: "relu7"
  type: "ReLU"
  bottom: "fc7"
  top: "fc7"
}
layer {
  name: "drop7"
  type: "Dropout"
  bottom: "fc7"
  top: "fc7"
  dropout_param {
    dropout_ratio: 0.5
  }
}
layer {
  name: "fc8_subset"
  type: "InnerProduct"
  bottom: "fc7"
  top: "fc8_subset"
  param {
    lr_mult: 10
    decay_mult: 1
  }
  param {
    lr_mult: 20
    decay_mult: 0
  }
  inner_product_param {
    num_output: 25
    weight_filler {
      type: "gaussian"
      std: 0.01
    }
    bias_filler {
      type: "constant"
      value: 0
    }
  }
}
layer {
  name: "loss"
  type: "SoftmaxWithLoss"
  bottom: "fc8_subset"
  bottom: "label"
  top: "loss"
}
layer {
  name: "accuracy"
  type: "Accuracy"
  bottom: "fc8_subset"
  bottom: "label"
  top: "accuracy"
  include {
    phase: TEST
  }
}
I0306 06:40:08.553529 37292 layer_factory.hpp:77] Creating layer data
I0306 06:40:08.553661 37292 net.cpp:106] Creating Layer data
I0306 06:40:08.553695 37292 net.cpp:411] data -> data
I0306 06:40:08.553750 37292 net.cpp:411] data -> label
I0306 06:40:08.553791 37292 data_transformer.cpp:25] Loading mean file from: /work/01932/dineshj/CS381V/caffe_install_scripts/caffe/data/ilsvrc12/imagenet_mean.binaryproto
I0306 06:40:08.622349 37297 db_lmdb.cpp:38] Opened lmdb /work/04018/wxie/maverick/visual_recognition/data/test-lmdb
I0306 06:40:08.624267 37292 data_layer.cpp:41] output data size: 20,3,227,227
I0306 06:40:08.647650 37292 net.cpp:150] Setting up data
I0306 06:40:08.647728 37292 net.cpp:157] Top shape: 20 3 227 227 (3091740)
I0306 06:40:08.647771 37292 net.cpp:157] Top shape: 20 (20)
I0306 06:40:08.647805 37292 net.cpp:165] Memory required for data: 12367040
I0306 06:40:08.647838 37292 layer_factory.hpp:77] Creating layer label_data_1_split
I0306 06:40:08.647873 37292 net.cpp:106] Creating Layer label_data_1_split
I0306 06:40:08.647902 37292 net.cpp:454] label_data_1_split <- label
I0306 06:40:08.647934 37292 net.cpp:411] label_data_1_split -> label_data_1_split_0
I0306 06:40:08.647969 37292 net.cpp:411] label_data_1_split -> label_data_1_split_1
I0306 06:40:08.648066 37292 net.cpp:150] Setting up label_data_1_split
I0306 06:40:08.648110 37292 net.cpp:157] Top shape: 20 (20)
I0306 06:40:08.648140 37292 net.cpp:157] Top shape: 20 (20)
I0306 06:40:08.648169 37292 net.cpp:165] Memory required for data: 12367200
I0306 06:40:08.648197 37292 layer_factory.hpp:77] Creating layer conv1
I0306 06:40:08.648234 37292 net.cpp:106] Creating Layer conv1
I0306 06:40:08.648262 37292 net.cpp:454] conv1 <- data
I0306 06:40:08.648293 37292 net.cpp:411] conv1 -> conv1
I0306 06:40:08.649865 37292 net.cpp:150] Setting up conv1
I0306 06:40:08.649909 37292 net.cpp:157] Top shape: 20 96 55 55 (5808000)
I0306 06:40:08.649932 37292 net.cpp:165] Memory required for data: 35599200
I0306 06:40:08.649966 37292 layer_factory.hpp:77] Creating layer relu1
I0306 06:40:08.649997 37292 net.cpp:106] Creating Layer relu1
I0306 06:40:08.650024 37292 net.cpp:454] relu1 <- conv1
I0306 06:40:08.650053 37292 net.cpp:397] relu1 -> conv1 (in-place)
I0306 06:40:08.650085 37292 net.cpp:150] Setting up relu1
I0306 06:40:08.650115 37292 net.cpp:157] Top shape: 20 96 55 55 (5808000)
I0306 06:40:08.650141 37292 net.cpp:165] Memory required for data: 58831200
I0306 06:40:08.650166 37292 layer_factory.hpp:77] Creating layer pool1
I0306 06:40:08.650197 37292 net.cpp:106] Creating Layer pool1
I0306 06:40:08.650224 37292 net.cpp:454] pool1 <- conv1
I0306 06:40:08.650254 37292 net.cpp:411] pool1 -> pool1
I0306 06:40:08.650312 37292 net.cpp:150] Setting up pool1
I0306 06:40:08.650348 37292 net.cpp:157] Top shape: 20 96 27 27 (1399680)
I0306 06:40:08.650373 37292 net.cpp:165] Memory required for data: 64429920
I0306 06:40:08.650399 37292 layer_factory.hpp:77] Creating layer norm1
I0306 06:40:08.650430 37292 net.cpp:106] Creating Layer norm1
I0306 06:40:08.650455 37292 net.cpp:454] norm1 <- pool1
I0306 06:40:08.650483 37292 net.cpp:411] norm1 -> norm1
I0306 06:40:08.650538 37292 net.cpp:150] Setting up norm1
I0306 06:40:08.650573 37292 net.cpp:157] Top shape: 20 96 27 27 (1399680)
I0306 06:40:08.650598 37292 net.cpp:165] Memory required for data: 70028640
I0306 06:40:08.650624 37292 layer_factory.hpp:77] Creating layer conv2
I0306 06:40:08.650655 37292 net.cpp:106] Creating Layer conv2
I0306 06:40:08.650701 37292 net.cpp:454] conv2 <- norm1
I0306 06:40:08.650753 37292 net.cpp:411] conv2 -> conv2
I0306 06:40:08.663501 37292 net.cpp:150] Setting up conv2
I0306 06:40:08.663581 37292 net.cpp:157] Top shape: 20 256 27 27 (3732480)
I0306 06:40:08.663609 37292 net.cpp:165] Memory required for data: 84958560
I0306 06:40:08.663640 37292 layer_factory.hpp:77] Creating layer relu2
I0306 06:40:08.663669 37292 net.cpp:106] Creating Layer relu2
I0306 06:40:08.663702 37292 net.cpp:454] relu2 <- conv2
I0306 06:40:08.663728 37292 net.cpp:397] relu2 -> conv2 (in-place)
I0306 06:40:08.663758 37292 net.cpp:150] Setting up relu2
I0306 06:40:08.663801 37292 net.cpp:157] Top shape: 20 256 27 27 (3732480)
I0306 06:40:08.663825 37292 net.cpp:165] Memory required for data: 99888480
I0306 06:40:08.663862 37292 layer_factory.hpp:77] Creating layer pool2
I0306 06:40:08.663897 37292 net.cpp:106] Creating Layer pool2
I0306 06:40:08.663920 37292 net.cpp:454] pool2 <- conv2
I0306 06:40:08.663945 37292 net.cpp:411] pool2 -> pool2
I0306 06:40:08.664018 37292 net.cpp:150] Setting up pool2
I0306 06:40:08.664050 37292 net.cpp:157] Top shape: 20 256 13 13 (865280)
I0306 06:40:08.664072 37292 net.cpp:165] Memory required for data: 103349600
I0306 06:40:08.664093 37292 layer_factory.hpp:77] Creating layer norm2
I0306 06:40:08.664118 37292 net.cpp:106] Creating Layer norm2
I0306 06:40:08.664140 37292 net.cpp:454] norm2 <- pool2
I0306 06:40:08.664166 37292 net.cpp:411] norm2 -> norm2
I0306 06:40:08.664222 37292 net.cpp:150] Setting up norm2
I0306 06:40:08.664253 37292 net.cpp:157] Top shape: 20 256 13 13 (865280)
I0306 06:40:08.664274 37292 net.cpp:165] Memory required for data: 106810720
I0306 06:40:08.664296 37292 layer_factory.hpp:77] Creating layer conv3
I0306 06:40:08.664327 37292 net.cpp:106] Creating Layer conv3
I0306 06:40:08.664352 37292 net.cpp:454] conv3 <- norm2
I0306 06:40:08.664377 37292 net.cpp:411] conv3 -> conv3
I0306 06:40:08.699223 37292 net.cpp:150] Setting up conv3
I0306 06:40:08.699322 37292 net.cpp:157] Top shape: 20 384 13 13 (1297920)
I0306 06:40:08.699368 37292 net.cpp:165] Memory required for data: 112002400
I0306 06:40:08.699401 37292 layer_factory.hpp:77] Creating layer relu3
I0306 06:40:08.699445 37292 net.cpp:106] Creating Layer relu3
I0306 06:40:08.699470 37292 net.cpp:454] relu3 <- conv3
I0306 06:40:08.699513 37292 net.cpp:397] relu3 -> conv3 (in-place)
I0306 06:40:08.699556 37292 net.cpp:150] Setting up relu3
I0306 06:40:08.699584 37292 net.cpp:157] Top shape: 20 384 13 13 (1297920)
I0306 06:40:08.699609 37292 net.cpp:165] Memory required for data: 117194080
I0306 06:40:08.699632 37292 layer_factory.hpp:77] Creating layer conv4
I0306 06:40:08.699686 37292 net.cpp:106] Creating Layer conv4
I0306 06:40:08.699738 37292 net.cpp:454] conv4 <- conv3
I0306 06:40:08.699765 37292 net.cpp:411] conv4 -> conv4
I0306 06:40:08.726250 37292 net.cpp:150] Setting up conv4
I0306 06:40:08.726300 37292 net.cpp:157] Top shape: 20 384 13 13 (1297920)
I0306 06:40:08.726328 37292 net.cpp:165] Memory required for data: 122385760
I0306 06:40:08.726359 37292 layer_factory.hpp:77] Creating layer relu4
I0306 06:40:08.726388 37292 net.cpp:106] Creating Layer relu4
I0306 06:40:08.726420 37292 net.cpp:454] relu4 <- conv4
I0306 06:40:08.726449 37292 net.cpp:397] relu4 -> conv4 (in-place)
I0306 06:40:08.726483 37292 net.cpp:150] Setting up relu4
I0306 06:40:08.726516 37292 net.cpp:157] Top shape: 20 384 13 13 (1297920)
I0306 06:40:08.726541 37292 net.cpp:165] Memory required for data: 127577440
I0306 06:40:08.726569 37292 layer_factory.hpp:77] Creating layer conv5
I0306 06:40:08.726605 37292 net.cpp:106] Creating Layer conv5
I0306 06:40:08.726635 37292 net.cpp:454] conv5 <- conv4
I0306 06:40:08.726665 37292 net.cpp:411] conv5 -> conv5
I0306 06:40:08.744469 37292 net.cpp:150] Setting up conv5
I0306 06:40:08.744516 37292 net.cpp:157] Top shape: 20 256 13 13 (865280)
I0306 06:40:08.744547 37292 net.cpp:165] Memory required for data: 131038560
I0306 06:40:08.744582 37292 layer_factory.hpp:77] Creating layer relu5
I0306 06:40:08.744616 37292 net.cpp:106] Creating Layer relu5
I0306 06:40:08.744670 37292 net.cpp:454] relu5 <- conv5
I0306 06:40:08.744737 37292 net.cpp:397] relu5 -> conv5 (in-place)
I0306 06:40:08.744771 37292 net.cpp:150] Setting up relu5
I0306 06:40:08.744807 37292 net.cpp:157] Top shape: 20 256 13 13 (865280)
I0306 06:40:08.744833 37292 net.cpp:165] Memory required for data: 134499680
I0306 06:40:08.744859 37292 layer_factory.hpp:77] Creating layer pool5
I0306 06:40:08.744890 37292 net.cpp:106] Creating Layer pool5
I0306 06:40:08.744917 37292 net.cpp:454] pool5 <- conv5
I0306 06:40:08.744948 37292 net.cpp:411] pool5 -> pool5
I0306 06:40:08.745014 37292 net.cpp:150] Setting up pool5
I0306 06:40:08.745050 37292 net.cpp:157] Top shape: 20 256 6 6 (184320)
I0306 06:40:08.745076 37292 net.cpp:165] Memory required for data: 135236960
I0306 06:40:08.745103 37292 layer_factory.hpp:77] Creating layer fc6
I0306 06:40:08.745136 37292 net.cpp:106] Creating Layer fc6
I0306 06:40:08.745164 37292 net.cpp:454] fc6 <- pool5
I0306 06:40:08.745194 37292 net.cpp:411] fc6 -> fc6
I0306 06:40:10.126890 37292 net.cpp:150] Setting up fc6
I0306 06:40:10.127027 37292 net.cpp:157] Top shape: 20 4096 (81920)
I0306 06:40:10.127053 37292 net.cpp:165] Memory required for data: 135564640
I0306 06:40:10.127081 37292 layer_factory.hpp:77] Creating layer relu6
I0306 06:40:10.127110 37292 net.cpp:106] Creating Layer relu6
I0306 06:40:10.127133 37292 net.cpp:454] relu6 <- fc6
I0306 06:40:10.127159 37292 net.cpp:397] relu6 -> fc6 (in-place)
I0306 06:40:10.127190 37292 net.cpp:150] Setting up relu6
I0306 06:40:10.127215 37292 net.cpp:157] Top shape: 20 4096 (81920)
I0306 06:40:10.127235 37292 net.cpp:165] Memory required for data: 135892320
I0306 06:40:10.127255 37292 layer_factory.hpp:77] Creating layer drop6
I0306 06:40:10.127284 37292 net.cpp:106] Creating Layer drop6
I0306 06:40:10.127306 37292 net.cpp:454] drop6 <- fc6
I0306 06:40:10.127329 37292 net.cpp:397] drop6 -> fc6 (in-place)
I0306 06:40:10.127377 37292 net.cpp:150] Setting up drop6
I0306 06:40:10.127406 37292 net.cpp:157] Top shape: 20 4096 (81920)
I0306 06:40:10.127427 37292 net.cpp:165] Memory required for data: 136220000
I0306 06:40:10.127449 37292 layer_factory.hpp:77] Creating layer fc7
I0306 06:40:10.127475 37292 net.cpp:106] Creating Layer fc7
I0306 06:40:10.127496 37292 net.cpp:454] fc7 <- fc6
I0306 06:40:10.127523 37292 net.cpp:411] fc7 -> fc7
I0306 06:40:10.740391 37292 net.cpp:150] Setting up fc7
I0306 06:40:10.740517 37292 net.cpp:157] Top shape: 20 4096 (81920)
I0306 06:40:10.740540 37292 net.cpp:165] Memory required for data: 136547680
I0306 06:40:10.740569 37292 layer_factory.hpp:77] Creating layer relu7
I0306 06:40:10.740598 37292 net.cpp:106] Creating Layer relu7
I0306 06:40:10.740622 37292 net.cpp:454] relu7 <- fc7
I0306 06:40:10.740650 37292 net.cpp:397] relu7 -> fc7 (in-place)
I0306 06:40:10.740682 37292 net.cpp:150] Setting up relu7
I0306 06:40:10.740706 37292 net.cpp:157] Top shape: 20 4096 (81920)
I0306 06:40:10.740727 37292 net.cpp:165] Memory required for data: 136875360
I0306 06:40:10.740747 37292 layer_factory.hpp:77] Creating layer drop7
I0306 06:40:10.740772 37292 net.cpp:106] Creating Layer drop7
I0306 06:40:10.740799 37292 net.cpp:454] drop7 <- fc7
I0306 06:40:10.740823 37292 net.cpp:397] drop7 -> fc7 (in-place)
I0306 06:40:10.740874 37292 net.cpp:150] Setting up drop7
I0306 06:40:10.740903 37292 net.cpp:157] Top shape: 20 4096 (81920)
I0306 06:40:10.740924 37292 net.cpp:165] Memory required for data: 137203040
I0306 06:40:10.740944 37292 layer_factory.hpp:77] Creating layer fc8_subset
I0306 06:40:10.740973 37292 net.cpp:106] Creating Layer fc8_subset
I0306 06:40:10.740996 37292 net.cpp:454] fc8_subset <- fc7
I0306 06:40:10.741020 37292 net.cpp:411] fc8_subset -> fc8_subset
I0306 06:40:10.744704 37292 net.cpp:150] Setting up fc8_subset
I0306 06:40:10.744737 37292 net.cpp:157] Top shape: 20 25 (500)
I0306 06:40:10.744771 37292 net.cpp:165] Memory required for data: 137205040
I0306 06:40:10.744799 37292 layer_factory.hpp:77] Creating layer fc8_subset_fc8_subset_0_split
I0306 06:40:10.744827 37292 net.cpp:106] Creating Layer fc8_subset_fc8_subset_0_split
I0306 06:40:10.744913 37292 net.cpp:454] fc8_subset_fc8_subset_0_split <- fc8_subset
I0306 06:40:10.744946 37292 net.cpp:411] fc8_subset_fc8_subset_0_split -> fc8_subset_fc8_subset_0_split_0
I0306 06:40:10.744976 37292 net.cpp:411] fc8_subset_fc8_subset_0_split -> fc8_subset_fc8_subset_0_split_1
I0306 06:40:10.745033 37292 net.cpp:150] Setting up fc8_subset_fc8_subset_0_split
I0306 06:40:10.745075 37292 net.cpp:157] Top shape: 20 25 (500)
I0306 06:40:10.745097 37292 net.cpp:157] Top shape: 20 25 (500)
I0306 06:40:10.745117 37292 net.cpp:165] Memory required for data: 137209040
I0306 06:40:10.745137 37292 layer_factory.hpp:77] Creating layer loss
I0306 06:40:10.745162 37292 net.cpp:106] Creating Layer loss
I0306 06:40:10.745184 37292 net.cpp:454] loss <- fc8_subset_fc8_subset_0_split_0
I0306 06:40:10.745206 37292 net.cpp:454] loss <- label_data_1_split_0
I0306 06:40:10.745232 37292 net.cpp:411] loss -> loss
…
