…
I0306 05:47:57.147532 38954 net.cpp:322] The NetState phase (0) differed from the phase (1) specified by a rule in layer accuracy
I0306 05:47:57.147748 38954 net.cpp:49] Initializing net from parameters: 
name: "FlickrStyleCaffeNet"
state {
  phase: TRAIN
}
layer {
  name: "data"
  type: "Data"
  top: "data"
  top: "label"
  include {
    phase: TRAIN
  }
  transform_param {
    mirror: true
    crop_size: 227
    mean_file: "/work/01932/dineshj/CS381V/caffe_install_scripts/caffe/data/ilsvrc12/imagenet_mean.binaryproto"
  }
  data_param {
    source: "/work/04018/wxie/maverick/visual_recognition/data/train-lmdb"
    batch_size: 128
    backend: LMDB
  }
}
layer {
  name: "conv1"
  type: "Convolution"
  bottom: "data"
  top: "conv1"
  param {
    lr_mult: 1
    decay_mult: 1
  }
  param {
    lr_mult: 2
    decay_mult: 0
  }
  convolution_param {
    num_output: 96
    kernel_size: 11
    stride: 4
    weight_filler {
      type: "gaussian"
      std: 0.01
    }
    bias_filler {
      type: "constant"
      value: 0
    }
  }
}
layer {
  name: "relu1"
  type: "ReLU"
  bottom: "conv1"
  top: "conv1"
}
layer {
  name: "pool1"
  type: "Pooling"
  bottom: "conv1"
  top: "pool1"
  pooling_param {
    pool: MAX
    kernel_size: 3
    stride: 2
  }
}
layer {
  name: "norm1"
  type: "LRN"
  bottom: "pool1"
  top: "norm1"
  lrn_param {
    local_size: 5
    alpha: 0.0001
    beta: 0.75
  }
}
layer {
  name: "conv2"
  type: "Convolution"
  bottom: "norm1"
  top: "conv2"
  param {
    lr_mult: 1
    decay_mult: 1
  }
  param {
    lr_mult: 2
    decay_mult: 0
  }
  convolution_param {
    num_output: 256
    pad: 2
    kernel_size: 5
    group: 2
    weight_filler {
      type: "gaussian"
      std: 0.01
    }
    bias_filler {
      type: "constant"
      value: 0.1
    }
  }
}
layer {
  name: "relu2"
  type: "ReLU"
  bottom: "conv2"
  top: "conv2"
}
layer {
  name: "pool2"
  type: "Pooling"
  bottom: "conv2"
  top: "pool2"
  pooling_param {
    pool: MAX
    kernel_size: 3
    stride: 2
  }
}
layer {
  name: "norm2"
  type: "LRN"
  bottom: "pool2"
  top: "norm2"
  lrn_param {
    local_size: 5
    alpha: 0.0001
    beta: 0.75
  }
}
layer {
  name: "conv3"
  type: "Convolution"
  bottom: "norm2"
  top: "conv3"
  param {
    lr_mult: 1
    decay_mult: 1
  }
  param {
    lr_mult: 2
    decay_mult: 0
  }
  convolution_param {
    num_output: 384
    pad: 1
    kernel_size: 3
    weight_filler {
      type: "gaussian"
      std: 0.01
    }
    bias_filler {
      type: "constant"
      value: 0
    }
  }
}
layer {
  name: "relu3"
  type: "ReLU"
  bottom: "conv3"
  top: "conv3"
}
layer {
  name: "conv4"
  type: "Convolution"
  bottom: "conv3"
  top: "conv4"
  param {
    lr_mult: 1
    decay_mult: 1
  }
  param {
    lr_mult: 2
    decay_mult: 0
  }
  convolution_param {
    num_output: 384
    pad: 1
    kernel_size: 3
    group: 2
    weight_filler {
      type: "gaussian"
      std: 0.01
    }
    bias_filler {
      type: "constant"
      value: 0.1
    }
  }
}
layer {
  name: "relu4"
  type: "ReLU"
  bottom: "conv4"
  top: "conv4"
}
layer {
  name: "conv5"
  type: "Convolution"
  bottom: "conv4"
  top: "conv5"
  param {
    lr_mult: 1
    decay_mult: 1
  }
  param {
    lr_mult: 2
    decay_mult: 0
  }
  convolution_param {
    num_output: 256
    pad: 1
    kernel_size: 3
    group: 2
    weight_filler {
      type: "gaussian"
      std: 0.01
    }
    bias_filler {
      type: "constant"
      value: 0.1
    }
  }
}
layer {
  name: "relu5"
  type: "ReLU"
  bottom: "conv5"
  top: "conv5"
}
layer {
  name: "pool5"
  type: "Pooling"
  bottom: "conv5"
  top: "pool5"
  pooling_param {
    pool: MAX
    kernel_size: 3
    stride: 2
  }
}
layer {
  name: "fc6"
  type: "InnerProduct"
  bottom: "pool5"
  top: "fc6"
  param {
    lr_mult: 1
    decay_mult: 1
  }
  param {
    lr_mult: 2
    decay_mult: 0
  }
  inner_product_param {
    num_output: 4096
    weight_filler {
      type: "gaussian"
      std: 0.005
    }
    bias_filler {
      type: "constant"
      value: 0.1
    }
  }
}
layer {
  name: "relu6"
  type: "ReLU"
  bottom: "fc6"
  top: "fc6"
}
layer {
  name: "drop6"
  type: "Dropout"
  bottom: "fc6"
  top: "fc6"
  dropout_param {
    dropout_ratio: 0.5
  }
}
layer {
  name: "fc7"
  type: "InnerProduct"
  bottom: "fc6"
  top: "fc7"
  param {
    lr_mult: 1
    decay_mult: 1
  }
  param {
    lr_mult: 2
    decay_mult: 0
  }
  inner_product_param {
    num_output: 4096
    weight_filler {
      type: "gaussian"
      std: 0.005
    }
    bias_filler {
      type: "constant"
      value: 0.1
    }
  }
}
layer {
  name: "relu7"
  type: "ReLU"
  bottom: "fc7"
  top: "fc7"
}
layer {
  name: "drop7"
  type: "Dropout"
  bottom: "fc7"
  top: "fc7"
  dropout_param {
    dropout_ratio: 0.5
  }
}
layer {
  name: "fc8_subset"
  type: "InnerProduct"
  bottom: "fc7"
  top: "fc8_subset"
  param {
    lr_mult: 10
    decay_mult: 1
  }
  param {
    lr_mult: 20
    decay_mult: 0
  }
  inner_product_param {
    num_output: 25
    weight_filler {
      type: "gaussian"
      std: 0.01
    }
    bias_filler {
      type: "constant"
      value: 0
    }
  }
}
layer {
  name: "loss"
  type: "SoftmaxWithLoss"
  bottom: "fc8_subset"
  bottom: "label"
  top: "loss"
}
I0306 05:47:57.148066 38954 layer_factory.hpp:77] Creating layer data
I0306 05:47:57.148880 38954 net.cpp:106] Creating Layer data
I0306 05:47:57.148938 38954 net.cpp:411] data -> data
I0306 05:47:57.149051 38954 net.cpp:411] data -> label
I0306 05:47:57.149132 38954 data_transformer.cpp:25] Loading mean file from: /work/01932/dineshj/CS381V/caffe_install_scripts/caffe/data/ilsvrc12/imagenet_mean.binaryproto
I0306 05:47:57.221511 38957 db_lmdb.cpp:38] Opened lmdb /work/04018/wxie/maverick/visual_recognition/data/train-lmdb
I0306 05:47:57.226992 38954 data_layer.cpp:41] output data size: 128,3,227,227
I0306 05:47:57.384220 38954 net.cpp:150] Setting up data
I0306 05:47:57.384333 38954 net.cpp:157] Top shape: 128 3 227 227 (19787136)
I0306 05:47:57.384371 38954 net.cpp:157] Top shape: 128 (128)
I0306 05:47:57.384398 38954 net.cpp:165] Memory required for data: 79149056
I0306 05:47:57.384443 38954 layer_factory.hpp:77] Creating layer conv1
I0306 05:47:57.384524 38954 net.cpp:106] Creating Layer conv1
I0306 05:47:57.384557 38954 net.cpp:454] conv1 <- data
I0306 05:47:57.384608 38954 net.cpp:411] conv1 -> conv1
I0306 05:47:57.394948 38954 net.cpp:150] Setting up conv1
I0306 05:47:57.394996 38954 net.cpp:157] Top shape: 128 96 55 55 (37171200)
I0306 05:47:57.395022 38954 net.cpp:165] Memory required for data: 227833856
I0306 05:47:57.395077 38954 layer_factory.hpp:77] Creating layer relu1
I0306 05:47:57.395114 38954 net.cpp:106] Creating Layer relu1
I0306 05:47:57.395144 38954 net.cpp:454] relu1 <- conv1
I0306 05:47:57.395177 38954 net.cpp:397] relu1 -> conv1 (in-place)
I0306 05:47:57.395213 38954 net.cpp:150] Setting up relu1
I0306 05:47:57.395244 38954 net.cpp:157] Top shape: 128 96 55 55 (37171200)
I0306 05:47:57.395272 38954 net.cpp:165] Memory required for data: 376518656
I0306 05:47:57.395298 38954 layer_factory.hpp:77] Creating layer pool1
I0306 05:47:57.395331 38954 net.cpp:106] Creating Layer pool1
I0306 05:47:57.395359 38954 net.cpp:454] pool1 <- conv1
I0306 05:47:57.395390 38954 net.cpp:411] pool1 -> pool1
I0306 05:47:57.395550 38954 net.cpp:150] Setting up pool1
I0306 05:47:57.395584 38954 net.cpp:157] Top shape: 128 96 27 27 (8957952)
I0306 05:47:57.395676 38954 net.cpp:165] Memory required for data: 412350464
I0306 05:47:57.395706 38954 layer_factory.hpp:77] Creating layer norm1
I0306 05:47:57.395743 38954 net.cpp:106] Creating Layer norm1
I0306 05:47:57.395774 38954 net.cpp:454] norm1 <- pool1
I0306 05:47:57.395804 38954 net.cpp:411] norm1 -> norm1
I0306 05:47:57.395903 38954 net.cpp:150] Setting up norm1
I0306 05:47:57.395934 38954 net.cpp:157] Top shape: 128 96 27 27 (8957952)
I0306 05:47:57.395962 38954 net.cpp:165] Memory required for data: 448182272
I0306 05:47:57.395989 38954 layer_factory.hpp:77] Creating layer conv2
I0306 05:47:57.396023 38954 net.cpp:106] Creating Layer conv2
I0306 05:47:57.396054 38954 net.cpp:454] conv2 <- norm1
I0306 05:47:57.396086 38954 net.cpp:411] conv2 -> conv2
I0306 05:47:57.409313 38954 net.cpp:150] Setting up conv2
I0306 05:47:57.409392 38954 net.cpp:157] Top shape: 128 256 27 27 (23887872)
I0306 05:47:57.409417 38954 net.cpp:165] Memory required for data: 543733760
I0306 05:47:57.409463 38954 layer_factory.hpp:77] Creating layer relu2
I0306 05:47:57.409507 38954 net.cpp:106] Creating Layer relu2
I0306 05:47:57.409533 38954 net.cpp:454] relu2 <- conv2
I0306 05:47:57.409567 38954 net.cpp:397] relu2 -> conv2 (in-place)
I0306 05:47:57.409600 38954 net.cpp:150] Setting up relu2
I0306 05:47:57.409634 38954 net.cpp:157] Top shape: 128 256 27 27 (23887872)
I0306 05:47:57.409658 38954 net.cpp:165] Memory required for data: 639285248
I0306 05:47:57.409682 38954 layer_factory.hpp:77] Creating layer pool2
I0306 05:47:57.409728 38954 net.cpp:106] Creating Layer pool2
I0306 05:47:57.409765 38954 net.cpp:454] pool2 <- conv2
I0306 05:47:57.409790 38954 net.cpp:411] pool2 -> pool2
I0306 05:47:57.409862 38954 net.cpp:150] Setting up pool2
I0306 05:47:57.409893 38954 net.cpp:157] Top shape: 128 256 13 13 (5537792)
I0306 05:47:57.409916 38954 net.cpp:165] Memory required for data: 661436416
I0306 05:47:57.409939 38954 layer_factory.hpp:77] Creating layer norm2
I0306 05:47:57.409968 38954 net.cpp:106] Creating Layer norm2
I0306 05:47:57.409993 38954 net.cpp:454] norm2 <- pool2
I0306 05:47:57.410018 38954 net.cpp:411] norm2 -> norm2
I0306 05:47:57.410071 38954 net.cpp:150] Setting up norm2
I0306 05:47:57.410102 38954 net.cpp:157] Top shape: 128 256 13 13 (5537792)
I0306 05:47:57.410125 38954 net.cpp:165] Memory required for data: 683587584
I0306 05:47:57.410146 38954 layer_factory.hpp:77] Creating layer conv3
I0306 05:47:57.410178 38954 net.cpp:106] Creating Layer conv3
I0306 05:47:57.410203 38954 net.cpp:454] conv3 <- norm2
I0306 05:47:57.410230 38954 net.cpp:411] conv3 -> conv3
I0306 05:47:57.446260 38954 net.cpp:150] Setting up conv3
I0306 05:47:57.446377 38954 net.cpp:157] Top shape: 128 384 13 13 (8306688)
I0306 05:47:57.446406 38954 net.cpp:165] Memory required for data: 716814336
I0306 05:47:57.446449 38954 layer_factory.hpp:77] Creating layer relu3
I0306 05:47:57.446488 38954 net.cpp:106] Creating Layer relu3
I0306 05:47:57.446519 38954 net.cpp:454] relu3 <- conv3
I0306 05:47:57.446552 38954 net.cpp:397] relu3 -> conv3 (in-place)
I0306 05:47:57.446593 38954 net.cpp:150] Setting up relu3
I0306 05:47:57.446627 38954 net.cpp:157] Top shape: 128 384 13 13 (8306688)
I0306 05:47:57.446656 38954 net.cpp:165] Memory required for data: 750041088
I0306 05:47:57.446683 38954 layer_factory.hpp:77] Creating layer conv4
I0306 05:47:57.446724 38954 net.cpp:106] Creating Layer conv4
I0306 05:47:57.446754 38954 net.cpp:454] conv4 <- conv3
I0306 05:47:57.446787 38954 net.cpp:411] conv4 -> conv4
I0306 05:47:57.477828 38954 net.cpp:150] Setting up conv4
I0306 05:47:57.477921 38954 net.cpp:157] Top shape: 128 384 13 13 (8306688)
I0306 05:47:57.477947 38954 net.cpp:165] Memory required for data: 783267840
I0306 05:47:57.477978 38954 layer_factory.hpp:77] Creating layer relu4
I0306 05:47:57.478010 38954 net.cpp:106] Creating Layer relu4
I0306 05:47:57.478037 38954 net.cpp:454] relu4 <- conv4
I0306 05:47:57.478070 38954 net.cpp:397] relu4 -> conv4 (in-place)
I0306 05:47:57.478106 38954 net.cpp:150] Setting up relu4
I0306 05:47:57.478162 38954 net.cpp:157] Top shape: 128 384 13 13 (8306688)
I0306 05:47:57.478222 38954 net.cpp:165] Memory required for data: 816494592
I0306 05:47:57.478250 38954 layer_factory.hpp:77] Creating layer conv5
I0306 05:47:57.478289 38954 net.cpp:106] Creating Layer conv5
I0306 05:47:57.478319 38954 net.cpp:454] conv5 <- conv4
I0306 05:47:57.478350 38954 net.cpp:411] conv5 -> conv5
I0306 05:47:57.496460 38954 net.cpp:150] Setting up conv5
I0306 05:47:57.496554 38954 net.cpp:157] Top shape: 128 256 13 13 (5537792)
I0306 05:47:57.496582 38954 net.cpp:165] Memory required for data: 838645760
I0306 05:47:57.496625 38954 layer_factory.hpp:77] Creating layer relu5
I0306 05:47:57.496664 38954 net.cpp:106] Creating Layer relu5
I0306 05:47:57.496692 38954 net.cpp:454] relu5 <- conv5
I0306 05:47:57.496721 38954 net.cpp:397] relu5 -> conv5 (in-place)
I0306 05:47:57.496755 38954 net.cpp:150] Setting up relu5
I0306 05:47:57.496783 38954 net.cpp:157] Top shape: 128 256 13 13 (5537792)
I0306 05:47:57.496809 38954 net.cpp:165] Memory required for data: 860796928
I0306 05:47:57.496834 38954 layer_factory.hpp:77] Creating layer pool5
I0306 05:47:57.496862 38954 net.cpp:106] Creating Layer pool5
I0306 05:47:57.496889 38954 net.cpp:454] pool5 <- conv5
I0306 05:47:57.496920 38954 net.cpp:411] pool5 -> pool5
I0306 05:47:57.496986 38954 net.cpp:150] Setting up pool5
I0306 05:47:57.497019 38954 net.cpp:157] Top shape: 128 256 6 6 (1179648)
I0306 05:47:57.497053 38954 net.cpp:165] Memory required for data: 865515520
I0306 05:47:57.497077 38954 layer_factory.hpp:77] Creating layer fc6
I0306 05:47:57.497153 38954 net.cpp:106] Creating Layer fc6
I0306 05:47:57.497195 38954 net.cpp:454] fc6 <- pool5
I0306 05:47:57.497231 38954 net.cpp:411] fc6 -> fc6
I0306 05:47:57.498045 38958 blocking_queue.cpp:50] Waiting for data
I0306 05:47:58.920928 38954 net.cpp:150] Setting up fc6
I0306 05:47:58.921080 38954 net.cpp:157] Top shape: 128 4096 (524288)
I0306 05:47:58.921105 38954 net.cpp:165] Memory required for data: 867612672
I0306 05:47:58.921139 38954 layer_factory.hpp:77] Creating layer relu6
I0306 05:47:58.921175 38954 net.cpp:106] Creating Layer relu6
I0306 05:47:58.921198 38954 net.cpp:454] relu6 <- fc6
I0306 05:47:58.921228 38954 net.cpp:397] relu6 -> fc6 (in-place)
I0306 05:47:58.921265 38954 net.cpp:150] Setting up relu6
I0306 05:47:58.921290 38954 net.cpp:157] Top shape: 128 4096 (524288)
I0306 05:47:58.921313 38954 net.cpp:165] Memory required for data: 869709824
I0306 05:47:58.921334 38954 layer_factory.hpp:77] Creating layer drop6
I0306 05:47:58.921362 38954 net.cpp:106] Creating Layer drop6
I0306 05:47:58.921385 38954 net.cpp:454] drop6 <- fc6
I0306 05:47:58.921411 38954 net.cpp:397] drop6 -> fc6 (in-place)
I0306 05:47:58.921504 38954 net.cpp:150] Setting up drop6
I0306 05:47:58.921535 38954 net.cpp:157] Top shape: 128 4096 (524288)
I0306 05:47:58.921556 38954 net.cpp:165] Memory required for data: 871806976
I0306 05:47:58.921577 38954 layer_factory.hpp:77] Creating layer fc7
I0306 05:47:58.921614 38954 net.cpp:106] Creating Layer fc7
I0306 05:47:58.921640 38954 net.cpp:454] fc7 <- fc6
I0306 05:47:58.921665 38954 net.cpp:411] fc7 -> fc7
I0306 05:47:59.535807 38954 net.cpp:150] Setting up fc7
I0306 05:47:59.535955 38954 net.cpp:157] Top shape: 128 4096 (524288)
I0306 05:47:59.535980 38954 net.cpp:165] Memory required for data: 873904128
I0306 05:47:59.536012 38954 layer_factory.hpp:77] Creating layer relu7
I0306 05:47:59.536048 38954 net.cpp:106] Creating Layer relu7
I0306 05:47:59.536073 38954 net.cpp:454] relu7 <- fc7
I0306 05:47:59.536105 38954 net.cpp:397] relu7 -> fc7 (in-place)
I0306 05:47:59.536144 38954 net.cpp:150] Setting up relu7
I0306 05:47:59.536169 38954 net.cpp:157] Top shape: 128 4096 (524288)
I0306 05:47:59.536190 38954 net.cpp:165] Memory required for data: 876001280
I0306 05:47:59.536211 38954 layer_factory.hpp:77] Creating layer drop7
I0306 05:47:59.536240 38954 net.cpp:106] Creating Layer drop7
I0306 05:47:59.536262 38954 net.cpp:454] drop7 <- fc7
I0306 05:47:59.536288 38954 net.cpp:397] drop7 -> fc7 (in-place)
I0306 05:47:59.536358 38954 net.cpp:150] Setting up drop7
I0306 05:47:59.536423 38954 net.cpp:157] Top shape: 128 4096 (524288)
I0306 05:47:59.536445 38954 net.cpp:165] Memory required for data: 878098432
I0306 05:47:59.536468 38954 layer_factory.hpp:77] Creating layer fc8_subset
I0306 05:47:59.536501 38954 net.cpp:106] Creating Layer fc8_subset
I0306 05:47:59.536525 38954 net.cpp:454] fc8_subset <- fc7
I0306 05:47:59.536550 38954 net.cpp:411] fc8_subset -> fc8_subset
I0306 05:47:59.540820 38954 net.cpp:150] Setting up fc8_subset
I0306 05:47:59.540858 38954 net.cpp:157] Top shape: 128 25 (3200)
I0306 05:47:59.540881 38954 net.cpp:165] Memory required for data: 878111232
I0306 05:47:59.540907 38954 layer_factory.hpp:77] Creating layer loss
I0306 05:47:59.540935 38954 net.cpp:106] Creating Layer loss
I0306 05:47:59.540957 38954 net.cpp:454] loss <- fc8_subset
I0306 05:47:59.540980 38954 net.cpp:454] loss <- label
I0306 05:47:59.541009 38954 net.cpp:411] loss -> loss
I0306 05:47:59.541081 38954 layer_factory.hpp:77] Creating layer loss
…
I0306 05:47:59.544364 38954 net.cpp:322] The NetState phase (1) differed from the phase (0) specified by a rule in layer data
I0306 05:47:59.544617 38954 net.cpp:49] Initializing net from parameters: 
name: "FlickrStyleCaffeNet"
state {
  phase: TEST
}
layer {
  name: "data"
  type: "Data"
  top: "data"
  top: "label"
  include {
    phase: TEST
  }
  transform_param {
    mirror: false
    crop_size: 227
    mean_file: "/work/01932/dineshj/CS381V/caffe_install_scripts/caffe/data/ilsvrc12/imagenet_mean.binaryproto"
  }
  data_param {
    source: "/work/04018/wxie/maverick/visual_recognition/data/test-lmdb"
    batch_size: 20
    backend: LMDB
  }
}
layer {
  name: "conv1"
  type: "Convolution"
  bottom: "data"
  top: "conv1"
  param {
    lr_mult: 1
    decay_mult: 1
  }
  param {
    lr_mult: 2
    decay_mult: 0
  }
  convolution_param {
    num_output: 96
    kernel_size: 11
    stride: 4
    weight_filler {
      type: "gaussian"
      std: 0.01
    }
    bias_filler {
      type: "constant"
      value: 0
    }
  }
}
layer {
  name: "relu1"
  type: "ReLU"
  bottom: "conv1"
  top: "conv1"
}
layer {
  name: "pool1"
  type: "Pooling"
  bottom: "conv1"
  top: "pool1"
  pooling_param {
    pool: MAX
    kernel_size: 3
    stride: 2
  }
}
layer {
  name: "norm1"
  type: "LRN"
  bottom: "pool1"
  top: "norm1"
  lrn_param {
    local_size: 5
    alpha: 0.0001
    beta: 0.75
  }
}
layer {
  name: "conv2"
  type: "Convolution"
  bottom: "norm1"
  top: "conv2"
  param {
    lr_mult: 1
    decay_mult: 1
  }
  param {
    lr_mult: 2
    decay_mult: 0
  }
  convolution_param {
    num_output: 256
    pad: 2
    kernel_size: 5
    group: 2
    weight_filler {
      type: "gaussian"
      std: 0.01
    }
    bias_filler {
      type: "constant"
      value: 0.1
    }
  }
}
layer {
  name: "relu2"
  type: "ReLU"
  bottom: "conv2"
  top: "conv2"
}
layer {
  name: "pool2"
  type: "Pooling"
  bottom: "conv2"
  top: "pool2"
  pooling_param {
    pool: MAX
    kernel_size: 3
    stride: 2
  }
}
layer {
  name: "norm2"
  type: "LRN"
  bottom: "pool2"
  top: "norm2"
  lrn_param {
    local_size: 5
    alpha: 0.0001
    beta: 0.75
  }
}
layer {
  name: "conv3"
  type: "Convolution"
  bottom: "norm2"
  top: "conv3"
  param {
    lr_mult: 1
    decay_mult: 1
  }
  param {
    lr_mult: 2
    decay_mult: 0
  }
  convolution_param {
    num_output: 384
    pad: 1
    kernel_size: 3
    weight_filler {
      type: "gaussian"
      std: 0.01
    }
    bias_filler {
      type: "constant"
      value: 0
    }
  }
}
layer {
  name: "relu3"
  type: "ReLU"
  bottom: "conv3"
  top: "conv3"
}
layer {
  name: "conv4"
  type: "Convolution"
  bottom: "conv3"
  top: "conv4"
  param {
    lr_mult: 1
    decay_mult: 1
  }
  param {
    lr_mult: 2
    decay_mult: 0
  }
  convolution_param {
    num_output: 384
    pad: 1
    kernel_size: 3
    group: 2
    weight_filler {
      type: "gaussian"
      std: 0.01
    }
    bias_filler {
      type: "constant"
      value: 0.1
    }
  }
}
layer {
  name: "relu4"
  type: "ReLU"
  bottom: "conv4"
  top: "conv4"
}
layer {
  name: "conv5"
  type: "Convolution"
  bottom: "conv4"
  top: "conv5"
  param {
    lr_mult: 1
    decay_mult: 1
  }
  param {
    lr_mult: 2
    decay_mult: 0
  }
  convolution_param {
    num_output: 256
    pad: 1
    kernel_size: 3
    group: 2
    weight_filler {
      type: "gaussian"
      std: 0.01
    }
    bias_filler {
      type: "constant"
      value: 0.1
    }
  }
}
layer {
  name: "relu5"
  type: "ReLU"
  bottom: "conv5"
  top: "conv5"
}
layer {
  name: "pool5"
  type: "Pooling"
  bottom: "conv5"
  top: "pool5"
  pooling_param {
    pool: MAX
    kernel_size: 3
    stride: 2
  }
}
layer {
  name: "fc6"
  type: "InnerProduct"
  bottom: "pool5"
  top: "fc6"
  param {
    lr_mult: 1
    decay_mult: 1
  }
  param {
    lr_mult: 2
    decay_mult: 0
  }
  inner_product_param {
    num_output: 4096
    weight_filler {
      type: "gaussian"
      std: 0.005
    }
    bias_filler {
      type: "constant"
      value: 0.1
    }
  }
}
layer {
  name: "relu6"
  type: "ReLU"
  bottom: "fc6"
  top: "fc6"
}
layer {
  name: "drop6"
  type: "Dropout"
  bottom: "fc6"
  top: "fc6"
  dropout_param {
    dropout_ratio: 0.5
  }
}
layer {
  name: "fc7"
  type: "InnerProduct"
  bottom: "fc6"
  top: "fc7"
  param {
    lr_mult: 1
    decay_mult: 1
  }
  param {
    lr_mult: 2
    decay_mult: 0
  }
  inner_product_param {
    num_output: 4096
    weight_filler {
      type: "gaussian"
      std: 0.005
    }
    bias_filler {
      type: "constant"
      value: 0.1
    }
  }
}
layer {
  name: "relu7"
  type: "ReLU"
  bottom: "fc7"
  top: "fc7"
}
layer {
  name: "drop7"
  type: "Dropout"
  bottom: "fc7"
  top: "fc7"
  dropout_param {
    dropout_ratio: 0.5
  }
}
layer {
  name: "fc8_subset"
  type: "InnerProduct"
  bottom: "fc7"
  top: "fc8_subset"
  param {
    lr_mult: 10
    decay_mult: 1
  }
  param {
    lr_mult: 20
    decay_mult: 0
  }
  inner_product_param {
    num_output: 25
    weight_filler {
      type: "gaussian"
      std: 0.01
    }
    bias_filler {
      type: "constant"
      value: 0
    }
  }
}
layer {
  name: "loss"
  type: "SoftmaxWithLoss"
  bottom: "fc8_subset"
  bottom: "label"
  top: "loss"
}
layer {
  name: "accuracy"
  type: "Accuracy"
  bottom: "fc8_subset"
  bottom: "label"
  top: "accuracy"
  include {
    phase: TEST
  }
}
I0306 05:47:59.544802 38954 layer_factory.hpp:77] Creating layer data
I0306 05:47:59.544975 38954 net.cpp:106] Creating Layer data
I0306 05:47:59.545011 38954 net.cpp:411] data -> data
I0306 05:47:59.545058 38954 net.cpp:411] data -> label
I0306 05:47:59.545091 38954 data_transformer.cpp:25] Loading mean file from: /work/01932/dineshj/CS381V/caffe_install_scripts/caffe/data/ilsvrc12/imagenet_mean.binaryproto
I0306 05:47:59.558867 38959 db_lmdb.cpp:38] Opened lmdb /work/04018/wxie/maverick/visual_recognition/data/test-lmdb
I0306 05:47:59.560650 38954 data_layer.cpp:41] output data size: 20,3,227,227
I0306 05:47:59.584013 38954 net.cpp:150] Setting up data
I0306 05:47:59.584100 38954 net.cpp:157] Top shape: 20 3 227 227 (3091740)
I0306 05:47:59.584159 38954 net.cpp:157] Top shape: 20 (20)
I0306 05:47:59.584216 38954 net.cpp:165] Memory required for data: 12367040
I0306 05:47:59.584249 38954 layer_factory.hpp:77] Creating layer label_data_1_split
I0306 05:47:59.584283 38954 net.cpp:106] Creating Layer label_data_1_split
I0306 05:47:59.584311 38954 net.cpp:454] label_data_1_split <- label
I0306 05:47:59.584342 38954 net.cpp:411] label_data_1_split -> label_data_1_split_0
I0306 05:47:59.584375 38954 net.cpp:411] label_data_1_split -> label_data_1_split_1
I0306 05:47:59.584473 38954 net.cpp:150] Setting up label_data_1_split
I0306 05:47:59.584506 38954 net.cpp:157] Top shape: 20 (20)
I0306 05:47:59.584530 38954 net.cpp:157] Top shape: 20 (20)
I0306 05:47:59.584553 38954 net.cpp:165] Memory required for data: 12367200
I0306 05:47:59.584580 38954 layer_factory.hpp:77] Creating layer conv1
I0306 05:47:59.584622 38954 net.cpp:106] Creating Layer conv1
I0306 05:47:59.584651 38954 net.cpp:454] conv1 <- data
I0306 05:47:59.584682 38954 net.cpp:411] conv1 -> conv1
I0306 05:47:59.586318 38954 net.cpp:150] Setting up conv1
I0306 05:47:59.586364 38954 net.cpp:157] Top shape: 20 96 55 55 (5808000)
I0306 05:47:59.586393 38954 net.cpp:165] Memory required for data: 35599200
I0306 05:47:59.586427 38954 layer_factory.hpp:77] Creating layer relu1
I0306 05:47:59.586459 38954 net.cpp:106] Creating Layer relu1
I0306 05:47:59.586488 38954 net.cpp:454] relu1 <- conv1
I0306 05:47:59.586518 38954 net.cpp:397] relu1 -> conv1 (in-place)
I0306 05:47:59.586550 38954 net.cpp:150] Setting up relu1
I0306 05:47:59.586580 38954 net.cpp:157] Top shape: 20 96 55 55 (5808000)
I0306 05:47:59.586611 38954 net.cpp:165] Memory required for data: 58831200
I0306 05:47:59.586640 38954 layer_factory.hpp:77] Creating layer pool1
I0306 05:47:59.586671 38954 net.cpp:106] Creating Layer pool1
I0306 05:47:59.586700 38954 net.cpp:454] pool1 <- conv1
I0306 05:47:59.586727 38954 net.cpp:411] pool1 -> pool1
I0306 05:47:59.586784 38954 net.cpp:150] Setting up pool1
I0306 05:47:59.586818 38954 net.cpp:157] Top shape: 20 96 27 27 (1399680)
I0306 05:47:59.586845 38954 net.cpp:165] Memory required for data: 64429920
I0306 05:47:59.586874 38954 layer_factory.hpp:77] Creating layer norm1
I0306 05:47:59.586905 38954 net.cpp:106] Creating Layer norm1
I0306 05:47:59.586932 38954 net.cpp:454] norm1 <- pool1
I0306 05:47:59.586962 38954 net.cpp:411] norm1 -> norm1
I0306 05:47:59.587018 38954 net.cpp:150] Setting up norm1
I0306 05:47:59.587052 38954 net.cpp:157] Top shape: 20 96 27 27 (1399680)
I0306 05:47:59.587080 38954 net.cpp:165] Memory required for data: 70028640
I0306 05:47:59.587105 38954 layer_factory.hpp:77] Creating layer conv2
I0306 05:47:59.587137 38954 net.cpp:106] Creating Layer conv2
I0306 05:47:59.587183 38954 net.cpp:454] conv2 <- norm1
I0306 05:47:59.587239 38954 net.cpp:411] conv2 -> conv2
I0306 05:47:59.599679 38954 net.cpp:150] Setting up conv2
I0306 05:47:59.599732 38954 net.cpp:157] Top shape: 20 256 27 27 (3732480)
I0306 05:47:59.599761 38954 net.cpp:165] Memory required for data: 84958560
I0306 05:47:59.599794 38954 layer_factory.hpp:77] Creating layer relu2
I0306 05:47:59.599827 38954 net.cpp:106] Creating Layer relu2
I0306 05:47:59.599854 38954 net.cpp:454] relu2 <- conv2
I0306 05:47:59.599884 38954 net.cpp:397] relu2 -> conv2 (in-place)
I0306 05:47:59.599916 38954 net.cpp:150] Setting up relu2
I0306 05:47:59.599946 38954 net.cpp:157] Top shape: 20 256 27 27 (3732480)
I0306 05:47:59.599967 38954 net.cpp:165] Memory required for data: 99888480
I0306 05:47:59.599990 38954 layer_factory.hpp:77] Creating layer pool2
I0306 05:47:59.600020 38954 net.cpp:106] Creating Layer pool2
I0306 05:47:59.600049 38954 net.cpp:454] pool2 <- conv2
I0306 05:47:59.600078 38954 net.cpp:411] pool2 -> pool2
I0306 05:47:59.600141 38954 net.cpp:150] Setting up pool2
I0306 05:47:59.600175 38954 net.cpp:157] Top shape: 20 256 13 13 (865280)
I0306 05:47:59.600200 38954 net.cpp:165] Memory required for data: 103349600
I0306 05:47:59.600225 38954 layer_factory.hpp:77] Creating layer norm2
I0306 05:47:59.600256 38954 net.cpp:106] Creating Layer norm2
I0306 05:47:59.600283 38954 net.cpp:454] norm2 <- pool2
I0306 05:47:59.600311 38954 net.cpp:411] norm2 -> norm2
I0306 05:47:59.600369 38954 net.cpp:150] Setting up norm2
I0306 05:47:59.600404 38954 net.cpp:157] Top shape: 20 256 13 13 (865280)
I0306 05:47:59.600428 38954 net.cpp:165] Memory required for data: 106810720
I0306 05:47:59.600453 38954 layer_factory.hpp:77] Creating layer conv3
I0306 05:47:59.600483 38954 net.cpp:106] Creating Layer conv3
I0306 05:47:59.600512 38954 net.cpp:454] conv3 <- norm2
I0306 05:47:59.600540 38954 net.cpp:411] conv3 -> conv3
I0306 05:47:59.635917 38954 net.cpp:150] Setting up conv3
I0306 05:47:59.636021 38954 net.cpp:157] Top shape: 20 384 13 13 (1297920)
I0306 05:47:59.636050 38954 net.cpp:165] Memory required for data: 112002400
I0306 05:47:59.636088 38954 layer_factory.hpp:77] Creating layer relu3
I0306 05:47:59.636122 38954 net.cpp:106] Creating Layer relu3
I0306 05:47:59.636149 38954 net.cpp:454] relu3 <- conv3
I0306 05:47:59.636176 38954 net.cpp:397] relu3 -> conv3 (in-place)
I0306 05:47:59.636225 38954 net.cpp:150] Setting up relu3
I0306 05:47:59.636251 38954 net.cpp:157] Top shape: 20 384 13 13 (1297920)
I0306 05:47:59.636275 38954 net.cpp:165] Memory required for data: 117194080
I0306 05:47:59.636297 38954 layer_factory.hpp:77] Creating layer conv4
I0306 05:47:59.636351 38954 net.cpp:106] Creating Layer conv4
I0306 05:47:59.636378 38954 net.cpp:454] conv4 <- conv3
I0306 05:47:59.636420 38954 net.cpp:411] conv4 -> conv4
I0306 05:47:59.663040 38954 net.cpp:150] Setting up conv4
I0306 05:47:59.663089 38954 net.cpp:157] Top shape: 20 384 13 13 (1297920)
I0306 05:47:59.663116 38954 net.cpp:165] Memory required for data: 122385760
I0306 05:47:59.663147 38954 layer_factory.hpp:77] Creating layer relu4
I0306 05:47:59.663182 38954 net.cpp:106] Creating Layer relu4
I0306 05:47:59.663210 38954 net.cpp:454] relu4 <- conv4
I0306 05:47:59.663239 38954 net.cpp:397] relu4 -> conv4 (in-place)
I0306 05:47:59.663271 38954 net.cpp:150] Setting up relu4
I0306 05:47:59.663302 38954 net.cpp:157] Top shape: 20 384 13 13 (1297920)
I0306 05:47:59.663328 38954 net.cpp:165] Memory required for data: 127577440
I0306 05:47:59.663357 38954 layer_factory.hpp:77] Creating layer conv5
I0306 05:47:59.663391 38954 net.cpp:106] Creating Layer conv5
I0306 05:47:59.663419 38954 net.cpp:454] conv5 <- conv4
I0306 05:47:59.663452 38954 net.cpp:411] conv5 -> conv5
I0306 05:47:59.680934 38954 net.cpp:150] Setting up conv5
I0306 05:47:59.680979 38954 net.cpp:157] Top shape: 20 256 13 13 (865280)
I0306 05:47:59.681005 38954 net.cpp:165] Memory required for data: 131038560
I0306 05:47:59.681041 38954 layer_factory.hpp:77] Creating layer relu5
I0306 05:47:59.681076 38954 net.cpp:106] Creating Layer relu5
I0306 05:47:59.681124 38954 net.cpp:454] relu5 <- conv5
I0306 05:47:59.681185 38954 net.cpp:397] relu5 -> conv5 (in-place)
I0306 05:47:59.681217 38954 net.cpp:150] Setting up relu5
I0306 05:47:59.681247 38954 net.cpp:157] Top shape: 20 256 13 13 (865280)
I0306 05:47:59.681272 38954 net.cpp:165] Memory required for data: 134499680
I0306 05:47:59.681299 38954 layer_factory.hpp:77] Creating layer pool5
I0306 05:47:59.681339 38954 net.cpp:106] Creating Layer pool5
I0306 05:47:59.681367 38954 net.cpp:454] pool5 <- conv5
I0306 05:47:59.681397 38954 net.cpp:411] pool5 -> pool5
I0306 05:47:59.681462 38954 net.cpp:150] Setting up pool5
I0306 05:47:59.681496 38954 net.cpp:157] Top shape: 20 256 6 6 (184320)
I0306 05:47:59.681524 38954 net.cpp:165] Memory required for data: 135236960
I0306 05:47:59.681550 38954 layer_factory.hpp:77] Creating layer fc6
I0306 05:47:59.681581 38954 net.cpp:106] Creating Layer fc6
I0306 05:47:59.681613 38954 net.cpp:454] fc6 <- pool5
I0306 05:47:59.681646 38954 net.cpp:411] fc6 -> fc6
I0306 05:48:01.061218 38954 net.cpp:150] Setting up fc6
I0306 05:48:01.061364 38954 net.cpp:157] Top shape: 20 4096 (81920)
I0306 05:48:01.061389 38954 net.cpp:165] Memory required for data: 135564640
I0306 05:48:01.061424 38954 layer_factory.hpp:77] Creating layer relu6
I0306 05:48:01.061461 38954 net.cpp:106] Creating Layer relu6
I0306 05:48:01.061486 38954 net.cpp:454] relu6 <- fc6
I0306 05:48:01.061517 38954 net.cpp:397] relu6 -> fc6 (in-place)
I0306 05:48:01.061553 38954 net.cpp:150] Setting up relu6
I0306 05:48:01.061578 38954 net.cpp:157] Top shape: 20 4096 (81920)
I0306 05:48:01.061599 38954 net.cpp:165] Memory required for data: 135892320
I0306 05:48:01.061626 38954 layer_factory.hpp:77] Creating layer drop6
I0306 05:48:01.061655 38954 net.cpp:106] Creating Layer drop6
I0306 05:48:01.061678 38954 net.cpp:454] drop6 <- fc6
I0306 05:48:01.061702 38954 net.cpp:397] drop6 -> fc6 (in-place)
I0306 05:48:01.061755 38954 net.cpp:150] Setting up drop6
I0306 05:48:01.061785 38954 net.cpp:157] Top shape: 20 4096 (81920)
I0306 05:48:01.061807 38954 net.cpp:165] Memory required for data: 136220000
I0306 05:48:01.061830 38954 layer_factory.hpp:77] Creating layer fc7
I0306 05:48:01.061859 38954 net.cpp:106] Creating Layer fc7
I0306 05:48:01.061882 38954 net.cpp:454] fc7 <- fc6
I0306 05:48:01.061908 38954 net.cpp:411] fc7 -> fc7
I0306 05:48:01.674882 38954 net.cpp:150] Setting up fc7
I0306 05:48:01.675029 38954 net.cpp:157] Top shape: 20 4096 (81920)
I0306 05:48:01.675052 38954 net.cpp:165] Memory required for data: 136547680
I0306 05:48:01.675086 38954 layer_factory.hpp:77] Creating layer relu7
I0306 05:48:01.675123 38954 net.cpp:106] Creating Layer relu7
I0306 05:48:01.675149 38954 net.cpp:454] relu7 <- fc7
I0306 05:48:01.675179 38954 net.cpp:397] relu7 -> fc7 (in-place)
I0306 05:48:01.675217 38954 net.cpp:150] Setting up relu7
I0306 05:48:01.675242 38954 net.cpp:157] Top shape: 20 4096 (81920)
I0306 05:48:01.675263 38954 net.cpp:165] Memory required for data: 136875360
I0306 05:48:01.675285 38954 layer_factory.hpp:77] Creating layer drop7
I0306 05:48:01.675315 38954 net.cpp:106] Creating Layer drop7
I0306 05:48:01.675339 38954 net.cpp:454] drop7 <- fc7
I0306 05:48:01.675364 38954 net.cpp:397] drop7 -> fc7 (in-place)
I0306 05:48:01.675415 38954 net.cpp:150] Setting up drop7
I0306 05:48:01.675446 38954 net.cpp:157] Top shape: 20 4096 (81920)
I0306 05:48:01.675467 38954 net.cpp:165] Memory required for data: 137203040
I0306 05:48:01.675489 38954 layer_factory.hpp:77] Creating layer fc8_subset
I0306 05:48:01.675521 38954 net.cpp:106] Creating Layer fc8_subset
I0306 05:48:01.675545 38954 net.cpp:454] fc8_subset <- fc7
I0306 05:48:01.675572 38954 net.cpp:411] fc8_subset -> fc8_subset
I0306 05:48:01.679296 38954 net.cpp:150] Setting up fc8_subset
I0306 05:48:01.679332 38954 net.cpp:157] Top shape: 20 25 (500)
I0306 05:48:01.679353 38954 net.cpp:165] Memory required for data: 137205040
I0306 05:48:01.679378 38954 layer_factory.hpp:77] Creating layer fc8_subset_fc8_subset_0_split
I0306 05:48:01.679406 38954 net.cpp:106] Creating Layer fc8_subset_fc8_subset_0_split
I0306 05:48:01.679491 38954 net.cpp:454] fc8_subset_fc8_subset_0_split <- fc8_subset
I0306 05:48:01.679518 38954 net.cpp:411] fc8_subset_fc8_subset_0_split -> fc8_subset_fc8_subset_0_split_0
I0306 05:48:01.679546 38954 net.cpp:411] fc8_subset_fc8_subset_0_split -> fc8_subset_fc8_subset_0_split_1
I0306 05:48:01.679602 38954 net.cpp:150] Setting up fc8_subset_fc8_subset_0_split
I0306 05:48:01.679637 38954 net.cpp:157] Top shape: 20 25 (500)
I0306 05:48:01.679661 38954 net.cpp:157] Top shape: 20 25 (500)
I0306 05:48:01.679682 38954 net.cpp:165] Memory required for data: 137209040
I0306 05:48:01.679703 38954 layer_factory.hpp:77] Creating layer loss
I0306 05:48:01.679728 38954 net.cpp:106] Creating Layer loss
I0306 05:48:01.679750 38954 net.cpp:454] loss <- fc8_subset_fc8_subset_0_split_0
I0306 05:48:01.679774 38954 net.cpp:454] loss <- label_data_1_split_0
I0306 05:48:01.679800 38954 net.cpp:411] loss -> loss
…
