…
I0306 09:04:39.094761 39497 net.cpp:322] The NetState phase (0) differed from the phase (1) specified by a rule in layer accuracy
I0306 09:04:39.094976 39497 net.cpp:49] Initializing net from parameters: 
name: "FlickrStyleCaffeNet"
state {
  phase: TRAIN
}
layer {
  name: "data"
  type: "Data"
  top: "data"
  top: "label"
  include {
    phase: TRAIN
  }
  transform_param {
    mirror: true
    crop_size: 227
    mean_file: "/work/01932/dineshj/CS381V/caffe_install_scripts/caffe/data/ilsvrc12/imagenet_mean.binaryproto"
  }
  data_param {
    source: "/work/04018/wxie/maverick/visual_recognition/data/train-lmdb"
    batch_size: 128
    backend: LMDB
  }
}
layer {
  name: "conv1"
  type: "Convolution"
  bottom: "data"
  top: "conv1"
  param {
    lr_mult: 1
    decay_mult: 1
  }
  param {
    lr_mult: 2
    decay_mult: 0
  }
  convolution_param {
    num_output: 96
    kernel_size: 11
    stride: 4
    weight_filler {
      type: "gaussian"
      std: 0.01
    }
    bias_filler {
      type: "constant"
      value: 0
    }
  }
}
layer {
  name: "relu1"
  type: "ReLU"
  bottom: "conv1"
  top: "conv1"
}
layer {
  name: "pool1"
  type: "Pooling"
  bottom: "conv1"
  top: "pool1"
  pooling_param {
    pool: MAX
    kernel_size: 3
    stride: 2
  }
}
layer {
  name: "norm1"
  type: "LRN"
  bottom: "pool1"
  top: "norm1"
  lrn_param {
    local_size: 5
    alpha: 0.0001
    beta: 0.75
  }
}
layer {
  name: "conv2"
  type: "Convolution"
  bottom: "norm1"
  top: "conv2"
  param {
    lr_mult: 1
    decay_mult: 1
  }
  param {
    lr_mult: 2
    decay_mult: 0
  }
  convolution_param {
    num_output: 256
    pad: 2
    kernel_size: 5
    group: 2
    weight_filler {
      type: "gaussian"
      std: 0.01
    }
    bias_filler {
      type: "constant"
      value: 0.1
    }
  }
}
layer {
  name: "relu2"
  type: "ReLU"
  bottom: "conv2"
  top: "conv2"
}
layer {
  name: "pool2"
  type: "Pooling"
  bottom: "conv2"
  top: "pool2"
  pooling_param {
    pool: MAX
    kernel_size: 3
    stride: 2
  }
}
layer {
  name: "norm2"
  type: "LRN"
  bottom: "pool2"
  top: "norm2"
  lrn_param {
    local_size: 5
    alpha: 0.0001
    beta: 0.75
  }
}
layer {
  name: "conv3"
  type: "Convolution"
  bottom: "norm2"
  top: "conv3"
  param {
    lr_mult: 1
    decay_mult: 1
  }
  param {
    lr_mult: 2
    decay_mult: 0
  }
  convolution_param {
    num_output: 384
    pad: 1
    kernel_size: 3
    weight_filler {
      type: "gaussian"
      std: 0.01
    }
    bias_filler {
      type: "constant"
      value: 0
    }
  }
}
layer {
  name: "relu3"
  type: "ReLU"
  bottom: "conv3"
  top: "conv3"
}
layer {
  name: "conv4"
  type: "Convolution"
  bottom: "conv3"
  top: "conv4"
  param {
    lr_mult: 1
    decay_mult: 1
  }
  param {
    lr_mult: 2
    decay_mult: 0
  }
  convolution_param {
    num_output: 384
    pad: 1
    kernel_size: 3
    group: 2
    weight_filler {
      type: "gaussian"
      std: 0.01
    }
    bias_filler {
      type: "constant"
      value: 0.1
    }
  }
}
layer {
  name: "relu4"
  type: "ReLU"
  bottom: "conv4"
  top: "conv4"
}
layer {
  name: "conv5"
  type: "Convolution"
  bottom: "conv4"
  top: "conv5"
  param {
    lr_mult: 1
    decay_mult: 1
  }
  param {
    lr_mult: 2
    decay_mult: 0
  }
  convolution_param {
    num_output: 256
    pad: 1
    kernel_size: 3
    group: 2
    weight_filler {
      type: "gaussian"
      std: 0.01
    }
    bias_filler {
      type: "constant"
      value: 0.1
    }
  }
}
layer {
  name: "relu5"
  type: "ReLU"
  bottom: "conv5"
  top: "conv5"
}
layer {
  name: "pool5"
  type: "Pooling"
  bottom: "conv5"
  top: "pool5"
  pooling_param {
    pool: MAX
    kernel_size: 3
    stride: 2
  }
}
layer {
  name: "fc6"
  type: "InnerProduct"
  bottom: "pool5"
  top: "fc6"
  param {
    lr_mult: 1
    decay_mult: 1
  }
  param {
    lr_mult: 2
    decay_mult: 0
  }
  inner_product_param {
    num_output: 4096
    weight_filler {
      type: "gaussian"
      std: 0.005
    }
    bias_filler {
      type: "constant"
      value: 0.1
    }
  }
}
layer {
  name: "relu6"
  type: "ReLU"
  bottom: "fc6"
  top: "fc6"
}
layer {
  name: "drop6"
  type: "Dropout"
  bottom: "fc6"
  top: "fc6"
  dropout_param {
    dropout_ratio: 0.5
  }
}
layer {
  name: "fc7"
  type: "InnerProduct"
  bottom: "fc6"
  top: "fc7"
  param {
    lr_mult: 1
    decay_mult: 1
  }
  param {
    lr_mult: 2
    decay_mult: 0
  }
  inner_product_param {
    num_output: 4096
    weight_filler {
      type: "gaussian"
      std: 0.005
    }
    bias_filler {
      type: "constant"
      value: 0.1
    }
  }
}
layer {
  name: "relu7"
  type: "ReLU"
  bottom: "fc7"
  top: "fc7"
}
layer {
  name: "drop7"
  type: "Dropout"
  bottom: "fc7"
  top: "fc7"
  dropout_param {
    dropout_ratio: 0.5
  }
}
layer {
  name: "fc8_subset"
  type: "InnerProduct"
  bottom: "fc7"
  top: "fc8_subset"
  param {
    lr_mult: 10
    decay_mult: 1
  }
  param {
    lr_mult: 20
    decay_mult: 0
  }
  inner_product_param {
    num_output: 25
    weight_filler {
      type: "gaussian"
      std: 0.01
    }
    bias_filler {
      type: "constant"
      value: 0
    }
  }
}
layer {
  name: "loss"
  type: "SoftmaxWithLoss"
  bottom: "fc8_subset"
  bottom: "label"
  top: "loss"
}
I0306 09:04:39.095276 39497 layer_factory.hpp:77] Creating layer data
I0306 09:04:39.096077 39497 net.cpp:106] Creating Layer data
I0306 09:04:39.096132 39497 net.cpp:411] data -> data
I0306 09:04:39.096235 39497 net.cpp:411] data -> label
I0306 09:04:39.096314 39497 data_transformer.cpp:25] Loading mean file from: /work/01932/dineshj/CS381V/caffe_install_scripts/caffe/data/ilsvrc12/imagenet_mean.binaryproto
I0306 09:04:39.112968 39499 db_lmdb.cpp:38] Opened lmdb /work/04018/wxie/maverick/visual_recognition/data/train-lmdb
I0306 09:04:39.172116 39497 data_layer.cpp:41] output data size: 128,3,227,227
I0306 09:04:39.328482 39497 net.cpp:150] Setting up data
I0306 09:04:39.328593 39497 net.cpp:157] Top shape: 128 3 227 227 (19787136)
I0306 09:04:39.328626 39497 net.cpp:157] Top shape: 128 (128)
I0306 09:04:39.328654 39497 net.cpp:165] Memory required for data: 79149056
I0306 09:04:39.328697 39497 layer_factory.hpp:77] Creating layer conv1
I0306 09:04:39.328784 39497 net.cpp:106] Creating Layer conv1
I0306 09:04:39.328819 39497 net.cpp:454] conv1 <- data
I0306 09:04:39.328865 39497 net.cpp:411] conv1 -> conv1
I0306 09:04:39.339404 39497 net.cpp:150] Setting up conv1
I0306 09:04:39.339447 39497 net.cpp:157] Top shape: 128 96 55 55 (37171200)
I0306 09:04:39.339475 39497 net.cpp:165] Memory required for data: 227833856
I0306 09:04:39.339537 39497 layer_factory.hpp:77] Creating layer relu1
I0306 09:04:39.339572 39497 net.cpp:106] Creating Layer relu1
I0306 09:04:39.339603 39497 net.cpp:454] relu1 <- conv1
I0306 09:04:39.339632 39497 net.cpp:397] relu1 -> conv1 (in-place)
I0306 09:04:39.339663 39497 net.cpp:150] Setting up relu1
I0306 09:04:39.339689 39497 net.cpp:157] Top shape: 128 96 55 55 (37171200)
I0306 09:04:39.339712 39497 net.cpp:165] Memory required for data: 376518656
I0306 09:04:39.339738 39497 layer_factory.hpp:77] Creating layer pool1
I0306 09:04:39.339776 39497 net.cpp:106] Creating Layer pool1
I0306 09:04:39.339815 39497 net.cpp:454] pool1 <- conv1
I0306 09:04:39.339849 39497 net.cpp:411] pool1 -> pool1
I0306 09:04:39.340010 39497 net.cpp:150] Setting up pool1
I0306 09:04:39.340046 39497 net.cpp:157] Top shape: 128 96 27 27 (8957952)
I0306 09:04:39.340147 39497 net.cpp:165] Memory required for data: 412350464
I0306 09:04:39.340176 39497 layer_factory.hpp:77] Creating layer norm1
I0306 09:04:39.340211 39497 net.cpp:106] Creating Layer norm1
I0306 09:04:39.340241 39497 net.cpp:454] norm1 <- pool1
I0306 09:04:39.340270 39497 net.cpp:411] norm1 -> norm1
I0306 09:04:39.340374 39497 net.cpp:150] Setting up norm1
I0306 09:04:39.340409 39497 net.cpp:157] Top shape: 128 96 27 27 (8957952)
I0306 09:04:39.340436 39497 net.cpp:165] Memory required for data: 448182272
I0306 09:04:39.340462 39497 layer_factory.hpp:77] Creating layer conv2
I0306 09:04:39.340498 39497 net.cpp:106] Creating Layer conv2
I0306 09:04:39.340523 39497 net.cpp:454] conv2 <- norm1
I0306 09:04:39.340551 39497 net.cpp:411] conv2 -> conv2
I0306 09:04:39.353761 39497 net.cpp:150] Setting up conv2
I0306 09:04:39.353878 39497 net.cpp:157] Top shape: 128 256 27 27 (23887872)
I0306 09:04:39.353904 39497 net.cpp:165] Memory required for data: 543733760
I0306 09:04:39.353937 39497 layer_factory.hpp:77] Creating layer relu2
I0306 09:04:39.353981 39497 net.cpp:106] Creating Layer relu2
I0306 09:04:39.354015 39497 net.cpp:454] relu2 <- conv2
I0306 09:04:39.354045 39497 net.cpp:397] relu2 -> conv2 (in-place)
I0306 09:04:39.354091 39497 net.cpp:150] Setting up relu2
I0306 09:04:39.354120 39497 net.cpp:157] Top shape: 128 256 27 27 (23887872)
I0306 09:04:39.354141 39497 net.cpp:165] Memory required for data: 639285248
I0306 09:04:39.354164 39497 layer_factory.hpp:77] Creating layer pool2
I0306 09:04:39.354192 39497 net.cpp:106] Creating Layer pool2
I0306 09:04:39.354233 39497 net.cpp:454] pool2 <- conv2
I0306 09:04:39.354260 39497 net.cpp:411] pool2 -> pool2
I0306 09:04:39.354341 39497 net.cpp:150] Setting up pool2
I0306 09:04:39.354372 39497 net.cpp:157] Top shape: 128 256 13 13 (5537792)
I0306 09:04:39.354395 39497 net.cpp:165] Memory required for data: 661436416
I0306 09:04:39.354418 39497 layer_factory.hpp:77] Creating layer norm2
I0306 09:04:39.354447 39497 net.cpp:106] Creating Layer norm2
I0306 09:04:39.354472 39497 net.cpp:454] norm2 <- pool2
I0306 09:04:39.354497 39497 net.cpp:411] norm2 -> norm2
I0306 09:04:39.354552 39497 net.cpp:150] Setting up norm2
I0306 09:04:39.354581 39497 net.cpp:157] Top shape: 128 256 13 13 (5537792)
I0306 09:04:39.354604 39497 net.cpp:165] Memory required for data: 683587584
I0306 09:04:39.354625 39497 layer_factory.hpp:77] Creating layer conv3
I0306 09:04:39.354670 39497 net.cpp:106] Creating Layer conv3
I0306 09:04:39.354729 39497 net.cpp:454] conv3 <- norm2
I0306 09:04:39.354761 39497 net.cpp:411] conv3 -> conv3
I0306 09:04:39.391418 39497 net.cpp:150] Setting up conv3
I0306 09:04:39.391559 39497 net.cpp:157] Top shape: 128 384 13 13 (8306688)
I0306 09:04:39.391592 39497 net.cpp:165] Memory required for data: 716814336
I0306 09:04:39.391635 39497 layer_factory.hpp:77] Creating layer relu3
I0306 09:04:39.391690 39497 net.cpp:106] Creating Layer relu3
I0306 09:04:39.391722 39497 net.cpp:454] relu3 <- conv3
I0306 09:04:39.391755 39497 net.cpp:397] relu3 -> conv3 (in-place)
I0306 09:04:39.391813 39497 net.cpp:150] Setting up relu3
I0306 09:04:39.391842 39497 net.cpp:157] Top shape: 128 384 13 13 (8306688)
I0306 09:04:39.391865 39497 net.cpp:165] Memory required for data: 750041088
I0306 09:04:39.391896 39497 layer_factory.hpp:77] Creating layer conv4
I0306 09:04:39.391933 39497 net.cpp:106] Creating Layer conv4
I0306 09:04:39.391963 39497 net.cpp:454] conv4 <- conv3
I0306 09:04:39.391995 39497 net.cpp:411] conv4 -> conv4
I0306 09:04:39.424266 39497 net.cpp:150] Setting up conv4
I0306 09:04:39.424360 39497 net.cpp:157] Top shape: 128 384 13 13 (8306688)
I0306 09:04:39.424384 39497 net.cpp:165] Memory required for data: 783267840
I0306 09:04:39.424413 39497 layer_factory.hpp:77] Creating layer relu4
I0306 09:04:39.424450 39497 net.cpp:106] Creating Layer relu4
I0306 09:04:39.424479 39497 net.cpp:454] relu4 <- conv4
I0306 09:04:39.424511 39497 net.cpp:397] relu4 -> conv4 (in-place)
I0306 09:04:39.424547 39497 net.cpp:150] Setting up relu4
I0306 09:04:39.424602 39497 net.cpp:157] Top shape: 128 384 13 13 (8306688)
I0306 09:04:39.424666 39497 net.cpp:165] Memory required for data: 816494592
I0306 09:04:39.424695 39497 layer_factory.hpp:77] Creating layer conv5
I0306 09:04:39.424734 39497 net.cpp:106] Creating Layer conv5
I0306 09:04:39.424764 39497 net.cpp:454] conv5 <- conv4
I0306 09:04:39.424803 39497 net.cpp:411] conv5 -> conv5
I0306 09:04:39.443032 39497 net.cpp:150] Setting up conv5
I0306 09:04:39.443120 39497 net.cpp:157] Top shape: 128 256 13 13 (5537792)
I0306 09:04:39.443148 39497 net.cpp:165] Memory required for data: 838645760
I0306 09:04:39.443187 39497 layer_factory.hpp:77] Creating layer relu5
I0306 09:04:39.443223 39497 net.cpp:106] Creating Layer relu5
I0306 09:04:39.443249 39497 net.cpp:454] relu5 <- conv5
I0306 09:04:39.443279 39497 net.cpp:397] relu5 -> conv5 (in-place)
I0306 09:04:39.443311 39497 net.cpp:150] Setting up relu5
I0306 09:04:39.443342 39497 net.cpp:157] Top shape: 128 256 13 13 (5537792)
I0306 09:04:39.443368 39497 net.cpp:165] Memory required for data: 860796928
I0306 09:04:39.443395 39497 layer_factory.hpp:77] Creating layer pool5
I0306 09:04:39.443428 39497 net.cpp:106] Creating Layer pool5
I0306 09:04:39.443454 39497 net.cpp:454] pool5 <- conv5
I0306 09:04:39.443486 39497 net.cpp:411] pool5 -> pool5
I0306 09:04:39.443552 39497 net.cpp:150] Setting up pool5
I0306 09:04:39.443586 39497 net.cpp:157] Top shape: 128 256 6 6 (1179648)
I0306 09:04:39.443614 39497 net.cpp:165] Memory required for data: 865515520
I0306 09:04:39.443640 39497 layer_factory.hpp:77] Creating layer fc6
I0306 09:04:39.443719 39497 net.cpp:106] Creating Layer fc6
I0306 09:04:39.443750 39497 net.cpp:454] fc6 <- pool5
I0306 09:04:39.443800 39497 net.cpp:411] fc6 -> fc6
I0306 09:04:39.511607 39501 blocking_queue.cpp:50] Waiting for data
I0306 09:04:40.867913 39497 net.cpp:150] Setting up fc6
I0306 09:04:40.868059 39497 net.cpp:157] Top shape: 128 4096 (524288)
I0306 09:04:40.868084 39497 net.cpp:165] Memory required for data: 867612672
I0306 09:04:40.868118 39497 layer_factory.hpp:77] Creating layer relu6
I0306 09:04:40.868154 39497 net.cpp:106] Creating Layer relu6
I0306 09:04:40.868177 39497 net.cpp:454] relu6 <- fc6
I0306 09:04:40.868206 39497 net.cpp:397] relu6 -> fc6 (in-place)
I0306 09:04:40.868243 39497 net.cpp:150] Setting up relu6
I0306 09:04:40.868268 39497 net.cpp:157] Top shape: 128 4096 (524288)
I0306 09:04:40.868289 39497 net.cpp:165] Memory required for data: 869709824
I0306 09:04:40.868310 39497 layer_factory.hpp:77] Creating layer drop6
I0306 09:04:40.868338 39497 net.cpp:106] Creating Layer drop6
I0306 09:04:40.868360 39497 net.cpp:454] drop6 <- fc6
I0306 09:04:40.868386 39497 net.cpp:397] drop6 -> fc6 (in-place)
I0306 09:04:40.868473 39497 net.cpp:150] Setting up drop6
I0306 09:04:40.868502 39497 net.cpp:157] Top shape: 128 4096 (524288)
I0306 09:04:40.868523 39497 net.cpp:165] Memory required for data: 871806976
I0306 09:04:40.868544 39497 layer_factory.hpp:77] Creating layer fc7
I0306 09:04:40.868577 39497 net.cpp:106] Creating Layer fc7
I0306 09:04:40.868599 39497 net.cpp:454] fc7 <- fc6
I0306 09:04:40.868623 39497 net.cpp:411] fc7 -> fc7
I0306 09:04:41.483552 39497 net.cpp:150] Setting up fc7
I0306 09:04:41.483685 39497 net.cpp:157] Top shape: 128 4096 (524288)
I0306 09:04:41.483708 39497 net.cpp:165] Memory required for data: 873904128
I0306 09:04:41.483741 39497 layer_factory.hpp:77] Creating layer relu7
I0306 09:04:41.483782 39497 net.cpp:106] Creating Layer relu7
I0306 09:04:41.483808 39497 net.cpp:454] relu7 <- fc7
I0306 09:04:41.483837 39497 net.cpp:397] relu7 -> fc7 (in-place)
I0306 09:04:41.483875 39497 net.cpp:150] Setting up relu7
I0306 09:04:41.483899 39497 net.cpp:157] Top shape: 128 4096 (524288)
I0306 09:04:41.483921 39497 net.cpp:165] Memory required for data: 876001280
I0306 09:04:41.483942 39497 layer_factory.hpp:77] Creating layer drop7
I0306 09:04:41.483970 39497 net.cpp:106] Creating Layer drop7
I0306 09:04:41.483992 39497 net.cpp:454] drop7 <- fc7
I0306 09:04:41.484015 39497 net.cpp:397] drop7 -> fc7 (in-place)
I0306 09:04:41.484083 39497 net.cpp:150] Setting up drop7
I0306 09:04:41.484146 39497 net.cpp:157] Top shape: 128 4096 (524288)
I0306 09:04:41.484169 39497 net.cpp:165] Memory required for data: 878098432
I0306 09:04:41.484189 39497 layer_factory.hpp:77] Creating layer fc8_subset
I0306 09:04:41.484221 39497 net.cpp:106] Creating Layer fc8_subset
I0306 09:04:41.484244 39497 net.cpp:454] fc8_subset <- fc7
I0306 09:04:41.484269 39497 net.cpp:411] fc8_subset -> fc8_subset
I0306 09:04:41.488540 39497 net.cpp:150] Setting up fc8_subset
I0306 09:04:41.488577 39497 net.cpp:157] Top shape: 128 25 (3200)
I0306 09:04:41.488600 39497 net.cpp:165] Memory required for data: 878111232
I0306 09:04:41.488626 39497 layer_factory.hpp:77] Creating layer loss
I0306 09:04:41.488652 39497 net.cpp:106] Creating Layer loss
I0306 09:04:41.488674 39497 net.cpp:454] loss <- fc8_subset
I0306 09:04:41.488698 39497 net.cpp:454] loss <- label
I0306 09:04:41.488726 39497 net.cpp:411] loss -> loss
I0306 09:04:41.488796 39497 layer_factory.hpp:77] Creating layer loss
…
I0306 09:04:41.491539 39497 net.cpp:322] The NetState phase (1) differed from the phase (0) specified by a rule in layer data
I0306 09:04:41.491758 39497 net.cpp:49] Initializing net from parameters: 
name: "FlickrStyleCaffeNet"
state {
  phase: TEST
}
layer {
  name: "data"
  type: "Data"
  top: "data"
  top: "label"
  include {
    phase: TEST
  }
  transform_param {
    mirror: false
    crop_size: 227
    mean_file: "/work/01932/dineshj/CS381V/caffe_install_scripts/caffe/data/ilsvrc12/imagenet_mean.binaryproto"
  }
  data_param {
    source: "/work/04018/wxie/maverick/visual_recognition/data/test-lmdb"
    batch_size: 20
    backend: LMDB
  }
}
layer {
  name: "conv1"
  type: "Convolution"
  bottom: "data"
  top: "conv1"
  param {
    lr_mult: 1
    decay_mult: 1
  }
  param {
    lr_mult: 2
    decay_mult: 0
  }
  convolution_param {
    num_output: 96
    kernel_size: 11
    stride: 4
    weight_filler {
      type: "gaussian"
      std: 0.01
    }
    bias_filler {
      type: "constant"
      value: 0
    }
  }
}
layer {
  name: "relu1"
  type: "ReLU"
  bottom: "conv1"
  top: "conv1"
}
layer {
  name: "pool1"
  type: "Pooling"
  bottom: "conv1"
  top: "pool1"
  pooling_param {
    pool: MAX
    kernel_size: 3
    stride: 2
  }
}
layer {
  name: "norm1"
  type: "LRN"
  bottom: "pool1"
  top: "norm1"
  lrn_param {
    local_size: 5
    alpha: 0.0001
    beta: 0.75
  }
}
layer {
  name: "conv2"
  type: "Convolution"
  bottom: "norm1"
  top: "conv2"
  param {
    lr_mult: 1
    decay_mult: 1
  }
  param {
    lr_mult: 2
    decay_mult: 0
  }
  convolution_param {
    num_output: 256
    pad: 2
    kernel_size: 5
    group: 2
    weight_filler {
      type: "gaussian"
      std: 0.01
    }
    bias_filler {
      type: "constant"
      value: 0.1
    }
  }
}
layer {
  name: "relu2"
  type: "ReLU"
  bottom: "conv2"
  top: "conv2"
}
layer {
  name: "pool2"
  type: "Pooling"
  bottom: "conv2"
  top: "pool2"
  pooling_param {
    pool: MAX
    kernel_size: 3
    stride: 2
  }
}
layer {
  name: "norm2"
  type: "LRN"
  bottom: "pool2"
  top: "norm2"
  lrn_param {
    local_size: 5
    alpha: 0.0001
    beta: 0.75
  }
}
layer {
  name: "conv3"
  type: "Convolution"
  bottom: "norm2"
  top: "conv3"
  param {
    lr_mult: 1
    decay_mult: 1
  }
  param {
    lr_mult: 2
    decay_mult: 0
  }
  convolution_param {
    num_output: 384
    pad: 1
    kernel_size: 3
    weight_filler {
      type: "gaussian"
      std: 0.01
    }
    bias_filler {
      type: "constant"
      value: 0
    }
  }
}
layer {
  name: "relu3"
  type: "ReLU"
  bottom: "conv3"
  top: "conv3"
}
layer {
  name: "conv4"
  type: "Convolution"
  bottom: "conv3"
  top: "conv4"
  param {
    lr_mult: 1
    decay_mult: 1
  }
  param {
    lr_mult: 2
    decay_mult: 0
  }
  convolution_param {
    num_output: 384
    pad: 1
    kernel_size: 3
    group: 2
    weight_filler {
      type: "gaussian"
      std: 0.01
    }
    bias_filler {
      type: "constant"
      value: 0.1
    }
  }
}
layer {
  name: "relu4"
  type: "ReLU"
  bottom: "conv4"
  top: "conv4"
}
layer {
  name: "conv5"
  type: "Convolution"
  bottom: "conv4"
  top: "conv5"
  param {
    lr_mult: 1
    decay_mult: 1
  }
  param {
    lr_mult: 2
    decay_mult: 0
  }
  convolution_param {
    num_output: 256
    pad: 1
    kernel_size: 3
    group: 2
    weight_filler {
      type: "gaussian"
      std: 0.01
    }
    bias_filler {
      type: "constant"
      value: 0.1
    }
  }
}
layer {
  name: "relu5"
  type: "ReLU"
  bottom: "conv5"
  top: "conv5"
}
layer {
  name: "pool5"
  type: "Pooling"
  bottom: "conv5"
  top: "pool5"
  pooling_param {
    pool: MAX
    kernel_size: 3
    stride: 2
  }
}
layer {
  name: "fc6"
  type: "InnerProduct"
  bottom: "pool5"
  top: "fc6"
  param {
    lr_mult: 1
    decay_mult: 1
  }
  param {
    lr_mult: 2
    decay_mult: 0
  }
  inner_product_param {
    num_output: 4096
    weight_filler {
      type: "gaussian"
      std: 0.005
    }
    bias_filler {
      type: "constant"
      value: 0.1
    }
  }
}
layer {
  name: "relu6"
  type: "ReLU"
  bottom: "fc6"
  top: "fc6"
}
layer {
  name: "drop6"
  type: "Dropout"
  bottom: "fc6"
  top: "fc6"
  dropout_param {
    dropout_ratio: 0.5
  }
}
layer {
  name: "fc7"
  type: "InnerProduct"
  bottom: "fc6"
  top: "fc7"
  param {
    lr_mult: 1
    decay_mult: 1
  }
  param {
    lr_mult: 2
    decay_mult: 0
  }
  inner_product_param {
    num_output: 4096
    weight_filler {
      type: "gaussian"
      std: 0.005
    }
    bias_filler {
      type: "constant"
      value: 0.1
    }
  }
}
layer {
  name: "relu7"
  type: "ReLU"
  bottom: "fc7"
  top: "fc7"
}
layer {
  name: "drop7"
  type: "Dropout"
  bottom: "fc7"
  top: "fc7"
  dropout_param {
    dropout_ratio: 0.5
  }
}
layer {
  name: "fc8_subset"
  type: "InnerProduct"
  bottom: "fc7"
  top: "fc8_subset"
  param {
    lr_mult: 10
    decay_mult: 1
  }
  param {
    lr_mult: 20
    decay_mult: 0
  }
  inner_product_param {
    num_output: 25
    weight_filler {
      type: "gaussian"
      std: 0.01
    }
    bias_filler {
      type: "constant"
      value: 0
    }
  }
}
layer {
  name: "loss"
  type: "SoftmaxWithLoss"
  bottom: "fc8_subset"
  bottom: "label"
  top: "loss"
}
layer {
  name: "accuracy"
  type: "Accuracy"
  bottom: "fc8_subset"
  bottom: "label"
  top: "accuracy"
  include {
    phase: TEST
  }
}
I0306 09:04:41.491947 39497 layer_factory.hpp:77] Creating layer data
I0306 09:04:41.492077 39497 net.cpp:106] Creating Layer data
I0306 09:04:41.492112 39497 net.cpp:411] data -> data
I0306 09:04:41.492144 39497 net.cpp:411] data -> label
I0306 09:04:41.492185 39497 data_transformer.cpp:25] Loading mean file from: /work/01932/dineshj/CS381V/caffe_install_scripts/caffe/data/ilsvrc12/imagenet_mean.binaryproto
I0306 09:04:41.506278 39502 db_lmdb.cpp:38] Opened lmdb /work/04018/wxie/maverick/visual_recognition/data/test-lmdb
I0306 09:04:41.508213 39497 data_layer.cpp:41] output data size: 20,3,227,227
I0306 09:04:41.531962 39497 net.cpp:150] Setting up data
I0306 09:04:41.532059 39497 net.cpp:157] Top shape: 20 3 227 227 (3091740)
I0306 09:04:41.532104 39497 net.cpp:157] Top shape: 20 (20)
I0306 09:04:41.532136 39497 net.cpp:165] Memory required for data: 12367040
I0306 09:04:41.532168 39497 layer_factory.hpp:77] Creating layer label_data_1_split
I0306 09:04:41.532204 39497 net.cpp:106] Creating Layer label_data_1_split
I0306 09:04:41.532237 39497 net.cpp:454] label_data_1_split <- label
I0306 09:04:41.532270 39497 net.cpp:411] label_data_1_split -> label_data_1_split_0
I0306 09:04:41.532310 39497 net.cpp:411] label_data_1_split -> label_data_1_split_1
I0306 09:04:41.532407 39497 net.cpp:150] Setting up label_data_1_split
I0306 09:04:41.532445 39497 net.cpp:157] Top shape: 20 (20)
I0306 09:04:41.532479 39497 net.cpp:157] Top shape: 20 (20)
I0306 09:04:41.532507 39497 net.cpp:165] Memory required for data: 12367200
I0306 09:04:41.532536 39497 layer_factory.hpp:77] Creating layer conv1
I0306 09:04:41.532567 39497 net.cpp:106] Creating Layer conv1
I0306 09:04:41.532593 39497 net.cpp:454] conv1 <- data
I0306 09:04:41.532619 39497 net.cpp:411] conv1 -> conv1
I0306 09:04:41.534188 39497 net.cpp:150] Setting up conv1
I0306 09:04:41.534234 39497 net.cpp:157] Top shape: 20 96 55 55 (5808000)
I0306 09:04:41.534262 39497 net.cpp:165] Memory required for data: 35599200
I0306 09:04:41.534298 39497 layer_factory.hpp:77] Creating layer relu1
I0306 09:04:41.534330 39497 net.cpp:106] Creating Layer relu1
I0306 09:04:41.534359 39497 net.cpp:454] relu1 <- conv1
I0306 09:04:41.534389 39497 net.cpp:397] relu1 -> conv1 (in-place)
I0306 09:04:41.534422 39497 net.cpp:150] Setting up relu1
I0306 09:04:41.534454 39497 net.cpp:157] Top shape: 20 96 55 55 (5808000)
I0306 09:04:41.534481 39497 net.cpp:165] Memory required for data: 58831200
I0306 09:04:41.534509 39497 layer_factory.hpp:77] Creating layer pool1
I0306 09:04:41.534543 39497 net.cpp:106] Creating Layer pool1
I0306 09:04:41.534571 39497 net.cpp:454] pool1 <- conv1
I0306 09:04:41.534603 39497 net.cpp:411] pool1 -> pool1
I0306 09:04:41.534665 39497 net.cpp:150] Setting up pool1
I0306 09:04:41.534701 39497 net.cpp:157] Top shape: 20 96 27 27 (1399680)
I0306 09:04:41.534729 39497 net.cpp:165] Memory required for data: 64429920
I0306 09:04:41.534754 39497 layer_factory.hpp:77] Creating layer norm1
I0306 09:04:41.534786 39497 net.cpp:106] Creating Layer norm1
I0306 09:04:41.534811 39497 net.cpp:454] norm1 <- pool1
I0306 09:04:41.534839 39497 net.cpp:411] norm1 -> norm1
I0306 09:04:41.534898 39497 net.cpp:150] Setting up norm1
I0306 09:04:41.534931 39497 net.cpp:157] Top shape: 20 96 27 27 (1399680)
I0306 09:04:41.534958 39497 net.cpp:165] Memory required for data: 70028640
I0306 09:04:41.534986 39497 layer_factory.hpp:77] Creating layer conv2
I0306 09:04:41.535019 39497 net.cpp:106] Creating Layer conv2
I0306 09:04:41.535065 39497 net.cpp:454] conv2 <- norm1
I0306 09:04:41.535121 39497 net.cpp:411] conv2 -> conv2
I0306 09:04:41.547335 39497 net.cpp:150] Setting up conv2
I0306 09:04:41.547394 39497 net.cpp:157] Top shape: 20 256 27 27 (3732480)
I0306 09:04:41.547431 39497 net.cpp:165] Memory required for data: 84958560
I0306 09:04:41.547474 39497 layer_factory.hpp:77] Creating layer relu2
I0306 09:04:41.547500 39497 net.cpp:106] Creating Layer relu2
I0306 09:04:41.547524 39497 net.cpp:454] relu2 <- conv2
I0306 09:04:41.547551 39497 net.cpp:397] relu2 -> conv2 (in-place)
I0306 09:04:41.547580 39497 net.cpp:150] Setting up relu2
I0306 09:04:41.547606 39497 net.cpp:157] Top shape: 20 256 27 27 (3732480)
I0306 09:04:41.547627 39497 net.cpp:165] Memory required for data: 99888480
I0306 09:04:41.547649 39497 layer_factory.hpp:77] Creating layer pool2
I0306 09:04:41.547675 39497 net.cpp:106] Creating Layer pool2
I0306 09:04:41.547698 39497 net.cpp:454] pool2 <- conv2
I0306 09:04:41.547725 39497 net.cpp:411] pool2 -> pool2
I0306 09:04:41.547801 39497 net.cpp:150] Setting up pool2
I0306 09:04:41.547833 39497 net.cpp:157] Top shape: 20 256 13 13 (865280)
I0306 09:04:41.547857 39497 net.cpp:165] Memory required for data: 103349600
I0306 09:04:41.547879 39497 layer_factory.hpp:77] Creating layer norm2
I0306 09:04:41.547907 39497 net.cpp:106] Creating Layer norm2
I0306 09:04:41.547931 39497 net.cpp:454] norm2 <- pool2
I0306 09:04:41.547956 39497 net.cpp:411] norm2 -> norm2
I0306 09:04:41.548012 39497 net.cpp:150] Setting up norm2
I0306 09:04:41.548043 39497 net.cpp:157] Top shape: 20 256 13 13 (865280)
I0306 09:04:41.548066 39497 net.cpp:165] Memory required for data: 106810720
I0306 09:04:41.548101 39497 layer_factory.hpp:77] Creating layer conv3
I0306 09:04:41.548143 39497 net.cpp:106] Creating Layer conv3
I0306 09:04:41.548168 39497 net.cpp:454] conv3 <- norm2
I0306 09:04:41.548198 39497 net.cpp:411] conv3 -> conv3
I0306 09:04:41.582840 39497 net.cpp:150] Setting up conv3
I0306 09:04:41.582934 39497 net.cpp:157] Top shape: 20 384 13 13 (1297920)
I0306 09:04:41.582963 39497 net.cpp:165] Memory required for data: 112002400
I0306 09:04:41.583001 39497 layer_factory.hpp:77] Creating layer relu3
I0306 09:04:41.583035 39497 net.cpp:106] Creating Layer relu3
I0306 09:04:41.583066 39497 net.cpp:454] relu3 <- conv3
I0306 09:04:41.583098 39497 net.cpp:397] relu3 -> conv3 (in-place)
I0306 09:04:41.583134 39497 net.cpp:150] Setting up relu3
I0306 09:04:41.583164 39497 net.cpp:157] Top shape: 20 384 13 13 (1297920)
I0306 09:04:41.583190 39497 net.cpp:165] Memory required for data: 117194080
I0306 09:04:41.583217 39497 layer_factory.hpp:77] Creating layer conv4
I0306 09:04:41.583257 39497 net.cpp:106] Creating Layer conv4
I0306 09:04:41.583287 39497 net.cpp:454] conv4 <- conv3
I0306 09:04:41.583319 39497 net.cpp:411] conv4 -> conv4
I0306 09:04:41.609318 39497 net.cpp:150] Setting up conv4
I0306 09:04:41.609381 39497 net.cpp:157] Top shape: 20 384 13 13 (1297920)
I0306 09:04:41.609408 39497 net.cpp:165] Memory required for data: 122385760
I0306 09:04:41.609439 39497 layer_factory.hpp:77] Creating layer relu4
I0306 09:04:41.609469 39497 net.cpp:106] Creating Layer relu4
I0306 09:04:41.609508 39497 net.cpp:454] relu4 <- conv4
I0306 09:04:41.609539 39497 net.cpp:397] relu4 -> conv4 (in-place)
I0306 09:04:41.609571 39497 net.cpp:150] Setting up relu4
I0306 09:04:41.609611 39497 net.cpp:157] Top shape: 20 384 13 13 (1297920)
I0306 09:04:41.609637 39497 net.cpp:165] Memory required for data: 127577440
I0306 09:04:41.609674 39497 layer_factory.hpp:77] Creating layer conv5
I0306 09:04:41.609710 39497 net.cpp:106] Creating Layer conv5
I0306 09:04:41.609740 39497 net.cpp:454] conv5 <- conv4
I0306 09:04:41.609776 39497 net.cpp:411] conv5 -> conv5
I0306 09:04:41.626906 39497 net.cpp:150] Setting up conv5
I0306 09:04:41.626947 39497 net.cpp:157] Top shape: 20 256 13 13 (865280)
I0306 09:04:41.626976 39497 net.cpp:165] Memory required for data: 131038560
I0306 09:04:41.627010 39497 layer_factory.hpp:77] Creating layer relu5
I0306 09:04:41.627043 39497 net.cpp:106] Creating Layer relu5
I0306 09:04:41.627091 39497 net.cpp:454] relu5 <- conv5
I0306 09:04:41.627152 39497 net.cpp:397] relu5 -> conv5 (in-place)
I0306 09:04:41.627185 39497 net.cpp:150] Setting up relu5
I0306 09:04:41.627215 39497 net.cpp:157] Top shape: 20 256 13 13 (865280)
I0306 09:04:41.627240 39497 net.cpp:165] Memory required for data: 134499680
I0306 09:04:41.627266 39497 layer_factory.hpp:77] Creating layer pool5
I0306 09:04:41.627301 39497 net.cpp:106] Creating Layer pool5
I0306 09:04:41.627328 39497 net.cpp:454] pool5 <- conv5
I0306 09:04:41.627357 39497 net.cpp:411] pool5 -> pool5
I0306 09:04:41.627423 39497 net.cpp:150] Setting up pool5
I0306 09:04:41.627455 39497 net.cpp:157] Top shape: 20 256 6 6 (184320)
I0306 09:04:41.627482 39497 net.cpp:165] Memory required for data: 135236960
I0306 09:04:41.627509 39497 layer_factory.hpp:77] Creating layer fc6
I0306 09:04:41.627539 39497 net.cpp:106] Creating Layer fc6
I0306 09:04:41.627567 39497 net.cpp:454] fc6 <- pool5
I0306 09:04:41.627598 39497 net.cpp:411] fc6 -> fc6
I0306 09:04:43.006814 39497 net.cpp:150] Setting up fc6
I0306 09:04:43.006938 39497 net.cpp:157] Top shape: 20 4096 (81920)
I0306 09:04:43.006963 39497 net.cpp:165] Memory required for data: 135564640
I0306 09:04:43.006995 39497 layer_factory.hpp:77] Creating layer relu6
I0306 09:04:43.007033 39497 net.cpp:106] Creating Layer relu6
I0306 09:04:43.007060 39497 net.cpp:454] relu6 <- fc6
I0306 09:04:43.007088 39497 net.cpp:397] relu6 -> fc6 (in-place)
I0306 09:04:43.007125 39497 net.cpp:150] Setting up relu6
I0306 09:04:43.007150 39497 net.cpp:157] Top shape: 20 4096 (81920)
I0306 09:04:43.007171 39497 net.cpp:165] Memory required for data: 135892320
I0306 09:04:43.007192 39497 layer_factory.hpp:77] Creating layer drop6
I0306 09:04:43.007220 39497 net.cpp:106] Creating Layer drop6
I0306 09:04:43.007242 39497 net.cpp:454] drop6 <- fc6
I0306 09:04:43.007269 39497 net.cpp:397] drop6 -> fc6 (in-place)
I0306 09:04:43.007318 39497 net.cpp:150] Setting up drop6
I0306 09:04:43.007347 39497 net.cpp:157] Top shape: 20 4096 (81920)
I0306 09:04:43.007369 39497 net.cpp:165] Memory required for data: 136220000
I0306 09:04:43.007390 39497 layer_factory.hpp:77] Creating layer fc7
I0306 09:04:43.007421 39497 net.cpp:106] Creating Layer fc7
I0306 09:04:43.007443 39497 net.cpp:454] fc7 <- fc6
I0306 09:04:43.007468 39497 net.cpp:411] fc7 -> fc7
I0306 09:04:43.621484 39497 net.cpp:150] Setting up fc7
I0306 09:04:43.621616 39497 net.cpp:157] Top shape: 20 4096 (81920)
I0306 09:04:43.621640 39497 net.cpp:165] Memory required for data: 136547680
I0306 09:04:43.621672 39497 layer_factory.hpp:77] Creating layer relu7
I0306 09:04:43.621709 39497 net.cpp:106] Creating Layer relu7
I0306 09:04:43.621736 39497 net.cpp:454] relu7 <- fc7
I0306 09:04:43.621764 39497 net.cpp:397] relu7 -> fc7 (in-place)
I0306 09:04:43.621805 39497 net.cpp:150] Setting up relu7
I0306 09:04:43.621830 39497 net.cpp:157] Top shape: 20 4096 (81920)
I0306 09:04:43.621851 39497 net.cpp:165] Memory required for data: 136875360
I0306 09:04:43.621872 39497 layer_factory.hpp:77] Creating layer drop7
I0306 09:04:43.621901 39497 net.cpp:106] Creating Layer drop7
I0306 09:04:43.621924 39497 net.cpp:454] drop7 <- fc7
I0306 09:04:43.621949 39497 net.cpp:397] drop7 -> fc7 (in-place)
I0306 09:04:43.621997 39497 net.cpp:150] Setting up drop7
I0306 09:04:43.622025 39497 net.cpp:157] Top shape: 20 4096 (81920)
I0306 09:04:43.622046 39497 net.cpp:165] Memory required for data: 137203040
I0306 09:04:43.622068 39497 layer_factory.hpp:77] Creating layer fc8_subset
I0306 09:04:43.622099 39497 net.cpp:106] Creating Layer fc8_subset
I0306 09:04:43.622123 39497 net.cpp:454] fc8_subset <- fc7
I0306 09:04:43.622150 39497 net.cpp:411] fc8_subset -> fc8_subset
I0306 09:04:43.625854 39497 net.cpp:150] Setting up fc8_subset
I0306 09:04:43.625887 39497 net.cpp:157] Top shape: 20 25 (500)
I0306 09:04:43.625910 39497 net.cpp:165] Memory required for data: 137205040
I0306 09:04:43.625934 39497 layer_factory.hpp:77] Creating layer fc8_subset_fc8_subset_0_split
I0306 09:04:43.625960 39497 net.cpp:106] Creating Layer fc8_subset_fc8_subset_0_split
I0306 09:04:43.626039 39497 net.cpp:454] fc8_subset_fc8_subset_0_split <- fc8_subset
I0306 09:04:43.626065 39497 net.cpp:411] fc8_subset_fc8_subset_0_split -> fc8_subset_fc8_subset_0_split_0
I0306 09:04:43.626093 39497 net.cpp:411] fc8_subset_fc8_subset_0_split -> fc8_subset_fc8_subset_0_split_1
I0306 09:04:43.626152 39497 net.cpp:150] Setting up fc8_subset_fc8_subset_0_split
I0306 09:04:43.626181 39497 net.cpp:157] Top shape: 20 25 (500)
I0306 09:04:43.626204 39497 net.cpp:157] Top shape: 20 25 (500)
I0306 09:04:43.626225 39497 net.cpp:165] Memory required for data: 137209040
I0306 09:04:43.626246 39497 layer_factory.hpp:77] Creating layer loss
I0306 09:04:43.626271 39497 net.cpp:106] Creating Layer loss
I0306 09:04:43.626292 39497 net.cpp:454] loss <- fc8_subset_fc8_subset_0_split_0
I0306 09:04:43.626318 39497 net.cpp:454] loss <- label_data_1_split_0
I0306 09:04:43.626343 39497 net.cpp:411] loss -> loss
…
