…
I0309 02:54:04.615713  1118 net.cpp:322] The NetState phase (0) differed from the phase (1) specified by a rule in layer accuracy
I0309 02:54:04.615918  1118 net.cpp:49] Initializing net from parameters: 
name: "FlickrStyleCaffeNet"
state {
  phase: TRAIN
}
layer {
  name: "data"
  type: "Data"
  top: "data"
  top: "label"
  include {
    phase: TRAIN
  }
  transform_param {
    mirror: true
    crop_size: 227
    mean_file: "/work/01932/dineshj/CS381V/caffe_install_scripts/caffe/data/ilsvrc12/imagenet_mean.binaryproto"
  }
  data_param {
    source: "/work/04018/wxie/maverick/visual_recognition/data/train-lmdb"
    batch_size: 128
    backend: LMDB
  }
}
layer {
  name: "conv1"
  type: "Convolution"
  bottom: "data"
  top: "conv1"
  param {
    lr_mult: 1
    decay_mult: 1
  }
  param {
    lr_mult: 2
    decay_mult: 0
  }
  convolution_param {
    num_output: 96
    kernel_size: 11
    stride: 4
    weight_filler {
      type: "gaussian"
      std: 0.01
    }
    bias_filler {
      type: "constant"
      value: 0
    }
  }
}
layer {
  name: "relu1"
  type: "ReLU"
  bottom: "conv1"
  top: "conv1"
}
layer {
  name: "pool1"
  type: "Pooling"
  bottom: "conv1"
  top: "pool1"
  pooling_param {
    pool: MAX
    kernel_size: 3
    stride: 2
  }
}
layer {
  name: "norm1"
  type: "LRN"
  bottom: "pool1"
  top: "norm1"
  lrn_param {
    local_size: 5
    alpha: 0.0001
    beta: 0.75
  }
}
layer {
  name: "conv2"
  type: "Convolution"
  bottom: "norm1"
  top: "conv2"
  param {
    lr_mult: 1
    decay_mult: 1
  }
  param {
    lr_mult: 2
    decay_mult: 0
  }
  convolution_param {
    num_output: 256
    pad: 2
    kernel_size: 5
    group: 2
    weight_filler {
      type: "gaussian"
      std: 0.01
    }
    bias_filler {
      type: "constant"
      value: 0.1
    }
  }
}
layer {
  name: "relu2"
  type: "ReLU"
  bottom: "conv2"
  top: "conv2"
}
layer {
  name: "pool2"
  type: "Pooling"
  bottom: "conv2"
  top: "pool2"
  pooling_param {
    pool: MAX
    kernel_size: 3
    stride: 2
  }
}
layer {
  name: "norm2"
  type: "LRN"
  bottom: "pool2"
  top: "norm2"
  lrn_param {
    local_size: 5
    alpha: 0.0001
    beta: 0.75
  }
}
layer {
  name: "conv3"
  type: "Convolution"
  bottom: "norm2"
  top: "conv3"
  param {
    lr_mult: 1
    decay_mult: 1
  }
  param {
    lr_mult: 2
    decay_mult: 0
  }
  convolution_param {
    num_output: 384
    pad: 1
    kernel_size: 3
    weight_filler {
      type: "gaussian"
      std: 0.01
    }
    bias_filler {
      type: "constant"
      value: 0
    }
  }
}
layer {
  name: "relu3"
  type: "ReLU"
  bottom: "conv3"
  top: "conv3"
}
layer {
  name: "conv4"
  type: "Convolution"
  bottom: "conv3"
  top: "conv4"
  param {
    lr_mult: 1
    decay_mult: 1
  }
  param {
    lr_mult: 2
    decay_mult: 0
  }
  convolution_param {
    num_output: 384
    pad: 1
    kernel_size: 3
    group: 2
    weight_filler {
      type: "gaussian"
      std: 0.01
    }
    bias_filler {
      type: "constant"
      value: 0.1
    }
  }
}
layer {
  name: "relu4"
  type: "ReLU"
  bottom: "conv4"
  top: "conv4"
}
layer {
  name: "conv5"
  type: "Convolution"
  bottom: "conv4"
  top: "conv5"
  param {
    lr_mult: 1
    decay_mult: 1
  }
  param {
    lr_mult: 2
    decay_mult: 0
  }
  convolution_param {
    num_output: 256
    pad: 1
    kernel_size: 3
    group: 2
    weight_filler {
      type: "gaussian"
      std: 0.01
    }
    bias_filler {
      type: "constant"
      value: 0.1
    }
  }
}
layer {
  name: "relu5"
  type: "ReLU"
  bottom: "conv5"
  top: "conv5"
}
layer {
  name: "pool5"
  type: "Pooling"
  bottom: "conv5"
  top: "pool5"
  pooling_param {
    pool: MAX
    kernel_size: 3
    stride: 2
  }
}
layer {
  name: "fc6"
  type: "InnerProduct"
  bottom: "pool5"
  top: "fc6"
  param {
    lr_mult: 1
    decay_mult: 1
  }
  param {
    lr_mult: 2
    decay_mult: 0
  }
  inner_product_param {
    num_output: 4096
    weight_filler {
      type: "gaussian"
      std: 0.005
    }
    bias_filler {
      type: "constant"
      value: 0.1
    }
  }
}
layer {
  name: "relu6"
  type: "ReLU"
  bottom: "fc6"
  top: "fc6"
}
layer {
  name: "drop6"
  type: "Dropout"
  bottom: "fc6"
  top: "fc6"
  dropout_param {
    dropout_ratio: 0.5
  }
}
layer {
  name: "fc7"
  type: "InnerProduct"
  bottom: "fc6"
  top: "fc7"
  param {
    lr_mult: 1
    decay_mult: 1
  }
  param {
    lr_mult: 2
    decay_mult: 0
  }
  inner_product_param {
    num_output: 4096
    weight_filler {
      type: "gaussian"
      std: 0.005
    }
    bias_filler {
      type: "constant"
      value: 0.1
    }
  }
}
layer {
  name: "relu7"
  type: "ReLU"
  bottom: "fc7"
  top: "fc7"
}
layer {
  name: "drop7"
  type: "Dropout"
  bottom: "fc7"
  top: "fc7"
  dropout_param {
    dropout_ratio: 0.5
  }
}
layer {
  name: "fc8_subset"
  type: "InnerProduct"
  bottom: "fc7"
  top: "fc8_subset"
  param {
    lr_mult: 10
    decay_mult: 1
  }
  param {
    lr_mult: 20
    decay_mult: 0
  }
  inner_product_param {
    num_output: 25
    weight_filler {
      type: "gaussian"
      std: 0.01
    }
    bias_filler {
      type: "constant"
      value: 0
    }
  }
}
layer {
  name: "loss"
  type: "SoftmaxWithLoss"
  bottom: "fc8_subset"
  bottom: "label"
  top: "loss"
}
I0309 02:54:04.616205  1118 layer_factory.hpp:77] Creating layer data
I0309 02:54:04.617005  1118 net.cpp:106] Creating Layer data
I0309 02:54:04.617064  1118 net.cpp:411] data -> data
I0309 02:54:04.617172  1118 net.cpp:411] data -> label
I0309 02:54:04.617252  1118 data_transformer.cpp:25] Loading mean file from: /work/01932/dineshj/CS381V/caffe_install_scripts/caffe/data/ilsvrc12/imagenet_mean.binaryproto
I0309 02:54:04.689596  1121 db_lmdb.cpp:38] Opened lmdb /work/04018/wxie/maverick/visual_recognition/data/train-lmdb
I0309 02:54:04.698359  1118 data_layer.cpp:41] output data size: 128,3,227,227
I0309 02:54:04.858721  1118 net.cpp:150] Setting up data
I0309 02:54:04.858829  1118 net.cpp:157] Top shape: 128 3 227 227 (19787136)
I0309 02:54:04.858866  1118 net.cpp:157] Top shape: 128 (128)
I0309 02:54:04.858896  1118 net.cpp:165] Memory required for data: 79149056
I0309 02:54:04.858943  1118 layer_factory.hpp:77] Creating layer conv1
I0309 02:54:04.859031  1118 net.cpp:106] Creating Layer conv1
I0309 02:54:04.859067  1118 net.cpp:454] conv1 <- data
I0309 02:54:04.859117  1118 net.cpp:411] conv1 -> conv1
I0309 02:54:04.869377  1118 net.cpp:150] Setting up conv1
I0309 02:54:04.869424  1118 net.cpp:157] Top shape: 128 96 55 55 (37171200)
I0309 02:54:04.869453  1118 net.cpp:165] Memory required for data: 227833856
I0309 02:54:04.869524  1118 layer_factory.hpp:77] Creating layer relu1
I0309 02:54:04.869560  1118 net.cpp:106] Creating Layer relu1
I0309 02:54:04.869587  1118 net.cpp:454] relu1 <- conv1
I0309 02:54:04.869621  1118 net.cpp:397] relu1 -> conv1 (in-place)
I0309 02:54:04.869657  1118 net.cpp:150] Setting up relu1
I0309 02:54:04.869686  1118 net.cpp:157] Top shape: 128 96 55 55 (37171200)
I0309 02:54:04.869711  1118 net.cpp:165] Memory required for data: 376518656
I0309 02:54:04.869738  1118 layer_factory.hpp:77] Creating layer pool1
I0309 02:54:04.869771  1118 net.cpp:106] Creating Layer pool1
I0309 02:54:04.869797  1118 net.cpp:454] pool1 <- conv1
I0309 02:54:04.869827  1118 net.cpp:411] pool1 -> pool1
I0309 02:54:04.869987  1118 net.cpp:150] Setting up pool1
I0309 02:54:04.870023  1118 net.cpp:157] Top shape: 128 96 27 27 (8957952)
I0309 02:54:04.870101  1118 net.cpp:165] Memory required for data: 412350464
I0309 02:54:04.870126  1118 layer_factory.hpp:77] Creating layer norm1
I0309 02:54:04.870157  1118 net.cpp:106] Creating Layer norm1
I0309 02:54:04.870182  1118 net.cpp:454] norm1 <- pool1
I0309 02:54:04.870209  1118 net.cpp:411] norm1 -> norm1
I0309 02:54:04.870313  1118 net.cpp:150] Setting up norm1
I0309 02:54:04.870348  1118 net.cpp:157] Top shape: 128 96 27 27 (8957952)
I0309 02:54:04.870376  1118 net.cpp:165] Memory required for data: 448182272
I0309 02:54:04.870403  1118 layer_factory.hpp:77] Creating layer conv2
I0309 02:54:04.870435  1118 net.cpp:106] Creating Layer conv2
I0309 02:54:04.870465  1118 net.cpp:454] conv2 <- norm1
I0309 02:54:04.870502  1118 net.cpp:411] conv2 -> conv2
I0309 02:54:04.883014  1118 net.cpp:150] Setting up conv2
I0309 02:54:04.883090  1118 net.cpp:157] Top shape: 128 256 27 27 (23887872)
I0309 02:54:04.883118  1118 net.cpp:165] Memory required for data: 543733760
I0309 02:54:04.883152  1118 layer_factory.hpp:77] Creating layer relu2
I0309 02:54:04.883183  1118 net.cpp:106] Creating Layer relu2
I0309 02:54:04.883209  1118 net.cpp:454] relu2 <- conv2
I0309 02:54:04.883235  1118 net.cpp:397] relu2 -> conv2 (in-place)
I0309 02:54:04.883265  1118 net.cpp:150] Setting up relu2
I0309 02:54:04.883291  1118 net.cpp:157] Top shape: 128 256 27 27 (23887872)
I0309 02:54:04.883316  1118 net.cpp:165] Memory required for data: 639285248
I0309 02:54:04.883342  1118 layer_factory.hpp:77] Creating layer pool2
I0309 02:54:04.883375  1118 net.cpp:106] Creating Layer pool2
I0309 02:54:04.883404  1118 net.cpp:454] pool2 <- conv2
I0309 02:54:04.883432  1118 net.cpp:411] pool2 -> pool2
I0309 02:54:04.883496  1118 net.cpp:150] Setting up pool2
I0309 02:54:04.883535  1118 net.cpp:157] Top shape: 128 256 13 13 (5537792)
I0309 02:54:04.883561  1118 net.cpp:165] Memory required for data: 661436416
I0309 02:54:04.883587  1118 layer_factory.hpp:77] Creating layer norm2
I0309 02:54:04.883620  1118 net.cpp:106] Creating Layer norm2
I0309 02:54:04.883648  1118 net.cpp:454] norm2 <- pool2
I0309 02:54:04.883677  1118 net.cpp:411] norm2 -> norm2
I0309 02:54:04.883738  1118 net.cpp:150] Setting up norm2
I0309 02:54:04.883771  1118 net.cpp:157] Top shape: 128 256 13 13 (5537792)
I0309 02:54:04.883798  1118 net.cpp:165] Memory required for data: 683587584
I0309 02:54:04.883826  1118 layer_factory.hpp:77] Creating layer conv3
I0309 02:54:04.883860  1118 net.cpp:106] Creating Layer conv3
I0309 02:54:04.883889  1118 net.cpp:454] conv3 <- norm2
I0309 02:54:04.883922  1118 net.cpp:411] conv3 -> conv3
I0309 02:54:04.918949  1118 net.cpp:150] Setting up conv3
I0309 02:54:04.919093  1118 net.cpp:157] Top shape: 128 384 13 13 (8306688)
I0309 02:54:04.919119  1118 net.cpp:165] Memory required for data: 716814336
I0309 02:54:04.919158  1118 layer_factory.hpp:77] Creating layer relu3
I0309 02:54:04.919198  1118 net.cpp:106] Creating Layer relu3
I0309 02:54:04.919227  1118 net.cpp:454] relu3 <- conv3
I0309 02:54:04.919267  1118 net.cpp:397] relu3 -> conv3 (in-place)
I0309 02:54:04.919314  1118 net.cpp:150] Setting up relu3
I0309 02:54:04.919342  1118 net.cpp:157] Top shape: 128 384 13 13 (8306688)
I0309 02:54:04.919363  1118 net.cpp:165] Memory required for data: 750041088
I0309 02:54:04.919386  1118 layer_factory.hpp:77] Creating layer conv4
I0309 02:54:04.919423  1118 net.cpp:106] Creating Layer conv4
I0309 02:54:04.919450  1118 net.cpp:454] conv4 <- conv3
I0309 02:54:04.919479  1118 net.cpp:411] conv4 -> conv4
I0309 02:54:04.951750  1118 net.cpp:150] Setting up conv4
I0309 02:54:04.951835  1118 net.cpp:157] Top shape: 128 384 13 13 (8306688)
I0309 02:54:04.951864  1118 net.cpp:165] Memory required for data: 783267840
I0309 02:54:04.951899  1118 layer_factory.hpp:77] Creating layer relu4
I0309 02:54:04.951936  1118 net.cpp:106] Creating Layer relu4
I0309 02:54:04.951966  1118 net.cpp:454] relu4 <- conv4
I0309 02:54:04.951998  1118 net.cpp:397] relu4 -> conv4 (in-place)
I0309 02:54:04.952033  1118 net.cpp:150] Setting up relu4
I0309 02:54:04.952088  1118 net.cpp:157] Top shape: 128 384 13 13 (8306688)
I0309 02:54:04.952147  1118 net.cpp:165] Memory required for data: 816494592
I0309 02:54:04.952175  1118 layer_factory.hpp:77] Creating layer conv5
I0309 02:54:04.952215  1118 net.cpp:106] Creating Layer conv5
I0309 02:54:04.952245  1118 net.cpp:454] conv5 <- conv4
I0309 02:54:04.952275  1118 net.cpp:411] conv5 -> conv5
I0309 02:54:04.969988  1118 net.cpp:150] Setting up conv5
I0309 02:54:04.970094  1118 net.cpp:157] Top shape: 128 256 13 13 (5537792)
I0309 02:54:04.970121  1118 net.cpp:165] Memory required for data: 838645760
I0309 02:54:04.970170  1118 layer_factory.hpp:77] Creating layer relu5
I0309 02:54:04.970207  1118 net.cpp:106] Creating Layer relu5
I0309 02:54:04.970244  1118 net.cpp:454] relu5 <- conv5
I0309 02:54:04.970273  1118 net.cpp:397] relu5 -> conv5 (in-place)
I0309 02:54:04.970306  1118 net.cpp:150] Setting up relu5
I0309 02:54:04.970335  1118 net.cpp:157] Top shape: 128 256 13 13 (5537792)
I0309 02:54:04.970371  1118 net.cpp:165] Memory required for data: 860796928
I0309 02:54:04.970402  1118 layer_factory.hpp:77] Creating layer pool5
I0309 02:54:04.970443  1118 net.cpp:106] Creating Layer pool5
I0309 02:54:04.970484  1118 net.cpp:454] pool5 <- conv5
I0309 02:54:04.970521  1118 net.cpp:411] pool5 -> pool5
I0309 02:54:04.970592  1118 net.cpp:150] Setting up pool5
I0309 02:54:04.970628  1118 net.cpp:157] Top shape: 128 256 6 6 (1179648)
I0309 02:54:04.970674  1118 net.cpp:165] Memory required for data: 865515520
I0309 02:54:04.970700  1118 layer_factory.hpp:77] Creating layer fc6
I0309 02:54:04.970788  1118 net.cpp:106] Creating Layer fc6
I0309 02:54:04.970819  1118 net.cpp:454] fc6 <- pool5
I0309 02:54:04.970852  1118 net.cpp:411] fc6 -> fc6
I0309 02:54:05.026434  1122 blocking_queue.cpp:50] Waiting for data
I0309 02:54:06.392537  1118 net.cpp:150] Setting up fc6
I0309 02:54:06.392678  1118 net.cpp:157] Top shape: 128 4096 (524288)
I0309 02:54:06.392704  1118 net.cpp:165] Memory required for data: 867612672
I0309 02:54:06.392736  1118 layer_factory.hpp:77] Creating layer relu6
I0309 02:54:06.392771  1118 net.cpp:106] Creating Layer relu6
I0309 02:54:06.392794  1118 net.cpp:454] relu6 <- fc6
I0309 02:54:06.392822  1118 net.cpp:397] relu6 -> fc6 (in-place)
I0309 02:54:06.392858  1118 net.cpp:150] Setting up relu6
I0309 02:54:06.392882  1118 net.cpp:157] Top shape: 128 4096 (524288)
I0309 02:54:06.392904  1118 net.cpp:165] Memory required for data: 869709824
I0309 02:54:06.392923  1118 layer_factory.hpp:77] Creating layer drop6
I0309 02:54:06.392951  1118 net.cpp:106] Creating Layer drop6
I0309 02:54:06.392972  1118 net.cpp:454] drop6 <- fc6
I0309 02:54:06.392998  1118 net.cpp:397] drop6 -> fc6 (in-place)
I0309 02:54:06.393090  1118 net.cpp:150] Setting up drop6
I0309 02:54:06.393120  1118 net.cpp:157] Top shape: 128 4096 (524288)
I0309 02:54:06.393141  1118 net.cpp:165] Memory required for data: 871806976
I0309 02:54:06.393162  1118 layer_factory.hpp:77] Creating layer fc7
I0309 02:54:06.393193  1118 net.cpp:106] Creating Layer fc7
I0309 02:54:06.393216  1118 net.cpp:454] fc7 <- fc6
I0309 02:54:06.393239  1118 net.cpp:411] fc7 -> fc7
I0309 02:54:07.007221  1118 net.cpp:150] Setting up fc7
I0309 02:54:07.007357  1118 net.cpp:157] Top shape: 128 4096 (524288)
I0309 02:54:07.007381  1118 net.cpp:165] Memory required for data: 873904128
I0309 02:54:07.007413  1118 layer_factory.hpp:77] Creating layer relu7
I0309 02:54:07.007447  1118 net.cpp:106] Creating Layer relu7
I0309 02:54:07.007472  1118 net.cpp:454] relu7 <- fc7
I0309 02:54:07.007505  1118 net.cpp:397] relu7 -> fc7 (in-place)
I0309 02:54:07.007544  1118 net.cpp:150] Setting up relu7
I0309 02:54:07.007570  1118 net.cpp:157] Top shape: 128 4096 (524288)
I0309 02:54:07.007591  1118 net.cpp:165] Memory required for data: 876001280
I0309 02:54:07.007611  1118 layer_factory.hpp:77] Creating layer drop7
I0309 02:54:07.007638  1118 net.cpp:106] Creating Layer drop7
I0309 02:54:07.007660  1118 net.cpp:454] drop7 <- fc7
I0309 02:54:07.007683  1118 net.cpp:397] drop7 -> fc7 (in-place)
I0309 02:54:07.007755  1118 net.cpp:150] Setting up drop7
I0309 02:54:07.007817  1118 net.cpp:157] Top shape: 128 4096 (524288)
I0309 02:54:07.007839  1118 net.cpp:165] Memory required for data: 878098432
I0309 02:54:07.007860  1118 layer_factory.hpp:77] Creating layer fc8_subset
I0309 02:54:07.007892  1118 net.cpp:106] Creating Layer fc8_subset
I0309 02:54:07.007916  1118 net.cpp:454] fc8_subset <- fc7
I0309 02:54:07.007941  1118 net.cpp:411] fc8_subset -> fc8_subset
I0309 02:54:07.012205  1118 net.cpp:150] Setting up fc8_subset
I0309 02:54:07.012243  1118 net.cpp:157] Top shape: 128 25 (3200)
I0309 02:54:07.012265  1118 net.cpp:165] Memory required for data: 878111232
I0309 02:54:07.012290  1118 layer_factory.hpp:77] Creating layer loss
I0309 02:54:07.012316  1118 net.cpp:106] Creating Layer loss
I0309 02:54:07.012338  1118 net.cpp:454] loss <- fc8_subset
I0309 02:54:07.012362  1118 net.cpp:454] loss <- label
I0309 02:54:07.012389  1118 net.cpp:411] loss -> loss
I0309 02:54:07.012462  1118 layer_factory.hpp:77] Creating layer loss
…
I0309 02:54:07.015076  1118 net.cpp:322] The NetState phase (1) differed from the phase (0) specified by a rule in layer data
I0309 02:54:07.015328  1118 net.cpp:49] Initializing net from parameters: 
name: "FlickrStyleCaffeNet"
state {
  phase: TEST
}
layer {
  name: "data"
  type: "Data"
  top: "data"
  top: "label"
  include {
    phase: TEST
  }
  transform_param {
    mirror: false
    crop_size: 227
    mean_file: "/work/01932/dineshj/CS381V/caffe_install_scripts/caffe/data/ilsvrc12/imagenet_mean.binaryproto"
  }
  data_param {
    source: "/work/04018/wxie/maverick/visual_recognition/data/test-lmdb"
    batch_size: 20
    backend: LMDB
  }
}
layer {
  name: "conv1"
  type: "Convolution"
  bottom: "data"
  top: "conv1"
  param {
    lr_mult: 1
    decay_mult: 1
  }
  param {
    lr_mult: 2
    decay_mult: 0
  }
  convolution_param {
    num_output: 96
    kernel_size: 11
    stride: 4
    weight_filler {
      type: "gaussian"
      std: 0.01
    }
    bias_filler {
      type: "constant"
      value: 0
    }
  }
}
layer {
  name: "relu1"
  type: "ReLU"
  bottom: "conv1"
  top: "conv1"
}
layer {
  name: "pool1"
  type: "Pooling"
  bottom: "conv1"
  top: "pool1"
  pooling_param {
    pool: MAX
    kernel_size: 3
    stride: 2
  }
}
layer {
  name: "norm1"
  type: "LRN"
  bottom: "pool1"
  top: "norm1"
  lrn_param {
    local_size: 5
    alpha: 0.0001
    beta: 0.75
  }
}
layer {
  name: "conv2"
  type: "Convolution"
  bottom: "norm1"
  top: "conv2"
  param {
    lr_mult: 1
    decay_mult: 1
  }
  param {
    lr_mult: 2
    decay_mult: 0
  }
  convolution_param {
    num_output: 256
    pad: 2
    kernel_size: 5
    group: 2
    weight_filler {
      type: "gaussian"
      std: 0.01
    }
    bias_filler {
      type: "constant"
      value: 0.1
    }
  }
}
layer {
  name: "relu2"
  type: "ReLU"
  bottom: "conv2"
  top: "conv2"
}
layer {
  name: "pool2"
  type: "Pooling"
  bottom: "conv2"
  top: "pool2"
  pooling_param {
    pool: MAX
    kernel_size: 3
    stride: 2
  }
}
layer {
  name: "norm2"
  type: "LRN"
  bottom: "pool2"
  top: "norm2"
  lrn_param {
    local_size: 5
    alpha: 0.0001
    beta: 0.75
  }
}
layer {
  name: "conv3"
  type: "Convolution"
  bottom: "norm2"
  top: "conv3"
  param {
    lr_mult: 1
    decay_mult: 1
  }
  param {
    lr_mult: 2
    decay_mult: 0
  }
  convolution_param {
    num_output: 384
    pad: 1
    kernel_size: 3
    weight_filler {
      type: "gaussian"
      std: 0.01
    }
    bias_filler {
      type: "constant"
      value: 0
    }
  }
}
layer {
  name: "relu3"
  type: "ReLU"
  bottom: "conv3"
  top: "conv3"
}
layer {
  name: "conv4"
  type: "Convolution"
  bottom: "conv3"
  top: "conv4"
  param {
    lr_mult: 1
    decay_mult: 1
  }
  param {
    lr_mult: 2
    decay_mult: 0
  }
  convolution_param {
    num_output: 384
    pad: 1
    kernel_size: 3
    group: 2
    weight_filler {
      type: "gaussian"
      std: 0.01
    }
    bias_filler {
      type: "constant"
      value: 0.1
    }
  }
}
layer {
  name: "relu4"
  type: "ReLU"
  bottom: "conv4"
  top: "conv4"
}
layer {
  name: "conv5"
  type: "Convolution"
  bottom: "conv4"
  top: "conv5"
  param {
    lr_mult: 1
    decay_mult: 1
  }
  param {
    lr_mult: 2
    decay_mult: 0
  }
  convolution_param {
    num_output: 256
    pad: 1
    kernel_size: 3
    group: 2
    weight_filler {
      type: "gaussian"
      std: 0.01
    }
    bias_filler {
      type: "constant"
      value: 0.1
    }
  }
}
layer {
  name: "relu5"
  type: "ReLU"
  bottom: "conv5"
  top: "conv5"
}
layer {
  name: "pool5"
  type: "Pooling"
  bottom: "conv5"
  top: "pool5"
  pooling_param {
    pool: MAX
    kernel_size: 3
    stride: 2
  }
}
layer {
  name: "fc6"
  type: "InnerProduct"
  bottom: "pool5"
  top: "fc6"
  param {
    lr_mult: 1
    decay_mult: 1
  }
  param {
    lr_mult: 2
    decay_mult: 0
  }
  inner_product_param {
    num_output: 4096
    weight_filler {
      type: "gaussian"
      std: 0.005
    }
    bias_filler {
      type: "constant"
      value: 0.1
    }
  }
}
layer {
  name: "relu6"
  type: "ReLU"
  bottom: "fc6"
  top: "fc6"
}
layer {
  name: "drop6"
  type: "Dropout"
  bottom: "fc6"
  top: "fc6"
  dropout_param {
    dropout_ratio: 0.5
  }
}
layer {
  name: "fc7"
  type: "InnerProduct"
  bottom: "fc6"
  top: "fc7"
  param {
    lr_mult: 1
    decay_mult: 1
  }
  param {
    lr_mult: 2
    decay_mult: 0
  }
  inner_product_param {
    num_output: 4096
    weight_filler {
      type: "gaussian"
      std: 0.005
    }
    bias_filler {
      type: "constant"
      value: 0.1
    }
  }
}
layer {
  name: "relu7"
  type: "ReLU"
  bottom: "fc7"
  top: "fc7"
}
layer {
  name: "drop7"
  type: "Dropout"
  bottom: "fc7"
  top: "fc7"
  dropout_param {
    dropout_ratio: 0.5
  }
}
layer {
  name: "fc8_subset"
  type: "InnerProduct"
  bottom: "fc7"
  top: "fc8_subset"
  param {
    lr_mult: 10
    decay_mult: 1
  }
  param {
    lr_mult: 20
    decay_mult: 0
  }
  inner_product_param {
    num_output: 25
    weight_filler {
      type: "gaussian"
      std: 0.01
    }
    bias_filler {
      type: "constant"
      value: 0
    }
  }
}
layer {
  name: "loss"
  type: "SoftmaxWithLoss"
  bottom: "fc8_subset"
  bottom: "label"
  top: "loss"
}
layer {
  name: "accuracy"
  type: "Accuracy"
  bottom: "fc8_subset"
  bottom: "label"
  top: "accuracy"
  include {
    phase: TEST
  }
}
I0309 02:54:07.015507  1118 layer_factory.hpp:77] Creating layer data
I0309 02:54:07.015672  1118 net.cpp:106] Creating Layer data
I0309 02:54:07.015720  1118 net.cpp:411] data -> data
I0309 02:54:07.015756  1118 net.cpp:411] data -> label
I0309 02:54:07.015789  1118 data_transformer.cpp:25] Loading mean file from: /work/01932/dineshj/CS381V/caffe_install_scripts/caffe/data/ilsvrc12/imagenet_mean.binaryproto
I0309 02:54:07.088744  1123 db_lmdb.cpp:38] Opened lmdb /work/04018/wxie/maverick/visual_recognition/data/test-lmdb
I0309 02:54:07.090607  1118 data_layer.cpp:41] output data size: 20,3,227,227
I0309 02:54:07.114486  1118 net.cpp:150] Setting up data
I0309 02:54:07.114576  1118 net.cpp:157] Top shape: 20 3 227 227 (3091740)
I0309 02:54:07.114624  1118 net.cpp:157] Top shape: 20 (20)
I0309 02:54:07.114655  1118 net.cpp:165] Memory required for data: 12367040
I0309 02:54:07.114684  1118 layer_factory.hpp:77] Creating layer label_data_1_split
I0309 02:54:07.114719  1118 net.cpp:106] Creating Layer label_data_1_split
I0309 02:54:07.114751  1118 net.cpp:454] label_data_1_split <- label
I0309 02:54:07.114784  1118 net.cpp:411] label_data_1_split -> label_data_1_split_0
I0309 02:54:07.114822  1118 net.cpp:411] label_data_1_split -> label_data_1_split_1
I0309 02:54:07.114918  1118 net.cpp:150] Setting up label_data_1_split
I0309 02:54:07.114954  1118 net.cpp:157] Top shape: 20 (20)
I0309 02:54:07.114984  1118 net.cpp:157] Top shape: 20 (20)
I0309 02:54:07.115010  1118 net.cpp:165] Memory required for data: 12367200
I0309 02:54:07.115036  1118 layer_factory.hpp:77] Creating layer conv1
I0309 02:54:07.115072  1118 net.cpp:106] Creating Layer conv1
I0309 02:54:07.115100  1118 net.cpp:454] conv1 <- data
I0309 02:54:07.115130  1118 net.cpp:411] conv1 -> conv1
I0309 02:54:07.116711  1118 net.cpp:150] Setting up conv1
I0309 02:54:07.116758  1118 net.cpp:157] Top shape: 20 96 55 55 (5808000)
I0309 02:54:07.116787  1118 net.cpp:165] Memory required for data: 35599200
I0309 02:54:07.116822  1118 layer_factory.hpp:77] Creating layer relu1
I0309 02:54:07.116853  1118 net.cpp:106] Creating Layer relu1
I0309 02:54:07.116880  1118 net.cpp:454] relu1 <- conv1
I0309 02:54:07.116909  1118 net.cpp:397] relu1 -> conv1 (in-place)
I0309 02:54:07.116941  1118 net.cpp:150] Setting up relu1
I0309 02:54:07.116971  1118 net.cpp:157] Top shape: 20 96 55 55 (5808000)
I0309 02:54:07.116998  1118 net.cpp:165] Memory required for data: 58831200
I0309 02:54:07.117025  1118 layer_factory.hpp:77] Creating layer pool1
I0309 02:54:07.117055  1118 net.cpp:106] Creating Layer pool1
I0309 02:54:07.117084  1118 net.cpp:454] pool1 <- conv1
I0309 02:54:07.117113  1118 net.cpp:411] pool1 -> pool1
I0309 02:54:07.117173  1118 net.cpp:150] Setting up pool1
I0309 02:54:07.117209  1118 net.cpp:157] Top shape: 20 96 27 27 (1399680)
I0309 02:54:07.117236  1118 net.cpp:165] Memory required for data: 64429920
I0309 02:54:07.117261  1118 layer_factory.hpp:77] Creating layer norm1
I0309 02:54:07.117291  1118 net.cpp:106] Creating Layer norm1
I0309 02:54:07.117317  1118 net.cpp:454] norm1 <- pool1
I0309 02:54:07.117347  1118 net.cpp:411] norm1 -> norm1
I0309 02:54:07.117403  1118 net.cpp:150] Setting up norm1
I0309 02:54:07.117437  1118 net.cpp:157] Top shape: 20 96 27 27 (1399680)
I0309 02:54:07.117465  1118 net.cpp:165] Memory required for data: 70028640
I0309 02:54:07.117488  1118 layer_factory.hpp:77] Creating layer conv2
I0309 02:54:07.117522  1118 net.cpp:106] Creating Layer conv2
I0309 02:54:07.117566  1118 net.cpp:454] conv2 <- norm1
I0309 02:54:07.117621  1118 net.cpp:411] conv2 -> conv2
I0309 02:54:07.130342  1118 net.cpp:150] Setting up conv2
I0309 02:54:07.130389  1118 net.cpp:157] Top shape: 20 256 27 27 (3732480)
I0309 02:54:07.130425  1118 net.cpp:165] Memory required for data: 84958560
I0309 02:54:07.130455  1118 layer_factory.hpp:77] Creating layer relu2
I0309 02:54:07.130494  1118 net.cpp:106] Creating Layer relu2
I0309 02:54:07.130525  1118 net.cpp:454] relu2 <- conv2
I0309 02:54:07.130568  1118 net.cpp:397] relu2 -> conv2 (in-place)
I0309 02:54:07.130610  1118 net.cpp:150] Setting up relu2
I0309 02:54:07.130643  1118 net.cpp:157] Top shape: 20 256 27 27 (3732480)
I0309 02:54:07.130671  1118 net.cpp:165] Memory required for data: 99888480
I0309 02:54:07.130698  1118 layer_factory.hpp:77] Creating layer pool2
I0309 02:54:07.130733  1118 net.cpp:106] Creating Layer pool2
I0309 02:54:07.130764  1118 net.cpp:454] pool2 <- conv2
I0309 02:54:07.130805  1118 net.cpp:411] pool2 -> pool2
I0309 02:54:07.130882  1118 net.cpp:150] Setting up pool2
I0309 02:54:07.130928  1118 net.cpp:157] Top shape: 20 256 13 13 (865280)
I0309 02:54:07.130956  1118 net.cpp:165] Memory required for data: 103349600
I0309 02:54:07.130982  1118 layer_factory.hpp:77] Creating layer norm2
I0309 02:54:07.131013  1118 net.cpp:106] Creating Layer norm2
I0309 02:54:07.131042  1118 net.cpp:454] norm2 <- pool2
I0309 02:54:07.131069  1118 net.cpp:411] norm2 -> norm2
I0309 02:54:07.131129  1118 net.cpp:150] Setting up norm2
I0309 02:54:07.131165  1118 net.cpp:157] Top shape: 20 256 13 13 (865280)
I0309 02:54:07.131191  1118 net.cpp:165] Memory required for data: 106810720
I0309 02:54:07.131217  1118 layer_factory.hpp:77] Creating layer conv3
I0309 02:54:07.131250  1118 net.cpp:106] Creating Layer conv3
I0309 02:54:07.131279  1118 net.cpp:454] conv3 <- norm2
I0309 02:54:07.131319  1118 net.cpp:411] conv3 -> conv3
I0309 02:54:07.167719  1118 net.cpp:150] Setting up conv3
I0309 02:54:07.167812  1118 net.cpp:157] Top shape: 20 384 13 13 (1297920)
I0309 02:54:07.167841  1118 net.cpp:165] Memory required for data: 112002400
I0309 02:54:07.167878  1118 layer_factory.hpp:77] Creating layer relu3
I0309 02:54:07.167913  1118 net.cpp:106] Creating Layer relu3
I0309 02:54:07.167943  1118 net.cpp:454] relu3 <- conv3
I0309 02:54:07.167973  1118 net.cpp:397] relu3 -> conv3 (in-place)
I0309 02:54:07.168009  1118 net.cpp:150] Setting up relu3
I0309 02:54:07.168040  1118 net.cpp:157] Top shape: 20 384 13 13 (1297920)
I0309 02:54:07.168066  1118 net.cpp:165] Memory required for data: 117194080
I0309 02:54:07.168094  1118 layer_factory.hpp:77] Creating layer conv4
I0309 02:54:07.168133  1118 net.cpp:106] Creating Layer conv4
I0309 02:54:07.168162  1118 net.cpp:454] conv4 <- conv3
I0309 02:54:07.168196  1118 net.cpp:411] conv4 -> conv4
I0309 02:54:07.195217  1118 net.cpp:150] Setting up conv4
I0309 02:54:07.195266  1118 net.cpp:157] Top shape: 20 384 13 13 (1297920)
I0309 02:54:07.195294  1118 net.cpp:165] Memory required for data: 122385760
I0309 02:54:07.195324  1118 layer_factory.hpp:77] Creating layer relu4
I0309 02:54:07.195358  1118 net.cpp:106] Creating Layer relu4
I0309 02:54:07.195384  1118 net.cpp:454] relu4 <- conv4
I0309 02:54:07.195412  1118 net.cpp:397] relu4 -> conv4 (in-place)
I0309 02:54:07.195444  1118 net.cpp:150] Setting up relu4
I0309 02:54:07.195473  1118 net.cpp:157] Top shape: 20 384 13 13 (1297920)
I0309 02:54:07.195503  1118 net.cpp:165] Memory required for data: 127577440
I0309 02:54:07.195530  1118 layer_factory.hpp:77] Creating layer conv5
I0309 02:54:07.195564  1118 net.cpp:106] Creating Layer conv5
I0309 02:54:07.195593  1118 net.cpp:454] conv5 <- conv4
I0309 02:54:07.195624  1118 net.cpp:411] conv5 -> conv5
I0309 02:54:07.213304  1118 net.cpp:150] Setting up conv5
I0309 02:54:07.213343  1118 net.cpp:157] Top shape: 20 256 13 13 (865280)
I0309 02:54:07.213366  1118 net.cpp:165] Memory required for data: 131038560
I0309 02:54:07.213394  1118 layer_factory.hpp:77] Creating layer relu5
I0309 02:54:07.213423  1118 net.cpp:106] Creating Layer relu5
I0309 02:54:07.213531  1118 net.cpp:454] relu5 <- conv5
I0309 02:54:07.213560  1118 net.cpp:397] relu5 -> conv5 (in-place)
I0309 02:54:07.213587  1118 net.cpp:150] Setting up relu5
I0309 02:54:07.213613  1118 net.cpp:157] Top shape: 20 256 13 13 (865280)
I0309 02:54:07.213632  1118 net.cpp:165] Memory required for data: 134499680
I0309 02:54:07.213654  1118 layer_factory.hpp:77] Creating layer pool5
I0309 02:54:07.213685  1118 net.cpp:106] Creating Layer pool5
I0309 02:54:07.213709  1118 net.cpp:454] pool5 <- conv5
I0309 02:54:07.213732  1118 net.cpp:411] pool5 -> pool5
I0309 02:54:07.213806  1118 net.cpp:150] Setting up pool5
I0309 02:54:07.213837  1118 net.cpp:157] Top shape: 20 256 6 6 (184320)
I0309 02:54:07.213871  1118 net.cpp:165] Memory required for data: 135236960
I0309 02:54:07.213894  1118 layer_factory.hpp:77] Creating layer fc6
I0309 02:54:07.213923  1118 net.cpp:106] Creating Layer fc6
I0309 02:54:07.213946  1118 net.cpp:454] fc6 <- pool5
I0309 02:54:07.213975  1118 net.cpp:411] fc6 -> fc6
I0309 02:54:08.596266  1118 net.cpp:150] Setting up fc6
I0309 02:54:08.596400  1118 net.cpp:157] Top shape: 20 4096 (81920)
I0309 02:54:08.596424  1118 net.cpp:165] Memory required for data: 135564640
I0309 02:54:08.596457  1118 layer_factory.hpp:77] Creating layer relu6
I0309 02:54:08.596494  1118 net.cpp:106] Creating Layer relu6
I0309 02:54:08.596524  1118 net.cpp:454] relu6 <- fc6
I0309 02:54:08.596552  1118 net.cpp:397] relu6 -> fc6 (in-place)
I0309 02:54:08.596590  1118 net.cpp:150] Setting up relu6
I0309 02:54:08.596614  1118 net.cpp:157] Top shape: 20 4096 (81920)
I0309 02:54:08.596634  1118 net.cpp:165] Memory required for data: 135892320
I0309 02:54:08.596655  1118 layer_factory.hpp:77] Creating layer drop6
I0309 02:54:08.596683  1118 net.cpp:106] Creating Layer drop6
I0309 02:54:08.596704  1118 net.cpp:454] drop6 <- fc6
I0309 02:54:08.596727  1118 net.cpp:397] drop6 -> fc6 (in-place)
I0309 02:54:08.596778  1118 net.cpp:150] Setting up drop6
I0309 02:54:08.596808  1118 net.cpp:157] Top shape: 20 4096 (81920)
I0309 02:54:08.596829  1118 net.cpp:165] Memory required for data: 136220000
I0309 02:54:08.596850  1118 layer_factory.hpp:77] Creating layer fc7
I0309 02:54:08.596880  1118 net.cpp:106] Creating Layer fc7
I0309 02:54:08.596902  1118 net.cpp:454] fc7 <- fc6
I0309 02:54:08.596927  1118 net.cpp:411] fc7 -> fc7
I0309 02:54:09.210281  1118 net.cpp:150] Setting up fc7
I0309 02:54:09.210418  1118 net.cpp:157] Top shape: 20 4096 (81920)
I0309 02:54:09.210443  1118 net.cpp:165] Memory required for data: 136547680
I0309 02:54:09.210474  1118 layer_factory.hpp:77] Creating layer relu7
I0309 02:54:09.210515  1118 net.cpp:106] Creating Layer relu7
I0309 02:54:09.210541  1118 net.cpp:454] relu7 <- fc7
I0309 02:54:09.210571  1118 net.cpp:397] relu7 -> fc7 (in-place)
I0309 02:54:09.210608  1118 net.cpp:150] Setting up relu7
I0309 02:54:09.210631  1118 net.cpp:157] Top shape: 20 4096 (81920)
I0309 02:54:09.210652  1118 net.cpp:165] Memory required for data: 136875360
I0309 02:54:09.210674  1118 layer_factory.hpp:77] Creating layer drop7
I0309 02:54:09.210701  1118 net.cpp:106] Creating Layer drop7
I0309 02:54:09.210727  1118 net.cpp:454] drop7 <- fc7
I0309 02:54:09.210750  1118 net.cpp:397] drop7 -> fc7 (in-place)
I0309 02:54:09.210798  1118 net.cpp:150] Setting up drop7
I0309 02:54:09.210829  1118 net.cpp:157] Top shape: 20 4096 (81920)
I0309 02:54:09.210850  1118 net.cpp:165] Memory required for data: 137203040
I0309 02:54:09.210870  1118 layer_factory.hpp:77] Creating layer fc8_subset
I0309 02:54:09.210901  1118 net.cpp:106] Creating Layer fc8_subset
I0309 02:54:09.210925  1118 net.cpp:454] fc8_subset <- fc7
I0309 02:54:09.210952  1118 net.cpp:411] fc8_subset -> fc8_subset
I0309 02:54:09.214645  1118 net.cpp:150] Setting up fc8_subset
I0309 02:54:09.214680  1118 net.cpp:157] Top shape: 20 25 (500)
I0309 02:54:09.214702  1118 net.cpp:165] Memory required for data: 137205040
I0309 02:54:09.214727  1118 layer_factory.hpp:77] Creating layer fc8_subset_fc8_subset_0_split
I0309 02:54:09.214782  1118 net.cpp:106] Creating Layer fc8_subset_fc8_subset_0_split
I0309 02:54:09.214844  1118 net.cpp:454] fc8_subset_fc8_subset_0_split <- fc8_subset
I0309 02:54:09.214869  1118 net.cpp:411] fc8_subset_fc8_subset_0_split -> fc8_subset_fc8_subset_0_split_0
I0309 02:54:09.214896  1118 net.cpp:411] fc8_subset_fc8_subset_0_split -> fc8_subset_fc8_subset_0_split_1
I0309 02:54:09.214951  1118 net.cpp:150] Setting up fc8_subset_fc8_subset_0_split
I0309 02:54:09.214982  1118 net.cpp:157] Top shape: 20 25 (500)
I0309 02:54:09.215005  1118 net.cpp:157] Top shape: 20 25 (500)
I0309 02:54:09.215025  1118 net.cpp:165] Memory required for data: 137209040
I0309 02:54:09.215046  1118 layer_factory.hpp:77] Creating layer loss
I0309 02:54:09.215070  1118 net.cpp:106] Creating Layer loss
I0309 02:54:09.215090  1118 net.cpp:454] loss <- fc8_subset_fc8_subset_0_split_0
I0309 02:54:09.215113  1118 net.cpp:454] loss <- label_data_1_split_0
I0309 02:54:09.215139  1118 net.cpp:411] loss -> loss
…
