…
I0306 05:35:02.900527 60245 net.cpp:322] The NetState phase (0) differed from the phase (1) specified by a rule in layer accuracy
I0306 05:35:02.900728 60245 net.cpp:49] Initializing net from parameters: 
name: "FlickrStyleCaffeNet"
state {
  phase: TRAIN
}
layer {
  name: "data"
  type: "Data"
  top: "data"
  top: "label"
  include {
    phase: TRAIN
  }
  transform_param {
    mirror: true
    crop_size: 227
    mean_file: "/work/01932/dineshj/CS381V/caffe_install_scripts/caffe/data/ilsvrc12/imagenet_mean.binaryproto"
  }
  data_param {
    source: "/work/04018/wxie/maverick/visual_recognition/data/train-lmdb"
    batch_size: 128
    backend: LMDB
  }
}
layer {
  name: "conv1"
  type: "Convolution"
  bottom: "data"
  top: "conv1"
  param {
    lr_mult: 1
    decay_mult: 1
  }
  param {
    lr_mult: 2
    decay_mult: 0
  }
  convolution_param {
    num_output: 96
    kernel_size: 11
    stride: 4
    weight_filler {
      type: "gaussian"
      std: 0.01
    }
    bias_filler {
      type: "constant"
      value: 0
    }
  }
}
layer {
  name: "relu1"
  type: "ReLU"
  bottom: "conv1"
  top: "conv1"
}
layer {
  name: "pool1"
  type: "Pooling"
  bottom: "conv1"
  top: "pool1"
  pooling_param {
    pool: MAX
    kernel_size: 3
    stride: 2
  }
}
layer {
  name: "norm1"
  type: "LRN"
  bottom: "pool1"
  top: "norm1"
  lrn_param {
    local_size: 5
    alpha: 0.0001
    beta: 0.75
  }
}
layer {
  name: "conv2"
  type: "Convolution"
  bottom: "norm1"
  top: "conv2"
  param {
    lr_mult: 1
    decay_mult: 1
  }
  param {
    lr_mult: 2
    decay_mult: 0
  }
  convolution_param {
    num_output: 256
    pad: 2
    kernel_size: 5
    group: 2
    weight_filler {
      type: "gaussian"
      std: 0.01
    }
    bias_filler {
      type: "constant"
      value: 0.1
    }
  }
}
layer {
  name: "relu2"
  type: "ReLU"
  bottom: "conv2"
  top: "conv2"
}
layer {
  name: "pool2"
  type: "Pooling"
  bottom: "conv2"
  top: "pool2"
  pooling_param {
    pool: MAX
    kernel_size: 3
    stride: 2
  }
}
layer {
  name: "norm2"
  type: "LRN"
  bottom: "pool2"
  top: "norm2"
  lrn_param {
    local_size: 5
    alpha: 0.0001
    beta: 0.75
  }
}
layer {
  name: "conv3"
  type: "Convolution"
  bottom: "norm2"
  top: "conv3"
  param {
    lr_mult: 1
    decay_mult: 1
  }
  param {
    lr_mult: 2
    decay_mult: 0
  }
  convolution_param {
    num_output: 384
    pad: 1
    kernel_size: 3
    weight_filler {
      type: "gaussian"
      std: 0.01
    }
    bias_filler {
      type: "constant"
      value: 0
    }
  }
}
layer {
  name: "relu3"
  type: "ReLU"
  bottom: "conv3"
  top: "conv3"
}
layer {
  name: "conv4"
  type: "Convolution"
  bottom: "conv3"
  top: "conv4"
  param {
    lr_mult: 1
    decay_mult: 1
  }
  param {
    lr_mult: 2
    decay_mult: 0
  }
  convolution_param {
    num_output: 384
    pad: 1
    kernel_size: 3
    group: 2
    weight_filler {
      type: "gaussian"
      std: 0.01
    }
    bias_filler {
      type: "constant"
      value: 0.1
    }
  }
}
layer {
  name: "relu4"
  type: "ReLU"
  bottom: "conv4"
  top: "conv4"
}
layer {
  name: "conv5"
  type: "Convolution"
  bottom: "conv4"
  top: "conv5"
  param {
    lr_mult: 1
    decay_mult: 1
  }
  param {
    lr_mult: 2
    decay_mult: 0
  }
  convolution_param {
    num_output: 256
    pad: 1
    kernel_size: 3
    group: 2
    weight_filler {
      type: "gaussian"
      std: 0.01
    }
    bias_filler {
      type: "constant"
      value: 0.1
    }
  }
}
layer {
  name: "relu5"
  type: "ReLU"
  bottom: "conv5"
  top: "conv5"
}
layer {
  name: "pool5"
  type: "Pooling"
  bottom: "conv5"
  top: "pool5"
  pooling_param {
    pool: MAX
    kernel_size: 3
    stride: 2
  }
}
layer {
  name: "fc6"
  type: "InnerProduct"
  bottom: "pool5"
  top: "fc6"
  param {
    lr_mult: 1
    decay_mult: 1
  }
  param {
    lr_mult: 2
    decay_mult: 0
  }
  inner_product_param {
    num_output: 4096
    weight_filler {
      type: "gaussian"
      std: 0.005
    }
    bias_filler {
      type: "constant"
      value: 0.1
    }
  }
}
layer {
  name: "relu6"
  type: "ReLU"
  bottom: "fc6"
  top: "fc6"
}
layer {
  name: "drop6"
  type: "Dropout"
  bottom: "fc6"
  top: "fc6"
  dropout_param {
    dropout_ratio: 0.5
  }
}
layer {
  name: "fc7"
  type: "InnerProduct"
  bottom: "fc6"
  top: "fc7"
  param {
    lr_mult: 1
    decay_mult: 1
  }
  param {
    lr_mult: 2
    decay_mult: 0
  }
  inner_product_param {
    num_output: 4096
    weight_filler {
      type: "gaussian"
      std: 0.005
    }
    bias_filler {
      type: "constant"
      value: 0.1
    }
  }
}
layer {
  name: "relu7"
  type: "ReLU"
  bottom: "fc7"
  top: "fc7"
}
layer {
  name: "drop7"
  type: "Dropout"
  bottom: "fc7"
  top: "fc7"
  dropout_param {
    dropout_ratio: 0.5
  }
}
layer {
  name: "fc8_subset"
  type: "InnerProduct"
  bottom: "fc7"
  top: "fc8_subset"
  param {
    lr_mult: 10
    decay_mult: 1
  }
  param {
    lr_mult: 20
    decay_mult: 0
  }
  inner_product_param {
    num_output: 25
    weight_filler {
      type: "gaussian"
      std: 0.01
    }
    bias_filler {
      type: "constant"
      value: 0
    }
  }
}
layer {
  name: "loss"
  type: "SoftmaxWithLoss"
  bottom: "fc8_subset"
  bottom: "label"
  top: "loss"
}
I0306 05:35:02.901015 60245 layer_factory.hpp:77] Creating layer data
I0306 05:35:02.901804 60245 net.cpp:106] Creating Layer data
I0306 05:35:02.901862 60245 net.cpp:411] data -> data
I0306 05:35:02.901965 60245 net.cpp:411] data -> label
I0306 05:35:02.902056 60245 data_transformer.cpp:25] Loading mean file from: /work/01932/dineshj/CS381V/caffe_install_scripts/caffe/data/ilsvrc12/imagenet_mean.binaryproto
I0306 05:35:02.973644 60247 db_lmdb.cpp:38] Opened lmdb /work/04018/wxie/maverick/visual_recognition/data/train-lmdb
I0306 05:35:02.979087 60245 data_layer.cpp:41] output data size: 128,3,227,227
I0306 05:35:03.136517 60245 net.cpp:150] Setting up data
I0306 05:35:03.136617 60245 net.cpp:157] Top shape: 128 3 227 227 (19787136)
I0306 05:35:03.136646 60245 net.cpp:157] Top shape: 128 (128)
I0306 05:35:03.136669 60245 net.cpp:165] Memory required for data: 79149056
I0306 05:35:03.136716 60245 layer_factory.hpp:77] Creating layer conv1
I0306 05:35:03.136800 60245 net.cpp:106] Creating Layer conv1
I0306 05:35:03.136831 60245 net.cpp:454] conv1 <- data
I0306 05:35:03.136870 60245 net.cpp:411] conv1 -> conv1
I0306 05:35:03.147272 60245 net.cpp:150] Setting up conv1
I0306 05:35:03.147317 60245 net.cpp:157] Top shape: 128 96 55 55 (37171200)
I0306 05:35:03.147346 60245 net.cpp:165] Memory required for data: 227833856
I0306 05:35:03.147406 60245 layer_factory.hpp:77] Creating layer relu1
I0306 05:35:03.147441 60245 net.cpp:106] Creating Layer relu1
I0306 05:35:03.147469 60245 net.cpp:454] relu1 <- conv1
I0306 05:35:03.147497 60245 net.cpp:397] relu1 -> conv1 (in-place)
I0306 05:35:03.147552 60245 net.cpp:150] Setting up relu1
I0306 05:35:03.147584 60245 net.cpp:157] Top shape: 128 96 55 55 (37171200)
I0306 05:35:03.147609 60245 net.cpp:165] Memory required for data: 376518656
I0306 05:35:03.147636 60245 layer_factory.hpp:77] Creating layer pool1
I0306 05:35:03.147670 60245 net.cpp:106] Creating Layer pool1
I0306 05:35:03.147699 60245 net.cpp:454] pool1 <- conv1
I0306 05:35:03.147728 60245 net.cpp:411] pool1 -> pool1
I0306 05:35:03.147897 60245 net.cpp:150] Setting up pool1
I0306 05:35:03.147930 60245 net.cpp:157] Top shape: 128 96 27 27 (8957952)
I0306 05:35:03.148012 60245 net.cpp:165] Memory required for data: 412350464
I0306 05:35:03.148041 60245 layer_factory.hpp:77] Creating layer norm1
I0306 05:35:03.148074 60245 net.cpp:106] Creating Layer norm1
I0306 05:35:03.148103 60245 net.cpp:454] norm1 <- pool1
I0306 05:35:03.148131 60245 net.cpp:411] norm1 -> norm1
I0306 05:35:03.148226 60245 net.cpp:150] Setting up norm1
I0306 05:35:03.148255 60245 net.cpp:157] Top shape: 128 96 27 27 (8957952)
I0306 05:35:03.148282 60245 net.cpp:165] Memory required for data: 448182272
I0306 05:35:03.148305 60245 layer_factory.hpp:77] Creating layer conv2
I0306 05:35:03.148337 60245 net.cpp:106] Creating Layer conv2
I0306 05:35:03.148365 60245 net.cpp:454] conv2 <- norm1
I0306 05:35:03.148391 60245 net.cpp:411] conv2 -> conv2
I0306 05:35:03.161155 60245 net.cpp:150] Setting up conv2
I0306 05:35:03.161209 60245 net.cpp:157] Top shape: 128 256 27 27 (23887872)
I0306 05:35:03.161238 60245 net.cpp:165] Memory required for data: 543733760
I0306 05:35:03.161272 60245 layer_factory.hpp:77] Creating layer relu2
I0306 05:35:03.161299 60245 net.cpp:106] Creating Layer relu2
I0306 05:35:03.161321 60245 net.cpp:454] relu2 <- conv2
I0306 05:35:03.161358 60245 net.cpp:397] relu2 -> conv2 (in-place)
I0306 05:35:03.161387 60245 net.cpp:150] Setting up relu2
I0306 05:35:03.161414 60245 net.cpp:157] Top shape: 128 256 27 27 (23887872)
I0306 05:35:03.161437 60245 net.cpp:165] Memory required for data: 639285248
I0306 05:35:03.161459 60245 layer_factory.hpp:77] Creating layer pool2
I0306 05:35:03.161497 60245 net.cpp:106] Creating Layer pool2
I0306 05:35:03.161521 60245 net.cpp:454] pool2 <- conv2
I0306 05:35:03.161571 60245 net.cpp:411] pool2 -> pool2
I0306 05:35:03.161649 60245 net.cpp:150] Setting up pool2
I0306 05:35:03.161684 60245 net.cpp:157] Top shape: 128 256 13 13 (5537792)
I0306 05:35:03.161707 60245 net.cpp:165] Memory required for data: 661436416
I0306 05:35:03.161731 60245 layer_factory.hpp:77] Creating layer norm2
I0306 05:35:03.161762 60245 net.cpp:106] Creating Layer norm2
I0306 05:35:03.161799 60245 net.cpp:454] norm2 <- pool2
I0306 05:35:03.161823 60245 net.cpp:411] norm2 -> norm2
I0306 05:35:03.161886 60245 net.cpp:150] Setting up norm2
I0306 05:35:03.161916 60245 net.cpp:157] Top shape: 128 256 13 13 (5537792)
I0306 05:35:03.161937 60245 net.cpp:165] Memory required for data: 683587584
I0306 05:35:03.161958 60245 layer_factory.hpp:77] Creating layer conv3
I0306 05:35:03.161986 60245 net.cpp:106] Creating Layer conv3
I0306 05:35:03.162010 60245 net.cpp:454] conv3 <- norm2
I0306 05:35:03.162034 60245 net.cpp:411] conv3 -> conv3
I0306 05:35:03.196228 60245 net.cpp:150] Setting up conv3
I0306 05:35:03.196271 60245 net.cpp:157] Top shape: 128 384 13 13 (8306688)
I0306 05:35:03.196300 60245 net.cpp:165] Memory required for data: 716814336
I0306 05:35:03.196331 60245 layer_factory.hpp:77] Creating layer relu3
I0306 05:35:03.196362 60245 net.cpp:106] Creating Layer relu3
I0306 05:35:03.196388 60245 net.cpp:454] relu3 <- conv3
I0306 05:35:03.196418 60245 net.cpp:397] relu3 -> conv3 (in-place)
I0306 05:35:03.196451 60245 net.cpp:150] Setting up relu3
I0306 05:35:03.196477 60245 net.cpp:157] Top shape: 128 384 13 13 (8306688)
I0306 05:35:03.196498 60245 net.cpp:165] Memory required for data: 750041088
I0306 05:35:03.196519 60245 layer_factory.hpp:77] Creating layer conv4
I0306 05:35:03.196550 60245 net.cpp:106] Creating Layer conv4
I0306 05:35:03.196580 60245 net.cpp:454] conv4 <- conv3
I0306 05:35:03.196611 60245 net.cpp:411] conv4 -> conv4
I0306 05:35:03.210422 60248 blocking_queue.cpp:50] Waiting for data
I0306 05:35:03.222295 60245 net.cpp:150] Setting up conv4
I0306 05:35:03.222340 60245 net.cpp:157] Top shape: 128 384 13 13 (8306688)
I0306 05:35:03.222368 60245 net.cpp:165] Memory required for data: 783267840
I0306 05:35:03.222396 60245 layer_factory.hpp:77] Creating layer relu4
I0306 05:35:03.222425 60245 net.cpp:106] Creating Layer relu4
I0306 05:35:03.222451 60245 net.cpp:454] relu4 <- conv4
I0306 05:35:03.222483 60245 net.cpp:397] relu4 -> conv4 (in-place)
I0306 05:35:03.222534 60245 net.cpp:150] Setting up relu4
I0306 05:35:03.222581 60245 net.cpp:157] Top shape: 128 384 13 13 (8306688)
I0306 05:35:03.222609 60245 net.cpp:165] Memory required for data: 816494592
I0306 05:35:03.222633 60245 layer_factory.hpp:77] Creating layer conv5
I0306 05:35:03.222667 60245 net.cpp:106] Creating Layer conv5
I0306 05:35:03.222697 60245 net.cpp:454] conv5 <- conv4
I0306 05:35:03.222728 60245 net.cpp:411] conv5 -> conv5
I0306 05:35:03.240360 60245 net.cpp:150] Setting up conv5
I0306 05:35:03.240411 60245 net.cpp:157] Top shape: 128 256 13 13 (5537792)
I0306 05:35:03.240442 60245 net.cpp:165] Memory required for data: 838645760
I0306 05:35:03.240476 60245 layer_factory.hpp:77] Creating layer relu5
I0306 05:35:03.240506 60245 net.cpp:106] Creating Layer relu5
I0306 05:35:03.240538 60245 net.cpp:454] relu5 <- conv5
I0306 05:35:03.240569 60245 net.cpp:397] relu5 -> conv5 (in-place)
I0306 05:35:03.240600 60245 net.cpp:150] Setting up relu5
I0306 05:35:03.240630 60245 net.cpp:157] Top shape: 128 256 13 13 (5537792)
I0306 05:35:03.240655 60245 net.cpp:165] Memory required for data: 860796928
I0306 05:35:03.240681 60245 layer_factory.hpp:77] Creating layer pool5
I0306 05:35:03.240713 60245 net.cpp:106] Creating Layer pool5
I0306 05:35:03.240741 60245 net.cpp:454] pool5 <- conv5
I0306 05:35:03.240769 60245 net.cpp:411] pool5 -> pool5
I0306 05:35:03.240830 60245 net.cpp:150] Setting up pool5
I0306 05:35:03.240865 60245 net.cpp:157] Top shape: 128 256 6 6 (1179648)
I0306 05:35:03.240891 60245 net.cpp:165] Memory required for data: 865515520
I0306 05:35:03.240918 60245 layer_factory.hpp:77] Creating layer fc6
I0306 05:35:03.240978 60245 net.cpp:106] Creating Layer fc6
I0306 05:35:03.241009 60245 net.cpp:454] fc6 <- pool5
I0306 05:35:03.241037 60245 net.cpp:411] fc6 -> fc6
I0306 05:35:04.678931 60245 net.cpp:150] Setting up fc6
I0306 05:35:04.679054 60245 net.cpp:157] Top shape: 128 4096 (524288)
I0306 05:35:04.679078 60245 net.cpp:165] Memory required for data: 867612672
I0306 05:35:04.679106 60245 layer_factory.hpp:77] Creating layer relu6
I0306 05:35:04.679136 60245 net.cpp:106] Creating Layer relu6
I0306 05:35:04.679159 60245 net.cpp:454] relu6 <- fc6
I0306 05:35:04.679188 60245 net.cpp:397] relu6 -> fc6 (in-place)
I0306 05:35:04.679220 60245 net.cpp:150] Setting up relu6
I0306 05:35:04.679245 60245 net.cpp:157] Top shape: 128 4096 (524288)
I0306 05:35:04.679266 60245 net.cpp:165] Memory required for data: 869709824
I0306 05:35:04.679287 60245 layer_factory.hpp:77] Creating layer drop6
I0306 05:35:04.679312 60245 net.cpp:106] Creating Layer drop6
I0306 05:35:04.679334 60245 net.cpp:454] drop6 <- fc6
I0306 05:35:04.679358 60245 net.cpp:397] drop6 -> fc6 (in-place)
I0306 05:35:04.679435 60245 net.cpp:150] Setting up drop6
I0306 05:35:04.679464 60245 net.cpp:157] Top shape: 128 4096 (524288)
I0306 05:35:04.679486 60245 net.cpp:165] Memory required for data: 871806976
I0306 05:35:04.679507 60245 layer_factory.hpp:77] Creating layer fc7
I0306 05:35:04.679539 60245 net.cpp:106] Creating Layer fc7
I0306 05:35:04.679564 60245 net.cpp:454] fc7 <- fc6
I0306 05:35:04.679591 60245 net.cpp:411] fc7 -> fc7
I0306 05:35:05.294055 60245 net.cpp:150] Setting up fc7
I0306 05:35:05.294179 60245 net.cpp:157] Top shape: 128 4096 (524288)
I0306 05:35:05.294203 60245 net.cpp:165] Memory required for data: 873904128
I0306 05:35:05.294232 60245 layer_factory.hpp:77] Creating layer relu7
I0306 05:35:05.294261 60245 net.cpp:106] Creating Layer relu7
I0306 05:35:05.294284 60245 net.cpp:454] relu7 <- fc7
I0306 05:35:05.294312 60245 net.cpp:397] relu7 -> fc7 (in-place)
I0306 05:35:05.294343 60245 net.cpp:150] Setting up relu7
I0306 05:35:05.294368 60245 net.cpp:157] Top shape: 128 4096 (524288)
I0306 05:35:05.294389 60245 net.cpp:165] Memory required for data: 876001280
I0306 05:35:05.294409 60245 layer_factory.hpp:77] Creating layer drop7
I0306 05:35:05.294437 60245 net.cpp:106] Creating Layer drop7
I0306 05:35:05.294461 60245 net.cpp:454] drop7 <- fc7
I0306 05:35:05.294484 60245 net.cpp:397] drop7 -> fc7 (in-place)
I0306 05:35:05.294556 60245 net.cpp:150] Setting up drop7
I0306 05:35:05.294625 60245 net.cpp:157] Top shape: 128 4096 (524288)
I0306 05:35:05.294646 60245 net.cpp:165] Memory required for data: 878098432
I0306 05:35:05.294668 60245 layer_factory.hpp:77] Creating layer fc8_subset
I0306 05:35:05.294694 60245 net.cpp:106] Creating Layer fc8_subset
I0306 05:35:05.294716 60245 net.cpp:454] fc8_subset <- fc7
I0306 05:35:05.294744 60245 net.cpp:411] fc8_subset -> fc8_subset
I0306 05:35:05.298993 60245 net.cpp:150] Setting up fc8_subset
I0306 05:35:05.299031 60245 net.cpp:157] Top shape: 128 25 (3200)
I0306 05:35:05.299053 60245 net.cpp:165] Memory required for data: 878111232
I0306 05:35:05.299078 60245 layer_factory.hpp:77] Creating layer loss
I0306 05:35:05.299106 60245 net.cpp:106] Creating Layer loss
I0306 05:35:05.299130 60245 net.cpp:454] loss <- fc8_subset
I0306 05:35:05.299152 60245 net.cpp:454] loss <- label
I0306 05:35:05.299180 60245 net.cpp:411] loss -> loss
I0306 05:35:05.299242 60245 layer_factory.hpp:77] Creating layer loss
…
I0306 05:35:05.301820 60245 net.cpp:322] The NetState phase (1) differed from the phase (0) specified by a rule in layer data
I0306 05:35:05.302033 60245 net.cpp:49] Initializing net from parameters: 
name: "FlickrStyleCaffeNet"
state {
  phase: TEST
}
layer {
  name: "data"
  type: "Data"
  top: "data"
  top: "label"
  include {
    phase: TEST
  }
  transform_param {
    mirror: false
    crop_size: 227
    mean_file: "/work/01932/dineshj/CS381V/caffe_install_scripts/caffe/data/ilsvrc12/imagenet_mean.binaryproto"
  }
  data_param {
    source: "/work/04018/wxie/maverick/visual_recognition/data/test-lmdb"
    batch_size: 20
    backend: LMDB
  }
}
layer {
  name: "conv1"
  type: "Convolution"
  bottom: "data"
  top: "conv1"
  param {
    lr_mult: 1
    decay_mult: 1
  }
  param {
    lr_mult: 2
    decay_mult: 0
  }
  convolution_param {
    num_output: 96
    kernel_size: 11
    stride: 4
    weight_filler {
      type: "gaussian"
      std: 0.01
    }
    bias_filler {
      type: "constant"
      value: 0
    }
  }
}
layer {
  name: "relu1"
  type: "ReLU"
  bottom: "conv1"
  top: "conv1"
}
layer {
  name: "pool1"
  type: "Pooling"
  bottom: "conv1"
  top: "pool1"
  pooling_param {
    pool: MAX
    kernel_size: 3
    stride: 2
  }
}
layer {
  name: "norm1"
  type: "LRN"
  bottom: "pool1"
  top: "norm1"
  lrn_param {
    local_size: 5
    alpha: 0.0001
    beta: 0.75
  }
}
layer {
  name: "conv2"
  type: "Convolution"
  bottom: "norm1"
  top: "conv2"
  param {
    lr_mult: 1
    decay_mult: 1
  }
  param {
    lr_mult: 2
    decay_mult: 0
  }
  convolution_param {
    num_output: 256
    pad: 2
    kernel_size: 5
    group: 2
    weight_filler {
      type: "gaussian"
      std: 0.01
    }
    bias_filler {
      type: "constant"
      value: 0.1
    }
  }
}
layer {
  name: "relu2"
  type: "ReLU"
  bottom: "conv2"
  top: "conv2"
}
layer {
  name: "pool2"
  type: "Pooling"
  bottom: "conv2"
  top: "pool2"
  pooling_param {
    pool: MAX
    kernel_size: 3
    stride: 2
  }
}
layer {
  name: "norm2"
  type: "LRN"
  bottom: "pool2"
  top: "norm2"
  lrn_param {
    local_size: 5
    alpha: 0.0001
    beta: 0.75
  }
}
layer {
  name: "conv3"
  type: "Convolution"
  bottom: "norm2"
  top: "conv3"
  param {
    lr_mult: 1
    decay_mult: 1
  }
  param {
    lr_mult: 2
    decay_mult: 0
  }
  convolution_param {
    num_output: 384
    pad: 1
    kernel_size: 3
    weight_filler {
      type: "gaussian"
      std: 0.01
    }
    bias_filler {
      type: "constant"
      value: 0
    }
  }
}
layer {
  name: "relu3"
  type: "ReLU"
  bottom: "conv3"
  top: "conv3"
}
layer {
  name: "conv4"
  type: "Convolution"
  bottom: "conv3"
  top: "conv4"
  param {
    lr_mult: 1
    decay_mult: 1
  }
  param {
    lr_mult: 2
    decay_mult: 0
  }
  convolution_param {
    num_output: 384
    pad: 1
    kernel_size: 3
    group: 2
    weight_filler {
      type: "gaussian"
      std: 0.01
    }
    bias_filler {
      type: "constant"
      value: 0.1
    }
  }
}
layer {
  name: "relu4"
  type: "ReLU"
  bottom: "conv4"
  top: "conv4"
}
layer {
  name: "conv5"
  type: "Convolution"
  bottom: "conv4"
  top: "conv5"
  param {
    lr_mult: 1
    decay_mult: 1
  }
  param {
    lr_mult: 2
    decay_mult: 0
  }
  convolution_param {
    num_output: 256
    pad: 1
    kernel_size: 3
    group: 2
    weight_filler {
      type: "gaussian"
      std: 0.01
    }
    bias_filler {
      type: "constant"
      value: 0.1
    }
  }
}
layer {
  name: "relu5"
  type: "ReLU"
  bottom: "conv5"
  top: "conv5"
}
layer {
  name: "pool5"
  type: "Pooling"
  bottom: "conv5"
  top: "pool5"
  pooling_param {
    pool: MAX
    kernel_size: 3
    stride: 2
  }
}
layer {
  name: "fc6"
  type: "InnerProduct"
  bottom: "pool5"
  top: "fc6"
  param {
    lr_mult: 1
    decay_mult: 1
  }
  param {
    lr_mult: 2
    decay_mult: 0
  }
  inner_product_param {
    num_output: 4096
    weight_filler {
      type: "gaussian"
      std: 0.005
    }
    bias_filler {
      type: "constant"
      value: 0.1
    }
  }
}
layer {
  name: "relu6"
  type: "ReLU"
  bottom: "fc6"
  top: "fc6"
}
layer {
  name: "drop6"
  type: "Dropout"
  bottom: "fc6"
  top: "fc6"
  dropout_param {
    dropout_ratio: 0.5
  }
}
layer {
  name: "fc7"
  type: "InnerProduct"
  bottom: "fc6"
  top: "fc7"
  param {
    lr_mult: 1
    decay_mult: 1
  }
  param {
    lr_mult: 2
    decay_mult: 0
  }
  inner_product_param {
    num_output: 4096
    weight_filler {
      type: "gaussian"
      std: 0.005
    }
    bias_filler {
      type: "constant"
      value: 0.1
    }
  }
}
layer {
  name: "relu7"
  type: "ReLU"
  bottom: "fc7"
  top: "fc7"
}
layer {
  name: "drop7"
  type: "Dropout"
  bottom: "fc7"
  top: "fc7"
  dropout_param {
    dropout_ratio: 0.5
  }
}
layer {
  name: "fc8_subset"
  type: "InnerProduct"
  bottom: "fc7"
  top: "fc8_subset"
  param {
    lr_mult: 10
    decay_mult: 1
  }
  param {
    lr_mult: 20
    decay_mult: 0
  }
  inner_product_param {
    num_output: 25
    weight_filler {
      type: "gaussian"
      std: 0.01
    }
    bias_filler {
      type: "constant"
      value: 0
    }
  }
}
layer {
  name: "loss"
  type: "SoftmaxWithLoss"
  bottom: "fc8_subset"
  bottom: "label"
  top: "loss"
}
layer {
  name: "accuracy"
  type: "Accuracy"
  bottom: "fc8_subset"
  bottom: "label"
  top: "accuracy"
  include {
    phase: TEST
  }
}
I0306 05:35:05.302208 60245 layer_factory.hpp:77] Creating layer data
I0306 05:35:05.302361 60245 net.cpp:106] Creating Layer data
I0306 05:35:05.302402 60245 net.cpp:411] data -> data
I0306 05:35:05.302433 60245 net.cpp:411] data -> label
I0306 05:35:05.302464 60245 data_transformer.cpp:25] Loading mean file from: /work/01932/dineshj/CS381V/caffe_install_scripts/caffe/data/ilsvrc12/imagenet_mean.binaryproto
I0306 05:35:05.375126 60249 db_lmdb.cpp:38] Opened lmdb /work/04018/wxie/maverick/visual_recognition/data/test-lmdb
I0306 05:35:05.376940 60245 data_layer.cpp:41] output data size: 20,3,227,227
I0306 05:35:05.400832 60245 net.cpp:150] Setting up data
I0306 05:35:05.400924 60245 net.cpp:157] Top shape: 20 3 227 227 (3091740)
I0306 05:35:05.400974 60245 net.cpp:157] Top shape: 20 (20)
I0306 05:35:05.401005 60245 net.cpp:165] Memory required for data: 12367040
I0306 05:35:05.401037 60245 layer_factory.hpp:77] Creating layer label_data_1_split
I0306 05:35:05.401070 60245 net.cpp:106] Creating Layer label_data_1_split
I0306 05:35:05.401098 60245 net.cpp:454] label_data_1_split <- label
I0306 05:35:05.401126 60245 net.cpp:411] label_data_1_split -> label_data_1_split_0
I0306 05:35:05.401162 60245 net.cpp:411] label_data_1_split -> label_data_1_split_1
I0306 05:35:05.401254 60245 net.cpp:150] Setting up label_data_1_split
I0306 05:35:05.401298 60245 net.cpp:157] Top shape: 20 (20)
I0306 05:35:05.401327 60245 net.cpp:157] Top shape: 20 (20)
I0306 05:35:05.401353 60245 net.cpp:165] Memory required for data: 12367200
I0306 05:35:05.401381 60245 layer_factory.hpp:77] Creating layer conv1
I0306 05:35:05.401412 60245 net.cpp:106] Creating Layer conv1
I0306 05:35:05.401437 60245 net.cpp:454] conv1 <- data
I0306 05:35:05.401463 60245 net.cpp:411] conv1 -> conv1
I0306 05:35:05.403065 60245 net.cpp:150] Setting up conv1
I0306 05:35:05.403111 60245 net.cpp:157] Top shape: 20 96 55 55 (5808000)
I0306 05:35:05.403138 60245 net.cpp:165] Memory required for data: 35599200
I0306 05:35:05.403173 60245 layer_factory.hpp:77] Creating layer relu1
I0306 05:35:05.403205 60245 net.cpp:106] Creating Layer relu1
I0306 05:35:05.403233 60245 net.cpp:454] relu1 <- conv1
I0306 05:35:05.403259 60245 net.cpp:397] relu1 -> conv1 (in-place)
I0306 05:35:05.403291 60245 net.cpp:150] Setting up relu1
I0306 05:35:05.403321 60245 net.cpp:157] Top shape: 20 96 55 55 (5808000)
I0306 05:35:05.403347 60245 net.cpp:165] Memory required for data: 58831200
I0306 05:35:05.403373 60245 layer_factory.hpp:77] Creating layer pool1
I0306 05:35:05.403403 60245 net.cpp:106] Creating Layer pool1
I0306 05:35:05.403430 60245 net.cpp:454] pool1 <- conv1
I0306 05:35:05.403460 60245 net.cpp:411] pool1 -> pool1
I0306 05:35:05.403517 60245 net.cpp:150] Setting up pool1
I0306 05:35:05.403558 60245 net.cpp:157] Top shape: 20 96 27 27 (1399680)
I0306 05:35:05.403584 60245 net.cpp:165] Memory required for data: 64429920
I0306 05:35:05.403610 60245 layer_factory.hpp:77] Creating layer norm1
I0306 05:35:05.403640 60245 net.cpp:106] Creating Layer norm1
I0306 05:35:05.403666 60245 net.cpp:454] norm1 <- pool1
I0306 05:35:05.403697 60245 net.cpp:411] norm1 -> norm1
I0306 05:35:05.403753 60245 net.cpp:150] Setting up norm1
I0306 05:35:05.403784 60245 net.cpp:157] Top shape: 20 96 27 27 (1399680)
I0306 05:35:05.403805 60245 net.cpp:165] Memory required for data: 70028640
I0306 05:35:05.403826 60245 layer_factory.hpp:77] Creating layer conv2
I0306 05:35:05.403853 60245 net.cpp:106] Creating Layer conv2
I0306 05:35:05.403898 60245 net.cpp:454] conv2 <- norm1
I0306 05:35:05.403955 60245 net.cpp:411] conv2 -> conv2
I0306 05:35:05.416672 60245 net.cpp:150] Setting up conv2
I0306 05:35:05.416740 60245 net.cpp:157] Top shape: 20 256 27 27 (3732480)
I0306 05:35:05.416767 60245 net.cpp:165] Memory required for data: 84958560
I0306 05:35:05.416821 60245 layer_factory.hpp:77] Creating layer relu2
I0306 05:35:05.416849 60245 net.cpp:106] Creating Layer relu2
I0306 05:35:05.416877 60245 net.cpp:454] relu2 <- conv2
I0306 05:35:05.416905 60245 net.cpp:397] relu2 -> conv2 (in-place)
I0306 05:35:05.416947 60245 net.cpp:150] Setting up relu2
I0306 05:35:05.416973 60245 net.cpp:157] Top shape: 20 256 27 27 (3732480)
I0306 05:35:05.416996 60245 net.cpp:165] Memory required for data: 99888480
I0306 05:35:05.417019 60245 layer_factory.hpp:77] Creating layer pool2
I0306 05:35:05.417049 60245 net.cpp:106] Creating Layer pool2
I0306 05:35:05.417086 60245 net.cpp:454] pool2 <- conv2
I0306 05:35:05.417115 60245 net.cpp:411] pool2 -> pool2
I0306 05:35:05.417193 60245 net.cpp:150] Setting up pool2
I0306 05:35:05.417227 60245 net.cpp:157] Top shape: 20 256 13 13 (865280)
I0306 05:35:05.417249 60245 net.cpp:165] Memory required for data: 103349600
I0306 05:35:05.417273 60245 layer_factory.hpp:77] Creating layer norm2
I0306 05:35:05.417299 60245 net.cpp:106] Creating Layer norm2
I0306 05:35:05.417323 60245 net.cpp:454] norm2 <- pool2
I0306 05:35:05.417361 60245 net.cpp:411] norm2 -> norm2
I0306 05:35:05.417433 60245 net.cpp:150] Setting up norm2
I0306 05:35:05.417479 60245 net.cpp:157] Top shape: 20 256 13 13 (865280)
I0306 05:35:05.417505 60245 net.cpp:165] Memory required for data: 106810720
I0306 05:35:05.417546 60245 layer_factory.hpp:77] Creating layer conv3
I0306 05:35:05.417580 60245 net.cpp:106] Creating Layer conv3
I0306 05:35:05.417608 60245 net.cpp:454] conv3 <- norm2
I0306 05:35:05.417635 60245 net.cpp:411] conv3 -> conv3
I0306 05:35:05.452564 60245 net.cpp:150] Setting up conv3
I0306 05:35:05.452653 60245 net.cpp:157] Top shape: 20 384 13 13 (1297920)
I0306 05:35:05.452677 60245 net.cpp:165] Memory required for data: 112002400
I0306 05:35:05.452709 60245 layer_factory.hpp:77] Creating layer relu3
I0306 05:35:05.452751 60245 net.cpp:106] Creating Layer relu3
I0306 05:35:05.452776 60245 net.cpp:454] relu3 <- conv3
I0306 05:35:05.452816 60245 net.cpp:397] relu3 -> conv3 (in-place)
I0306 05:35:05.452847 60245 net.cpp:150] Setting up relu3
I0306 05:35:05.452872 60245 net.cpp:157] Top shape: 20 384 13 13 (1297920)
I0306 05:35:05.452895 60245 net.cpp:165] Memory required for data: 117194080
I0306 05:35:05.452918 60245 layer_factory.hpp:77] Creating layer conv4
I0306 05:35:05.452950 60245 net.cpp:106] Creating Layer conv4
I0306 05:35:05.452975 60245 net.cpp:454] conv4 <- conv3
I0306 05:35:05.453001 60245 net.cpp:411] conv4 -> conv4
I0306 05:35:05.479310 60245 net.cpp:150] Setting up conv4
I0306 05:35:05.479358 60245 net.cpp:157] Top shape: 20 384 13 13 (1297920)
I0306 05:35:05.479388 60245 net.cpp:165] Memory required for data: 122385760
I0306 05:35:05.479419 60245 layer_factory.hpp:77] Creating layer relu4
I0306 05:35:05.479450 60245 net.cpp:106] Creating Layer relu4
I0306 05:35:05.479480 60245 net.cpp:454] relu4 <- conv4
I0306 05:35:05.479511 60245 net.cpp:397] relu4 -> conv4 (in-place)
I0306 05:35:05.479549 60245 net.cpp:150] Setting up relu4
I0306 05:35:05.479583 60245 net.cpp:157] Top shape: 20 384 13 13 (1297920)
I0306 05:35:05.479609 60245 net.cpp:165] Memory required for data: 127577440
I0306 05:35:05.479635 60245 layer_factory.hpp:77] Creating layer conv5
I0306 05:35:05.479665 60245 net.cpp:106] Creating Layer conv5
I0306 05:35:05.479694 60245 net.cpp:454] conv5 <- conv4
I0306 05:35:05.479725 60245 net.cpp:411] conv5 -> conv5
I0306 05:35:05.497285 60245 net.cpp:150] Setting up conv5
I0306 05:35:05.497328 60245 net.cpp:157] Top shape: 20 256 13 13 (865280)
I0306 05:35:05.497352 60245 net.cpp:165] Memory required for data: 131038560
I0306 05:35:05.497382 60245 layer_factory.hpp:77] Creating layer relu5
I0306 05:35:05.497409 60245 net.cpp:106] Creating Layer relu5
I0306 05:35:05.497472 60245 net.cpp:454] relu5 <- conv5
I0306 05:35:05.497550 60245 net.cpp:397] relu5 -> conv5 (in-place)
I0306 05:35:05.497596 60245 net.cpp:150] Setting up relu5
I0306 05:35:05.497622 60245 net.cpp:157] Top shape: 20 256 13 13 (865280)
I0306 05:35:05.497645 60245 net.cpp:165] Memory required for data: 134499680
I0306 05:35:05.497668 60245 layer_factory.hpp:77] Creating layer pool5
I0306 05:35:05.497699 60245 net.cpp:106] Creating Layer pool5
I0306 05:35:05.497736 60245 net.cpp:454] pool5 <- conv5
I0306 05:35:05.497764 60245 net.cpp:411] pool5 -> pool5
I0306 05:35:05.497833 60245 net.cpp:150] Setting up pool5
I0306 05:35:05.497862 60245 net.cpp:157] Top shape: 20 256 6 6 (184320)
I0306 05:35:05.497884 60245 net.cpp:165] Memory required for data: 135236960
I0306 05:35:05.497905 60245 layer_factory.hpp:77] Creating layer fc6
I0306 05:35:05.497933 60245 net.cpp:106] Creating Layer fc6
I0306 05:35:05.497956 60245 net.cpp:454] fc6 <- pool5
I0306 05:35:05.497980 60245 net.cpp:411] fc6 -> fc6
I0306 05:35:06.879732 60245 net.cpp:150] Setting up fc6
I0306 05:35:06.879854 60245 net.cpp:157] Top shape: 20 4096 (81920)
I0306 05:35:06.879879 60245 net.cpp:165] Memory required for data: 135564640
I0306 05:35:06.879909 60245 layer_factory.hpp:77] Creating layer relu6
I0306 05:35:06.879937 60245 net.cpp:106] Creating Layer relu6
I0306 05:35:06.879961 60245 net.cpp:454] relu6 <- fc6
I0306 05:35:06.879987 60245 net.cpp:397] relu6 -> fc6 (in-place)
I0306 05:35:06.880022 60245 net.cpp:150] Setting up relu6
I0306 05:35:06.880045 60245 net.cpp:157] Top shape: 20 4096 (81920)
I0306 05:35:06.880066 60245 net.cpp:165] Memory required for data: 135892320
I0306 05:35:06.880087 60245 layer_factory.hpp:77] Creating layer drop6
I0306 05:35:06.880113 60245 net.cpp:106] Creating Layer drop6
I0306 05:35:06.880134 60245 net.cpp:454] drop6 <- fc6
I0306 05:35:06.880157 60245 net.cpp:397] drop6 -> fc6 (in-place)
I0306 05:35:06.880208 60245 net.cpp:150] Setting up drop6
I0306 05:35:06.880236 60245 net.cpp:157] Top shape: 20 4096 (81920)
I0306 05:35:06.880259 60245 net.cpp:165] Memory required for data: 136220000
I0306 05:35:06.880278 60245 layer_factory.hpp:77] Creating layer fc7
I0306 05:35:06.880306 60245 net.cpp:106] Creating Layer fc7
I0306 05:35:06.880327 60245 net.cpp:454] fc7 <- fc6
I0306 05:35:06.880352 60245 net.cpp:411] fc7 -> fc7
I0306 05:35:07.494321 60245 net.cpp:150] Setting up fc7
I0306 05:35:07.494441 60245 net.cpp:157] Top shape: 20 4096 (81920)
I0306 05:35:07.494463 60245 net.cpp:165] Memory required for data: 136547680
I0306 05:35:07.494491 60245 layer_factory.hpp:77] Creating layer relu7
I0306 05:35:07.494521 60245 net.cpp:106] Creating Layer relu7
I0306 05:35:07.494549 60245 net.cpp:454] relu7 <- fc7
I0306 05:35:07.494580 60245 net.cpp:397] relu7 -> fc7 (in-place)
I0306 05:35:07.494612 60245 net.cpp:150] Setting up relu7
I0306 05:35:07.494637 60245 net.cpp:157] Top shape: 20 4096 (81920)
I0306 05:35:07.494658 60245 net.cpp:165] Memory required for data: 136875360
I0306 05:35:07.494683 60245 layer_factory.hpp:77] Creating layer drop7
I0306 05:35:07.494709 60245 net.cpp:106] Creating Layer drop7
I0306 05:35:07.494730 60245 net.cpp:454] drop7 <- fc7
I0306 05:35:07.494753 60245 net.cpp:397] drop7 -> fc7 (in-place)
I0306 05:35:07.494804 60245 net.cpp:150] Setting up drop7
I0306 05:35:07.494833 60245 net.cpp:157] Top shape: 20 4096 (81920)
I0306 05:35:07.494854 60245 net.cpp:165] Memory required for data: 137203040
I0306 05:35:07.494876 60245 layer_factory.hpp:77] Creating layer fc8_subset
I0306 05:35:07.494904 60245 net.cpp:106] Creating Layer fc8_subset
I0306 05:35:07.494927 60245 net.cpp:454] fc8_subset <- fc7
I0306 05:35:07.494951 60245 net.cpp:411] fc8_subset -> fc8_subset
I0306 05:35:07.498644 60245 net.cpp:150] Setting up fc8_subset
I0306 05:35:07.498678 60245 net.cpp:157] Top shape: 20 25 (500)
I0306 05:35:07.498700 60245 net.cpp:165] Memory required for data: 137205040
I0306 05:35:07.498724 60245 layer_factory.hpp:77] Creating layer fc8_subset_fc8_subset_0_split
I0306 05:35:07.498750 60245 net.cpp:106] Creating Layer fc8_subset_fc8_subset_0_split
I0306 05:35:07.498855 60245 net.cpp:454] fc8_subset_fc8_subset_0_split <- fc8_subset
I0306 05:35:07.498883 60245 net.cpp:411] fc8_subset_fc8_subset_0_split -> fc8_subset_fc8_subset_0_split_0
I0306 05:35:07.498909 60245 net.cpp:411] fc8_subset_fc8_subset_0_split -> fc8_subset_fc8_subset_0_split_1
I0306 05:35:07.498970 60245 net.cpp:150] Setting up fc8_subset_fc8_subset_0_split
I0306 05:35:07.499001 60245 net.cpp:157] Top shape: 20 25 (500)
I0306 05:35:07.499024 60245 net.cpp:157] Top shape: 20 25 (500)
I0306 05:35:07.499044 60245 net.cpp:165] Memory required for data: 137209040
I0306 05:35:07.499066 60245 layer_factory.hpp:77] Creating layer loss
I0306 05:35:07.499089 60245 net.cpp:106] Creating Layer loss
I0306 05:35:07.499112 60245 net.cpp:454] loss <- fc8_subset_fc8_subset_0_split_0
I0306 05:35:07.499146 60245 net.cpp:454] loss <- label_data_1_split_0
I0306 05:35:07.499169 60245 net.cpp:411] loss -> loss
…
