…
I0306 20:15:59.645647 54015 net.cpp:322] The NetState phase (0) differed from the phase (1) specified by a rule in layer accuracy
I0306 20:15:59.645859 54015 net.cpp:49] Initializing net from parameters: 
name: "FlickrStyleCaffeNet"
state {
  phase: TRAIN
}
layer {
  name: "data"
  type: "Data"
  top: "data"
  top: "label"
  include {
    phase: TRAIN
  }
  transform_param {
    mirror: true
    crop_size: 227
    mean_file: "/work/01932/dineshj/CS381V/caffe_install_scripts/caffe/data/ilsvrc12/imagenet_mean.binaryproto"
  }
  data_param {
    source: "/work/04018/wxie/maverick/visual_recognition/data/train-lmdb"
    batch_size: 128
    backend: LMDB
  }
}
layer {
  name: "conv1"
  type: "Convolution"
  bottom: "data"
  top: "conv1"
  param {
    lr_mult: 1
    decay_mult: 1
  }
  param {
    lr_mult: 2
    decay_mult: 0
  }
  convolution_param {
    num_output: 96
    kernel_size: 11
    stride: 4
    weight_filler {
      type: "gaussian"
      std: 0.01
    }
    bias_filler {
      type: "constant"
      value: 0
    }
  }
}
layer {
  name: "relu1"
  type: "ReLU"
  bottom: "conv1"
  top: "conv1"
}
layer {
  name: "pool1"
  type: "Pooling"
  bottom: "conv1"
  top: "pool1"
  pooling_param {
    pool: MAX
    kernel_size: 3
    stride: 2
  }
}
layer {
  name: "norm1"
  type: "LRN"
  bottom: "pool1"
  top: "norm1"
  lrn_param {
    local_size: 5
    alpha: 0.0001
    beta: 0.75
  }
}
layer {
  name: "conv2"
  type: "Convolution"
  bottom: "norm1"
  top: "conv2"
  param {
    lr_mult: 1
    decay_mult: 1
  }
  param {
    lr_mult: 2
    decay_mult: 0
  }
  convolution_param {
    num_output: 256
    pad: 2
    kernel_size: 5
    group: 2
    weight_filler {
      type: "gaussian"
      std: 0.01
    }
    bias_filler {
      type: "constant"
      value: 0.1
    }
  }
}
layer {
  name: "relu2"
  type: "ReLU"
  bottom: "conv2"
  top: "conv2"
}
layer {
  name: "pool2"
  type: "Pooling"
  bottom: "conv2"
  top: "pool2"
  pooling_param {
    pool: MAX
    kernel_size: 3
    stride: 2
  }
}
layer {
  name: "norm2"
  type: "LRN"
  bottom: "pool2"
  top: "norm2"
  lrn_param {
    local_size: 5
    alpha: 0.0001
    beta: 0.75
  }
}
layer {
  name: "conv3"
  type: "Convolution"
  bottom: "norm2"
  top: "conv3"
  param {
    lr_mult: 1
    decay_mult: 1
  }
  param {
    lr_mult: 2
    decay_mult: 0
  }
  convolution_param {
    num_output: 384
    pad: 1
    kernel_size: 3
    weight_filler {
      type: "gaussian"
      std: 0.01
    }
    bias_filler {
      type: "constant"
      value: 0
    }
  }
}
layer {
  name: "relu3"
  type: "ReLU"
  bottom: "conv3"
  top: "conv3"
}
layer {
  name: "conv4"
  type: "Convolution"
  bottom: "conv3"
  top: "conv4"
  param {
    lr_mult: 1
    decay_mult: 1
  }
  param {
    lr_mult: 2
    decay_mult: 0
  }
  convolution_param {
    num_output: 384
    pad: 1
    kernel_size: 3
    group: 2
    weight_filler {
      type: "gaussian"
      std: 0.01
    }
    bias_filler {
      type: "constant"
      value: 0.1
    }
  }
}
layer {
  name: "relu4"
  type: "ReLU"
  bottom: "conv4"
  top: "conv4"
}
layer {
  name: "conv5"
  type: "Convolution"
  bottom: "conv4"
  top: "conv5"
  param {
    lr_mult: 1
    decay_mult: 1
  }
  param {
    lr_mult: 2
    decay_mult: 0
  }
  convolution_param {
    num_output: 256
    pad: 1
    kernel_size: 3
    group: 2
    weight_filler {
      type: "gaussian"
      std: 0.01
    }
    bias_filler {
      type: "constant"
      value: 0.1
    }
  }
}
layer {
  name: "relu5"
  type: "ReLU"
  bottom: "conv5"
  top: "conv5"
}
layer {
  name: "pool5"
  type: "Pooling"
  bottom: "conv5"
  top: "pool5"
  pooling_param {
    pool: MAX
    kernel_size: 3
    stride: 2
  }
}
layer {
  name: "fc6"
  type: "InnerProduct"
  bottom: "pool5"
  top: "fc6"
  param {
    lr_mult: 1
    decay_mult: 1
  }
  param {
    lr_mult: 2
    decay_mult: 0
  }
  inner_product_param {
    num_output: 4096
    weight_filler {
      type: "gaussian"
      std: 0.005
    }
    bias_filler {
      type: "constant"
      value: 0.1
    }
  }
}
layer {
  name: "relu6"
  type: "ReLU"
  bottom: "fc6"
  top: "fc6"
}
layer {
  name: "drop6"
  type: "Dropout"
  bottom: "fc6"
  top: "fc6"
  dropout_param {
    dropout_ratio: 0.5
  }
}
layer {
  name: "fc7"
  type: "InnerProduct"
  bottom: "fc6"
  top: "fc7"
  param {
    lr_mult: 1
    decay_mult: 1
  }
  param {
    lr_mult: 2
    decay_mult: 0
  }
  inner_product_param {
    num_output: 4096
    weight_filler {
      type: "gaussian"
      std: 0.005
    }
    bias_filler {
      type: "constant"
      value: 0.1
    }
  }
}
layer {
  name: "relu7"
  type: "ReLU"
  bottom: "fc7"
  top: "fc7"
}
layer {
  name: "drop7"
  type: "Dropout"
  bottom: "fc7"
  top: "fc7"
  dropout_param {
    dropout_ratio: 0.5
  }
}
layer {
  name: "fc8_subset"
  type: "InnerProduct"
  bottom: "fc7"
  top: "fc8_subset"
  param {
    lr_mult: 10
    decay_mult: 1
  }
  param {
    lr_mult: 20
    decay_mult: 0
  }
  inner_product_param {
    num_output: 25
    weight_filler {
      type: "gaussian"
      std: 0.01
    }
    bias_filler {
      type: "constant"
      value: 0
    }
  }
}
layer {
  name: "loss"
  type: "SoftmaxWithLoss"
  bottom: "fc8_subset"
  bottom: "label"
  top: "loss"
}
I0306 20:15:59.646149 54015 layer_factory.hpp:77] Creating layer data
I0306 20:15:59.646931 54015 net.cpp:106] Creating Layer data
I0306 20:15:59.647004 54015 net.cpp:411] data -> data
I0306 20:15:59.647109 54015 net.cpp:411] data -> label
I0306 20:15:59.647188 54015 data_transformer.cpp:25] Loading mean file from: /work/01932/dineshj/CS381V/caffe_install_scripts/caffe/data/ilsvrc12/imagenet_mean.binaryproto
I0306 20:15:59.661738 54017 db_lmdb.cpp:38] Opened lmdb /work/04018/wxie/maverick/visual_recognition/data/train-lmdb
I0306 20:15:59.711297 54015 data_layer.cpp:41] output data size: 128,3,227,227
I0306 20:15:59.861675 54015 net.cpp:150] Setting up data
I0306 20:15:59.861774 54015 net.cpp:157] Top shape: 128 3 227 227 (19787136)
I0306 20:15:59.861807 54015 net.cpp:157] Top shape: 128 (128)
I0306 20:15:59.861836 54015 net.cpp:165] Memory required for data: 79149056
I0306 20:15:59.861881 54015 layer_factory.hpp:77] Creating layer conv1
I0306 20:15:59.861964 54015 net.cpp:106] Creating Layer conv1
I0306 20:15:59.861997 54015 net.cpp:454] conv1 <- data
I0306 20:15:59.862041 54015 net.cpp:411] conv1 -> conv1
I0306 20:15:59.872006 54015 net.cpp:150] Setting up conv1
I0306 20:15:59.872052 54015 net.cpp:157] Top shape: 128 96 55 55 (37171200)
I0306 20:15:59.872082 54015 net.cpp:165] Memory required for data: 227833856
I0306 20:15:59.872139 54015 layer_factory.hpp:77] Creating layer relu1
I0306 20:15:59.872171 54015 net.cpp:106] Creating Layer relu1
I0306 20:15:59.872200 54015 net.cpp:454] relu1 <- conv1
I0306 20:15:59.872233 54015 net.cpp:397] relu1 -> conv1 (in-place)
I0306 20:15:59.872267 54015 net.cpp:150] Setting up relu1
I0306 20:15:59.872303 54015 net.cpp:157] Top shape: 128 96 55 55 (37171200)
I0306 20:15:59.872331 54015 net.cpp:165] Memory required for data: 376518656
I0306 20:15:59.872359 54015 layer_factory.hpp:77] Creating layer pool1
I0306 20:15:59.872390 54015 net.cpp:106] Creating Layer pool1
I0306 20:15:59.872416 54015 net.cpp:454] pool1 <- conv1
I0306 20:15:59.872447 54015 net.cpp:411] pool1 -> pool1
I0306 20:15:59.872611 54015 net.cpp:150] Setting up pool1
I0306 20:15:59.872647 54015 net.cpp:157] Top shape: 128 96 27 27 (8957952)
I0306 20:15:59.872727 54015 net.cpp:165] Memory required for data: 412350464
I0306 20:15:59.872756 54015 layer_factory.hpp:77] Creating layer norm1
I0306 20:15:59.872792 54015 net.cpp:106] Creating Layer norm1
I0306 20:15:59.872822 54015 net.cpp:454] norm1 <- pool1
I0306 20:15:59.872851 54015 net.cpp:411] norm1 -> norm1
I0306 20:15:59.872957 54015 net.cpp:150] Setting up norm1
I0306 20:15:59.872989 54015 net.cpp:157] Top shape: 128 96 27 27 (8957952)
I0306 20:15:59.873010 54015 net.cpp:165] Memory required for data: 448182272
I0306 20:15:59.873036 54015 layer_factory.hpp:77] Creating layer conv2
I0306 20:15:59.873072 54015 net.cpp:106] Creating Layer conv2
I0306 20:15:59.873102 54015 net.cpp:454] conv2 <- norm1
I0306 20:15:59.873132 54015 net.cpp:411] conv2 -> conv2
I0306 20:15:59.885738 54015 net.cpp:150] Setting up conv2
I0306 20:15:59.885824 54015 net.cpp:157] Top shape: 128 256 27 27 (23887872)
I0306 20:15:59.885856 54015 net.cpp:165] Memory required for data: 543733760
I0306 20:15:59.885892 54015 layer_factory.hpp:77] Creating layer relu2
I0306 20:15:59.885928 54015 net.cpp:106] Creating Layer relu2
I0306 20:15:59.885957 54015 net.cpp:454] relu2 <- conv2
I0306 20:15:59.885988 54015 net.cpp:397] relu2 -> conv2 (in-place)
I0306 20:15:59.886023 54015 net.cpp:150] Setting up relu2
I0306 20:15:59.886051 54015 net.cpp:157] Top shape: 128 256 27 27 (23887872)
I0306 20:15:59.886076 54015 net.cpp:165] Memory required for data: 639285248
I0306 20:15:59.886104 54015 layer_factory.hpp:77] Creating layer pool2
I0306 20:15:59.886137 54015 net.cpp:106] Creating Layer pool2
I0306 20:15:59.886165 54015 net.cpp:454] pool2 <- conv2
I0306 20:15:59.886195 54015 net.cpp:411] pool2 -> pool2
I0306 20:15:59.886256 54015 net.cpp:150] Setting up pool2
I0306 20:15:59.886296 54015 net.cpp:157] Top shape: 128 256 13 13 (5537792)
I0306 20:15:59.886323 54015 net.cpp:165] Memory required for data: 661436416
I0306 20:15:59.886350 54015 layer_factory.hpp:77] Creating layer norm2
I0306 20:15:59.886384 54015 net.cpp:106] Creating Layer norm2
I0306 20:15:59.886412 54015 net.cpp:454] norm2 <- pool2
I0306 20:15:59.886442 54015 net.cpp:411] norm2 -> norm2
I0306 20:15:59.886499 54015 net.cpp:150] Setting up norm2
I0306 20:15:59.886531 54015 net.cpp:157] Top shape: 128 256 13 13 (5537792)
I0306 20:15:59.886556 54015 net.cpp:165] Memory required for data: 683587584
I0306 20:15:59.886580 54015 layer_factory.hpp:77] Creating layer conv3
I0306 20:15:59.886615 54015 net.cpp:106] Creating Layer conv3
I0306 20:15:59.886641 54015 net.cpp:454] conv3 <- norm2
I0306 20:15:59.886668 54015 net.cpp:411] conv3 -> conv3
I0306 20:15:59.922101 54015 net.cpp:150] Setting up conv3
I0306 20:15:59.922216 54015 net.cpp:157] Top shape: 128 384 13 13 (8306688)
I0306 20:15:59.922260 54015 net.cpp:165] Memory required for data: 716814336
I0306 20:15:59.922315 54015 layer_factory.hpp:77] Creating layer relu3
I0306 20:15:59.922354 54015 net.cpp:106] Creating Layer relu3
I0306 20:15:59.922394 54015 net.cpp:454] relu3 <- conv3
I0306 20:15:59.922427 54015 net.cpp:397] relu3 -> conv3 (in-place)
I0306 20:15:59.922467 54015 net.cpp:150] Setting up relu3
I0306 20:15:59.922497 54015 net.cpp:157] Top shape: 128 384 13 13 (8306688)
I0306 20:15:59.922523 54015 net.cpp:165] Memory required for data: 750041088
I0306 20:15:59.922551 54015 layer_factory.hpp:77] Creating layer conv4
I0306 20:15:59.922597 54015 net.cpp:106] Creating Layer conv4
I0306 20:15:59.922623 54015 net.cpp:454] conv4 <- conv3
I0306 20:15:59.922651 54015 net.cpp:411] conv4 -> conv4
I0306 20:15:59.954979 54015 net.cpp:150] Setting up conv4
I0306 20:15:59.955078 54015 net.cpp:157] Top shape: 128 384 13 13 (8306688)
I0306 20:15:59.955104 54015 net.cpp:165] Memory required for data: 783267840
I0306 20:15:59.955132 54015 layer_factory.hpp:77] Creating layer relu4
I0306 20:15:59.955169 54015 net.cpp:106] Creating Layer relu4
I0306 20:15:59.955200 54015 net.cpp:454] relu4 <- conv4
I0306 20:15:59.955232 54015 net.cpp:397] relu4 -> conv4 (in-place)
I0306 20:15:59.955267 54015 net.cpp:150] Setting up relu4
I0306 20:15:59.955327 54015 net.cpp:157] Top shape: 128 384 13 13 (8306688)
I0306 20:15:59.955390 54015 net.cpp:165] Memory required for data: 816494592
I0306 20:15:59.955420 54015 layer_factory.hpp:77] Creating layer conv5
I0306 20:15:59.955461 54015 net.cpp:106] Creating Layer conv5
I0306 20:15:59.955490 54015 net.cpp:454] conv5 <- conv4
I0306 20:15:59.955520 54015 net.cpp:411] conv5 -> conv5
I0306 20:15:59.973868 54015 net.cpp:150] Setting up conv5
I0306 20:15:59.973995 54015 net.cpp:157] Top shape: 128 256 13 13 (5537792)
I0306 20:15:59.974022 54015 net.cpp:165] Memory required for data: 838645760
I0306 20:15:59.974076 54015 layer_factory.hpp:77] Creating layer relu5
I0306 20:15:59.974112 54015 net.cpp:106] Creating Layer relu5
I0306 20:15:59.974139 54015 net.cpp:454] relu5 <- conv5
I0306 20:15:59.974184 54015 net.cpp:397] relu5 -> conv5 (in-place)
I0306 20:15:59.974223 54015 net.cpp:150] Setting up relu5
I0306 20:15:59.974261 54015 net.cpp:157] Top shape: 128 256 13 13 (5537792)
I0306 20:15:59.974288 54015 net.cpp:165] Memory required for data: 860796928
I0306 20:15:59.974324 54015 layer_factory.hpp:77] Creating layer pool5
I0306 20:15:59.974354 54015 net.cpp:106] Creating Layer pool5
I0306 20:15:59.974380 54015 net.cpp:454] pool5 <- conv5
I0306 20:15:59.974422 54015 net.cpp:411] pool5 -> pool5
I0306 20:15:59.974500 54015 net.cpp:150] Setting up pool5
I0306 20:15:59.974539 54015 net.cpp:157] Top shape: 128 256 6 6 (1179648)
I0306 20:15:59.974568 54015 net.cpp:165] Memory required for data: 865515520
I0306 20:15:59.974608 54015 layer_factory.hpp:77] Creating layer fc6
I0306 20:15:59.974701 54015 net.cpp:106] Creating Layer fc6
I0306 20:15:59.974735 54015 net.cpp:454] fc6 <- pool5
I0306 20:15:59.974766 54015 net.cpp:411] fc6 -> fc6
I0306 20:16:00.036450 54018 blocking_queue.cpp:50] Waiting for data
I0306 20:16:01.409981 54015 net.cpp:150] Setting up fc6
I0306 20:16:01.410114 54015 net.cpp:157] Top shape: 128 4096 (524288)
I0306 20:16:01.410137 54015 net.cpp:165] Memory required for data: 867612672
I0306 20:16:01.410171 54015 layer_factory.hpp:77] Creating layer relu6
I0306 20:16:01.410205 54015 net.cpp:106] Creating Layer relu6
I0306 20:16:01.410228 54015 net.cpp:454] relu6 <- fc6
I0306 20:16:01.410259 54015 net.cpp:397] relu6 -> fc6 (in-place)
I0306 20:16:01.410301 54015 net.cpp:150] Setting up relu6
I0306 20:16:01.410327 54015 net.cpp:157] Top shape: 128 4096 (524288)
I0306 20:16:01.410347 54015 net.cpp:165] Memory required for data: 869709824
I0306 20:16:01.410368 54015 layer_factory.hpp:77] Creating layer drop6
I0306 20:16:01.410395 54015 net.cpp:106] Creating Layer drop6
I0306 20:16:01.410416 54015 net.cpp:454] drop6 <- fc6
I0306 20:16:01.410441 54015 net.cpp:397] drop6 -> fc6 (in-place)
I0306 20:16:01.410529 54015 net.cpp:150] Setting up drop6
I0306 20:16:01.410559 54015 net.cpp:157] Top shape: 128 4096 (524288)
I0306 20:16:01.410581 54015 net.cpp:165] Memory required for data: 871806976
I0306 20:16:01.410601 54015 layer_factory.hpp:77] Creating layer fc7
I0306 20:16:01.410630 54015 net.cpp:106] Creating Layer fc7
I0306 20:16:01.410652 54015 net.cpp:454] fc7 <- fc6
I0306 20:16:01.410679 54015 net.cpp:411] fc7 -> fc7
I0306 20:16:02.025121 54015 net.cpp:150] Setting up fc7
I0306 20:16:02.025250 54015 net.cpp:157] Top shape: 128 4096 (524288)
I0306 20:16:02.025279 54015 net.cpp:165] Memory required for data: 873904128
I0306 20:16:02.025312 54015 layer_factory.hpp:77] Creating layer relu7
I0306 20:16:02.025348 54015 net.cpp:106] Creating Layer relu7
I0306 20:16:02.025372 54015 net.cpp:454] relu7 <- fc7
I0306 20:16:02.025401 54015 net.cpp:397] relu7 -> fc7 (in-place)
I0306 20:16:02.025437 54015 net.cpp:150] Setting up relu7
I0306 20:16:02.025461 54015 net.cpp:157] Top shape: 128 4096 (524288)
I0306 20:16:02.025482 54015 net.cpp:165] Memory required for data: 876001280
I0306 20:16:02.025502 54015 layer_factory.hpp:77] Creating layer drop7
I0306 20:16:02.025529 54015 net.cpp:106] Creating Layer drop7
I0306 20:16:02.025552 54015 net.cpp:454] drop7 <- fc7
I0306 20:16:02.025574 54015 net.cpp:397] drop7 -> fc7 (in-place)
I0306 20:16:02.025645 54015 net.cpp:150] Setting up drop7
I0306 20:16:02.025709 54015 net.cpp:157] Top shape: 128 4096 (524288)
I0306 20:16:02.025732 54015 net.cpp:165] Memory required for data: 878098432
I0306 20:16:02.025753 54015 layer_factory.hpp:77] Creating layer fc8_subset
I0306 20:16:02.025781 54015 net.cpp:106] Creating Layer fc8_subset
I0306 20:16:02.025807 54015 net.cpp:454] fc8_subset <- fc7
I0306 20:16:02.025831 54015 net.cpp:411] fc8_subset -> fc8_subset
I0306 20:16:02.030179 54015 net.cpp:150] Setting up fc8_subset
I0306 20:16:02.030215 54015 net.cpp:157] Top shape: 128 25 (3200)
I0306 20:16:02.030238 54015 net.cpp:165] Memory required for data: 878111232
I0306 20:16:02.030262 54015 layer_factory.hpp:77] Creating layer loss
I0306 20:16:02.030297 54015 net.cpp:106] Creating Layer loss
I0306 20:16:02.030320 54015 net.cpp:454] loss <- fc8_subset
I0306 20:16:02.030342 54015 net.cpp:454] loss <- label
I0306 20:16:02.030370 54015 net.cpp:411] loss -> loss
I0306 20:16:02.030436 54015 layer_factory.hpp:77] Creating layer loss
…
I0306 20:16:02.033042 54015 net.cpp:322] The NetState phase (1) differed from the phase (0) specified by a rule in layer data
I0306 20:16:02.033280 54015 net.cpp:49] Initializing net from parameters: 
name: "FlickrStyleCaffeNet"
state {
  phase: TEST
}
layer {
  name: "data"
  type: "Data"
  top: "data"
  top: "label"
  include {
    phase: TEST
  }
  transform_param {
    mirror: false
    crop_size: 227
    mean_file: "/work/01932/dineshj/CS381V/caffe_install_scripts/caffe/data/ilsvrc12/imagenet_mean.binaryproto"
  }
  data_param {
    source: "/work/04018/wxie/maverick/visual_recognition/data/test-lmdb"
    batch_size: 20
    backend: LMDB
  }
}
layer {
  name: "conv1"
  type: "Convolution"
  bottom: "data"
  top: "conv1"
  param {
    lr_mult: 1
    decay_mult: 1
  }
  param {
    lr_mult: 2
    decay_mult: 0
  }
  convolution_param {
    num_output: 96
    kernel_size: 11
    stride: 4
    weight_filler {
      type: "gaussian"
      std: 0.01
    }
    bias_filler {
      type: "constant"
      value: 0
    }
  }
}
layer {
  name: "relu1"
  type: "ReLU"
  bottom: "conv1"
  top: "conv1"
}
layer {
  name: "pool1"
  type: "Pooling"
  bottom: "conv1"
  top: "pool1"
  pooling_param {
    pool: MAX
    kernel_size: 3
    stride: 2
  }
}
layer {
  name: "norm1"
  type: "LRN"
  bottom: "pool1"
  top: "norm1"
  lrn_param {
    local_size: 5
    alpha: 0.0001
    beta: 0.75
  }
}
layer {
  name: "conv2"
  type: "Convolution"
  bottom: "norm1"
  top: "conv2"
  param {
    lr_mult: 1
    decay_mult: 1
  }
  param {
    lr_mult: 2
    decay_mult: 0
  }
  convolution_param {
    num_output: 256
    pad: 2
    kernel_size: 5
    group: 2
    weight_filler {
      type: "gaussian"
      std: 0.01
    }
    bias_filler {
      type: "constant"
      value: 0.1
    }
  }
}
layer {
  name: "relu2"
  type: "ReLU"
  bottom: "conv2"
  top: "conv2"
}
layer {
  name: "pool2"
  type: "Pooling"
  bottom: "conv2"
  top: "pool2"
  pooling_param {
    pool: MAX
    kernel_size: 3
    stride: 2
  }
}
layer {
  name: "norm2"
  type: "LRN"
  bottom: "pool2"
  top: "norm2"
  lrn_param {
    local_size: 5
    alpha: 0.0001
    beta: 0.75
  }
}
layer {
  name: "conv3"
  type: "Convolution"
  bottom: "norm2"
  top: "conv3"
  param {
    lr_mult: 1
    decay_mult: 1
  }
  param {
    lr_mult: 2
    decay_mult: 0
  }
  convolution_param {
    num_output: 384
    pad: 1
    kernel_size: 3
    weight_filler {
      type: "gaussian"
      std: 0.01
    }
    bias_filler {
      type: "constant"
      value: 0
    }
  }
}
layer {
  name: "relu3"
  type: "ReLU"
  bottom: "conv3"
  top: "conv3"
}
layer {
  name: "conv4"
  type: "Convolution"
  bottom: "conv3"
  top: "conv4"
  param {
    lr_mult: 1
    decay_mult: 1
  }
  param {
    lr_mult: 2
    decay_mult: 0
  }
  convolution_param {
    num_output: 384
    pad: 1
    kernel_size: 3
    group: 2
    weight_filler {
      type: "gaussian"
      std: 0.01
    }
    bias_filler {
      type: "constant"
      value: 0.1
    }
  }
}
layer {
  name: "relu4"
  type: "ReLU"
  bottom: "conv4"
  top: "conv4"
}
layer {
  name: "conv5"
  type: "Convolution"
  bottom: "conv4"
  top: "conv5"
  param {
    lr_mult: 1
    decay_mult: 1
  }
  param {
    lr_mult: 2
    decay_mult: 0
  }
  convolution_param {
    num_output: 256
    pad: 1
    kernel_size: 3
    group: 2
    weight_filler {
      type: "gaussian"
      std: 0.01
    }
    bias_filler {
      type: "constant"
      value: 0.1
    }
  }
}
layer {
  name: "relu5"
  type: "ReLU"
  bottom: "conv5"
  top: "conv5"
}
layer {
  name: "pool5"
  type: "Pooling"
  bottom: "conv5"
  top: "pool5"
  pooling_param {
    pool: MAX
    kernel_size: 3
    stride: 2
  }
}
layer {
  name: "fc6"
  type: "InnerProduct"
  bottom: "pool5"
  top: "fc6"
  param {
    lr_mult: 1
    decay_mult: 1
  }
  param {
    lr_mult: 2
    decay_mult: 0
  }
  inner_product_param {
    num_output: 4096
    weight_filler {
      type: "gaussian"
      std: 0.005
    }
    bias_filler {
      type: "constant"
      value: 0.1
    }
  }
}
layer {
  name: "relu6"
  type: "ReLU"
  bottom: "fc6"
  top: "fc6"
}
layer {
  name: "drop6"
  type: "Dropout"
  bottom: "fc6"
  top: "fc6"
  dropout_param {
    dropout_ratio: 0.5
  }
}
layer {
  name: "fc7"
  type: "InnerProduct"
  bottom: "fc6"
  top: "fc7"
  param {
    lr_mult: 1
    decay_mult: 1
  }
  param {
    lr_mult: 2
    decay_mult: 0
  }
  inner_product_param {
    num_output: 4096
    weight_filler {
      type: "gaussian"
      std: 0.005
    }
    bias_filler {
      type: "constant"
      value: 0.1
    }
  }
}
layer {
  name: "relu7"
  type: "ReLU"
  bottom: "fc7"
  top: "fc7"
}
layer {
  name: "drop7"
  type: "Dropout"
  bottom: "fc7"
  top: "fc7"
  dropout_param {
    dropout_ratio: 0.5
  }
}
layer {
  name: "fc8_subset"
  type: "InnerProduct"
  bottom: "fc7"
  top: "fc8_subset"
  param {
    lr_mult: 10
    decay_mult: 1
  }
  param {
    lr_mult: 20
    decay_mult: 0
  }
  inner_product_param {
    num_output: 25
    weight_filler {
      type: "gaussian"
      std: 0.01
    }
    bias_filler {
      type: "constant"
      value: 0
    }
  }
}
layer {
  name: "loss"
  type: "SoftmaxWithLoss"
  bottom: "fc8_subset"
  bottom: "label"
  top: "loss"
}
layer {
  name: "accuracy"
  type: "Accuracy"
  bottom: "fc8_subset"
  bottom: "label"
  top: "accuracy"
  include {
    phase: TEST
  }
}
I0306 20:16:02.033459 54015 layer_factory.hpp:77] Creating layer data
I0306 20:16:02.033627 54015 net.cpp:106] Creating Layer data
I0306 20:16:02.033674 54015 net.cpp:411] data -> data
I0306 20:16:02.033710 54015 net.cpp:411] data -> label
I0306 20:16:02.033741 54015 data_transformer.cpp:25] Loading mean file from: /work/01932/dineshj/CS381V/caffe_install_scripts/caffe/data/ilsvrc12/imagenet_mean.binaryproto
I0306 20:16:02.045667 54019 db_lmdb.cpp:38] Opened lmdb /work/04018/wxie/maverick/visual_recognition/data/test-lmdb
I0306 20:16:02.047415 54015 data_layer.cpp:41] output data size: 20,3,227,227
I0306 20:16:02.070206 54015 net.cpp:150] Setting up data
I0306 20:16:02.070297 54015 net.cpp:157] Top shape: 20 3 227 227 (3091740)
I0306 20:16:02.070355 54015 net.cpp:157] Top shape: 20 (20)
I0306 20:16:02.070389 54015 net.cpp:165] Memory required for data: 12367040
I0306 20:16:02.070421 54015 layer_factory.hpp:77] Creating layer label_data_1_split
I0306 20:16:02.070458 54015 net.cpp:106] Creating Layer label_data_1_split
I0306 20:16:02.070490 54015 net.cpp:454] label_data_1_split <- label
I0306 20:16:02.070518 54015 net.cpp:411] label_data_1_split -> label_data_1_split_0
I0306 20:16:02.070549 54015 net.cpp:411] label_data_1_split -> label_data_1_split_1
I0306 20:16:02.070632 54015 net.cpp:150] Setting up label_data_1_split
I0306 20:16:02.070668 54015 net.cpp:157] Top shape: 20 (20)
I0306 20:16:02.070696 54015 net.cpp:157] Top shape: 20 (20)
I0306 20:16:02.070722 54015 net.cpp:165] Memory required for data: 12367200
I0306 20:16:02.070749 54015 layer_factory.hpp:77] Creating layer conv1
I0306 20:16:02.070783 54015 net.cpp:106] Creating Layer conv1
I0306 20:16:02.070813 54015 net.cpp:454] conv1 <- data
I0306 20:16:02.070844 54015 net.cpp:411] conv1 -> conv1
I0306 20:16:02.072391 54015 net.cpp:150] Setting up conv1
I0306 20:16:02.072435 54015 net.cpp:157] Top shape: 20 96 55 55 (5808000)
I0306 20:16:02.072465 54015 net.cpp:165] Memory required for data: 35599200
I0306 20:16:02.072499 54015 layer_factory.hpp:77] Creating layer relu1
I0306 20:16:02.072532 54015 net.cpp:106] Creating Layer relu1
I0306 20:16:02.072561 54015 net.cpp:454] relu1 <- conv1
I0306 20:16:02.072590 54015 net.cpp:397] relu1 -> conv1 (in-place)
I0306 20:16:02.072623 54015 net.cpp:150] Setting up relu1
I0306 20:16:02.072655 54015 net.cpp:157] Top shape: 20 96 55 55 (5808000)
I0306 20:16:02.072682 54015 net.cpp:165] Memory required for data: 58831200
I0306 20:16:02.072708 54015 layer_factory.hpp:77] Creating layer pool1
I0306 20:16:02.072741 54015 net.cpp:106] Creating Layer pool1
I0306 20:16:02.072767 54015 net.cpp:454] pool1 <- conv1
I0306 20:16:02.072793 54015 net.cpp:411] pool1 -> pool1
I0306 20:16:02.072850 54015 net.cpp:150] Setting up pool1
I0306 20:16:02.072885 54015 net.cpp:157] Top shape: 20 96 27 27 (1399680)
I0306 20:16:02.072911 54015 net.cpp:165] Memory required for data: 64429920
I0306 20:16:02.072938 54015 layer_factory.hpp:77] Creating layer norm1
I0306 20:16:02.072970 54015 net.cpp:106] Creating Layer norm1
I0306 20:16:02.072998 54015 net.cpp:454] norm1 <- pool1
I0306 20:16:02.073027 54015 net.cpp:411] norm1 -> norm1
I0306 20:16:02.073082 54015 net.cpp:150] Setting up norm1
I0306 20:16:02.073117 54015 net.cpp:157] Top shape: 20 96 27 27 (1399680)
I0306 20:16:02.073143 54015 net.cpp:165] Memory required for data: 70028640
I0306 20:16:02.073169 54015 layer_factory.hpp:77] Creating layer conv2
I0306 20:16:02.073201 54015 net.cpp:106] Creating Layer conv2
I0306 20:16:02.073249 54015 net.cpp:454] conv2 <- norm1
I0306 20:16:02.073307 54015 net.cpp:411] conv2 -> conv2
I0306 20:16:02.085490 54015 net.cpp:150] Setting up conv2
I0306 20:16:02.085539 54015 net.cpp:157] Top shape: 20 256 27 27 (3732480)
I0306 20:16:02.085568 54015 net.cpp:165] Memory required for data: 84958560
I0306 20:16:02.085602 54015 layer_factory.hpp:77] Creating layer relu2
I0306 20:16:02.085634 54015 net.cpp:106] Creating Layer relu2
I0306 20:16:02.085661 54015 net.cpp:454] relu2 <- conv2
I0306 20:16:02.085691 54015 net.cpp:397] relu2 -> conv2 (in-place)
I0306 20:16:02.085722 54015 net.cpp:150] Setting up relu2
I0306 20:16:02.085752 54015 net.cpp:157] Top shape: 20 256 27 27 (3732480)
I0306 20:16:02.085777 54015 net.cpp:165] Memory required for data: 99888480
I0306 20:16:02.085805 54015 layer_factory.hpp:77] Creating layer pool2
I0306 20:16:02.085835 54015 net.cpp:106] Creating Layer pool2
I0306 20:16:02.085861 54015 net.cpp:454] pool2 <- conv2
I0306 20:16:02.085891 54015 net.cpp:411] pool2 -> pool2
I0306 20:16:02.085954 54015 net.cpp:150] Setting up pool2
I0306 20:16:02.085991 54015 net.cpp:157] Top shape: 20 256 13 13 (865280)
I0306 20:16:02.086016 54015 net.cpp:165] Memory required for data: 103349600
I0306 20:16:02.086043 54015 layer_factory.hpp:77] Creating layer norm2
I0306 20:16:02.086071 54015 net.cpp:106] Creating Layer norm2
I0306 20:16:02.086096 54015 net.cpp:454] norm2 <- pool2
I0306 20:16:02.086120 54015 net.cpp:411] norm2 -> norm2
I0306 20:16:02.086182 54015 net.cpp:150] Setting up norm2
I0306 20:16:02.086215 54015 net.cpp:157] Top shape: 20 256 13 13 (865280)
I0306 20:16:02.086241 54015 net.cpp:165] Memory required for data: 106810720
I0306 20:16:02.086266 54015 layer_factory.hpp:77] Creating layer conv3
I0306 20:16:02.086302 54015 net.cpp:106] Creating Layer conv3
I0306 20:16:02.086330 54015 net.cpp:454] conv3 <- norm2
I0306 20:16:02.086359 54015 net.cpp:411] conv3 -> conv3
I0306 20:16:02.121534 54015 net.cpp:150] Setting up conv3
I0306 20:16:02.121618 54015 net.cpp:157] Top shape: 20 384 13 13 (1297920)
I0306 20:16:02.121640 54015 net.cpp:165] Memory required for data: 112002400
I0306 20:16:02.121673 54015 layer_factory.hpp:77] Creating layer relu3
I0306 20:16:02.121708 54015 net.cpp:106] Creating Layer relu3
I0306 20:16:02.121747 54015 net.cpp:454] relu3 <- conv3
I0306 20:16:02.121773 54015 net.cpp:397] relu3 -> conv3 (in-place)
I0306 20:16:02.121819 54015 net.cpp:150] Setting up relu3
I0306 20:16:02.121847 54015 net.cpp:157] Top shape: 20 384 13 13 (1297920)
I0306 20:16:02.121870 54015 net.cpp:165] Memory required for data: 117194080
I0306 20:16:02.121892 54015 layer_factory.hpp:77] Creating layer conv4
I0306 20:16:02.121929 54015 net.cpp:106] Creating Layer conv4
I0306 20:16:02.121956 54015 net.cpp:454] conv4 <- conv3
I0306 20:16:02.121984 54015 net.cpp:411] conv4 -> conv4
I0306 20:16:02.148499 54015 net.cpp:150] Setting up conv4
I0306 20:16:02.148548 54015 net.cpp:157] Top shape: 20 384 13 13 (1297920)
I0306 20:16:02.148576 54015 net.cpp:165] Memory required for data: 122385760
I0306 20:16:02.148607 54015 layer_factory.hpp:77] Creating layer relu4
I0306 20:16:02.148638 54015 net.cpp:106] Creating Layer relu4
I0306 20:16:02.148666 54015 net.cpp:454] relu4 <- conv4
I0306 20:16:02.148696 54015 net.cpp:397] relu4 -> conv4 (in-place)
I0306 20:16:02.148730 54015 net.cpp:150] Setting up relu4
I0306 20:16:02.148759 54015 net.cpp:157] Top shape: 20 384 13 13 (1297920)
I0306 20:16:02.148785 54015 net.cpp:165] Memory required for data: 127577440
I0306 20:16:02.148813 54015 layer_factory.hpp:77] Creating layer conv5
I0306 20:16:02.148845 54015 net.cpp:106] Creating Layer conv5
I0306 20:16:02.148871 54015 net.cpp:454] conv5 <- conv4
I0306 20:16:02.148901 54015 net.cpp:411] conv5 -> conv5
I0306 20:16:02.166684 54015 net.cpp:150] Setting up conv5
I0306 20:16:02.166739 54015 net.cpp:157] Top shape: 20 256 13 13 (865280)
I0306 20:16:02.166770 54015 net.cpp:165] Memory required for data: 131038560
I0306 20:16:02.166821 54015 layer_factory.hpp:77] Creating layer relu5
I0306 20:16:02.166856 54015 net.cpp:106] Creating Layer relu5
I0306 20:16:02.166908 54015 net.cpp:454] relu5 <- conv5
I0306 20:16:02.166971 54015 net.cpp:397] relu5 -> conv5 (in-place)
I0306 20:16:02.167017 54015 net.cpp:150] Setting up relu5
I0306 20:16:02.167057 54015 net.cpp:157] Top shape: 20 256 13 13 (865280)
I0306 20:16:02.167086 54015 net.cpp:165] Memory required for data: 134499680
I0306 20:16:02.167114 54015 layer_factory.hpp:77] Creating layer pool5
I0306 20:16:02.167147 54015 net.cpp:106] Creating Layer pool5
I0306 20:16:02.167184 54015 net.cpp:454] pool5 <- conv5
I0306 20:16:02.167218 54015 net.cpp:411] pool5 -> pool5
I0306 20:16:02.167289 54015 net.cpp:150] Setting up pool5
I0306 20:16:02.167325 54015 net.cpp:157] Top shape: 20 256 6 6 (184320)
I0306 20:16:02.167353 54015 net.cpp:165] Memory required for data: 135236960
I0306 20:16:02.167381 54015 layer_factory.hpp:77] Creating layer fc6
I0306 20:16:02.167415 54015 net.cpp:106] Creating Layer fc6
I0306 20:16:02.167444 54015 net.cpp:454] fc6 <- pool5
I0306 20:16:02.167475 54015 net.cpp:411] fc6 -> fc6
I0306 20:16:03.555749 54015 net.cpp:150] Setting up fc6
I0306 20:16:03.555882 54015 net.cpp:157] Top shape: 20 4096 (81920)
I0306 20:16:03.555907 54015 net.cpp:165] Memory required for data: 135564640
I0306 20:16:03.555940 54015 layer_factory.hpp:77] Creating layer relu6
I0306 20:16:03.555986 54015 net.cpp:106] Creating Layer relu6
I0306 20:16:03.556011 54015 net.cpp:454] relu6 <- fc6
I0306 20:16:03.556042 54015 net.cpp:397] relu6 -> fc6 (in-place)
I0306 20:16:03.556080 54015 net.cpp:150] Setting up relu6
I0306 20:16:03.556105 54015 net.cpp:157] Top shape: 20 4096 (81920)
I0306 20:16:03.556126 54015 net.cpp:165] Memory required for data: 135892320
I0306 20:16:03.556146 54015 layer_factory.hpp:77] Creating layer drop6
I0306 20:16:03.556174 54015 net.cpp:106] Creating Layer drop6
I0306 20:16:03.556195 54015 net.cpp:454] drop6 <- fc6
I0306 20:16:03.556218 54015 net.cpp:397] drop6 -> fc6 (in-place)
I0306 20:16:03.556267 54015 net.cpp:150] Setting up drop6
I0306 20:16:03.556301 54015 net.cpp:157] Top shape: 20 4096 (81920)
I0306 20:16:03.556324 54015 net.cpp:165] Memory required for data: 136220000
I0306 20:16:03.556344 54015 layer_factory.hpp:77] Creating layer fc7
I0306 20:16:03.556375 54015 net.cpp:106] Creating Layer fc7
I0306 20:16:03.556399 54015 net.cpp:454] fc7 <- fc6
I0306 20:16:03.556423 54015 net.cpp:411] fc7 -> fc7
I0306 20:16:04.171759 54015 net.cpp:150] Setting up fc7
I0306 20:16:04.171885 54015 net.cpp:157] Top shape: 20 4096 (81920)
I0306 20:16:04.171911 54015 net.cpp:165] Memory required for data: 136547680
I0306 20:16:04.171941 54015 layer_factory.hpp:77] Creating layer relu7
I0306 20:16:04.171978 54015 net.cpp:106] Creating Layer relu7
I0306 20:16:04.172004 54015 net.cpp:454] relu7 <- fc7
I0306 20:16:04.172034 54015 net.cpp:397] relu7 -> fc7 (in-place)
I0306 20:16:04.172068 54015 net.cpp:150] Setting up relu7
I0306 20:16:04.172093 54015 net.cpp:157] Top shape: 20 4096 (81920)
I0306 20:16:04.172113 54015 net.cpp:165] Memory required for data: 136875360
I0306 20:16:04.172134 54015 layer_factory.hpp:77] Creating layer drop7
I0306 20:16:04.172161 54015 net.cpp:106] Creating Layer drop7
I0306 20:16:04.172183 54015 net.cpp:454] drop7 <- fc7
I0306 20:16:04.172205 54015 net.cpp:397] drop7 -> fc7 (in-place)
I0306 20:16:04.172257 54015 net.cpp:150] Setting up drop7
I0306 20:16:04.172291 54015 net.cpp:157] Top shape: 20 4096 (81920)
I0306 20:16:04.172313 54015 net.cpp:165] Memory required for data: 137203040
I0306 20:16:04.172334 54015 layer_factory.hpp:77] Creating layer fc8_subset
I0306 20:16:04.172366 54015 net.cpp:106] Creating Layer fc8_subset
I0306 20:16:04.172389 54015 net.cpp:454] fc8_subset <- fc7
I0306 20:16:04.172413 54015 net.cpp:411] fc8_subset -> fc8_subset
I0306 20:16:04.176142 54015 net.cpp:150] Setting up fc8_subset
I0306 20:16:04.176177 54015 net.cpp:157] Top shape: 20 25 (500)
I0306 20:16:04.176198 54015 net.cpp:165] Memory required for data: 137205040
I0306 20:16:04.176234 54015 layer_factory.hpp:77] Creating layer fc8_subset_fc8_subset_0_split
I0306 20:16:04.176264 54015 net.cpp:106] Creating Layer fc8_subset_fc8_subset_0_split
I0306 20:16:04.176353 54015 net.cpp:454] fc8_subset_fc8_subset_0_split <- fc8_subset
I0306 20:16:04.176381 54015 net.cpp:411] fc8_subset_fc8_subset_0_split -> fc8_subset_fc8_subset_0_split_0
I0306 20:16:04.176409 54015 net.cpp:411] fc8_subset_fc8_subset_0_split -> fc8_subset_fc8_subset_0_split_1
I0306 20:16:04.176467 54015 net.cpp:150] Setting up fc8_subset_fc8_subset_0_split
I0306 20:16:04.176509 54015 net.cpp:157] Top shape: 20 25 (500)
I0306 20:16:04.176532 54015 net.cpp:157] Top shape: 20 25 (500)
I0306 20:16:04.176553 54015 net.cpp:165] Memory required for data: 137209040
I0306 20:16:04.176573 54015 layer_factory.hpp:77] Creating layer loss
I0306 20:16:04.176596 54015 net.cpp:106] Creating Layer loss
I0306 20:16:04.176619 54015 net.cpp:454] loss <- fc8_subset_fc8_subset_0_split_0
I0306 20:16:04.176640 54015 net.cpp:454] loss <- label_data_1_split_0
I0306 20:16:04.176666 54015 net.cpp:411] loss -> loss
…
