…
I0307 02:15:39.439473 58129 net.cpp:322] The NetState phase (0) differed from the phase (1) specified by a rule in layer accuracy
I0307 02:15:39.439673 58129 net.cpp:49] Initializing net from parameters: 
name: "FlickrStyleCaffeNet"
state {
  phase: TRAIN
}
layer {
  name: "data"
  type: "Data"
  top: "data"
  top: "label"
  include {
    phase: TRAIN
  }
  transform_param {
    mirror: true
    crop_size: 227
    mean_file: "/work/01932/dineshj/CS381V/caffe_install_scripts/caffe/data/ilsvrc12/imagenet_mean.binaryproto"
  }
  data_param {
    source: "/work/04018/wxie/maverick/visual_recognition/data/train-lmdb"
    batch_size: 128
    backend: LMDB
  }
}
layer {
  name: "conv1"
  type: "Convolution"
  bottom: "data"
  top: "conv1"
  param {
    lr_mult: 1
    decay_mult: 1
  }
  param {
    lr_mult: 2
    decay_mult: 0
  }
  convolution_param {
    num_output: 96
    kernel_size: 11
    stride: 4
    weight_filler {
      type: "gaussian"
      std: 0.01
    }
    bias_filler {
      type: "constant"
      value: 0
    }
  }
}
layer {
  name: "relu1"
  type: "ReLU"
  bottom: "conv1"
  top: "conv1"
}
layer {
  name: "pool1"
  type: "Pooling"
  bottom: "conv1"
  top: "pool1"
  pooling_param {
    pool: MAX
    kernel_size: 3
    stride: 2
  }
}
layer {
  name: "norm1"
  type: "LRN"
  bottom: "pool1"
  top: "norm1"
  lrn_param {
    local_size: 5
    alpha: 0.0001
    beta: 0.75
  }
}
layer {
  name: "conv2"
  type: "Convolution"
  bottom: "norm1"
  top: "conv2"
  param {
    lr_mult: 1
    decay_mult: 1
  }
  param {
    lr_mult: 2
    decay_mult: 0
  }
  convolution_param {
    num_output: 256
    pad: 2
    kernel_size: 5
    group: 2
    weight_filler {
      type: "gaussian"
      std: 0.01
    }
    bias_filler {
      type: "constant"
      value: 0.1
    }
  }
}
layer {
  name: "relu2"
  type: "ReLU"
  bottom: "conv2"
  top: "conv2"
}
layer {
  name: "pool2"
  type: "Pooling"
  bottom: "conv2"
  top: "pool2"
  pooling_param {
    pool: MAX
    kernel_size: 3
    stride: 2
  }
}
layer {
  name: "norm2"
  type: "LRN"
  bottom: "pool2"
  top: "norm2"
  lrn_param {
    local_size: 5
    alpha: 0.0001
    beta: 0.75
  }
}
layer {
  name: "conv3"
  type: "Convolution"
  bottom: "norm2"
  top: "conv3"
  param {
    lr_mult: 1
    decay_mult: 1
  }
  param {
    lr_mult: 2
    decay_mult: 0
  }
  convolution_param {
    num_output: 384
    pad: 1
    kernel_size: 3
    weight_filler {
      type: "gaussian"
      std: 0.01
    }
    bias_filler {
      type: "constant"
      value: 0
    }
  }
}
layer {
  name: "relu3"
  type: "ReLU"
  bottom: "conv3"
  top: "conv3"
}
layer {
  name: "conv4"
  type: "Convolution"
  bottom: "conv3"
  top: "conv4"
  param {
    lr_mult: 1
    decay_mult: 1
  }
  param {
    lr_mult: 2
    decay_mult: 0
  }
  convolution_param {
    num_output: 384
    pad: 1
    kernel_size: 3
    group: 2
    weight_filler {
      type: "gaussian"
      std: 0.01
    }
    bias_filler {
      type: "constant"
      value: 0.1
    }
  }
}
layer {
  name: "relu4"
  type: "ReLU"
  bottom: "conv4"
  top: "conv4"
}
layer {
  name: "conv5"
  type: "Convolution"
  bottom: "conv4"
  top: "conv5"
  param {
    lr_mult: 1
    decay_mult: 1
  }
  param {
    lr_mult: 2
    decay_mult: 0
  }
  convolution_param {
    num_output: 256
    pad: 1
    kernel_size: 3
    group: 2
    weight_filler {
      type: "gaussian"
      std: 0.01
    }
    bias_filler {
      type: "constant"
      value: 0.1
    }
  }
}
layer {
  name: "relu5"
  type: "ReLU"
  bottom: "conv5"
  top: "conv5"
}
layer {
  name: "pool5"
  type: "Pooling"
  bottom: "conv5"
  top: "pool5"
  pooling_param {
    pool: MAX
    kernel_size: 3
    stride: 2
  }
}
layer {
  name: "fc6"
  type: "InnerProduct"
  bottom: "pool5"
  top: "fc6"
  param {
    lr_mult: 1
    decay_mult: 1
  }
  param {
    lr_mult: 2
    decay_mult: 0
  }
  inner_product_param {
    num_output: 4096
    weight_filler {
      type: "gaussian"
      std: 0.005
    }
    bias_filler {
      type: "constant"
      value: 0.1
    }
  }
}
layer {
  name: "relu6"
  type: "ReLU"
  bottom: "fc6"
  top: "fc6"
}
layer {
  name: "drop6"
  type: "Dropout"
  bottom: "fc6"
  top: "fc6"
  dropout_param {
    dropout_ratio: 0.5
  }
}
layer {
  name: "fc7"
  type: "InnerProduct"
  bottom: "fc6"
  top: "fc7"
  param {
    lr_mult: 1
    decay_mult: 1
  }
  param {
    lr_mult: 2
    decay_mult: 0
  }
  inner_product_param {
    num_output: 4096
    weight_filler {
      type: "gaussian"
      std: 0.005
    }
    bias_filler {
      type: "constant"
      value: 0.1
    }
  }
}
layer {
  name: "relu7"
  type: "ReLU"
  bottom: "fc7"
  top: "fc7"
}
layer {
  name: "drop7"
  type: "Dropout"
  bottom: "fc7"
  top: "fc7"
  dropout_param {
    dropout_ratio: 0.5
  }
}
layer {
  name: "fc8_subset"
  type: "InnerProduct"
  bottom: "fc7"
  top: "fc8_subset"
  param {
    lr_mult: 10
    decay_mult: 1
  }
  param {
    lr_mult: 20
    decay_mult: 0
  }
  inner_product_param {
    num_output: 25
    weight_filler {
      type: "gaussian"
      std: 0.01
    }
    bias_filler {
      type: "constant"
      value: 0
    }
  }
}
layer {
  name: "loss"
  type: "SoftmaxWithLoss"
  bottom: "fc8_subset"
  bottom: "label"
  top: "loss"
}
I0307 02:15:39.439951 58129 layer_factory.hpp:77] Creating layer data
I0307 02:15:39.440768 58129 net.cpp:106] Creating Layer data
I0307 02:15:39.440822 58129 net.cpp:411] data -> data
I0307 02:15:39.440948 58129 net.cpp:411] data -> label
I0307 02:15:39.441028 58129 data_transformer.cpp:25] Loading mean file from: /work/01932/dineshj/CS381V/caffe_install_scripts/caffe/data/ilsvrc12/imagenet_mean.binaryproto
I0307 02:15:39.508057 58133 db_lmdb.cpp:38] Opened lmdb /work/04018/wxie/maverick/visual_recognition/data/train-lmdb
I0307 02:15:39.550282 58129 data_layer.cpp:41] output data size: 128,3,227,227
I0307 02:15:39.701531 58129 net.cpp:150] Setting up data
I0307 02:15:39.701611 58129 net.cpp:157] Top shape: 128 3 227 227 (19787136)
I0307 02:15:39.701638 58129 net.cpp:157] Top shape: 128 (128)
I0307 02:15:39.701660 58129 net.cpp:165] Memory required for data: 79149056
I0307 02:15:39.701695 58129 layer_factory.hpp:77] Creating layer conv1
I0307 02:15:39.701758 58129 net.cpp:106] Creating Layer conv1
I0307 02:15:39.701791 58129 net.cpp:454] conv1 <- data
I0307 02:15:39.701827 58129 net.cpp:411] conv1 -> conv1
I0307 02:15:39.711380 58129 net.cpp:150] Setting up conv1
I0307 02:15:39.711436 58129 net.cpp:157] Top shape: 128 96 55 55 (37171200)
I0307 02:15:39.711465 58129 net.cpp:165] Memory required for data: 227833856
I0307 02:15:39.711526 58129 layer_factory.hpp:77] Creating layer relu1
I0307 02:15:39.711563 58129 net.cpp:106] Creating Layer relu1
I0307 02:15:39.711593 58129 net.cpp:454] relu1 <- conv1
I0307 02:15:39.711622 58129 net.cpp:397] relu1 -> conv1 (in-place)
I0307 02:15:39.711666 58129 net.cpp:150] Setting up relu1
I0307 02:15:39.711695 58129 net.cpp:157] Top shape: 128 96 55 55 (37171200)
I0307 02:15:39.711720 58129 net.cpp:165] Memory required for data: 376518656
I0307 02:15:39.711745 58129 layer_factory.hpp:77] Creating layer pool1
I0307 02:15:39.711773 58129 net.cpp:106] Creating Layer pool1
I0307 02:15:39.711802 58129 net.cpp:454] pool1 <- conv1
I0307 02:15:39.711827 58129 net.cpp:411] pool1 -> pool1
I0307 02:15:39.711961 58129 net.cpp:150] Setting up pool1
I0307 02:15:39.711997 58129 net.cpp:157] Top shape: 128 96 27 27 (8957952)
I0307 02:15:39.712080 58129 net.cpp:165] Memory required for data: 412350464
I0307 02:15:39.712110 58129 layer_factory.hpp:77] Creating layer norm1
I0307 02:15:39.712141 58129 net.cpp:106] Creating Layer norm1
I0307 02:15:39.712167 58129 net.cpp:454] norm1 <- pool1
I0307 02:15:39.712196 58129 net.cpp:411] norm1 -> norm1
I0307 02:15:39.712306 58129 net.cpp:150] Setting up norm1
I0307 02:15:39.712340 58129 net.cpp:157] Top shape: 128 96 27 27 (8957952)
I0307 02:15:39.712366 58129 net.cpp:165] Memory required for data: 448182272
I0307 02:15:39.712393 58129 layer_factory.hpp:77] Creating layer conv2
I0307 02:15:39.712429 58129 net.cpp:106] Creating Layer conv2
I0307 02:15:39.712456 58129 net.cpp:454] conv2 <- norm1
I0307 02:15:39.712486 58129 net.cpp:411] conv2 -> conv2
I0307 02:15:39.724467 58129 net.cpp:150] Setting up conv2
I0307 02:15:39.724509 58129 net.cpp:157] Top shape: 128 256 27 27 (23887872)
I0307 02:15:39.724536 58129 net.cpp:165] Memory required for data: 543733760
I0307 02:15:39.724568 58129 layer_factory.hpp:77] Creating layer relu2
I0307 02:15:39.724598 58129 net.cpp:106] Creating Layer relu2
I0307 02:15:39.724624 58129 net.cpp:454] relu2 <- conv2
I0307 02:15:39.724655 58129 net.cpp:397] relu2 -> conv2 (in-place)
I0307 02:15:39.724688 58129 net.cpp:150] Setting up relu2
I0307 02:15:39.724717 58129 net.cpp:157] Top shape: 128 256 27 27 (23887872)
I0307 02:15:39.724742 58129 net.cpp:165] Memory required for data: 639285248
I0307 02:15:39.724768 58129 layer_factory.hpp:77] Creating layer pool2
I0307 02:15:39.724797 58129 net.cpp:106] Creating Layer pool2
I0307 02:15:39.724822 58129 net.cpp:454] pool2 <- conv2
I0307 02:15:39.724848 58129 net.cpp:411] pool2 -> pool2
I0307 02:15:39.724901 58129 net.cpp:150] Setting up pool2
I0307 02:15:39.724937 58129 net.cpp:157] Top shape: 128 256 13 13 (5537792)
I0307 02:15:39.724966 58129 net.cpp:165] Memory required for data: 661436416
I0307 02:15:39.724992 58129 layer_factory.hpp:77] Creating layer norm2
I0307 02:15:39.725023 58129 net.cpp:106] Creating Layer norm2
I0307 02:15:39.725050 58129 net.cpp:454] norm2 <- pool2
I0307 02:15:39.725080 58129 net.cpp:411] norm2 -> norm2
I0307 02:15:39.725134 58129 net.cpp:150] Setting up norm2
I0307 02:15:39.725167 58129 net.cpp:157] Top shape: 128 256 13 13 (5537792)
I0307 02:15:39.725193 58129 net.cpp:165] Memory required for data: 683587584
I0307 02:15:39.725219 58129 layer_factory.hpp:77] Creating layer conv3
I0307 02:15:39.725258 58129 net.cpp:106] Creating Layer conv3
I0307 02:15:39.725288 58129 net.cpp:454] conv3 <- norm2
I0307 02:15:39.725317 58129 net.cpp:411] conv3 -> conv3
I0307 02:15:39.731674 58134 blocking_queue.cpp:50] Waiting for data
I0307 02:15:39.758852 58129 net.cpp:150] Setting up conv3
I0307 02:15:39.758896 58129 net.cpp:157] Top shape: 128 384 13 13 (8306688)
I0307 02:15:39.758919 58129 net.cpp:165] Memory required for data: 716814336
I0307 02:15:39.758945 58129 layer_factory.hpp:77] Creating layer relu3
I0307 02:15:39.758970 58129 net.cpp:106] Creating Layer relu3
I0307 02:15:39.758993 58129 net.cpp:454] relu3 <- conv3
I0307 02:15:39.759016 58129 net.cpp:397] relu3 -> conv3 (in-place)
I0307 02:15:39.759042 58129 net.cpp:150] Setting up relu3
I0307 02:15:39.759065 58129 net.cpp:157] Top shape: 128 384 13 13 (8306688)
I0307 02:15:39.759086 58129 net.cpp:165] Memory required for data: 750041088
I0307 02:15:39.759106 58129 layer_factory.hpp:77] Creating layer conv4
I0307 02:15:39.759136 58129 net.cpp:106] Creating Layer conv4
I0307 02:15:39.759160 58129 net.cpp:454] conv4 <- conv3
I0307 02:15:39.759186 58129 net.cpp:411] conv4 -> conv4
I0307 02:15:39.784181 58129 net.cpp:150] Setting up conv4
I0307 02:15:39.784222 58129 net.cpp:157] Top shape: 128 384 13 13 (8306688)
I0307 02:15:39.784248 58129 net.cpp:165] Memory required for data: 783267840
I0307 02:15:39.784273 58129 layer_factory.hpp:77] Creating layer relu4
I0307 02:15:39.784301 58129 net.cpp:106] Creating Layer relu4
I0307 02:15:39.784324 58129 net.cpp:454] relu4 <- conv4
I0307 02:15:39.784348 58129 net.cpp:397] relu4 -> conv4 (in-place)
I0307 02:15:39.784386 58129 net.cpp:150] Setting up relu4
I0307 02:15:39.784428 58129 net.cpp:157] Top shape: 128 384 13 13 (8306688)
I0307 02:15:39.784449 58129 net.cpp:165] Memory required for data: 816494592
I0307 02:15:39.784471 58129 layer_factory.hpp:77] Creating layer conv5
I0307 02:15:39.784499 58129 net.cpp:106] Creating Layer conv5
I0307 02:15:39.784524 58129 net.cpp:454] conv5 <- conv4
I0307 02:15:39.784548 58129 net.cpp:411] conv5 -> conv5
I0307 02:15:39.801030 58129 net.cpp:150] Setting up conv5
I0307 02:15:39.801070 58129 net.cpp:157] Top shape: 128 256 13 13 (5537792)
I0307 02:15:39.801095 58129 net.cpp:165] Memory required for data: 838645760
I0307 02:15:39.801127 58129 layer_factory.hpp:77] Creating layer relu5
I0307 02:15:39.801157 58129 net.cpp:106] Creating Layer relu5
I0307 02:15:39.801187 58129 net.cpp:454] relu5 <- conv5
I0307 02:15:39.801213 58129 net.cpp:397] relu5 -> conv5 (in-place)
I0307 02:15:39.801245 58129 net.cpp:150] Setting up relu5
I0307 02:15:39.801273 58129 net.cpp:157] Top shape: 128 256 13 13 (5537792)
I0307 02:15:39.801296 58129 net.cpp:165] Memory required for data: 860796928
I0307 02:15:39.801321 58129 layer_factory.hpp:77] Creating layer pool5
I0307 02:15:39.801347 58129 net.cpp:106] Creating Layer pool5
I0307 02:15:39.801369 58129 net.cpp:454] pool5 <- conv5
I0307 02:15:39.801410 58129 net.cpp:411] pool5 -> pool5
I0307 02:15:39.801466 58129 net.cpp:150] Setting up pool5
I0307 02:15:39.801496 58129 net.cpp:157] Top shape: 128 256 6 6 (1179648)
I0307 02:15:39.801518 58129 net.cpp:165] Memory required for data: 865515520
I0307 02:15:39.801558 58129 layer_factory.hpp:77] Creating layer fc6
I0307 02:15:39.801620 58129 net.cpp:106] Creating Layer fc6
I0307 02:15:39.801646 58129 net.cpp:454] fc6 <- pool5
I0307 02:15:39.801678 58129 net.cpp:411] fc6 -> fc6
I0307 02:15:41.214467 58129 net.cpp:150] Setting up fc6
I0307 02:15:41.214597 58129 net.cpp:157] Top shape: 128 4096 (524288)
I0307 02:15:41.214622 58129 net.cpp:165] Memory required for data: 867612672
I0307 02:15:41.214653 58129 layer_factory.hpp:77] Creating layer relu6
I0307 02:15:41.214684 58129 net.cpp:106] Creating Layer relu6
I0307 02:15:41.214709 58129 net.cpp:454] relu6 <- fc6
I0307 02:15:41.214748 58129 net.cpp:397] relu6 -> fc6 (in-place)
I0307 02:15:41.214782 58129 net.cpp:150] Setting up relu6
I0307 02:15:41.214807 58129 net.cpp:157] Top shape: 128 4096 (524288)
I0307 02:15:41.214828 58129 net.cpp:165] Memory required for data: 869709824
I0307 02:15:41.214848 58129 layer_factory.hpp:77] Creating layer drop6
I0307 02:15:41.214872 58129 net.cpp:106] Creating Layer drop6
I0307 02:15:41.214895 58129 net.cpp:454] drop6 <- fc6
I0307 02:15:41.214920 58129 net.cpp:397] drop6 -> fc6 (in-place)
I0307 02:15:41.215004 58129 net.cpp:150] Setting up drop6
I0307 02:15:41.215034 58129 net.cpp:157] Top shape: 128 4096 (524288)
I0307 02:15:41.215055 58129 net.cpp:165] Memory required for data: 871806976
I0307 02:15:41.215075 58129 layer_factory.hpp:77] Creating layer fc7
I0307 02:15:41.215106 58129 net.cpp:106] Creating Layer fc7
I0307 02:15:41.215128 58129 net.cpp:454] fc7 <- fc6
I0307 02:15:41.215152 58129 net.cpp:411] fc7 -> fc7
I0307 02:15:41.839462 58129 net.cpp:150] Setting up fc7
I0307 02:15:41.839581 58129 net.cpp:157] Top shape: 128 4096 (524288)
I0307 02:15:41.839606 58129 net.cpp:165] Memory required for data: 873904128
I0307 02:15:41.839637 58129 layer_factory.hpp:77] Creating layer relu7
I0307 02:15:41.839670 58129 net.cpp:106] Creating Layer relu7
I0307 02:15:41.839695 58129 net.cpp:454] relu7 <- fc7
I0307 02:15:41.839721 58129 net.cpp:397] relu7 -> fc7 (in-place)
I0307 02:15:41.839756 58129 net.cpp:150] Setting up relu7
I0307 02:15:41.839779 58129 net.cpp:157] Top shape: 128 4096 (524288)
I0307 02:15:41.839800 58129 net.cpp:165] Memory required for data: 876001280
I0307 02:15:41.839821 58129 layer_factory.hpp:77] Creating layer drop7
I0307 02:15:41.839846 58129 net.cpp:106] Creating Layer drop7
I0307 02:15:41.839867 58129 net.cpp:454] drop7 <- fc7
I0307 02:15:41.839891 58129 net.cpp:397] drop7 -> fc7 (in-place)
I0307 02:15:41.839956 58129 net.cpp:150] Setting up drop7
I0307 02:15:41.840019 58129 net.cpp:157] Top shape: 128 4096 (524288)
I0307 02:15:41.840040 58129 net.cpp:165] Memory required for data: 878098432
I0307 02:15:41.840061 58129 layer_factory.hpp:77] Creating layer fc8_subset
I0307 02:15:41.840091 58129 net.cpp:106] Creating Layer fc8_subset
I0307 02:15:41.840114 58129 net.cpp:454] fc8_subset <- fc7
I0307 02:15:41.840139 58129 net.cpp:411] fc8_subset -> fc8_subset
I0307 02:15:41.844415 58129 net.cpp:150] Setting up fc8_subset
I0307 02:15:41.844452 58129 net.cpp:157] Top shape: 128 25 (3200)
I0307 02:15:41.844475 58129 net.cpp:165] Memory required for data: 878111232
I0307 02:15:41.844499 58129 layer_factory.hpp:77] Creating layer loss
I0307 02:15:41.844524 58129 net.cpp:106] Creating Layer loss
I0307 02:15:41.844547 58129 net.cpp:454] loss <- fc8_subset
I0307 02:15:41.844568 58129 net.cpp:454] loss <- label
I0307 02:15:41.844596 58129 net.cpp:411] loss -> loss
I0307 02:15:41.844658 58129 layer_factory.hpp:77] Creating layer loss
…
I0307 02:15:41.847484 58129 net.cpp:322] The NetState phase (1) differed from the phase (0) specified by a rule in layer data
I0307 02:15:41.847700 58129 net.cpp:49] Initializing net from parameters: 
name: "FlickrStyleCaffeNet"
state {
  phase: TEST
}
layer {
  name: "data"
  type: "Data"
  top: "data"
  top: "label"
  include {
    phase: TEST
  }
  transform_param {
    mirror: false
    crop_size: 227
    mean_file: "/work/01932/dineshj/CS381V/caffe_install_scripts/caffe/data/ilsvrc12/imagenet_mean.binaryproto"
  }
  data_param {
    source: "/work/04018/wxie/maverick/visual_recognition/data/test-lmdb"
    batch_size: 20
    backend: LMDB
  }
}
layer {
  name: "conv1"
  type: "Convolution"
  bottom: "data"
  top: "conv1"
  param {
    lr_mult: 1
    decay_mult: 1
  }
  param {
    lr_mult: 2
    decay_mult: 0
  }
  convolution_param {
    num_output: 96
    kernel_size: 11
    stride: 4
    weight_filler {
      type: "gaussian"
      std: 0.01
    }
    bias_filler {
      type: "constant"
      value: 0
    }
  }
}
layer {
  name: "relu1"
  type: "ReLU"
  bottom: "conv1"
  top: "conv1"
}
layer {
  name: "pool1"
  type: "Pooling"
  bottom: "conv1"
  top: "pool1"
  pooling_param {
    pool: MAX
    kernel_size: 3
    stride: 2
  }
}
layer {
  name: "norm1"
  type: "LRN"
  bottom: "pool1"
  top: "norm1"
  lrn_param {
    local_size: 5
    alpha: 0.0001
    beta: 0.75
  }
}
layer {
  name: "conv2"
  type: "Convolution"
  bottom: "norm1"
  top: "conv2"
  param {
    lr_mult: 1
    decay_mult: 1
  }
  param {
    lr_mult: 2
    decay_mult: 0
  }
  convolution_param {
    num_output: 256
    pad: 2
    kernel_size: 5
    group: 2
    weight_filler {
      type: "gaussian"
      std: 0.01
    }
    bias_filler {
      type: "constant"
      value: 0.1
    }
  }
}
layer {
  name: "relu2"
  type: "ReLU"
  bottom: "conv2"
  top: "conv2"
}
layer {
  name: "pool2"
  type: "Pooling"
  bottom: "conv2"
  top: "pool2"
  pooling_param {
    pool: MAX
    kernel_size: 3
    stride: 2
  }
}
layer {
  name: "norm2"
  type: "LRN"
  bottom: "pool2"
  top: "norm2"
  lrn_param {
    local_size: 5
    alpha: 0.0001
    beta: 0.75
  }
}
layer {
  name: "conv3"
  type: "Convolution"
  bottom: "norm2"
  top: "conv3"
  param {
    lr_mult: 1
    decay_mult: 1
  }
  param {
    lr_mult: 2
    decay_mult: 0
  }
  convolution_param {
    num_output: 384
    pad: 1
    kernel_size: 3
    weight_filler {
      type: "gaussian"
      std: 0.01
    }
    bias_filler {
      type: "constant"
      value: 0
    }
  }
}
layer {
  name: "relu3"
  type: "ReLU"
  bottom: "conv3"
  top: "conv3"
}
layer {
  name: "conv4"
  type: "Convolution"
  bottom: "conv3"
  top: "conv4"
  param {
    lr_mult: 1
    decay_mult: 1
  }
  param {
    lr_mult: 2
    decay_mult: 0
  }
  convolution_param {
    num_output: 384
    pad: 1
    kernel_size: 3
    group: 2
    weight_filler {
      type: "gaussian"
      std: 0.01
    }
    bias_filler {
      type: "constant"
      value: 0.1
    }
  }
}
layer {
  name: "relu4"
  type: "ReLU"
  bottom: "conv4"
  top: "conv4"
}
layer {
  name: "conv5"
  type: "Convolution"
  bottom: "conv4"
  top: "conv5"
  param {
    lr_mult: 1
    decay_mult: 1
  }
  param {
    lr_mult: 2
    decay_mult: 0
  }
  convolution_param {
    num_output: 256
    pad: 1
    kernel_size: 3
    group: 2
    weight_filler {
      type: "gaussian"
      std: 0.01
    }
    bias_filler {
      type: "constant"
      value: 0.1
    }
  }
}
layer {
  name: "relu5"
  type: "ReLU"
  bottom: "conv5"
  top: "conv5"
}
layer {
  name: "pool5"
  type: "Pooling"
  bottom: "conv5"
  top: "pool5"
  pooling_param {
    pool: MAX
    kernel_size: 3
    stride: 2
  }
}
layer {
  name: "fc6"
  type: "InnerProduct"
  bottom: "pool5"
  top: "fc6"
  param {
    lr_mult: 1
    decay_mult: 1
  }
  param {
    lr_mult: 2
    decay_mult: 0
  }
  inner_product_param {
    num_output: 4096
    weight_filler {
      type: "gaussian"
      std: 0.005
    }
    bias_filler {
      type: "constant"
      value: 0.1
    }
  }
}
layer {
  name: "relu6"
  type: "ReLU"
  bottom: "fc6"
  top: "fc6"
}
layer {
  name: "drop6"
  type: "Dropout"
  bottom: "fc6"
  top: "fc6"
  dropout_param {
    dropout_ratio: 0.5
  }
}
layer {
  name: "fc7"
  type: "InnerProduct"
  bottom: "fc6"
  top: "fc7"
  param {
    lr_mult: 1
    decay_mult: 1
  }
  param {
    lr_mult: 2
    decay_mult: 0
  }
  inner_product_param {
    num_output: 4096
    weight_filler {
      type: "gaussian"
      std: 0.005
    }
    bias_filler {
      type: "constant"
      value: 0.1
    }
  }
}
layer {
  name: "relu7"
  type: "ReLU"
  bottom: "fc7"
  top: "fc7"
}
layer {
  name: "drop7"
  type: "Dropout"
  bottom: "fc7"
  top: "fc7"
  dropout_param {
    dropout_ratio: 0.5
  }
}
layer {
  name: "fc8_subset"
  type: "InnerProduct"
  bottom: "fc7"
  top: "fc8_subset"
  param {
    lr_mult: 10
    decay_mult: 1
  }
  param {
    lr_mult: 20
    decay_mult: 0
  }
  inner_product_param {
    num_output: 25
    weight_filler {
      type: "gaussian"
      std: 0.01
    }
    bias_filler {
      type: "constant"
      value: 0
    }
  }
}
layer {
  name: "loss"
  type: "SoftmaxWithLoss"
  bottom: "fc8_subset"
  bottom: "label"
  top: "loss"
}
layer {
  name: "accuracy"
  type: "Accuracy"
  bottom: "fc8_subset"
  bottom: "label"
  top: "accuracy"
  include {
    phase: TEST
  }
}
I0307 02:15:41.847878 58129 layer_factory.hpp:77] Creating layer data
I0307 02:15:41.848029 58129 net.cpp:106] Creating Layer data
I0307 02:15:41.848065 58129 net.cpp:411] data -> data
I0307 02:15:41.848110 58129 net.cpp:411] data -> label
I0307 02:15:41.848143 58129 data_transformer.cpp:25] Loading mean file from: /work/01932/dineshj/CS381V/caffe_install_scripts/caffe/data/ilsvrc12/imagenet_mean.binaryproto
I0307 02:15:41.940189 58135 db_lmdb.cpp:38] Opened lmdb /work/04018/wxie/maverick/visual_recognition/data/test-lmdb
I0307 02:15:41.948761 58129 data_layer.cpp:41] output data size: 20,3,227,227
I0307 02:15:41.970744 58129 net.cpp:150] Setting up data
I0307 02:15:41.970798 58129 net.cpp:157] Top shape: 20 3 227 227 (3091740)
I0307 02:15:41.970855 58129 net.cpp:157] Top shape: 20 (20)
I0307 02:15:41.970878 58129 net.cpp:165] Memory required for data: 12367040
I0307 02:15:41.970901 58129 layer_factory.hpp:77] Creating layer label_data_1_split
I0307 02:15:41.970927 58129 net.cpp:106] Creating Layer label_data_1_split
I0307 02:15:41.970950 58129 net.cpp:454] label_data_1_split <- label
I0307 02:15:41.970973 58129 net.cpp:411] label_data_1_split -> label_data_1_split_0
I0307 02:15:41.971000 58129 net.cpp:411] label_data_1_split -> label_data_1_split_1
I0307 02:15:41.971094 58129 net.cpp:150] Setting up label_data_1_split
I0307 02:15:41.971124 58129 net.cpp:157] Top shape: 20 (20)
I0307 02:15:41.971148 58129 net.cpp:157] Top shape: 20 (20)
I0307 02:15:41.971168 58129 net.cpp:165] Memory required for data: 12367200
I0307 02:15:41.971189 58129 layer_factory.hpp:77] Creating layer conv1
I0307 02:15:41.971215 58129 net.cpp:106] Creating Layer conv1
I0307 02:15:41.971245 58129 net.cpp:454] conv1 <- data
I0307 02:15:41.971269 58129 net.cpp:411] conv1 -> conv1
I0307 02:15:41.972950 58129 net.cpp:150] Setting up conv1
I0307 02:15:41.972993 58129 net.cpp:157] Top shape: 20 96 55 55 (5808000)
I0307 02:15:41.973016 58129 net.cpp:165] Memory required for data: 35599200
I0307 02:15:41.973043 58129 layer_factory.hpp:77] Creating layer relu1
I0307 02:15:41.973068 58129 net.cpp:106] Creating Layer relu1
I0307 02:15:41.973090 58129 net.cpp:454] relu1 <- conv1
I0307 02:15:41.973112 58129 net.cpp:397] relu1 -> conv1 (in-place)
I0307 02:15:41.973139 58129 net.cpp:150] Setting up relu1
I0307 02:15:41.973161 58129 net.cpp:157] Top shape: 20 96 55 55 (5808000)
I0307 02:15:41.973182 58129 net.cpp:165] Memory required for data: 58831200
I0307 02:15:41.973202 58129 layer_factory.hpp:77] Creating layer pool1
I0307 02:15:41.973232 58129 net.cpp:106] Creating Layer pool1
I0307 02:15:41.973254 58129 net.cpp:454] pool1 <- conv1
I0307 02:15:41.973278 58129 net.cpp:411] pool1 -> pool1
I0307 02:15:41.973330 58129 net.cpp:150] Setting up pool1
I0307 02:15:41.973359 58129 net.cpp:157] Top shape: 20 96 27 27 (1399680)
I0307 02:15:41.973379 58129 net.cpp:165] Memory required for data: 64429920
I0307 02:15:41.973399 58129 layer_factory.hpp:77] Creating layer norm1
I0307 02:15:41.973423 58129 net.cpp:106] Creating Layer norm1
I0307 02:15:41.973445 58129 net.cpp:454] norm1 <- pool1
I0307 02:15:41.973467 58129 net.cpp:411] norm1 -> norm1
I0307 02:15:41.973515 58129 net.cpp:150] Setting up norm1
I0307 02:15:41.973543 58129 net.cpp:157] Top shape: 20 96 27 27 (1399680)
I0307 02:15:41.973564 58129 net.cpp:165] Memory required for data: 70028640
I0307 02:15:41.973584 58129 layer_factory.hpp:77] Creating layer conv2
I0307 02:15:41.973610 58129 net.cpp:106] Creating Layer conv2
I0307 02:15:41.973649 58129 net.cpp:454] conv2 <- norm1
I0307 02:15:41.973696 58129 net.cpp:411] conv2 -> conv2
I0307 02:15:41.985019 58129 net.cpp:150] Setting up conv2
I0307 02:15:41.985057 58129 net.cpp:157] Top shape: 20 256 27 27 (3732480)
I0307 02:15:41.985080 58129 net.cpp:165] Memory required for data: 84958560
I0307 02:15:41.985105 58129 layer_factory.hpp:77] Creating layer relu2
I0307 02:15:41.985129 58129 net.cpp:106] Creating Layer relu2
I0307 02:15:41.985152 58129 net.cpp:454] relu2 <- conv2
I0307 02:15:41.985178 58129 net.cpp:397] relu2 -> conv2 (in-place)
I0307 02:15:41.985205 58129 net.cpp:150] Setting up relu2
I0307 02:15:41.985234 58129 net.cpp:157] Top shape: 20 256 27 27 (3732480)
I0307 02:15:41.985255 58129 net.cpp:165] Memory required for data: 99888480
I0307 02:15:41.985276 58129 layer_factory.hpp:77] Creating layer pool2
I0307 02:15:41.985299 58129 net.cpp:106] Creating Layer pool2
I0307 02:15:41.985321 58129 net.cpp:454] pool2 <- conv2
I0307 02:15:41.985347 58129 net.cpp:411] pool2 -> pool2
I0307 02:15:41.985402 58129 net.cpp:150] Setting up pool2
I0307 02:15:41.985432 58129 net.cpp:157] Top shape: 20 256 13 13 (865280)
I0307 02:15:41.985453 58129 net.cpp:165] Memory required for data: 103349600
I0307 02:15:41.985473 58129 layer_factory.hpp:77] Creating layer norm2
I0307 02:15:41.985498 58129 net.cpp:106] Creating Layer norm2
I0307 02:15:41.985522 58129 net.cpp:454] norm2 <- pool2
I0307 02:15:41.985544 58129 net.cpp:411] norm2 -> norm2
I0307 02:15:41.985596 58129 net.cpp:150] Setting up norm2
I0307 02:15:41.985625 58129 net.cpp:157] Top shape: 20 256 13 13 (865280)
I0307 02:15:41.985646 58129 net.cpp:165] Memory required for data: 106810720
I0307 02:15:41.985666 58129 layer_factory.hpp:77] Creating layer conv3
I0307 02:15:41.985693 58129 net.cpp:106] Creating Layer conv3
I0307 02:15:41.985716 58129 net.cpp:454] conv3 <- norm2
I0307 02:15:41.985743 58129 net.cpp:411] conv3 -> conv3
I0307 02:15:42.019191 58129 net.cpp:150] Setting up conv3
I0307 02:15:42.019237 58129 net.cpp:157] Top shape: 20 384 13 13 (1297920)
I0307 02:15:42.019265 58129 net.cpp:165] Memory required for data: 112002400
I0307 02:15:42.019299 58129 layer_factory.hpp:77] Creating layer relu3
I0307 02:15:42.019327 58129 net.cpp:106] Creating Layer relu3
I0307 02:15:42.019353 58129 net.cpp:454] relu3 <- conv3
I0307 02:15:42.019381 58129 net.cpp:397] relu3 -> conv3 (in-place)
I0307 02:15:42.019412 58129 net.cpp:150] Setting up relu3
I0307 02:15:42.019439 58129 net.cpp:157] Top shape: 20 384 13 13 (1297920)
I0307 02:15:42.019464 58129 net.cpp:165] Memory required for data: 117194080
I0307 02:15:42.019489 58129 layer_factory.hpp:77] Creating layer conv4
I0307 02:15:42.019541 58129 net.cpp:106] Creating Layer conv4
I0307 02:15:42.019565 58129 net.cpp:454] conv4 <- conv3
I0307 02:15:42.019593 58129 net.cpp:411] conv4 -> conv4
I0307 02:15:42.044703 58129 net.cpp:150] Setting up conv4
I0307 02:15:42.044741 58129 net.cpp:157] Top shape: 20 384 13 13 (1297920)
I0307 02:15:42.044764 58129 net.cpp:165] Memory required for data: 122385760
I0307 02:15:42.044787 58129 layer_factory.hpp:77] Creating layer relu4
I0307 02:15:42.044811 58129 net.cpp:106] Creating Layer relu4
I0307 02:15:42.044833 58129 net.cpp:454] relu4 <- conv4
I0307 02:15:42.044858 58129 net.cpp:397] relu4 -> conv4 (in-place)
I0307 02:15:42.044885 58129 net.cpp:150] Setting up relu4
I0307 02:15:42.044909 58129 net.cpp:157] Top shape: 20 384 13 13 (1297920)
I0307 02:15:42.044929 58129 net.cpp:165] Memory required for data: 127577440
I0307 02:15:42.044950 58129 layer_factory.hpp:77] Creating layer conv5
I0307 02:15:42.044975 58129 net.cpp:106] Creating Layer conv5
I0307 02:15:42.044997 58129 net.cpp:454] conv5 <- conv4
I0307 02:15:42.045024 58129 net.cpp:411] conv5 -> conv5
I0307 02:15:42.061977 58129 net.cpp:150] Setting up conv5
I0307 02:15:42.062019 58129 net.cpp:157] Top shape: 20 256 13 13 (865280)
I0307 02:15:42.062046 58129 net.cpp:165] Memory required for data: 131038560
I0307 02:15:42.062078 58129 layer_factory.hpp:77] Creating layer relu5
I0307 02:15:42.062106 58129 net.cpp:106] Creating Layer relu5
I0307 02:15:42.062144 58129 net.cpp:454] relu5 <- conv5
I0307 02:15:42.062192 58129 net.cpp:397] relu5 -> conv5 (in-place)
I0307 02:15:42.062228 58129 net.cpp:150] Setting up relu5
I0307 02:15:42.062257 58129 net.cpp:157] Top shape: 20 256 13 13 (865280)
I0307 02:15:42.062279 58129 net.cpp:165] Memory required for data: 134499680
I0307 02:15:42.062304 58129 layer_factory.hpp:77] Creating layer pool5
I0307 02:15:42.062330 58129 net.cpp:106] Creating Layer pool5
I0307 02:15:42.062355 58129 net.cpp:454] pool5 <- conv5
I0307 02:15:42.062381 58129 net.cpp:411] pool5 -> pool5
I0307 02:15:42.062440 58129 net.cpp:150] Setting up pool5
I0307 02:15:42.062470 58129 net.cpp:157] Top shape: 20 256 6 6 (184320)
I0307 02:15:42.062500 58129 net.cpp:165] Memory required for data: 135236960
I0307 02:15:42.062520 58129 layer_factory.hpp:77] Creating layer fc6
I0307 02:15:42.062564 58129 net.cpp:106] Creating Layer fc6
I0307 02:15:42.062588 58129 net.cpp:454] fc6 <- pool5
I0307 02:15:42.062624 58129 net.cpp:411] fc6 -> fc6
I0307 02:15:43.444612 58129 net.cpp:150] Setting up fc6
I0307 02:15:43.444741 58129 net.cpp:157] Top shape: 20 4096 (81920)
I0307 02:15:43.444763 58129 net.cpp:165] Memory required for data: 135564640
I0307 02:15:43.444794 58129 layer_factory.hpp:77] Creating layer relu6
I0307 02:15:43.444828 58129 net.cpp:106] Creating Layer relu6
I0307 02:15:43.444854 58129 net.cpp:454] relu6 <- fc6
I0307 02:15:43.444880 58129 net.cpp:397] relu6 -> fc6 (in-place)
I0307 02:15:43.444913 58129 net.cpp:150] Setting up relu6
I0307 02:15:43.444937 58129 net.cpp:157] Top shape: 20 4096 (81920)
I0307 02:15:43.444958 58129 net.cpp:165] Memory required for data: 135892320
I0307 02:15:43.444978 58129 layer_factory.hpp:77] Creating layer drop6
I0307 02:15:43.445004 58129 net.cpp:106] Creating Layer drop6
I0307 02:15:43.445025 58129 net.cpp:454] drop6 <- fc6
I0307 02:15:43.445050 58129 net.cpp:397] drop6 -> fc6 (in-place)
I0307 02:15:43.445099 58129 net.cpp:150] Setting up drop6
I0307 02:15:43.445128 58129 net.cpp:157] Top shape: 20 4096 (81920)
I0307 02:15:43.445149 58129 net.cpp:165] Memory required for data: 136220000
I0307 02:15:43.445169 58129 layer_factory.hpp:77] Creating layer fc7
I0307 02:15:43.445196 58129 net.cpp:106] Creating Layer fc7
I0307 02:15:43.445222 58129 net.cpp:454] fc7 <- fc6
I0307 02:15:43.445248 58129 net.cpp:411] fc7 -> fc7
I0307 02:15:44.057104 58129 net.cpp:150] Setting up fc7
I0307 02:15:44.057232 58129 net.cpp:157] Top shape: 20 4096 (81920)
I0307 02:15:44.057257 58129 net.cpp:165] Memory required for data: 136547680
I0307 02:15:44.057287 58129 layer_factory.hpp:77] Creating layer relu7
I0307 02:15:44.057322 58129 net.cpp:106] Creating Layer relu7
I0307 02:15:44.057346 58129 net.cpp:454] relu7 <- fc7
I0307 02:15:44.057374 58129 net.cpp:397] relu7 -> fc7 (in-place)
I0307 02:15:44.057407 58129 net.cpp:150] Setting up relu7
I0307 02:15:44.057431 58129 net.cpp:157] Top shape: 20 4096 (81920)
I0307 02:15:44.057451 58129 net.cpp:165] Memory required for data: 136875360
I0307 02:15:44.057472 58129 layer_factory.hpp:77] Creating layer drop7
I0307 02:15:44.057500 58129 net.cpp:106] Creating Layer drop7
I0307 02:15:44.057523 58129 net.cpp:454] drop7 <- fc7
I0307 02:15:44.057546 58129 net.cpp:397] drop7 -> fc7 (in-place)
I0307 02:15:44.057595 58129 net.cpp:150] Setting up drop7
I0307 02:15:44.057623 58129 net.cpp:157] Top shape: 20 4096 (81920)
I0307 02:15:44.057644 58129 net.cpp:165] Memory required for data: 137203040
I0307 02:15:44.057665 58129 layer_factory.hpp:77] Creating layer fc8_subset
I0307 02:15:44.057694 58129 net.cpp:106] Creating Layer fc8_subset
I0307 02:15:44.057718 58129 net.cpp:454] fc8_subset <- fc7
I0307 02:15:44.057744 58129 net.cpp:411] fc8_subset -> fc8_subset
I0307 02:15:44.061486 58129 net.cpp:150] Setting up fc8_subset
I0307 02:15:44.061533 58129 net.cpp:157] Top shape: 20 25 (500)
I0307 02:15:44.061555 58129 net.cpp:165] Memory required for data: 137205040
I0307 02:15:44.061579 58129 layer_factory.hpp:77] Creating layer fc8_subset_fc8_subset_0_split
I0307 02:15:44.061604 58129 net.cpp:106] Creating Layer fc8_subset_fc8_subset_0_split
I0307 02:15:44.061689 58129 net.cpp:454] fc8_subset_fc8_subset_0_split <- fc8_subset
I0307 02:15:44.061715 58129 net.cpp:411] fc8_subset_fc8_subset_0_split -> fc8_subset_fc8_subset_0_split_0
I0307 02:15:44.061741 58129 net.cpp:411] fc8_subset_fc8_subset_0_split -> fc8_subset_fc8_subset_0_split_1
I0307 02:15:44.061797 58129 net.cpp:150] Setting up fc8_subset_fc8_subset_0_split
I0307 02:15:44.061826 58129 net.cpp:157] Top shape: 20 25 (500)
I0307 02:15:44.061849 58129 net.cpp:157] Top shape: 20 25 (500)
I0307 02:15:44.061869 58129 net.cpp:165] Memory required for data: 137209040
I0307 02:15:44.061889 58129 layer_factory.hpp:77] Creating layer loss
I0307 02:15:44.061913 58129 net.cpp:106] Creating Layer loss
I0307 02:15:44.061934 58129 net.cpp:454] loss <- fc8_subset_fc8_subset_0_split_0
I0307 02:15:44.061959 58129 net.cpp:454] loss <- label_data_1_split_0
I0307 02:15:44.061982 58129 net.cpp:411] loss -> loss
…
