…
I0306 04:43:00.137068 35984 net.cpp:322] The NetState phase (0) differed from the phase (1) specified by a rule in layer accuracy
I0306 04:43:00.137274 35984 net.cpp:49] Initializing net from parameters: 
name: "FlickrStyleCaffeNet"
state {
  phase: TRAIN
}
layer {
  name: "data"
  type: "Data"
  top: "data"
  top: "label"
  include {
    phase: TRAIN
  }
  transform_param {
    mirror: true
    crop_size: 227
    mean_file: "/work/01932/dineshj/CS381V/caffe_install_scripts/caffe/data/ilsvrc12/imagenet_mean.binaryproto"
  }
  data_param {
    source: "/work/04018/wxie/maverick/visual_recognition/data/train-lmdb"
    batch_size: 128
    backend: LMDB
  }
}
layer {
  name: "conv1"
  type: "Convolution"
  bottom: "data"
  top: "conv1"
  param {
    lr_mult: 1
    decay_mult: 1
  }
  param {
    lr_mult: 2
    decay_mult: 0
  }
  convolution_param {
    num_output: 96
    kernel_size: 11
    stride: 4
    weight_filler {
      type: "gaussian"
      std: 0.01
    }
    bias_filler {
      type: "constant"
      value: 0
    }
  }
}
layer {
  name: "relu1"
  type: "ReLU"
  bottom: "conv1"
  top: "conv1"
}
layer {
  name: "pool1"
  type: "Pooling"
  bottom: "conv1"
  top: "pool1"
  pooling_param {
    pool: MAX
    kernel_size: 3
    stride: 2
  }
}
layer {
  name: "norm1"
  type: "LRN"
  bottom: "pool1"
  top: "norm1"
  lrn_param {
    local_size: 5
    alpha: 0.0001
    beta: 0.75
  }
}
layer {
  name: "conv2"
  type: "Convolution"
  bottom: "norm1"
  top: "conv2"
  param {
    lr_mult: 1
    decay_mult: 1
  }
  param {
    lr_mult: 2
    decay_mult: 0
  }
  convolution_param {
    num_output: 256
    pad: 2
    kernel_size: 5
    group: 2
    weight_filler {
      type: "gaussian"
      std: 0.01
    }
    bias_filler {
      type: "constant"
      value: 1
    }
  }
}
layer {
  name: "relu2"
  type: "ReLU"
  bottom: "conv2"
  top: "conv2"
}
layer {
  name: "pool2"
  type: "Pooling"
  bottom: "conv2"
  top: "pool2"
  pooling_param {
    pool: MAX
    kernel_size: 3
    stride: 2
  }
}
layer {
  name: "norm2"
  type: "LRN"
  bottom: "pool2"
  top: "norm2"
  lrn_param {
    local_size: 5
    alpha: 0.0001
    beta: 0.75
  }
}
layer {
  name: "conv3"
  type: "Convolution"
  bottom: "norm2"
  top: "conv3"
  param {
    lr_mult: 1
    decay_mult: 1
  }
  param {
    lr_mult: 2
    decay_mult: 0
  }
  convolution_param {
    num_output: 384
    pad: 1
    kernel_size: 3
    weight_filler {
      type: "gaussian"
      std: 0.01
    }
    bias_filler {
      type: "constant"
      value: 0
    }
  }
}
layer {
  name: "relu3"
  type: "ReLU"
  bottom: "conv3"
  top: "conv3"
}
layer {
  name: "conv4"
  type: "Convolution"
  bottom: "conv3"
  top: "conv4"
  param {
    lr_mult: 1
    decay_mult: 1
  }
  param {
    lr_mult: 2
    decay_mult: 0
  }
  convolution_param {
    num_output: 384
    pad: 1
    kernel_size: 3
    group: 2
    weight_filler {
      type: "gaussian"
      std: 0.01
    }
    bias_filler {
      type: "constant"
      value: 1
    }
  }
}
layer {
  name: "relu4"
  type: "ReLU"
  bottom: "conv4"
  top: "conv4"
}
layer {
  name: "conv5"
  type: "Convolution"
  bottom: "conv4"
  top: "conv5"
  param {
    lr_mult: 1
    decay_mult: 1
  }
  param {
    lr_mult: 2
    decay_mult: 0
  }
  convolution_param {
    num_output: 256
    pad: 1
    kernel_size: 3
    group: 2
    weight_filler {
      type: "gaussian"
      std: 0.01
    }
    bias_filler {
      type: "constant"
      value: 1
    }
  }
}
layer {
  name: "relu5"
  type: "ReLU"
  bottom: "conv5"
  top: "conv5"
}
layer {
  name: "pool5"
  type: "Pooling"
  bottom: "conv5"
  top: "pool5"
  pooling_param {
    pool: MAX
    kernel_size: 3
    stride: 2
  }
}
layer {
  name: "fc6"
  type: "InnerProduct"
  bottom: "pool5"
  top: "fc6"
  param {
    lr_mult: 1
    decay_mult: 1
  }
  param {
    lr_mult: 2
    decay_mult: 0
  }
  inner_product_param {
    num_output: 4096
    weight_filler {
      type: "gaussian"
      std: 0.005
    }
    bias_filler {
      type: "constant"
      value: 1
    }
  }
}
layer {
  name: "relu6"
  type: "ReLU"
  bottom: "fc6"
  top: "fc6"
}
layer {
  name: "drop6"
  type: "Dropout"
  bottom: "fc6"
  top: "fc6"
  dropout_param {
    dropout_ratio: 0.5
  }
}
layer {
  name: "fc7"
  type: "InnerProduct"
  bottom: "fc6"
  top: "fc7"
  param {
    lr_mult: 1
    decay_mult: 1
  }
  param {
    lr_mult: 2
    decay_mult: 0
  }
  inner_product_param {
    num_output: 4096
    weight_filler {
      type: "gaussian"
      std: 0.005
    }
    bias_filler {
      type: "constant"
      value: 1
    }
  }
}
layer {
  name: "relu7"
  type: "ReLU"
  bottom: "fc7"
  top: "fc7"
}
layer {
  name: "drop7"
  type: "Dropout"
  bottom: "fc7"
  top: "fc7"
  dropout_param {
    dropout_ratio: 0.5
  }
}
layer {
  name: "fc8_subset"
  type: "InnerProduct"
  bottom: "fc7"
  top: "fc8_subset"
  param {
    lr_mult: 10
    decay_mult: 1
  }
  param {
    lr_mult: 20
    decay_mult: 0
  }
  inner_product_param {
    num_output: 25
    weight_filler {
      type: "gaussian"
      std: 0.01
    }
    bias_filler {
      type: "constant"
      value: 0
    }
  }
}
layer {
  name: "loss"
  type: "SoftmaxWithLoss"
  bottom: "fc8_subset"
  bottom: "label"
  top: "loss"
}
I0306 04:43:00.137545 35984 layer_factory.hpp:77] Creating layer data
I0306 04:43:00.138314 35984 net.cpp:106] Creating Layer data
I0306 04:43:00.138367 35984 net.cpp:411] data -> data
I0306 04:43:00.138478 35984 net.cpp:411] data -> label
I0306 04:43:00.138556 35984 data_transformer.cpp:25] Loading mean file from: /work/01932/dineshj/CS381V/caffe_install_scripts/caffe/data/ilsvrc12/imagenet_mean.binaryproto
I0306 04:43:00.155161 35986 db_lmdb.cpp:38] Opened lmdb /work/04018/wxie/maverick/visual_recognition/data/train-lmdb
I0306 04:43:00.218816 35984 data_layer.cpp:41] output data size: 128,3,227,227
I0306 04:43:00.380445 35984 net.cpp:150] Setting up data
I0306 04:43:00.380547 35984 net.cpp:157] Top shape: 128 3 227 227 (19787136)
I0306 04:43:00.380578 35984 net.cpp:157] Top shape: 128 (128)
I0306 04:43:00.380601 35984 net.cpp:165] Memory required for data: 79149056
I0306 04:43:00.380638 35984 layer_factory.hpp:77] Creating layer conv1
I0306 04:43:00.380707 35984 net.cpp:106] Creating Layer conv1
I0306 04:43:00.380736 35984 net.cpp:454] conv1 <- data
I0306 04:43:00.380776 35984 net.cpp:411] conv1 -> conv1
I0306 04:43:00.390874 35984 net.cpp:150] Setting up conv1
I0306 04:43:00.390918 35984 net.cpp:157] Top shape: 128 96 55 55 (37171200)
I0306 04:43:00.390941 35984 net.cpp:165] Memory required for data: 227833856
I0306 04:43:00.390992 35984 layer_factory.hpp:77] Creating layer relu1
I0306 04:43:00.391023 35984 net.cpp:106] Creating Layer relu1
I0306 04:43:00.391047 35984 net.cpp:454] relu1 <- conv1
I0306 04:43:00.391072 35984 net.cpp:397] relu1 -> conv1 (in-place)
I0306 04:43:00.391100 35984 net.cpp:150] Setting up relu1
I0306 04:43:00.391125 35984 net.cpp:157] Top shape: 128 96 55 55 (37171200)
I0306 04:43:00.391145 35984 net.cpp:165] Memory required for data: 376518656
I0306 04:43:00.391166 35984 layer_factory.hpp:77] Creating layer pool1
I0306 04:43:00.391191 35984 net.cpp:106] Creating Layer pool1
I0306 04:43:00.391219 35984 net.cpp:454] pool1 <- conv1
I0306 04:43:00.391244 35984 net.cpp:411] pool1 -> pool1
I0306 04:43:00.391376 35984 net.cpp:150] Setting up pool1
I0306 04:43:00.391404 35984 net.cpp:157] Top shape: 128 96 27 27 (8957952)
I0306 04:43:00.391449 35984 net.cpp:165] Memory required for data: 412350464
I0306 04:43:00.391508 35984 layer_factory.hpp:77] Creating layer norm1
I0306 04:43:00.391538 35984 net.cpp:106] Creating Layer norm1
I0306 04:43:00.391562 35984 net.cpp:454] norm1 <- pool1
I0306 04:43:00.391587 35984 net.cpp:411] norm1 -> norm1
I0306 04:43:00.391691 35984 net.cpp:150] Setting up norm1
I0306 04:43:00.391722 35984 net.cpp:157] Top shape: 128 96 27 27 (8957952)
I0306 04:43:00.391746 35984 net.cpp:165] Memory required for data: 448182272
I0306 04:43:00.391768 35984 layer_factory.hpp:77] Creating layer conv2
I0306 04:43:00.391798 35984 net.cpp:106] Creating Layer conv2
I0306 04:43:00.391824 35984 net.cpp:454] conv2 <- norm1
I0306 04:43:00.391851 35984 net.cpp:411] conv2 -> conv2
I0306 04:43:00.404208 35984 net.cpp:150] Setting up conv2
I0306 04:43:00.404249 35984 net.cpp:157] Top shape: 128 256 27 27 (23887872)
I0306 04:43:00.404273 35984 net.cpp:165] Memory required for data: 543733760
I0306 04:43:00.404302 35984 layer_factory.hpp:77] Creating layer relu2
I0306 04:43:00.404328 35984 net.cpp:106] Creating Layer relu2
I0306 04:43:00.404351 35984 net.cpp:454] relu2 <- conv2
I0306 04:43:00.404378 35984 net.cpp:397] relu2 -> conv2 (in-place)
I0306 04:43:00.404407 35984 net.cpp:150] Setting up relu2
I0306 04:43:00.404433 35984 net.cpp:157] Top shape: 128 256 27 27 (23887872)
I0306 04:43:00.404454 35984 net.cpp:165] Memory required for data: 639285248
I0306 04:43:00.404477 35984 layer_factory.hpp:77] Creating layer pool2
I0306 04:43:00.404501 35984 net.cpp:106] Creating Layer pool2
I0306 04:43:00.404525 35984 net.cpp:454] pool2 <- conv2
I0306 04:43:00.404548 35984 net.cpp:411] pool2 -> pool2
I0306 04:43:00.404604 35984 net.cpp:150] Setting up pool2
I0306 04:43:00.404635 35984 net.cpp:157] Top shape: 128 256 13 13 (5537792)
I0306 04:43:00.404659 35984 net.cpp:165] Memory required for data: 661436416
I0306 04:43:00.404680 35984 layer_factory.hpp:77] Creating layer norm2
I0306 04:43:00.404708 35984 net.cpp:106] Creating Layer norm2
I0306 04:43:00.404732 35984 net.cpp:454] norm2 <- pool2
I0306 04:43:00.404757 35984 net.cpp:411] norm2 -> norm2
I0306 04:43:00.404811 35984 net.cpp:150] Setting up norm2
I0306 04:43:00.404841 35984 net.cpp:157] Top shape: 128 256 13 13 (5537792)
I0306 04:43:00.404876 35984 net.cpp:165] Memory required for data: 683587584
I0306 04:43:00.404902 35984 layer_factory.hpp:77] Creating layer conv3
I0306 04:43:00.404935 35984 net.cpp:106] Creating Layer conv3
I0306 04:43:00.404960 35984 net.cpp:454] conv3 <- norm2
I0306 04:43:00.404986 35984 net.cpp:411] conv3 -> conv3
I0306 04:43:00.439018 35984 net.cpp:150] Setting up conv3
I0306 04:43:00.439064 35984 net.cpp:157] Top shape: 128 384 13 13 (8306688)
I0306 04:43:00.439085 35984 net.cpp:165] Memory required for data: 716814336
I0306 04:43:00.439112 35984 layer_factory.hpp:77] Creating layer relu3
I0306 04:43:00.439138 35984 net.cpp:106] Creating Layer relu3
I0306 04:43:00.439163 35984 net.cpp:454] relu3 <- conv3
I0306 04:43:00.439189 35984 net.cpp:397] relu3 -> conv3 (in-place)
I0306 04:43:00.439221 35984 net.cpp:150] Setting up relu3
I0306 04:43:00.439246 35984 net.cpp:157] Top shape: 128 384 13 13 (8306688)
I0306 04:43:00.439266 35984 net.cpp:165] Memory required for data: 750041088
I0306 04:43:00.439287 35984 layer_factory.hpp:77] Creating layer conv4
I0306 04:43:00.439317 35984 net.cpp:106] Creating Layer conv4
I0306 04:43:00.439342 35984 net.cpp:454] conv4 <- conv3
I0306 04:43:00.439365 35984 net.cpp:411] conv4 -> conv4
I0306 04:43:00.473011 35984 net.cpp:150] Setting up conv4
I0306 04:43:00.473059 35984 net.cpp:157] Top shape: 128 384 13 13 (8306688)
I0306 04:43:00.473084 35984 net.cpp:165] Memory required for data: 783267840
I0306 04:43:00.473110 35984 layer_factory.hpp:77] Creating layer relu4
I0306 04:43:00.473139 35984 net.cpp:106] Creating Layer relu4
I0306 04:43:00.473163 35984 net.cpp:454] relu4 <- conv4
I0306 04:43:00.473187 35984 net.cpp:397] relu4 -> conv4 (in-place)
I0306 04:43:00.473215 35984 net.cpp:150] Setting up relu4
I0306 04:43:00.473261 35984 net.cpp:157] Top shape: 128 384 13 13 (8306688)
I0306 04:43:00.473325 35984 net.cpp:165] Memory required for data: 816494592
I0306 04:43:00.473348 35984 layer_factory.hpp:77] Creating layer conv5
I0306 04:43:00.473381 35984 net.cpp:106] Creating Layer conv5
I0306 04:43:00.473405 35984 net.cpp:454] conv5 <- conv4
I0306 04:43:00.473433 35984 net.cpp:411] conv5 -> conv5
I0306 04:43:00.491044 35984 net.cpp:150] Setting up conv5
I0306 04:43:00.491099 35984 net.cpp:157] Top shape: 128 256 13 13 (5537792)
I0306 04:43:00.491137 35984 net.cpp:165] Memory required for data: 838645760
I0306 04:43:00.491168 35984 layer_factory.hpp:77] Creating layer relu5
I0306 04:43:00.491199 35984 net.cpp:106] Creating Layer relu5
I0306 04:43:00.491225 35984 net.cpp:454] relu5 <- conv5
I0306 04:43:00.491251 35984 net.cpp:397] relu5 -> conv5 (in-place)
I0306 04:43:00.491291 35984 net.cpp:150] Setting up relu5
I0306 04:43:00.491317 35984 net.cpp:157] Top shape: 128 256 13 13 (5537792)
I0306 04:43:00.491339 35984 net.cpp:165] Memory required for data: 860796928
I0306 04:43:00.491374 35984 layer_factory.hpp:77] Creating layer pool5
I0306 04:43:00.491400 35984 net.cpp:106] Creating Layer pool5
I0306 04:43:00.491435 35984 net.cpp:454] pool5 <- conv5
I0306 04:43:00.491458 35984 net.cpp:411] pool5 -> pool5
I0306 04:43:00.491518 35984 net.cpp:150] Setting up pool5
I0306 04:43:00.491549 35984 net.cpp:157] Top shape: 128 256 6 6 (1179648)
I0306 04:43:00.491575 35984 net.cpp:165] Memory required for data: 865515520
I0306 04:43:00.491610 35984 layer_factory.hpp:77] Creating layer fc6
I0306 04:43:00.491683 35984 net.cpp:106] Creating Layer fc6
I0306 04:43:00.491711 35984 net.cpp:454] fc6 <- pool5
I0306 04:43:00.491740 35984 net.cpp:411] fc6 -> fc6
I0306 04:43:00.561388 35987 blocking_queue.cpp:50] Waiting for data
I0306 04:43:01.915508 35984 net.cpp:150] Setting up fc6
I0306 04:43:01.915665 35984 net.cpp:157] Top shape: 128 4096 (524288)
I0306 04:43:01.915689 35984 net.cpp:165] Memory required for data: 867612672
I0306 04:43:01.915722 35984 layer_factory.hpp:77] Creating layer relu6
I0306 04:43:01.915760 35984 net.cpp:106] Creating Layer relu6
I0306 04:43:01.915786 35984 net.cpp:454] relu6 <- fc6
I0306 04:43:01.915814 35984 net.cpp:397] relu6 -> fc6 (in-place)
I0306 04:43:01.915851 35984 net.cpp:150] Setting up relu6
I0306 04:43:01.915875 35984 net.cpp:157] Top shape: 128 4096 (524288)
I0306 04:43:01.915895 35984 net.cpp:165] Memory required for data: 869709824
I0306 04:43:01.915921 35984 layer_factory.hpp:77] Creating layer drop6
I0306 04:43:01.915952 35984 net.cpp:106] Creating Layer drop6
I0306 04:43:01.915976 35984 net.cpp:454] drop6 <- fc6
I0306 04:43:01.915998 35984 net.cpp:397] drop6 -> fc6 (in-place)
I0306 04:43:01.916092 35984 net.cpp:150] Setting up drop6
I0306 04:43:01.916121 35984 net.cpp:157] Top shape: 128 4096 (524288)
I0306 04:43:01.916142 35984 net.cpp:165] Memory required for data: 871806976
I0306 04:43:01.916163 35984 layer_factory.hpp:77] Creating layer fc7
I0306 04:43:01.916194 35984 net.cpp:106] Creating Layer fc7
I0306 04:43:01.916218 35984 net.cpp:454] fc7 <- fc6
I0306 04:43:01.916244 35984 net.cpp:411] fc7 -> fc7
I0306 04:43:02.528208 35984 net.cpp:150] Setting up fc7
I0306 04:43:02.528372 35984 net.cpp:157] Top shape: 128 4096 (524288)
I0306 04:43:02.528395 35984 net.cpp:165] Memory required for data: 873904128
I0306 04:43:02.528429 35984 layer_factory.hpp:77] Creating layer relu7
I0306 04:43:02.528463 35984 net.cpp:106] Creating Layer relu7
I0306 04:43:02.528487 35984 net.cpp:454] relu7 <- fc7
I0306 04:43:02.528515 35984 net.cpp:397] relu7 -> fc7 (in-place)
I0306 04:43:02.528553 35984 net.cpp:150] Setting up relu7
I0306 04:43:02.528576 35984 net.cpp:157] Top shape: 128 4096 (524288)
I0306 04:43:02.528596 35984 net.cpp:165] Memory required for data: 876001280
I0306 04:43:02.528617 35984 layer_factory.hpp:77] Creating layer drop7
I0306 04:43:02.528645 35984 net.cpp:106] Creating Layer drop7
I0306 04:43:02.528666 35984 net.cpp:454] drop7 <- fc7
I0306 04:43:02.528692 35984 net.cpp:397] drop7 -> fc7 (in-place)
I0306 04:43:02.528770 35984 net.cpp:150] Setting up drop7
I0306 04:43:02.528847 35984 net.cpp:157] Top shape: 128 4096 (524288)
I0306 04:43:02.528869 35984 net.cpp:165] Memory required for data: 878098432
I0306 04:43:02.528890 35984 layer_factory.hpp:77] Creating layer fc8_subset
I0306 04:43:02.528928 35984 net.cpp:106] Creating Layer fc8_subset
I0306 04:43:02.528951 35984 net.cpp:454] fc8_subset <- fc7
I0306 04:43:02.528975 35984 net.cpp:411] fc8_subset -> fc8_subset
I0306 04:43:02.533293 35984 net.cpp:150] Setting up fc8_subset
I0306 04:43:02.533329 35984 net.cpp:157] Top shape: 128 25 (3200)
I0306 04:43:02.533351 35984 net.cpp:165] Memory required for data: 878111232
I0306 04:43:02.533375 35984 layer_factory.hpp:77] Creating layer loss
I0306 04:43:02.533402 35984 net.cpp:106] Creating Layer loss
I0306 04:43:02.533424 35984 net.cpp:454] loss <- fc8_subset
I0306 04:43:02.533447 35984 net.cpp:454] loss <- label
I0306 04:43:02.533476 35984 net.cpp:411] loss -> loss
I0306 04:43:02.533550 35984 layer_factory.hpp:77] Creating layer loss
…
I0306 04:43:02.536224 35984 net.cpp:322] The NetState phase (1) differed from the phase (0) specified by a rule in layer data
I0306 04:43:02.536422 35984 net.cpp:49] Initializing net from parameters: 
name: "FlickrStyleCaffeNet"
state {
  phase: TEST
}
layer {
  name: "data"
  type: "Data"
  top: "data"
  top: "label"
  include {
    phase: TEST
  }
  transform_param {
    mirror: false
    crop_size: 227
    mean_file: "/work/01932/dineshj/CS381V/caffe_install_scripts/caffe/data/ilsvrc12/imagenet_mean.binaryproto"
  }
  data_param {
    source: "/work/04018/wxie/maverick/visual_recognition/data/test-lmdb"
    batch_size: 20
    backend: LMDB
  }
}
layer {
  name: "conv1"
  type: "Convolution"
  bottom: "data"
  top: "conv1"
  param {
    lr_mult: 1
    decay_mult: 1
  }
  param {
    lr_mult: 2
    decay_mult: 0
  }
  convolution_param {
    num_output: 96
    kernel_size: 11
    stride: 4
    weight_filler {
      type: "gaussian"
      std: 0.01
    }
    bias_filler {
      type: "constant"
      value: 0
    }
  }
}
layer {
  name: "relu1"
  type: "ReLU"
  bottom: "conv1"
  top: "conv1"
}
layer {
  name: "pool1"
  type: "Pooling"
  bottom: "conv1"
  top: "pool1"
  pooling_param {
    pool: MAX
    kernel_size: 3
    stride: 2
  }
}
layer {
  name: "norm1"
  type: "LRN"
  bottom: "pool1"
  top: "norm1"
  lrn_param {
    local_size: 5
    alpha: 0.0001
    beta: 0.75
  }
}
layer {
  name: "conv2"
  type: "Convolution"
  bottom: "norm1"
  top: "conv2"
  param {
    lr_mult: 1
    decay_mult: 1
  }
  param {
    lr_mult: 2
    decay_mult: 0
  }
  convolution_param {
    num_output: 256
    pad: 2
    kernel_size: 5
    group: 2
    weight_filler {
      type: "gaussian"
      std: 0.01
    }
    bias_filler {
      type: "constant"
      value: 1
    }
  }
}
layer {
  name: "relu2"
  type: "ReLU"
  bottom: "conv2"
  top: "conv2"
}
layer {
  name: "pool2"
  type: "Pooling"
  bottom: "conv2"
  top: "pool2"
  pooling_param {
    pool: MAX
    kernel_size: 3
    stride: 2
  }
}
layer {
  name: "norm2"
  type: "LRN"
  bottom: "pool2"
  top: "norm2"
  lrn_param {
    local_size: 5
    alpha: 0.0001
    beta: 0.75
  }
}
layer {
  name: "conv3"
  type: "Convolution"
  bottom: "norm2"
  top: "conv3"
  param {
    lr_mult: 1
    decay_mult: 1
  }
  param {
    lr_mult: 2
    decay_mult: 0
  }
  convolution_param {
    num_output: 384
    pad: 1
    kernel_size: 3
    weight_filler {
      type: "gaussian"
      std: 0.01
    }
    bias_filler {
      type: "constant"
      value: 0
    }
  }
}
layer {
  name: "relu3"
  type: "ReLU"
  bottom: "conv3"
  top: "conv3"
}
layer {
  name: "conv4"
  type: "Convolution"
  bottom: "conv3"
  top: "conv4"
  param {
    lr_mult: 1
    decay_mult: 1
  }
  param {
    lr_mult: 2
    decay_mult: 0
  }
  convolution_param {
    num_output: 384
    pad: 1
    kernel_size: 3
    group: 2
    weight_filler {
      type: "gaussian"
      std: 0.01
    }
    bias_filler {
      type: "constant"
      value: 1
    }
  }
}
layer {
  name: "relu4"
  type: "ReLU"
  bottom: "conv4"
  top: "conv4"
}
layer {
  name: "conv5"
  type: "Convolution"
  bottom: "conv4"
  top: "conv5"
  param {
    lr_mult: 1
    decay_mult: 1
  }
  param {
    lr_mult: 2
    decay_mult: 0
  }
  convolution_param {
    num_output: 256
    pad: 1
    kernel_size: 3
    group: 2
    weight_filler {
      type: "gaussian"
      std: 0.01
    }
    bias_filler {
      type: "constant"
      value: 1
    }
  }
}
layer {
  name: "relu5"
  type: "ReLU"
  bottom: "conv5"
  top: "conv5"
}
layer {
  name: "pool5"
  type: "Pooling"
  bottom: "conv5"
  top: "pool5"
  pooling_param {
    pool: MAX
    kernel_size: 3
    stride: 2
  }
}
layer {
  name: "fc6"
  type: "InnerProduct"
  bottom: "pool5"
  top: "fc6"
  param {
    lr_mult: 1
    decay_mult: 1
  }
  param {
    lr_mult: 2
    decay_mult: 0
  }
  inner_product_param {
    num_output: 4096
    weight_filler {
      type: "gaussian"
      std: 0.005
    }
    bias_filler {
      type: "constant"
      value: 1
    }
  }
}
layer {
  name: "relu6"
  type: "ReLU"
  bottom: "fc6"
  top: "fc6"
}
layer {
  name: "drop6"
  type: "Dropout"
  bottom: "fc6"
  top: "fc6"
  dropout_param {
    dropout_ratio: 0.5
  }
}
layer {
  name: "fc7"
  type: "InnerProduct"
  bottom: "fc6"
  top: "fc7"
  param {
    lr_mult: 1
    decay_mult: 1
  }
  param {
    lr_mult: 2
    decay_mult: 0
  }
  inner_product_param {
    num_output: 4096
    weight_filler {
      type: "gaussian"
      std: 0.005
    }
    bias_filler {
      type: "constant"
      value: 1
    }
  }
}
layer {
  name: "relu7"
  type: "ReLU"
  bottom: "fc7"
  top: "fc7"
}
layer {
  name: "drop7"
  type: "Dropout"
  bottom: "fc7"
  top: "fc7"
  dropout_param {
    dropout_ratio: 0.5
  }
}
layer {
  name: "fc8_subset"
  type: "InnerProduct"
  bottom: "fc7"
  top: "fc8_subset"
  param {
    lr_mult: 10
    decay_mult: 1
  }
  param {
    lr_mult: 20
    decay_mult: 0
  }
  inner_product_param {
    num_output: 25
    weight_filler {
      type: "gaussian"
      std: 0.01
    }
    bias_filler {
      type: "constant"
      value: 0
    }
  }
}
layer {
  name: "loss"
  type: "SoftmaxWithLoss"
  bottom: "fc8_subset"
  bottom: "label"
  top: "loss"
}
layer {
  name: "accuracy"
  type: "Accuracy"
  bottom: "fc8_subset"
  bottom: "label"
  top: "accuracy"
  include {
    phase: TEST
  }
}
I0306 04:43:02.536597 35984 layer_factory.hpp:77] Creating layer data
I0306 04:43:02.536763 35984 net.cpp:106] Creating Layer data
I0306 04:43:02.536795 35984 net.cpp:411] data -> data
I0306 04:43:02.536830 35984 net.cpp:411] data -> label
I0306 04:43:02.536861 35984 data_transformer.cpp:25] Loading mean file from: /work/01932/dineshj/CS381V/caffe_install_scripts/caffe/data/ilsvrc12/imagenet_mean.binaryproto
I0306 04:43:02.552018 35988 db_lmdb.cpp:38] Opened lmdb /work/04018/wxie/maverick/visual_recognition/data/test-lmdb
I0306 04:43:02.553933 35984 data_layer.cpp:41] output data size: 20,3,227,227
I0306 04:43:02.577353 35984 net.cpp:150] Setting up data
I0306 04:43:02.577437 35984 net.cpp:157] Top shape: 20 3 227 227 (3091740)
I0306 04:43:02.577481 35984 net.cpp:157] Top shape: 20 (20)
I0306 04:43:02.577508 35984 net.cpp:165] Memory required for data: 12367040
I0306 04:43:02.577535 35984 layer_factory.hpp:77] Creating layer label_data_1_split
I0306 04:43:02.577567 35984 net.cpp:106] Creating Layer label_data_1_split
I0306 04:43:02.577594 35984 net.cpp:454] label_data_1_split <- label
I0306 04:43:02.577618 35984 net.cpp:411] label_data_1_split -> label_data_1_split_0
I0306 04:43:02.577646 35984 net.cpp:411] label_data_1_split -> label_data_1_split_1
I0306 04:43:02.577729 35984 net.cpp:150] Setting up label_data_1_split
I0306 04:43:02.577766 35984 net.cpp:157] Top shape: 20 (20)
I0306 04:43:02.577795 35984 net.cpp:157] Top shape: 20 (20)
I0306 04:43:02.577821 35984 net.cpp:165] Memory required for data: 12367200
I0306 04:43:02.577847 35984 layer_factory.hpp:77] Creating layer conv1
I0306 04:43:02.577883 35984 net.cpp:106] Creating Layer conv1
I0306 04:43:02.577914 35984 net.cpp:454] conv1 <- data
I0306 04:43:02.577944 35984 net.cpp:411] conv1 -> conv1
I0306 04:43:02.579560 35984 net.cpp:150] Setting up conv1
I0306 04:43:02.579602 35984 net.cpp:157] Top shape: 20 96 55 55 (5808000)
I0306 04:43:02.579628 35984 net.cpp:165] Memory required for data: 35599200
I0306 04:43:02.579663 35984 layer_factory.hpp:77] Creating layer relu1
I0306 04:43:02.579694 35984 net.cpp:106] Creating Layer relu1
I0306 04:43:02.579720 35984 net.cpp:454] relu1 <- conv1
I0306 04:43:02.579748 35984 net.cpp:397] relu1 -> conv1 (in-place)
I0306 04:43:02.579779 35984 net.cpp:150] Setting up relu1
I0306 04:43:02.579807 35984 net.cpp:157] Top shape: 20 96 55 55 (5808000)
I0306 04:43:02.579828 35984 net.cpp:165] Memory required for data: 58831200
I0306 04:43:02.579849 35984 layer_factory.hpp:77] Creating layer pool1
I0306 04:43:02.579875 35984 net.cpp:106] Creating Layer pool1
I0306 04:43:02.579908 35984 net.cpp:454] pool1 <- conv1
I0306 04:43:02.579938 35984 net.cpp:411] pool1 -> pool1
I0306 04:43:02.579998 35984 net.cpp:150] Setting up pool1
I0306 04:43:02.580032 35984 net.cpp:157] Top shape: 20 96 27 27 (1399680)
I0306 04:43:02.580059 35984 net.cpp:165] Memory required for data: 64429920
I0306 04:43:02.580085 35984 layer_factory.hpp:77] Creating layer norm1
I0306 04:43:02.580116 35984 net.cpp:106] Creating Layer norm1
I0306 04:43:02.580143 35984 net.cpp:454] norm1 <- pool1
I0306 04:43:02.580173 35984 net.cpp:411] norm1 -> norm1
I0306 04:43:02.580229 35984 net.cpp:150] Setting up norm1
I0306 04:43:02.580261 35984 net.cpp:157] Top shape: 20 96 27 27 (1399680)
I0306 04:43:02.580286 35984 net.cpp:165] Memory required for data: 70028640
I0306 04:43:02.580313 35984 layer_factory.hpp:77] Creating layer conv2
I0306 04:43:02.580343 35984 net.cpp:106] Creating Layer conv2
I0306 04:43:02.580369 35984 net.cpp:454] conv2 <- norm1
I0306 04:43:02.580411 35984 net.cpp:411] conv2 -> conv2
I0306 04:43:02.592736 35984 net.cpp:150] Setting up conv2
I0306 04:43:02.592782 35984 net.cpp:157] Top shape: 20 256 27 27 (3732480)
I0306 04:43:02.592805 35984 net.cpp:165] Memory required for data: 84958560
I0306 04:43:02.592833 35984 layer_factory.hpp:77] Creating layer relu2
I0306 04:43:02.592861 35984 net.cpp:106] Creating Layer relu2
I0306 04:43:02.592888 35984 net.cpp:454] relu2 <- conv2
I0306 04:43:02.592921 35984 net.cpp:397] relu2 -> conv2 (in-place)
I0306 04:43:02.592950 35984 net.cpp:150] Setting up relu2
I0306 04:43:02.592978 35984 net.cpp:157] Top shape: 20 256 27 27 (3732480)
I0306 04:43:02.593003 35984 net.cpp:165] Memory required for data: 99888480
I0306 04:43:02.593026 35984 layer_factory.hpp:77] Creating layer pool2
I0306 04:43:02.593055 35984 net.cpp:106] Creating Layer pool2
I0306 04:43:02.593081 35984 net.cpp:454] pool2 <- conv2
I0306 04:43:02.593108 35984 net.cpp:411] pool2 -> pool2
I0306 04:43:02.593173 35984 net.cpp:150] Setting up pool2
I0306 04:43:02.593205 35984 net.cpp:157] Top shape: 20 256 13 13 (865280)
I0306 04:43:02.593230 35984 net.cpp:165] Memory required for data: 103349600
I0306 04:43:02.593255 35984 layer_factory.hpp:77] Creating layer norm2
I0306 04:43:02.593286 35984 net.cpp:106] Creating Layer norm2
I0306 04:43:02.593312 35984 net.cpp:454] norm2 <- pool2
I0306 04:43:02.593338 35984 net.cpp:411] norm2 -> norm2
I0306 04:43:02.593390 35984 net.cpp:150] Setting up norm2
I0306 04:43:02.593421 35984 net.cpp:157] Top shape: 20 256 13 13 (865280)
I0306 04:43:02.593454 35984 net.cpp:165] Memory required for data: 106810720
I0306 04:43:02.593477 35984 layer_factory.hpp:77] Creating layer conv3
I0306 04:43:02.593519 35984 net.cpp:106] Creating Layer conv3
I0306 04:43:02.593544 35984 net.cpp:454] conv3 <- norm2
I0306 04:43:02.593586 35984 net.cpp:411] conv3 -> conv3
I0306 04:43:02.628057 35984 net.cpp:150] Setting up conv3
I0306 04:43:02.628141 35984 net.cpp:157] Top shape: 20 384 13 13 (1297920)
I0306 04:43:02.628168 35984 net.cpp:165] Memory required for data: 112002400
I0306 04:43:02.628209 35984 layer_factory.hpp:77] Creating layer relu3
I0306 04:43:02.628247 35984 net.cpp:106] Creating Layer relu3
I0306 04:43:02.628275 35984 net.cpp:454] relu3 <- conv3
I0306 04:43:02.628306 35984 net.cpp:397] relu3 -> conv3 (in-place)
I0306 04:43:02.628341 35984 net.cpp:150] Setting up relu3
I0306 04:43:02.628371 35984 net.cpp:157] Top shape: 20 384 13 13 (1297920)
I0306 04:43:02.628397 35984 net.cpp:165] Memory required for data: 117194080
I0306 04:43:02.628424 35984 layer_factory.hpp:77] Creating layer conv4
I0306 04:43:02.628464 35984 net.cpp:106] Creating Layer conv4
I0306 04:43:02.628494 35984 net.cpp:454] conv4 <- conv3
I0306 04:43:02.628527 35984 net.cpp:411] conv4 -> conv4
I0306 04:43:02.654495 35984 net.cpp:150] Setting up conv4
I0306 04:43:02.654537 35984 net.cpp:157] Top shape: 20 384 13 13 (1297920)
I0306 04:43:02.654562 35984 net.cpp:165] Memory required for data: 122385760
I0306 04:43:02.654592 35984 layer_factory.hpp:77] Creating layer relu4
I0306 04:43:02.654620 35984 net.cpp:106] Creating Layer relu4
I0306 04:43:02.654646 35984 net.cpp:454] relu4 <- conv4
I0306 04:43:02.654674 35984 net.cpp:397] relu4 -> conv4 (in-place)
I0306 04:43:02.654702 35984 net.cpp:150] Setting up relu4
I0306 04:43:02.654729 35984 net.cpp:157] Top shape: 20 384 13 13 (1297920)
I0306 04:43:02.654754 35984 net.cpp:165] Memory required for data: 127577440
I0306 04:43:02.654778 35984 layer_factory.hpp:77] Creating layer conv5
I0306 04:43:02.654811 35984 net.cpp:106] Creating Layer conv5
I0306 04:43:02.654839 35984 net.cpp:454] conv5 <- conv4
I0306 04:43:02.654870 35984 net.cpp:411] conv5 -> conv5
I0306 04:43:02.672476 35984 net.cpp:150] Setting up conv5
I0306 04:43:02.672519 35984 net.cpp:157] Top shape: 20 256 13 13 (865280)
I0306 04:43:02.672547 35984 net.cpp:165] Memory required for data: 131038560
I0306 04:43:02.672580 35984 layer_factory.hpp:77] Creating layer relu5
I0306 04:43:02.672608 35984 net.cpp:106] Creating Layer relu5
I0306 04:43:02.672657 35984 net.cpp:454] relu5 <- conv5
I0306 04:43:02.672734 35984 net.cpp:397] relu5 -> conv5 (in-place)
I0306 04:43:02.672762 35984 net.cpp:150] Setting up relu5
I0306 04:43:02.672787 35984 net.cpp:157] Top shape: 20 256 13 13 (865280)
I0306 04:43:02.672818 35984 net.cpp:165] Memory required for data: 134499680
I0306 04:43:02.672840 35984 layer_factory.hpp:77] Creating layer pool5
I0306 04:43:02.672883 35984 net.cpp:106] Creating Layer pool5
I0306 04:43:02.672911 35984 net.cpp:454] pool5 <- conv5
I0306 04:43:02.672938 35984 net.cpp:411] pool5 -> pool5
I0306 04:43:02.673002 35984 net.cpp:150] Setting up pool5
I0306 04:43:02.673044 35984 net.cpp:157] Top shape: 20 256 6 6 (184320)
I0306 04:43:02.673066 35984 net.cpp:165] Memory required for data: 135236960
I0306 04:43:02.673087 35984 layer_factory.hpp:77] Creating layer fc6
I0306 04:43:02.673126 35984 net.cpp:106] Creating Layer fc6
I0306 04:43:02.673151 35984 net.cpp:454] fc6 <- pool5
I0306 04:43:02.673174 35984 net.cpp:411] fc6 -> fc6
I0306 04:43:04.068110 35984 net.cpp:150] Setting up fc6
I0306 04:43:04.068269 35984 net.cpp:157] Top shape: 20 4096 (81920)
I0306 04:43:04.068292 35984 net.cpp:165] Memory required for data: 135564640
I0306 04:43:04.068325 35984 layer_factory.hpp:77] Creating layer relu6
I0306 04:43:04.068362 35984 net.cpp:106] Creating Layer relu6
I0306 04:43:04.068387 35984 net.cpp:454] relu6 <- fc6
I0306 04:43:04.068416 35984 net.cpp:397] relu6 -> fc6 (in-place)
I0306 04:43:04.068452 35984 net.cpp:150] Setting up relu6
I0306 04:43:04.068476 35984 net.cpp:157] Top shape: 20 4096 (81920)
I0306 04:43:04.068496 35984 net.cpp:165] Memory required for data: 135892320
I0306 04:43:04.068517 35984 layer_factory.hpp:77] Creating layer drop6
I0306 04:43:04.068545 35984 net.cpp:106] Creating Layer drop6
I0306 04:43:04.068567 35984 net.cpp:454] drop6 <- fc6
I0306 04:43:04.068593 35984 net.cpp:397] drop6 -> fc6 (in-place)
I0306 04:43:04.068644 35984 net.cpp:150] Setting up drop6
I0306 04:43:04.068671 35984 net.cpp:157] Top shape: 20 4096 (81920)
I0306 04:43:04.068692 35984 net.cpp:165] Memory required for data: 136220000
I0306 04:43:04.068713 35984 layer_factory.hpp:77] Creating layer fc7
I0306 04:43:04.068745 35984 net.cpp:106] Creating Layer fc7
I0306 04:43:04.068768 35984 net.cpp:454] fc7 <- fc6
I0306 04:43:04.068794 35984 net.cpp:411] fc7 -> fc7
I0306 04:43:04.681072 35984 net.cpp:150] Setting up fc7
I0306 04:43:04.681226 35984 net.cpp:157] Top shape: 20 4096 (81920)
I0306 04:43:04.681249 35984 net.cpp:165] Memory required for data: 136547680
I0306 04:43:04.681282 35984 layer_factory.hpp:77] Creating layer relu7
I0306 04:43:04.681315 35984 net.cpp:106] Creating Layer relu7
I0306 04:43:04.681340 35984 net.cpp:454] relu7 <- fc7
I0306 04:43:04.681368 35984 net.cpp:397] relu7 -> fc7 (in-place)
I0306 04:43:04.681404 35984 net.cpp:150] Setting up relu7
I0306 04:43:04.681428 35984 net.cpp:157] Top shape: 20 4096 (81920)
I0306 04:43:04.681449 35984 net.cpp:165] Memory required for data: 136875360
I0306 04:43:04.681470 35984 layer_factory.hpp:77] Creating layer drop7
I0306 04:43:04.681499 35984 net.cpp:106] Creating Layer drop7
I0306 04:43:04.681522 35984 net.cpp:454] drop7 <- fc7
I0306 04:43:04.681546 35984 net.cpp:397] drop7 -> fc7 (in-place)
I0306 04:43:04.681599 35984 net.cpp:150] Setting up drop7
I0306 04:43:04.681628 35984 net.cpp:157] Top shape: 20 4096 (81920)
I0306 04:43:04.681649 35984 net.cpp:165] Memory required for data: 137203040
I0306 04:43:04.681670 35984 layer_factory.hpp:77] Creating layer fc8_subset
I0306 04:43:04.681700 35984 net.cpp:106] Creating Layer fc8_subset
I0306 04:43:04.681722 35984 net.cpp:454] fc8_subset <- fc7
I0306 04:43:04.681748 35984 net.cpp:411] fc8_subset -> fc8_subset
I0306 04:43:04.685448 35984 net.cpp:150] Setting up fc8_subset
I0306 04:43:04.685482 35984 net.cpp:157] Top shape: 20 25 (500)
I0306 04:43:04.685503 35984 net.cpp:165] Memory required for data: 137205040
I0306 04:43:04.685528 35984 layer_factory.hpp:77] Creating layer fc8_subset_fc8_subset_0_split
I0306 04:43:04.685554 35984 net.cpp:106] Creating Layer fc8_subset_fc8_subset_0_split
I0306 04:43:04.685659 35984 net.cpp:454] fc8_subset_fc8_subset_0_split <- fc8_subset
I0306 04:43:04.685685 35984 net.cpp:411] fc8_subset_fc8_subset_0_split -> fc8_subset_fc8_subset_0_split_0
I0306 04:43:04.685715 35984 net.cpp:411] fc8_subset_fc8_subset_0_split -> fc8_subset_fc8_subset_0_split_1
I0306 04:43:04.685770 35984 net.cpp:150] Setting up fc8_subset_fc8_subset_0_split
I0306 04:43:04.685798 35984 net.cpp:157] Top shape: 20 25 (500)
I0306 04:43:04.685822 35984 net.cpp:157] Top shape: 20 25 (500)
I0306 04:43:04.685849 35984 net.cpp:165] Memory required for data: 137209040
I0306 04:43:04.685870 35984 layer_factory.hpp:77] Creating layer loss
I0306 04:43:04.685895 35984 net.cpp:106] Creating Layer loss
I0306 04:43:04.685924 35984 net.cpp:454] loss <- fc8_subset_fc8_subset_0_split_0
I0306 04:43:04.685947 35984 net.cpp:454] loss <- label_data_1_split_0
I0306 04:43:04.685971 35984 net.cpp:411] loss -> loss
…
